<?xml version="1.0" ?>
<net name="deepmedic-4-ov.model.ckpt" version="10">
	<layers>
		<layer id="0" name="2525252912808" type="Const" version="opset1">
			<data element_type="f32" offset="0" shape="1,1,1,1,1" size="4"/>
			<output>
				<port id="0" precision="FP32">
					<dim>1</dim>
					<dim>1</dim>
					<dim>1</dim>
					<dim>1</dim>
					<dim>1</dim>
				</port>
			</output>
		</layer>
		<layer id="1" name="2526253012853" type="Const" version="opset1">
			<data element_type="f32" offset="4" shape="1,1,1,1,1" size="4"/>
			<output>
				<port id="0" precision="FP32">
					<dim>1</dim>
					<dim>1</dim>
					<dim>1</dim>
					<dim>1</dim>
					<dim>1</dim>
				</port>
			</output>
		</layer>
		<layer id="2" name="2527253113396" type="Const" version="opset1">
			<data element_type="f32" offset="0" shape="1,1,1,1,1" size="4"/>
			<output>
				<port id="0" precision="FP32">
					<dim>1</dim>
					<dim>1</dim>
					<dim>1</dim>
					<dim>1</dim>
					<dim>1</dim>
				</port>
			</output>
		</layer>
		<layer id="3" name="2528253213435" type="Const" version="opset1">
			<data element_type="f32" offset="4" shape="1,1,1,1,1" size="4"/>
			<output>
				<port id="0" precision="FP32">
					<dim>1</dim>
					<dim>1</dim>
					<dim>1</dim>
					<dim>1</dim>
					<dim>1</dim>
				</port>
			</output>
		</layer>
		<layer id="4" name="data_add_112121121434177103712664" type="Const" version="opset1">
			<data element_type="f32" offset="8" shape="1,2,1,1,1" size="8"/>
			<output>
				<port id="0" precision="FP32">
					<dim>1</dim>
					<dim>2</dim>
					<dim>1</dim>
					<dim>1</dim>
					<dim>1</dim>
				</port>
			</output>
		</layer>
		<layer id="5" name="net/add_180/Fused_Add_/fq_input_1" type="FakeQuantize" version="opset1">
			<data auto_broadcast="numpy" levels="255"/>
			<input>
				<port id="0">
					<dim>1</dim>
					<dim>2</dim>
					<dim>1</dim>
					<dim>1</dim>
					<dim>1</dim>
				</port>
				<port id="1">
					<dim>1</dim>
					<dim>1</dim>
					<dim>1</dim>
					<dim>1</dim>
					<dim>1</dim>
				</port>
				<port id="2">
					<dim>1</dim>
					<dim>1</dim>
					<dim>1</dim>
					<dim>1</dim>
					<dim>1</dim>
				</port>
				<port id="3">
					<dim>1</dim>
					<dim>1</dim>
					<dim>1</dim>
					<dim>1</dim>
					<dim>1</dim>
				</port>
				<port id="4">
					<dim>1</dim>
					<dim>1</dim>
					<dim>1</dim>
					<dim>1</dim>
					<dim>1</dim>
				</port>
			</input>
			<output>
				<port id="5" precision="FP32">
					<dim>1</dim>
					<dim>2</dim>
					<dim>1</dim>
					<dim>1</dim>
					<dim>1</dim>
				</port>
			</output>
		</layer>
		<layer id="6" name="758234330103513171" type="Const" version="opset1">
			<data element_type="i64" offset="16" shape="5" size="40"/>
			<output>
				<port id="0" precision="I64">
					<dim>5</dim>
				</port>
			</output>
		</layer>
		<layer id="7" name="4748475212814" type="Const" version="opset1">
			<data element_type="f32" offset="56" shape="" size="4"/>
			<output>
				<port id="0" precision="FP32"/>
			</output>
		</layer>
		<layer id="8" name="4749475311131" type="Const" version="opset1">
			<data element_type="f32" offset="60" shape="" size="4"/>
			<output>
				<port id="0" precision="FP32"/>
			</output>
		</layer>
		<layer id="9" name="4750475413312" type="Const" version="opset1">
			<data element_type="f32" offset="56" shape="" size="4"/>
			<output>
				<port id="0" precision="FP32"/>
			</output>
		</layer>
		<layer id="10" name="4751475512736" type="Const" version="opset1">
			<data element_type="f32" offset="60" shape="" size="4"/>
			<output>
				<port id="0" precision="FP32"/>
			</output>
		</layer>
		<layer id="11" name="1368137011506" type="Const" version="opset1">
			<data element_type="f32" offset="64" shape="1,2,1,1,1" size="8"/>
			<output>
				<port id="0" precision="FP32">
					<dim>1</dim>
					<dim>2</dim>
					<dim>1</dim>
					<dim>1</dim>
					<dim>1</dim>
				</port>
			</output>
		</layer>
		<layer id="12" name="3155315912472" type="Const" version="opset1">
			<data element_type="f32" offset="72" shape="2,1,1,1,1" size="8"/>
			<output>
				<port id="0" precision="FP32">
					<dim>2</dim>
					<dim>1</dim>
					<dim>1</dim>
					<dim>1</dim>
					<dim>1</dim>
				</port>
			</output>
		</layer>
		<layer id="13" name="3156316010723" type="Const" version="opset1">
			<data element_type="f32" offset="80" shape="2,1,1,1,1" size="8"/>
			<output>
				<port id="0" precision="FP32">
					<dim>2</dim>
					<dim>1</dim>
					<dim>1</dim>
					<dim>1</dim>
					<dim>1</dim>
				</port>
			</output>
		</layer>
		<layer id="14" name="3157316112454" type="Const" version="opset1">
			<data element_type="f32" offset="72" shape="2,1,1,1,1" size="8"/>
			<output>
				<port id="0" precision="FP32">
					<dim>2</dim>
					<dim>1</dim>
					<dim>1</dim>
					<dim>1</dim>
					<dim>1</dim>
				</port>
			</output>
		</layer>
		<layer id="15" name="3158316212328" type="Const" version="opset1">
			<data element_type="f32" offset="80" shape="2,1,1,1,1" size="8"/>
			<output>
				<port id="0" precision="FP32">
					<dim>2</dim>
					<dim>1</dim>
					<dim>1</dim>
					<dim>1</dim>
					<dim>1</dim>
				</port>
			</output>
		</layer>
		<layer id="16" name="net/transpose_126103311008" type="Const" version="opset1">
			<data element_type="f32" offset="88" shape="2,150,1,1,1" size="1200"/>
			<output>
				<port id="0" names="net/transpose_126:0" precision="FP32">
					<dim>2</dim>
					<dim>150</dim>
					<dim>1</dim>
					<dim>1</dim>
					<dim>1</dim>
				</port>
			</output>
		</layer>
		<layer id="17" name="net/Conv3D_56/fq_weights_1" type="FakeQuantize" version="opset1">
			<data auto_broadcast="numpy" levels="255"/>
			<input>
				<port id="0">
					<dim>2</dim>
					<dim>150</dim>
					<dim>1</dim>
					<dim>1</dim>
					<dim>1</dim>
				</port>
				<port id="1">
					<dim>2</dim>
					<dim>1</dim>
					<dim>1</dim>
					<dim>1</dim>
					<dim>1</dim>
				</port>
				<port id="2">
					<dim>2</dim>
					<dim>1</dim>
					<dim>1</dim>
					<dim>1</dim>
					<dim>1</dim>
				</port>
				<port id="3">
					<dim>2</dim>
					<dim>1</dim>
					<dim>1</dim>
					<dim>1</dim>
					<dim>1</dim>
				</port>
				<port id="4">
					<dim>2</dim>
					<dim>1</dim>
					<dim>1</dim>
					<dim>1</dim>
					<dim>1</dim>
				</port>
			</input>
			<output>
				<port id="5" precision="FP32">
					<dim>2</dim>
					<dim>150</dim>
					<dim>1</dim>
					<dim>1</dim>
					<dim>1</dim>
				</port>
			</output>
		</layer>
		<layer id="18" name="net/transpose_131/perm103111230" type="Const" version="opset1">
			<data element_type="i64" offset="16" shape="5" size="40"/>
			<output>
				<port id="0" names="net/transpose_131/perm:0" precision="I64">
					<dim>5</dim>
				</port>
			</output>
		</layer>
		<layer id="19" name="4638464211902" type="Const" version="opset1">
			<data element_type="f32" offset="1288" shape="" size="4"/>
			<output>
				<port id="0" precision="FP32"/>
			</output>
		</layer>
		<layer id="20" name="4639464313297" type="Const" version="opset1">
			<data element_type="f32" offset="1292" shape="" size="4"/>
			<output>
				<port id="0" precision="FP32"/>
			</output>
		</layer>
		<layer id="21" name="4640464413342" type="Const" version="opset1">
			<data element_type="f32" offset="1288" shape="" size="4"/>
			<output>
				<port id="0" precision="FP32"/>
			</output>
		</layer>
		<layer id="22" name="4641464510774" type="Const" version="opset1">
			<data element_type="f32" offset="1292" shape="" size="4"/>
			<output>
				<port id="0" precision="FP32"/>
			</output>
		</layer>
		<layer id="23" name="2445244913345" type="Const" version="opset1">
			<data element_type="f32" offset="1296" shape="" size="4"/>
			<output>
				<port id="0" precision="FP32"/>
			</output>
		</layer>
		<layer id="24" name="2446245012166" type="Const" version="opset1">
			<data element_type="f32" offset="1300" shape="" size="4"/>
			<output>
				<port id="0" precision="FP32"/>
			</output>
		</layer>
		<layer id="25" name="2447245112832" type="Const" version="opset1">
			<data element_type="f32" offset="1296" shape="" size="4"/>
			<output>
				<port id="0" precision="FP32"/>
			</output>
		</layer>
		<layer id="26" name="2448245210813" type="Const" version="opset1">
			<data element_type="f32" offset="1300" shape="" size="4"/>
			<output>
				<port id="0" precision="FP32"/>
			</output>
		</layer>
		<layer id="27" name="2025202911572" type="Const" version="opset1">
			<data element_type="f32" offset="1304" shape="" size="4"/>
			<output>
				<port id="0" precision="FP32"/>
			</output>
		</layer>
		<layer id="28" name="2026203012247" type="Const" version="opset1">
			<data element_type="f32" offset="1308" shape="" size="4"/>
			<output>
				<port id="0" precision="FP32"/>
			</output>
		</layer>
		<layer id="29" name="2027203113189" type="Const" version="opset1">
			<data element_type="f32" offset="1304" shape="" size="4"/>
			<output>
				<port id="0" precision="FP32"/>
			</output>
		</layer>
		<layer id="30" name="2028203212859" type="Const" version="opset1">
			<data element_type="f32" offset="1308" shape="" size="4"/>
			<output>
				<port id="0" precision="FP32"/>
			</output>
		</layer>
		<layer id="31" name="3525352912835" type="Const" version="opset1">
			<data element_type="f32" offset="1312" shape="" size="4"/>
			<output>
				<port id="0" precision="FP32"/>
			</output>
		</layer>
		<layer id="32" name="3526353012073" type="Const" version="opset1">
			<data element_type="f32" offset="1316" shape="" size="4"/>
			<output>
				<port id="0" precision="FP32"/>
			</output>
		</layer>
		<layer id="33" name="3527353110846" type="Const" version="opset1">
			<data element_type="f32" offset="1312" shape="" size="4"/>
			<output>
				<port id="0" precision="FP32"/>
			</output>
		</layer>
		<layer id="34" name="3528353212844" type="Const" version="opset1">
			<data element_type="f32" offset="1316" shape="" size="4"/>
			<output>
				<port id="0" precision="FP32"/>
			</output>
		</layer>
		<layer id="35" name="2115211912646" type="Const" version="opset1">
			<data element_type="f32" offset="1320" shape="" size="4"/>
			<output>
				<port id="0" precision="FP32"/>
			</output>
		</layer>
		<layer id="36" name="2116212011566" type="Const" version="opset1">
			<data element_type="f32" offset="1324" shape="" size="4"/>
			<output>
				<port id="0" precision="FP32"/>
			</output>
		</layer>
		<layer id="37" name="2117212112133" type="Const" version="opset1">
			<data element_type="f32" offset="1320" shape="" size="4"/>
			<output>
				<port id="0" precision="FP32"/>
			</output>
		</layer>
		<layer id="38" name="2118212211212" type="Const" version="opset1">
			<data element_type="f32" offset="1324" shape="" size="4"/>
			<output>
				<port id="0" precision="FP32"/>
			</output>
		</layer>
		<layer id="39" name="data_mul_112001120434057101910822" type="Const" version="opset1">
			<data element_type="f32" offset="1328" shape="1,150,1,1,1" size="600"/>
			<output>
				<port id="0" precision="FP32">
					<dim>1</dim>
					<dim>150</dim>
					<dim>1</dim>
					<dim>1</dim>
					<dim>1</dim>
				</port>
			</output>
		</layer>
		<layer id="40" name="757434006101712724" type="Const" version="opset1">
			<data element_type="i64" offset="16" shape="5" size="40"/>
			<output>
				<port id="0" precision="I64">
					<dim>5</dim>
				</port>
			</output>
		</layer>
		<layer id="41" name="5118512211941" type="Const" version="opset1">
			<data element_type="f32" offset="1928" shape="" size="4"/>
			<output>
				<port id="0" precision="FP32"/>
			</output>
		</layer>
		<layer id="42" name="5119512311956" type="Const" version="opset1">
			<data element_type="f32" offset="1932" shape="" size="4"/>
			<output>
				<port id="0" precision="FP32"/>
			</output>
		</layer>
		<layer id="43" name="5120512412601" type="Const" version="opset1">
			<data element_type="f32" offset="1928" shape="" size="4"/>
			<output>
				<port id="0" precision="FP32"/>
			</output>
		</layer>
		<layer id="44" name="5121512511548" type="Const" version="opset1">
			<data element_type="f32" offset="1932" shape="" size="4"/>
			<output>
				<port id="0" precision="FP32"/>
			</output>
		</layer>
		<layer id="45" name="1364136612046" type="Const" version="opset1">
			<data element_type="f32" offset="1936" shape="1,150,1,1,1" size="600"/>
			<output>
				<port id="0" precision="FP32">
					<dim>1</dim>
					<dim>150</dim>
					<dim>1</dim>
					<dim>1</dim>
					<dim>1</dim>
				</port>
			</output>
		</layer>
		<layer id="46" name="2605260911944" type="Const" version="opset1">
			<data element_type="f32" offset="2536" shape="150,1,1,1,1" size="600"/>
			<output>
				<port id="0" precision="FP32">
					<dim>150</dim>
					<dim>1</dim>
					<dim>1</dim>
					<dim>1</dim>
					<dim>1</dim>
				</port>
			</output>
		</layer>
		<layer id="47" name="2606261011932" type="Const" version="opset1">
			<data element_type="f32" offset="3136" shape="150,1,1,1,1" size="600"/>
			<output>
				<port id="0" precision="FP32">
					<dim>150</dim>
					<dim>1</dim>
					<dim>1</dim>
					<dim>1</dim>
					<dim>1</dim>
				</port>
			</output>
		</layer>
		<layer id="48" name="2607261111038" type="Const" version="opset1">
			<data element_type="f32" offset="2536" shape="150,1,1,1,1" size="600"/>
			<output>
				<port id="0" precision="FP32">
					<dim>150</dim>
					<dim>1</dim>
					<dim>1</dim>
					<dim>1</dim>
					<dim>1</dim>
				</port>
			</output>
		</layer>
		<layer id="49" name="2608261212085" type="Const" version="opset1">
			<data element_type="f32" offset="3136" shape="150,1,1,1,1" size="600"/>
			<output>
				<port id="0" precision="FP32">
					<dim>150</dim>
					<dim>1</dim>
					<dim>1</dim>
					<dim>1</dim>
					<dim>1</dim>
				</port>
			</output>
		</layer>
		<layer id="50" name="net/transpose_119101513135" type="Const" version="opset1">
			<data element_type="f32" offset="3736" shape="150,150,1,1,1" size="90000"/>
			<output>
				<port id="0" names="net/transpose_119:0" precision="FP32">
					<dim>150</dim>
					<dim>150</dim>
					<dim>1</dim>
					<dim>1</dim>
					<dim>1</dim>
				</port>
			</output>
		</layer>
		<layer id="51" name="net/Conv3D_53/fq_weights_1" type="FakeQuantize" version="opset1">
			<data auto_broadcast="numpy" levels="255"/>
			<input>
				<port id="0">
					<dim>150</dim>
					<dim>150</dim>
					<dim>1</dim>
					<dim>1</dim>
					<dim>1</dim>
				</port>
				<port id="1">
					<dim>150</dim>
					<dim>1</dim>
					<dim>1</dim>
					<dim>1</dim>
					<dim>1</dim>
				</port>
				<port id="2">
					<dim>150</dim>
					<dim>1</dim>
					<dim>1</dim>
					<dim>1</dim>
					<dim>1</dim>
				</port>
				<port id="3">
					<dim>150</dim>
					<dim>1</dim>
					<dim>1</dim>
					<dim>1</dim>
					<dim>1</dim>
				</port>
				<port id="4">
					<dim>150</dim>
					<dim>1</dim>
					<dim>1</dim>
					<dim>1</dim>
					<dim>1</dim>
				</port>
			</input>
			<output>
				<port id="5" precision="FP32">
					<dim>150</dim>
					<dim>150</dim>
					<dim>1</dim>
					<dim>1</dim>
					<dim>1</dim>
				</port>
			</output>
		</layer>
		<layer id="52" name="net/transpose_124/perm101312061" type="Const" version="opset1">
			<data element_type="i64" offset="16" shape="5" size="40"/>
			<output>
				<port id="0" names="net/transpose_124/perm:0" precision="I64">
					<dim>5</dim>
				</port>
			</output>
		</layer>
		<layer id="53" name="4628463212451" type="Const" version="opset1">
			<data element_type="f32" offset="93736" shape="" size="4"/>
			<output>
				<port id="0" precision="FP32"/>
			</output>
		</layer>
		<layer id="54" name="4629463312880" type="Const" version="opset1">
			<data element_type="f32" offset="93740" shape="" size="4"/>
			<output>
				<port id="0" precision="FP32"/>
			</output>
		</layer>
		<layer id="55" name="4630463413405" type="Const" version="opset1">
			<data element_type="f32" offset="93736" shape="" size="4"/>
			<output>
				<port id="0" precision="FP32"/>
			</output>
		</layer>
		<layer id="56" name="4631463512334" type="Const" version="opset1">
			<data element_type="f32" offset="93740" shape="" size="4"/>
			<output>
				<port id="0" precision="FP32"/>
			</output>
		</layer>
		<layer id="57" name="3165316912052" type="Const" version="opset1">
			<data element_type="f32" offset="93744" shape="" size="4"/>
			<output>
				<port id="0" precision="FP32"/>
			</output>
		</layer>
		<layer id="58" name="3166317012460" type="Const" version="opset1">
			<data element_type="f32" offset="93748" shape="" size="4"/>
			<output>
				<port id="0" precision="FP32"/>
			</output>
		</layer>
		<layer id="59" name="3167317112796" type="Const" version="opset1">
			<data element_type="f32" offset="93744" shape="" size="4"/>
			<output>
				<port id="0" precision="FP32"/>
			</output>
		</layer>
		<layer id="60" name="3168317211899" type="Const" version="opset1">
			<data element_type="f32" offset="93748" shape="" size="4"/>
			<output>
				<port id="0" precision="FP32"/>
			</output>
		</layer>
		<layer id="61" name="2475247912391" type="Const" version="opset1">
			<data element_type="f32" offset="93752" shape="" size="4"/>
			<output>
				<port id="0" precision="FP32"/>
			</output>
		</layer>
		<layer id="62" name="2476248013255" type="Const" version="opset1">
			<data element_type="f32" offset="93756" shape="" size="4"/>
			<output>
				<port id="0" precision="FP32"/>
			</output>
		</layer>
		<layer id="63" name="2477248110837" type="Const" version="opset1">
			<data element_type="f32" offset="93752" shape="" size="4"/>
			<output>
				<port id="0" precision="FP32"/>
			</output>
		</layer>
		<layer id="64" name="2478248211128" type="Const" version="opset1">
			<data element_type="f32" offset="93756" shape="" size="4"/>
			<output>
				<port id="0" precision="FP32"/>
			</output>
		</layer>
		<layer id="65" name="3415341911407" type="Const" version="opset1">
			<data element_type="f32" offset="93760" shape="" size="4"/>
			<output>
				<port id="0" precision="FP32"/>
			</output>
		</layer>
		<layer id="66" name="3416342012805" type="Const" version="opset1">
			<data element_type="f32" offset="93764" shape="" size="4"/>
			<output>
				<port id="0" precision="FP32"/>
			</output>
		</layer>
		<layer id="67" name="3417342113132" type="Const" version="opset1">
			<data element_type="f32" offset="93760" shape="" size="4"/>
			<output>
				<port id="0" precision="FP32"/>
			</output>
		</layer>
		<layer id="68" name="3418342212985" type="Const" version="opset1">
			<data element_type="f32" offset="93764" shape="" size="4"/>
			<output>
				<port id="0" precision="FP32"/>
			</output>
		</layer>
		<layer id="69" name="3035303911878" type="Const" version="opset1">
			<data element_type="f32" offset="93768" shape="" size="4"/>
			<output>
				<port id="0" precision="FP32"/>
			</output>
		</layer>
		<layer id="70" name="3036304012979" type="Const" version="opset1">
			<data element_type="f32" offset="93772" shape="" size="4"/>
			<output>
				<port id="0" precision="FP32"/>
			</output>
		</layer>
		<layer id="71" name="3037304111740" type="Const" version="opset1">
			<data element_type="f32" offset="93768" shape="" size="4"/>
			<output>
				<port id="0" precision="FP32"/>
			</output>
		</layer>
		<layer id="72" name="3038304213150" type="Const" version="opset1">
			<data element_type="f32" offset="93772" shape="" size="4"/>
			<output>
				<port id="0" precision="FP32"/>
			</output>
		</layer>
		<layer id="73" name="data_mul_111881119234273100113441" type="Const" version="opset1">
			<data element_type="f32" offset="93776" shape="1,150,1,1,1" size="600"/>
			<output>
				<port id="0" precision="FP32">
					<dim>1</dim>
					<dim>150</dim>
					<dim>1</dim>
					<dim>1</dim>
					<dim>1</dim>
				</port>
			</output>
		</layer>
		<layer id="74" name="75663395899913225" type="Const" version="opset1">
			<data element_type="i64" offset="16" shape="5" size="40"/>
			<output>
				<port id="0" precision="I64">
					<dim>5</dim>
				</port>
			</output>
		</layer>
		<layer id="75" name="5098510211848" type="Const" version="opset1">
			<data element_type="f32" offset="94376" shape="" size="4"/>
			<output>
				<port id="0" precision="FP32"/>
			</output>
		</layer>
		<layer id="76" name="5099510312868" type="Const" version="opset1">
			<data element_type="f32" offset="94380" shape="" size="4"/>
			<output>
				<port id="0" precision="FP32"/>
			</output>
		</layer>
		<layer id="77" name="5100510411500" type="Const" version="opset1">
			<data element_type="f32" offset="94376" shape="" size="4"/>
			<output>
				<port id="0" precision="FP32"/>
			</output>
		</layer>
		<layer id="78" name="5101510511317" type="Const" version="opset1">
			<data element_type="f32" offset="94380" shape="" size="4"/>
			<output>
				<port id="0" precision="FP32"/>
			</output>
		</layer>
		<layer id="79" name="1360136211377" type="Const" version="opset1">
			<data element_type="f32" offset="1936" shape="1,150,1,1,1" size="600"/>
			<output>
				<port id="0" precision="FP32">
					<dim>1</dim>
					<dim>150</dim>
					<dim>1</dim>
					<dim>1</dim>
					<dim>1</dim>
				</port>
			</output>
		</layer>
		<layer id="80" name="2275227911578" type="Const" version="opset1">
			<data element_type="f32" offset="94384" shape="150,1,1,1,1" size="600"/>
			<output>
				<port id="0" precision="FP32">
					<dim>150</dim>
					<dim>1</dim>
					<dim>1</dim>
					<dim>1</dim>
					<dim>1</dim>
				</port>
			</output>
		</layer>
		<layer id="81" name="2276228012871" type="Const" version="opset1">
			<data element_type="f32" offset="94984" shape="150,1,1,1,1" size="600"/>
			<output>
				<port id="0" precision="FP32">
					<dim>150</dim>
					<dim>1</dim>
					<dim>1</dim>
					<dim>1</dim>
					<dim>1</dim>
				</port>
			</output>
		</layer>
		<layer id="82" name="2277228110714" type="Const" version="opset1">
			<data element_type="f32" offset="94384" shape="150,1,1,1,1" size="600"/>
			<output>
				<port id="0" precision="FP32">
					<dim>150</dim>
					<dim>1</dim>
					<dim>1</dim>
					<dim>1</dim>
					<dim>1</dim>
				</port>
			</output>
		</layer>
		<layer id="83" name="2278228210924" type="Const" version="opset1">
			<data element_type="f32" offset="94984" shape="150,1,1,1,1" size="600"/>
			<output>
				<port id="0" precision="FP32">
					<dim>150</dim>
					<dim>1</dim>
					<dim>1</dim>
					<dim>1</dim>
					<dim>1</dim>
				</port>
			</output>
		</layer>
		<layer id="84" name="net/transpose_11299712676" type="Const" version="opset1">
			<data element_type="f32" offset="95584" shape="150,100,1,1,1" size="60000"/>
			<output>
				<port id="0" names="net/transpose_112:0" precision="FP32">
					<dim>150</dim>
					<dim>100</dim>
					<dim>1</dim>
					<dim>1</dim>
					<dim>1</dim>
				</port>
			</output>
		</layer>
		<layer id="85" name="net/Conv3D_50/fq_weights_1" type="FakeQuantize" version="opset1">
			<data auto_broadcast="numpy" levels="255"/>
			<input>
				<port id="0">
					<dim>150</dim>
					<dim>100</dim>
					<dim>1</dim>
					<dim>1</dim>
					<dim>1</dim>
				</port>
				<port id="1">
					<dim>150</dim>
					<dim>1</dim>
					<dim>1</dim>
					<dim>1</dim>
					<dim>1</dim>
				</port>
				<port id="2">
					<dim>150</dim>
					<dim>1</dim>
					<dim>1</dim>
					<dim>1</dim>
					<dim>1</dim>
				</port>
				<port id="3">
					<dim>150</dim>
					<dim>1</dim>
					<dim>1</dim>
					<dim>1</dim>
					<dim>1</dim>
				</port>
				<port id="4">
					<dim>150</dim>
					<dim>1</dim>
					<dim>1</dim>
					<dim>1</dim>
					<dim>1</dim>
				</port>
			</input>
			<output>
				<port id="5" precision="FP32">
					<dim>150</dim>
					<dim>100</dim>
					<dim>1</dim>
					<dim>1</dim>
					<dim>1</dim>
				</port>
			</output>
		</layer>
		<layer id="86" name="net/transpose_117/perm99511251" type="Const" version="opset1">
			<data element_type="i64" offset="16" shape="5" size="40"/>
			<output>
				<port id="0" names="net/transpose_117/perm:0" precision="I64">
					<dim>5</dim>
				</port>
			</output>
		</layer>
		<layer id="87" name="4618462211803" type="Const" version="opset1">
			<data element_type="f32" offset="155584" shape="" size="4"/>
			<output>
				<port id="0" precision="FP32"/>
			</output>
		</layer>
		<layer id="88" name="4619462311896" type="Const" version="opset1">
			<data element_type="f32" offset="155588" shape="" size="4"/>
			<output>
				<port id="0" precision="FP32"/>
			</output>
		</layer>
		<layer id="89" name="4620462411494" type="Const" version="opset1">
			<data element_type="f32" offset="155584" shape="" size="4"/>
			<output>
				<port id="0" precision="FP32"/>
			</output>
		</layer>
		<layer id="90" name="4621462511071" type="Const" version="opset1">
			<data element_type="f32" offset="155588" shape="" size="4"/>
			<output>
				<port id="0" precision="FP32"/>
			</output>
		</layer>
		<layer id="91" name="2235223912388" type="Const" version="opset1">
			<data element_type="f32" offset="155592" shape="" size="4"/>
			<output>
				<port id="0" precision="FP32"/>
			</output>
		</layer>
		<layer id="92" name="2236224012643" type="Const" version="opset1">
			<data element_type="f32" offset="155596" shape="" size="4"/>
			<output>
				<port id="0" precision="FP32"/>
			</output>
		</layer>
		<layer id="93" name="2237224112136" type="Const" version="opset1">
			<data element_type="f32" offset="155592" shape="" size="4"/>
			<output>
				<port id="0" precision="FP32"/>
			</output>
		</layer>
		<layer id="94" name="2238224212700" type="Const" version="opset1">
			<data element_type="f32" offset="155596" shape="" size="4"/>
			<output>
				<port id="0" precision="FP32"/>
			</output>
		</layer>
		<layer id="95" name="2155215911653" type="Const" version="opset1">
			<data element_type="f32" offset="155600" shape="" size="4"/>
			<output>
				<port id="0" precision="FP32"/>
			</output>
		</layer>
		<layer id="96" name="2156216011812" type="Const" version="opset1">
			<data element_type="f32" offset="155604" shape="" size="4"/>
			<output>
				<port id="0" precision="FP32"/>
			</output>
		</layer>
		<layer id="97" name="2157216111509" type="Const" version="opset1">
			<data element_type="f32" offset="155600" shape="" size="4"/>
			<output>
				<port id="0" precision="FP32"/>
			</output>
		</layer>
		<layer id="98" name="2158216210987" type="Const" version="opset1">
			<data element_type="f32" offset="155604" shape="" size="4"/>
			<output>
				<port id="0" precision="FP32"/>
			</output>
		</layer>
		<layer id="99" name="3085308912727" type="Const" version="opset1">
			<data element_type="f32" offset="155608" shape="" size="4"/>
			<output>
				<port id="0" precision="FP32"/>
			</output>
		</layer>
		<layer id="100" name="3086309012190" type="Const" version="opset1">
			<data element_type="f32" offset="155612" shape="" size="4"/>
			<output>
				<port id="0" precision="FP32"/>
			</output>
		</layer>
		<layer id="101" name="3087309112826" type="Const" version="opset1">
			<data element_type="f32" offset="155608" shape="" size="4"/>
			<output>
				<port id="0" precision="FP32"/>
			</output>
		</layer>
		<layer id="102" name="3088309213111" type="Const" version="opset1">
			<data element_type="f32" offset="155612" shape="" size="4"/>
			<output>
				<port id="0" precision="FP32"/>
			</output>
		</layer>
		<layer id="103" name="data_mul_11176111803400398513375" type="Const" version="opset1">
			<data element_type="f32" offset="155616" shape="1,100,1,1,1" size="400"/>
			<output>
				<port id="0" precision="FP32">
					<dim>1</dim>
					<dim>100</dim>
					<dim>1</dim>
					<dim>1</dim>
					<dim>1</dim>
				</port>
			</output>
		</layer>
		<layer id="104" name="net/strided_slice_111/stack98011017" type="Const" version="opset1">
			<data element_type="i64" offset="156016" shape="5" size="40"/>
			<output>
				<port id="0" names="net/strided_slice_111/stack:0" precision="I64">
					<dim>5</dim>
				</port>
			</output>
		</layer>
		<layer id="105" name="net/strided_slice_111/stack_198112721" type="Const" version="opset1">
			<data element_type="i64" offset="156056" shape="5" size="40"/>
			<output>
				<port id="0" names="net/strided_slice_111/stack_1:0" precision="I64">
					<dim>5</dim>
				</port>
			</output>
		</layer>
		<layer id="106" name="net/strided_slice_111/stack_298212178" type="Const" version="opset1">
			<data element_type="i64" offset="156096" shape="5" size="40"/>
			<output>
				<port id="0" names="net/strided_slice_111/stack_2:0" precision="I64">
					<dim>5</dim>
				</port>
			</output>
		</layer>
		<layer id="107" name="net/Tile_8/multiples94811305" type="Const" version="opset1">
			<data element_type="i64" offset="156136" shape="5" size="40"/>
			<output>
				<port id="0" names="net/Tile_8/multiples:0" precision="I64">
					<dim>5</dim>
				</port>
			</output>
		</layer>
		<layer id="108" name="net/Tile_7/multiples88212574" type="Const" version="opset1">
			<data element_type="i64" offset="156176" shape="5" size="40"/>
			<output>
				<port id="0" names="net/Tile_7/multiples:0" precision="I64">
					<dim>5</dim>
				</port>
			</output>
		</layer>
		<layer id="109" name="net/Tile_6/multiples81610699" type="Const" version="opset1">
			<data element_type="i64" offset="156216" shape="5" size="40"/>
			<output>
				<port id="0" names="net/Tile_6/multiples:0" precision="I64">
					<dim>5</dim>
				</port>
			</output>
		</layer>
		<layer id="110" name="75583400978012169" type="Const" version="opset1">
			<data element_type="i64" offset="16" shape="5" size="40"/>
			<output>
				<port id="0" precision="I64">
					<dim>5</dim>
				</port>
			</output>
		</layer>
		<layer id="111" name="5078508212496" type="Const" version="opset1">
			<data element_type="f32" offset="156256" shape="" size="4"/>
			<output>
				<port id="0" precision="FP32"/>
			</output>
		</layer>
		<layer id="112" name="5079508311860" type="Const" version="opset1">
			<data element_type="f32" offset="156260" shape="" size="4"/>
			<output>
				<port id="0" precision="FP32"/>
			</output>
		</layer>
		<layer id="113" name="5080508412418" type="Const" version="opset1">
			<data element_type="f32" offset="156256" shape="" size="4"/>
			<output>
				<port id="0" precision="FP32"/>
			</output>
		</layer>
		<layer id="114" name="5081508511911" type="Const" version="opset1">
			<data element_type="f32" offset="156260" shape="" size="4"/>
			<output>
				<port id="0" precision="FP32"/>
			</output>
		</layer>
		<layer id="115" name="1356135811110" type="Const" version="opset1">
			<data element_type="f32" offset="156264" shape="1,50,1,1,1" size="200"/>
			<output>
				<port id="0" precision="FP32">
					<dim>1</dim>
					<dim>50</dim>
					<dim>1</dim>
					<dim>1</dim>
					<dim>1</dim>
				</port>
			</output>
		</layer>
		<layer id="116" name="3345334911638" type="Const" version="opset1">
			<data element_type="f32" offset="156464" shape="50,1,1,1,1" size="200"/>
			<output>
				<port id="0" precision="FP32">
					<dim>50</dim>
					<dim>1</dim>
					<dim>1</dim>
					<dim>1</dim>
					<dim>1</dim>
				</port>
			</output>
		</layer>
		<layer id="117" name="3346335010735" type="Const" version="opset1">
			<data element_type="f32" offset="156664" shape="50,1,1,1,1" size="200"/>
			<output>
				<port id="0" precision="FP32">
					<dim>50</dim>
					<dim>1</dim>
					<dim>1</dim>
					<dim>1</dim>
					<dim>1</dim>
				</port>
			</output>
		</layer>
		<layer id="118" name="3347335112367" type="Const" version="opset1">
			<data element_type="f32" offset="156464" shape="50,1,1,1,1" size="200"/>
			<output>
				<port id="0" precision="FP32">
					<dim>50</dim>
					<dim>1</dim>
					<dim>1</dim>
					<dim>1</dim>
					<dim>1</dim>
				</port>
			</output>
		</layer>
		<layer id="119" name="3348335212457" type="Const" version="opset1">
			<data element_type="f32" offset="156664" shape="50,1,1,1,1" size="200"/>
			<output>
				<port id="0" precision="FP32">
					<dim>50</dim>
					<dim>1</dim>
					<dim>1</dim>
					<dim>1</dim>
					<dim>1</dim>
				</port>
			</output>
		</layer>
		<layer id="120" name="net/transpose_10577811962" type="Const" version="opset1">
			<data element_type="f32" offset="156864" shape="50,50,3,3,3" size="270000"/>
			<output>
				<port id="0" names="net/transpose_105:0" precision="FP32">
					<dim>50</dim>
					<dim>50</dim>
					<dim>3</dim>
					<dim>3</dim>
					<dim>3</dim>
				</port>
			</output>
		</layer>
		<layer id="121" name="net/Conv3D_47/fq_weights_1" type="FakeQuantize" version="opset1">
			<data auto_broadcast="numpy" levels="255"/>
			<input>
				<port id="0">
					<dim>50</dim>
					<dim>50</dim>
					<dim>3</dim>
					<dim>3</dim>
					<dim>3</dim>
				</port>
				<port id="1">
					<dim>50</dim>
					<dim>1</dim>
					<dim>1</dim>
					<dim>1</dim>
					<dim>1</dim>
				</port>
				<port id="2">
					<dim>50</dim>
					<dim>1</dim>
					<dim>1</dim>
					<dim>1</dim>
					<dim>1</dim>
				</port>
				<port id="3">
					<dim>50</dim>
					<dim>1</dim>
					<dim>1</dim>
					<dim>1</dim>
					<dim>1</dim>
				</port>
				<port id="4">
					<dim>50</dim>
					<dim>1</dim>
					<dim>1</dim>
					<dim>1</dim>
					<dim>1</dim>
				</port>
			</input>
			<output>
				<port id="5" precision="FP32">
					<dim>50</dim>
					<dim>50</dim>
					<dim>3</dim>
					<dim>3</dim>
					<dim>3</dim>
				</port>
			</output>
		</layer>
		<layer id="122" name="net/transpose_110/perm77610969" type="Const" version="opset1">
			<data element_type="i64" offset="16" shape="5" size="40"/>
			<output>
				<port id="0" names="net/transpose_110/perm:0" precision="I64">
					<dim>5</dim>
				</port>
			</output>
		</layer>
		<layer id="123" name="4598460213084" type="Const" version="opset1">
			<data element_type="f32" offset="426864" shape="" size="4"/>
			<output>
				<port id="0" precision="FP32"/>
			</output>
		</layer>
		<layer id="124" name="4599460311275" type="Const" version="opset1">
			<data element_type="f32" offset="426868" shape="" size="4"/>
			<output>
				<port id="0" precision="FP32"/>
			</output>
		</layer>
		<layer id="125" name="4600460411119" type="Const" version="opset1">
			<data element_type="f32" offset="426864" shape="" size="4"/>
			<output>
				<port id="0" precision="FP32"/>
			</output>
		</layer>
		<layer id="126" name="4601460512298" type="Const" version="opset1">
			<data element_type="f32" offset="426868" shape="" size="4"/>
			<output>
				<port id="0" precision="FP32"/>
			</output>
		</layer>
		<layer id="127" name="2365236913408" type="Const" version="opset1">
			<data element_type="f32" offset="426872" shape="" size="4"/>
			<output>
				<port id="0" precision="FP32"/>
			</output>
		</layer>
		<layer id="128" name="2366237012847" type="Const" version="opset1">
			<data element_type="f32" offset="426876" shape="" size="4"/>
			<output>
				<port id="0" precision="FP32"/>
			</output>
		</layer>
		<layer id="129" name="2367237112400" type="Const" version="opset1">
			<data element_type="f32" offset="426872" shape="" size="4"/>
			<output>
				<port id="0" precision="FP32"/>
			</output>
		</layer>
		<layer id="130" name="2368237213288" type="Const" version="opset1">
			<data element_type="f32" offset="426876" shape="" size="4"/>
			<output>
				<port id="0" precision="FP32"/>
			</output>
		</layer>
		<layer id="131" name="2075207912319" type="Const" version="opset1">
			<data element_type="f32" offset="426880" shape="" size="4"/>
			<output>
				<port id="0" precision="FP32"/>
			</output>
		</layer>
		<layer id="132" name="2076208011191" type="Const" version="opset1">
			<data element_type="f32" offset="426884" shape="" size="4"/>
			<output>
				<port id="0" precision="FP32"/>
			</output>
		</layer>
		<layer id="133" name="2077208111827" type="Const" version="opset1">
			<data element_type="f32" offset="426880" shape="" size="4"/>
			<output>
				<port id="0" precision="FP32"/>
			</output>
		</layer>
		<layer id="134" name="2078208210720" type="Const" version="opset1">
			<data element_type="f32" offset="426884" shape="" size="4"/>
			<output>
				<port id="0" precision="FP32"/>
			</output>
		</layer>
		<layer id="135" name="3195319911155" type="Const" version="opset1">
			<data element_type="f32" offset="426888" shape="" size="4"/>
			<output>
				<port id="0" precision="FP32"/>
			</output>
		</layer>
		<layer id="136" name="3196320011863" type="Const" version="opset1">
			<data element_type="f32" offset="426892" shape="" size="4"/>
			<output>
				<port id="0" precision="FP32"/>
			</output>
		</layer>
		<layer id="137" name="3197320111539" type="Const" version="opset1">
			<data element_type="f32" offset="426888" shape="" size="4"/>
			<output>
				<port id="0" precision="FP32"/>
			</output>
		</layer>
		<layer id="138" name="3198320211707" type="Const" version="opset1">
			<data element_type="f32" offset="426892" shape="" size="4"/>
			<output>
				<port id="0" precision="FP32"/>
			</output>
		</layer>
		<layer id="139" name="data_mul_11080110843372476611875" type="Const" version="opset1">
			<data element_type="f32" offset="426896" shape="1,50,1,1,1" size="200"/>
			<output>
				<port id="0" precision="FP32">
					<dim>1</dim>
					<dim>50</dim>
					<dim>1</dim>
					<dim>1</dim>
					<dim>1</dim>
				</port>
			</output>
		</layer>
		<layer id="140" name="75503369476411419" type="Const" version="opset1">
			<data element_type="i64" offset="16" shape="5" size="40"/>
			<output>
				<port id="0" precision="I64">
					<dim>5</dim>
				</port>
			</output>
		</layer>
		<layer id="141" name="4948495213243" type="Const" version="opset1">
			<data element_type="f32" offset="427096" shape="" size="4"/>
			<output>
				<port id="0" precision="FP32"/>
			</output>
		</layer>
		<layer id="142" name="4949495311371" type="Const" version="opset1">
			<data element_type="f32" offset="427100" shape="" size="4"/>
			<output>
				<port id="0" precision="FP32"/>
			</output>
		</layer>
		<layer id="143" name="4950495412775" type="Const" version="opset1">
			<data element_type="f32" offset="427096" shape="" size="4"/>
			<output>
				<port id="0" precision="FP32"/>
			</output>
		</layer>
		<layer id="144" name="4951495511221" type="Const" version="opset1">
			<data element_type="f32" offset="427100" shape="" size="4"/>
			<output>
				<port id="0" precision="FP32"/>
			</output>
		</layer>
		<layer id="145" name="1352135412886" type="Const" version="opset1">
			<data element_type="f32" offset="156264" shape="1,50,1,1,1" size="200"/>
			<output>
				<port id="0" precision="FP32">
					<dim>1</dim>
					<dim>50</dim>
					<dim>1</dim>
					<dim>1</dim>
					<dim>1</dim>
				</port>
			</output>
		</layer>
		<layer id="146" name="2565256912637" type="Const" version="opset1">
			<data element_type="f32" offset="427104" shape="50,1,1,1,1" size="200"/>
			<output>
				<port id="0" precision="FP32">
					<dim>50</dim>
					<dim>1</dim>
					<dim>1</dim>
					<dim>1</dim>
					<dim>1</dim>
				</port>
			</output>
		</layer>
		<layer id="147" name="2566257012850" type="Const" version="opset1">
			<data element_type="f32" offset="427304" shape="50,1,1,1,1" size="200"/>
			<output>
				<port id="0" precision="FP32">
					<dim>50</dim>
					<dim>1</dim>
					<dim>1</dim>
					<dim>1</dim>
					<dim>1</dim>
				</port>
			</output>
		</layer>
		<layer id="148" name="2567257113105" type="Const" version="opset1">
			<data element_type="f32" offset="427104" shape="50,1,1,1,1" size="200"/>
			<output>
				<port id="0" precision="FP32">
					<dim>50</dim>
					<dim>1</dim>
					<dim>1</dim>
					<dim>1</dim>
					<dim>1</dim>
				</port>
			</output>
		</layer>
		<layer id="149" name="2568257210954" type="Const" version="opset1">
			<data element_type="f32" offset="427304" shape="50,1,1,1,1" size="200"/>
			<output>
				<port id="0" precision="FP32">
					<dim>50</dim>
					<dim>1</dim>
					<dim>1</dim>
					<dim>1</dim>
					<dim>1</dim>
				</port>
			</output>
		</layer>
		<layer id="150" name="net/transpose_9876212535" type="Const" version="opset1">
			<data element_type="f32" offset="427504" shape="50,40,3,3,3" size="216000"/>
			<output>
				<port id="0" names="net/transpose_98:0" precision="FP32">
					<dim>50</dim>
					<dim>40</dim>
					<dim>3</dim>
					<dim>3</dim>
					<dim>3</dim>
				</port>
			</output>
		</layer>
		<layer id="151" name="net/Conv3D_44/fq_weights_1" type="FakeQuantize" version="opset1">
			<data auto_broadcast="numpy" levels="255"/>
			<input>
				<port id="0">
					<dim>50</dim>
					<dim>40</dim>
					<dim>3</dim>
					<dim>3</dim>
					<dim>3</dim>
				</port>
				<port id="1">
					<dim>50</dim>
					<dim>1</dim>
					<dim>1</dim>
					<dim>1</dim>
					<dim>1</dim>
				</port>
				<port id="2">
					<dim>50</dim>
					<dim>1</dim>
					<dim>1</dim>
					<dim>1</dim>
					<dim>1</dim>
				</port>
				<port id="3">
					<dim>50</dim>
					<dim>1</dim>
					<dim>1</dim>
					<dim>1</dim>
					<dim>1</dim>
				</port>
				<port id="4">
					<dim>50</dim>
					<dim>1</dim>
					<dim>1</dim>
					<dim>1</dim>
					<dim>1</dim>
				</port>
			</input>
			<output>
				<port id="5" precision="FP32">
					<dim>50</dim>
					<dim>40</dim>
					<dim>3</dim>
					<dim>3</dim>
					<dim>3</dim>
				</port>
			</output>
		</layer>
		<layer id="152" name="net/transpose_103/perm76011203" type="Const" version="opset1">
			<data element_type="i64" offset="16" shape="5" size="40"/>
			<output>
				<port id="0" names="net/transpose_103/perm:0" precision="I64">
					<dim>5</dim>
				</port>
			</output>
		</layer>
		<layer id="153" name="4588459213045" type="Const" version="opset1">
			<data element_type="f32" offset="643504" shape="" size="4"/>
			<output>
				<port id="0" precision="FP32"/>
			</output>
		</layer>
		<layer id="154" name="4589459311392" type="Const" version="opset1">
			<data element_type="f32" offset="643508" shape="" size="4"/>
			<output>
				<port id="0" precision="FP32"/>
			</output>
		</layer>
		<layer id="155" name="4590459410825" type="Const" version="opset1">
			<data element_type="f32" offset="643504" shape="" size="4"/>
			<output>
				<port id="0" precision="FP32"/>
			</output>
		</layer>
		<layer id="156" name="4591459513426" type="Const" version="opset1">
			<data element_type="f32" offset="643508" shape="" size="4"/>
			<output>
				<port id="0" precision="FP32"/>
			</output>
		</layer>
		<layer id="157" name="3325332913267" type="Const" version="opset1">
			<data element_type="f32" offset="643512" shape="" size="4"/>
			<output>
				<port id="0" precision="FP32"/>
			</output>
		</layer>
		<layer id="158" name="3326333013336" type="Const" version="opset1">
			<data element_type="f32" offset="643516" shape="" size="4"/>
			<output>
				<port id="0" precision="FP32"/>
			</output>
		</layer>
		<layer id="159" name="3327333111050" type="Const" version="opset1">
			<data element_type="f32" offset="643512" shape="" size="4"/>
			<output>
				<port id="0" precision="FP32"/>
			</output>
		</layer>
		<layer id="160" name="3328333212583" type="Const" version="opset1">
			<data element_type="f32" offset="643516" shape="" size="4"/>
			<output>
				<port id="0" precision="FP32"/>
			</output>
		</layer>
		<layer id="161" name="2955295911554" type="Const" version="opset1">
			<data element_type="f32" offset="643520" shape="" size="4"/>
			<output>
				<port id="0" precision="FP32"/>
			</output>
		</layer>
		<layer id="162" name="2956296011632" type="Const" version="opset1">
			<data element_type="f32" offset="643524" shape="" size="4"/>
			<output>
				<port id="0" precision="FP32"/>
			</output>
		</layer>
		<layer id="163" name="2957296113102" type="Const" version="opset1">
			<data element_type="f32" offset="643520" shape="" size="4"/>
			<output>
				<port id="0" precision="FP32"/>
			</output>
		</layer>
		<layer id="164" name="2958296210747" type="Const" version="opset1">
			<data element_type="f32" offset="643524" shape="" size="4"/>
			<output>
				<port id="0" precision="FP32"/>
			</output>
		</layer>
		<layer id="165" name="2135213912997" type="Const" version="opset1">
			<data element_type="f32" offset="643528" shape="" size="4"/>
			<output>
				<port id="0" precision="FP32"/>
			</output>
		</layer>
		<layer id="166" name="2136214011926" type="Const" version="opset1">
			<data element_type="f32" offset="643532" shape="" size="4"/>
			<output>
				<port id="0" precision="FP32"/>
			</output>
		</layer>
		<layer id="167" name="2137214110768" type="Const" version="opset1">
			<data element_type="f32" offset="643528" shape="" size="4"/>
			<output>
				<port id="0" precision="FP32"/>
			</output>
		</layer>
		<layer id="168" name="2138214213090" type="Const" version="opset1">
			<data element_type="f32" offset="643532" shape="" size="4"/>
			<output>
				<port id="0" precision="FP32"/>
			</output>
		</layer>
		<layer id="169" name="data_mul_11068110723408775013006" type="Const" version="opset1">
			<data element_type="f32" offset="643536" shape="1,40,1,1,1" size="160"/>
			<output>
				<port id="0" precision="FP32">
					<dim>1</dim>
					<dim>40</dim>
					<dim>1</dim>
					<dim>1</dim>
					<dim>1</dim>
				</port>
			</output>
		</layer>
		<layer id="170" name="75423423174811122" type="Const" version="opset1">
			<data element_type="i64" offset="16" shape="5" size="40"/>
			<output>
				<port id="0" precision="I64">
					<dim>5</dim>
				</port>
			</output>
		</layer>
		<layer id="171" name="4938494213258" type="Const" version="opset1">
			<data element_type="f32" offset="643696" shape="" size="4"/>
			<output>
				<port id="0" precision="FP32"/>
			</output>
		</layer>
		<layer id="172" name="4939494313009" type="Const" version="opset1">
			<data element_type="f32" offset="643700" shape="" size="4"/>
			<output>
				<port id="0" precision="FP32"/>
			</output>
		</layer>
		<layer id="173" name="4940494412523" type="Const" version="opset1">
			<data element_type="f32" offset="643696" shape="" size="4"/>
			<output>
				<port id="0" precision="FP32"/>
			</output>
		</layer>
		<layer id="174" name="4941494511983" type="Const" version="opset1">
			<data element_type="f32" offset="643700" shape="" size="4"/>
			<output>
				<port id="0" precision="FP32"/>
			</output>
		</layer>
		<layer id="175" name="1348135012382" type="Const" version="opset1">
			<data element_type="f32" offset="643704" shape="1,40,1,1,1" size="160"/>
			<output>
				<port id="0" precision="FP32">
					<dim>1</dim>
					<dim>40</dim>
					<dim>1</dim>
					<dim>1</dim>
					<dim>1</dim>
				</port>
			</output>
		</layer>
		<layer id="176" name="3405340912493" type="Const" version="opset1">
			<data element_type="f32" offset="643864" shape="40,1,1,1,1" size="160"/>
			<output>
				<port id="0" precision="FP32">
					<dim>40</dim>
					<dim>1</dim>
					<dim>1</dim>
					<dim>1</dim>
					<dim>1</dim>
				</port>
			</output>
		</layer>
		<layer id="177" name="3406341011179" type="Const" version="opset1">
			<data element_type="f32" offset="644024" shape="40,1,1,1,1" size="160"/>
			<output>
				<port id="0" precision="FP32">
					<dim>40</dim>
					<dim>1</dim>
					<dim>1</dim>
					<dim>1</dim>
					<dim>1</dim>
				</port>
			</output>
		</layer>
		<layer id="178" name="3407341111590" type="Const" version="opset1">
			<data element_type="f32" offset="643864" shape="40,1,1,1,1" size="160"/>
			<output>
				<port id="0" precision="FP32">
					<dim>40</dim>
					<dim>1</dim>
					<dim>1</dim>
					<dim>1</dim>
					<dim>1</dim>
				</port>
			</output>
		</layer>
		<layer id="179" name="3408341212688" type="Const" version="opset1">
			<data element_type="f32" offset="644024" shape="40,1,1,1,1" size="160"/>
			<output>
				<port id="0" precision="FP32">
					<dim>40</dim>
					<dim>1</dim>
					<dim>1</dim>
					<dim>1</dim>
					<dim>1</dim>
				</port>
			</output>
		</layer>
		<layer id="180" name="net/transpose_9174611794" type="Const" version="opset1">
			<data element_type="f32" offset="644184" shape="40,40,3,3,3" size="172800"/>
			<output>
				<port id="0" names="net/transpose_91:0" precision="FP32">
					<dim>40</dim>
					<dim>40</dim>
					<dim>3</dim>
					<dim>3</dim>
					<dim>3</dim>
				</port>
			</output>
		</layer>
		<layer id="181" name="net/Conv3D_41/fq_weights_1" type="FakeQuantize" version="opset1">
			<data auto_broadcast="numpy" levels="255"/>
			<input>
				<port id="0">
					<dim>40</dim>
					<dim>40</dim>
					<dim>3</dim>
					<dim>3</dim>
					<dim>3</dim>
				</port>
				<port id="1">
					<dim>40</dim>
					<dim>1</dim>
					<dim>1</dim>
					<dim>1</dim>
					<dim>1</dim>
				</port>
				<port id="2">
					<dim>40</dim>
					<dim>1</dim>
					<dim>1</dim>
					<dim>1</dim>
					<dim>1</dim>
				</port>
				<port id="3">
					<dim>40</dim>
					<dim>1</dim>
					<dim>1</dim>
					<dim>1</dim>
					<dim>1</dim>
				</port>
				<port id="4">
					<dim>40</dim>
					<dim>1</dim>
					<dim>1</dim>
					<dim>1</dim>
					<dim>1</dim>
				</port>
			</input>
			<output>
				<port id="5" precision="FP32">
					<dim>40</dim>
					<dim>40</dim>
					<dim>3</dim>
					<dim>3</dim>
					<dim>3</dim>
				</port>
			</output>
		</layer>
		<layer id="182" name="net/transpose_96/perm74410963" type="Const" version="opset1">
			<data element_type="i64" offset="16" shape="5" size="40"/>
			<output>
				<port id="0" names="net/transpose_96/perm:0" precision="I64">
					<dim>5</dim>
				</port>
			</output>
		</layer>
		<layer id="183" name="4578458213384" type="Const" version="opset1">
			<data element_type="f32" offset="816984" shape="" size="4"/>
			<output>
				<port id="0" precision="FP32"/>
			</output>
		</layer>
		<layer id="184" name="4579458313393" type="Const" version="opset1">
			<data element_type="f32" offset="816988" shape="" size="4"/>
			<output>
				<port id="0" precision="FP32"/>
			</output>
		</layer>
		<layer id="185" name="4580458411029" type="Const" version="opset1">
			<data element_type="f32" offset="816984" shape="" size="4"/>
			<output>
				<port id="0" precision="FP32"/>
			</output>
		</layer>
		<layer id="186" name="4581458513321" type="Const" version="opset1">
			<data element_type="f32" offset="816988" shape="" size="4"/>
			<output>
				<port id="0" precision="FP32"/>
			</output>
		</layer>
		<layer id="187" name="2705270911185" type="Const" version="opset1">
			<data element_type="f32" offset="816992" shape="" size="4"/>
			<output>
				<port id="0" precision="FP32"/>
			</output>
		</layer>
		<layer id="188" name="2706271011701" type="Const" version="opset1">
			<data element_type="f32" offset="816996" shape="" size="4"/>
			<output>
				<port id="0" precision="FP32"/>
			</output>
		</layer>
		<layer id="189" name="2707271112310" type="Const" version="opset1">
			<data element_type="f32" offset="816992" shape="" size="4"/>
			<output>
				<port id="0" precision="FP32"/>
			</output>
		</layer>
		<layer id="190" name="2708271211482" type="Const" version="opset1">
			<data element_type="f32" offset="816996" shape="" size="4"/>
			<output>
				<port id="0" precision="FP32"/>
			</output>
		</layer>
		<layer id="191" name="3055305912370" type="Const" version="opset1">
			<data element_type="f32" offset="817000" shape="" size="4"/>
			<output>
				<port id="0" precision="FP32"/>
			</output>
		</layer>
		<layer id="192" name="3056306012436" type="Const" version="opset1">
			<data element_type="f32" offset="817004" shape="" size="4"/>
			<output>
				<port id="0" precision="FP32"/>
			</output>
		</layer>
		<layer id="193" name="3057306112622" type="Const" version="opset1">
			<data element_type="f32" offset="817000" shape="" size="4"/>
			<output>
				<port id="0" precision="FP32"/>
			</output>
		</layer>
		<layer id="194" name="3058306210858" type="Const" version="opset1">
			<data element_type="f32" offset="817004" shape="" size="4"/>
			<output>
				<port id="0" precision="FP32"/>
			</output>
		</layer>
		<layer id="195" name="2375237912235" type="Const" version="opset1">
			<data element_type="f32" offset="817008" shape="" size="4"/>
			<output>
				<port id="0" precision="FP32"/>
			</output>
		</layer>
		<layer id="196" name="2376238011497" type="Const" version="opset1">
			<data element_type="f32" offset="817012" shape="" size="4"/>
			<output>
				<port id="0" precision="FP32"/>
			</output>
		</layer>
		<layer id="197" name="2377238113279" type="Const" version="opset1">
			<data element_type="f32" offset="817008" shape="" size="4"/>
			<output>
				<port id="0" precision="FP32"/>
			</output>
		</layer>
		<layer id="198" name="2378238212403" type="Const" version="opset1">
			<data element_type="f32" offset="817012" shape="" size="4"/>
			<output>
				<port id="0" precision="FP32"/>
			</output>
		</layer>
		<layer id="199" name="data_mul_11056110603391673412934" type="Const" version="opset1">
			<data element_type="f32" offset="817016" shape="1,40,1,1,1" size="160"/>
			<output>
				<port id="0" precision="FP32">
					<dim>1</dim>
					<dim>40</dim>
					<dim>1</dim>
					<dim>1</dim>
					<dim>1</dim>
				</port>
			</output>
		</layer>
		<layer id="200" name="75343364973211935" type="Const" version="opset1">
			<data element_type="i64" offset="16" shape="5" size="40"/>
			<output>
				<port id="0" precision="I64">
					<dim>5</dim>
				</port>
			</output>
		</layer>
		<layer id="201" name="4928493211176" type="Const" version="opset1">
			<data element_type="f32" offset="817176" shape="" size="4"/>
			<output>
				<port id="0" precision="FP32"/>
			</output>
		</layer>
		<layer id="202" name="4929493312892" type="Const" version="opset1">
			<data element_type="f32" offset="817180" shape="" size="4"/>
			<output>
				<port id="0" precision="FP32"/>
			</output>
		</layer>
		<layer id="203" name="4930493412898" type="Const" version="opset1">
			<data element_type="f32" offset="817176" shape="" size="4"/>
			<output>
				<port id="0" precision="FP32"/>
			</output>
		</layer>
		<layer id="204" name="4931493513087" type="Const" version="opset1">
			<data element_type="f32" offset="817180" shape="" size="4"/>
			<output>
				<port id="0" precision="FP32"/>
			</output>
		</layer>
		<layer id="205" name="1344134612010" type="Const" version="opset1">
			<data element_type="f32" offset="643704" shape="1,40,1,1,1" size="160"/>
			<output>
				<port id="0" precision="FP32">
					<dim>1</dim>
					<dim>40</dim>
					<dim>1</dim>
					<dim>1</dim>
					<dim>1</dim>
				</port>
			</output>
		</layer>
		<layer id="206" name="2255225911857" type="Const" version="opset1">
			<data element_type="f32" offset="817184" shape="40,1,1,1,1" size="160"/>
			<output>
				<port id="0" precision="FP32">
					<dim>40</dim>
					<dim>1</dim>
					<dim>1</dim>
					<dim>1</dim>
					<dim>1</dim>
				</port>
			</output>
		</layer>
		<layer id="207" name="2256226012586" type="Const" version="opset1">
			<data element_type="f32" offset="817344" shape="40,1,1,1,1" size="160"/>
			<output>
				<port id="0" precision="FP32">
					<dim>40</dim>
					<dim>1</dim>
					<dim>1</dim>
					<dim>1</dim>
					<dim>1</dim>
				</port>
			</output>
		</layer>
		<layer id="208" name="2257226112613" type="Const" version="opset1">
			<data element_type="f32" offset="817184" shape="40,1,1,1,1" size="160"/>
			<output>
				<port id="0" precision="FP32">
					<dim>40</dim>
					<dim>1</dim>
					<dim>1</dim>
					<dim>1</dim>
					<dim>1</dim>
				</port>
			</output>
		</layer>
		<layer id="209" name="2258226211158" type="Const" version="opset1">
			<data element_type="f32" offset="817344" shape="40,1,1,1,1" size="160"/>
			<output>
				<port id="0" precision="FP32">
					<dim>40</dim>
					<dim>1</dim>
					<dim>1</dim>
					<dim>1</dim>
					<dim>1</dim>
				</port>
			</output>
		</layer>
		<layer id="210" name="net/transpose_8473012145" type="Const" version="opset1">
			<data element_type="f32" offset="817504" shape="40,40,3,3,3" size="172800"/>
			<output>
				<port id="0" names="net/transpose_84:0" precision="FP32">
					<dim>40</dim>
					<dim>40</dim>
					<dim>3</dim>
					<dim>3</dim>
					<dim>3</dim>
				</port>
			</output>
		</layer>
		<layer id="211" name="net/Conv3D_38/fq_weights_1" type="FakeQuantize" version="opset1">
			<data auto_broadcast="numpy" levels="255"/>
			<input>
				<port id="0">
					<dim>40</dim>
					<dim>40</dim>
					<dim>3</dim>
					<dim>3</dim>
					<dim>3</dim>
				</port>
				<port id="1">
					<dim>40</dim>
					<dim>1</dim>
					<dim>1</dim>
					<dim>1</dim>
					<dim>1</dim>
				</port>
				<port id="2">
					<dim>40</dim>
					<dim>1</dim>
					<dim>1</dim>
					<dim>1</dim>
					<dim>1</dim>
				</port>
				<port id="3">
					<dim>40</dim>
					<dim>1</dim>
					<dim>1</dim>
					<dim>1</dim>
					<dim>1</dim>
				</port>
				<port id="4">
					<dim>40</dim>
					<dim>1</dim>
					<dim>1</dim>
					<dim>1</dim>
					<dim>1</dim>
				</port>
			</input>
			<output>
				<port id="5" precision="FP32">
					<dim>40</dim>
					<dim>40</dim>
					<dim>3</dim>
					<dim>3</dim>
					<dim>3</dim>
				</port>
			</output>
		</layer>
		<layer id="212" name="net/transpose_89/perm72811044" type="Const" version="opset1">
			<data element_type="i64" offset="16" shape="5" size="40"/>
			<output>
				<port id="0" names="net/transpose_89/perm:0" precision="I64">
					<dim>5</dim>
				</port>
			</output>
		</layer>
		<layer id="213" name="4568457212016" type="Const" version="opset1">
			<data element_type="f32" offset="990304" shape="" size="4"/>
			<output>
				<port id="0" precision="FP32"/>
			</output>
		</layer>
		<layer id="214" name="4569457313357" type="Const" version="opset1">
			<data element_type="f32" offset="990308" shape="" size="4"/>
			<output>
				<port id="0" precision="FP32"/>
			</output>
		</layer>
		<layer id="215" name="4570457412829" type="Const" version="opset1">
			<data element_type="f32" offset="990304" shape="" size="4"/>
			<output>
				<port id="0" precision="FP32"/>
			</output>
		</layer>
		<layer id="216" name="4571457513096" type="Const" version="opset1">
			<data element_type="f32" offset="990308" shape="" size="4"/>
			<output>
				<port id="0" precision="FP32"/>
			</output>
		</layer>
		<layer id="217" name="3245324912778" type="Const" version="opset1">
			<data element_type="f32" offset="990312" shape="" size="4"/>
			<output>
				<port id="0" precision="FP32"/>
			</output>
		</layer>
		<layer id="218" name="3246325012598" type="Const" version="opset1">
			<data element_type="f32" offset="990316" shape="" size="4"/>
			<output>
				<port id="0" precision="FP32"/>
			</output>
		</layer>
		<layer id="219" name="3247325111479" type="Const" version="opset1">
			<data element_type="f32" offset="990312" shape="" size="4"/>
			<output>
				<port id="0" precision="FP32"/>
			</output>
		</layer>
		<layer id="220" name="3248325212685" type="Const" version="opset1">
			<data element_type="f32" offset="990316" shape="" size="4"/>
			<output>
				<port id="0" precision="FP32"/>
			</output>
		</layer>
		<layer id="221" name="2925292911635" type="Const" version="opset1">
			<data element_type="f32" offset="990320" shape="" size="4"/>
			<output>
				<port id="0" precision="FP32"/>
			</output>
		</layer>
		<layer id="222" name="2926293011614" type="Const" version="opset1">
			<data element_type="f32" offset="990324" shape="" size="4"/>
			<output>
				<port id="0" precision="FP32"/>
			</output>
		</layer>
		<layer id="223" name="2927293112055" type="Const" version="opset1">
			<data element_type="f32" offset="990320" shape="" size="4"/>
			<output>
				<port id="0" precision="FP32"/>
			</output>
		</layer>
		<layer id="224" name="2928293213144" type="Const" version="opset1">
			<data element_type="f32" offset="990324" shape="" size="4"/>
			<output>
				<port id="0" precision="FP32"/>
			</output>
		</layer>
		<layer id="225" name="2335233913024" type="Const" version="opset1">
			<data element_type="f32" offset="990328" shape="" size="4"/>
			<output>
				<port id="0" precision="FP32"/>
			</output>
		</layer>
		<layer id="226" name="2336234012289" type="Const" version="opset1">
			<data element_type="f32" offset="990332" shape="" size="4"/>
			<output>
				<port id="0" precision="FP32"/>
			</output>
		</layer>
		<layer id="227" name="2337234112787" type="Const" version="opset1">
			<data element_type="f32" offset="990328" shape="" size="4"/>
			<output>
				<port id="0" precision="FP32"/>
			</output>
		</layer>
		<layer id="228" name="2338234211842" type="Const" version="opset1">
			<data element_type="f32" offset="990332" shape="" size="4"/>
			<output>
				<port id="0" precision="FP32"/>
			</output>
		</layer>
		<layer id="229" name="data_mul_11044110483434271812802" type="Const" version="opset1">
			<data element_type="f32" offset="990336" shape="1,40,1,1,1" size="160"/>
			<output>
				<port id="0" precision="FP32">
					<dim>1</dim>
					<dim>40</dim>
					<dim>1</dim>
					<dim>1</dim>
					<dim>1</dim>
				</port>
			</output>
		</layer>
		<layer id="230" name="75263384171611806" type="Const" version="opset1">
			<data element_type="i64" offset="16" shape="5" size="40"/>
			<output>
				<port id="0" precision="I64">
					<dim>5</dim>
				</port>
			</output>
		</layer>
		<layer id="231" name="4918492212919" type="Const" version="opset1">
			<data element_type="f32" offset="990496" shape="" size="4"/>
			<output>
				<port id="0" precision="FP32"/>
			</output>
		</layer>
		<layer id="232" name="4919492312157" type="Const" version="opset1">
			<data element_type="f32" offset="990500" shape="" size="4"/>
			<output>
				<port id="0" precision="FP32"/>
			</output>
		</layer>
		<layer id="233" name="4920492411062" type="Const" version="opset1">
			<data element_type="f32" offset="990496" shape="" size="4"/>
			<output>
				<port id="0" precision="FP32"/>
			</output>
		</layer>
		<layer id="234" name="4921492510879" type="Const" version="opset1">
			<data element_type="f32" offset="990500" shape="" size="4"/>
			<output>
				<port id="0" precision="FP32"/>
			</output>
		</layer>
		<layer id="235" name="1340134212364" type="Const" version="opset1">
			<data element_type="f32" offset="643704" shape="1,40,1,1,1" size="160"/>
			<output>
				<port id="0" precision="FP32">
					<dim>1</dim>
					<dim>40</dim>
					<dim>1</dim>
					<dim>1</dim>
					<dim>1</dim>
				</port>
			</output>
		</layer>
		<layer id="236" name="2065206910921" type="Const" version="opset1">
			<data element_type="f32" offset="990504" shape="40,1,1,1,1" size="160"/>
			<output>
				<port id="0" precision="FP32">
					<dim>40</dim>
					<dim>1</dim>
					<dim>1</dim>
					<dim>1</dim>
					<dim>1</dim>
				</port>
			</output>
		</layer>
		<layer id="237" name="2066207011356" type="Const" version="opset1">
			<data element_type="f32" offset="990664" shape="40,1,1,1,1" size="160"/>
			<output>
				<port id="0" precision="FP32">
					<dim>40</dim>
					<dim>1</dim>
					<dim>1</dim>
					<dim>1</dim>
					<dim>1</dim>
				</port>
			</output>
		</layer>
		<layer id="238" name="2067207111968" type="Const" version="opset1">
			<data element_type="f32" offset="990504" shape="40,1,1,1,1" size="160"/>
			<output>
				<port id="0" precision="FP32">
					<dim>40</dim>
					<dim>1</dim>
					<dim>1</dim>
					<dim>1</dim>
					<dim>1</dim>
				</port>
			</output>
		</layer>
		<layer id="239" name="2068207211704" type="Const" version="opset1">
			<data element_type="f32" offset="990664" shape="40,1,1,1,1" size="160"/>
			<output>
				<port id="0" precision="FP32">
					<dim>40</dim>
					<dim>1</dim>
					<dim>1</dim>
					<dim>1</dim>
					<dim>1</dim>
				</port>
			</output>
		</layer>
		<layer id="240" name="net/transpose_7771412181" type="Const" version="opset1">
			<data element_type="f32" offset="990824" shape="40,40,3,3,3" size="172800"/>
			<output>
				<port id="0" names="net/transpose_77:0" precision="FP32">
					<dim>40</dim>
					<dim>40</dim>
					<dim>3</dim>
					<dim>3</dim>
					<dim>3</dim>
				</port>
			</output>
		</layer>
		<layer id="241" name="net/Conv3D_35/fq_weights_1" type="FakeQuantize" version="opset1">
			<data auto_broadcast="numpy" levels="255"/>
			<input>
				<port id="0">
					<dim>40</dim>
					<dim>40</dim>
					<dim>3</dim>
					<dim>3</dim>
					<dim>3</dim>
				</port>
				<port id="1">
					<dim>40</dim>
					<dim>1</dim>
					<dim>1</dim>
					<dim>1</dim>
					<dim>1</dim>
				</port>
				<port id="2">
					<dim>40</dim>
					<dim>1</dim>
					<dim>1</dim>
					<dim>1</dim>
					<dim>1</dim>
				</port>
				<port id="3">
					<dim>40</dim>
					<dim>1</dim>
					<dim>1</dim>
					<dim>1</dim>
					<dim>1</dim>
				</port>
				<port id="4">
					<dim>40</dim>
					<dim>1</dim>
					<dim>1</dim>
					<dim>1</dim>
					<dim>1</dim>
				</port>
			</input>
			<output>
				<port id="5" precision="FP32">
					<dim>40</dim>
					<dim>40</dim>
					<dim>3</dim>
					<dim>3</dim>
					<dim>3</dim>
				</port>
			</output>
		</layer>
		<layer id="242" name="net/transpose_82/perm71211167" type="Const" version="opset1">
			<data element_type="i64" offset="16" shape="5" size="40"/>
			<output>
				<port id="0" names="net/transpose_82/perm:0" precision="I64">
					<dim>5</dim>
				</port>
			</output>
		</layer>
		<layer id="243" name="4558456210918" type="Const" version="opset1">
			<data element_type="f32" offset="1163624" shape="" size="4"/>
			<output>
				<port id="0" precision="FP32"/>
			</output>
		</layer>
		<layer id="244" name="4559456313099" type="Const" version="opset1">
			<data element_type="f32" offset="1163628" shape="" size="4"/>
			<output>
				<port id="0" precision="FP32"/>
			</output>
		</layer>
		<layer id="245" name="4560456411431" type="Const" version="opset1">
			<data element_type="f32" offset="1163624" shape="" size="4"/>
			<output>
				<port id="0" precision="FP32"/>
			</output>
		</layer>
		<layer id="246" name="4561456512148" type="Const" version="opset1">
			<data element_type="f32" offset="1163628" shape="" size="4"/>
			<output>
				<port id="0" precision="FP32"/>
			</output>
		</layer>
		<layer id="247" name="1975197910981" type="Const" version="opset1">
			<data element_type="f32" offset="1163624" shape="" size="4"/>
			<output>
				<port id="0" precision="FP32"/>
			</output>
		</layer>
		<layer id="248" name="1976198011974" type="Const" version="opset1">
			<data element_type="f32" offset="1163632" shape="" size="4"/>
			<output>
				<port id="0" precision="FP32"/>
			</output>
		</layer>
		<layer id="249" name="1977198111281" type="Const" version="opset1">
			<data element_type="f32" offset="1163624" shape="" size="4"/>
			<output>
				<port id="0" precision="FP32"/>
			</output>
		</layer>
		<layer id="250" name="1978198212709" type="Const" version="opset1">
			<data element_type="f32" offset="1163632" shape="" size="4"/>
			<output>
				<port id="0" precision="FP32"/>
			</output>
		</layer>
		<layer id="251" name="2095209912763" type="Const" version="opset1">
			<data element_type="f32" offset="1163636" shape="" size="4"/>
			<output>
				<port id="0" precision="FP32"/>
			</output>
		</layer>
		<layer id="252" name="2096210013291" type="Const" version="opset1">
			<data element_type="f32" offset="1163640" shape="" size="4"/>
			<output>
				<port id="0" precision="FP32"/>
			</output>
		</layer>
		<layer id="253" name="2097210112331" type="Const" version="opset1">
			<data element_type="f32" offset="1163636" shape="" size="4"/>
			<output>
				<port id="0" precision="FP32"/>
			</output>
		</layer>
		<layer id="254" name="2098210213147" type="Const" version="opset1">
			<data element_type="f32" offset="1163640" shape="" size="4"/>
			<output>
				<port id="0" precision="FP32"/>
			</output>
		</layer>
		<layer id="255" name="2495249910840" type="Const" version="opset1">
			<data element_type="f32" offset="1163644" shape="" size="4"/>
			<output>
				<port id="0" precision="FP32"/>
			</output>
		</layer>
		<layer id="256" name="2496250011443" type="Const" version="opset1">
			<data element_type="f32" offset="1163648" shape="" size="4"/>
			<output>
				<port id="0" precision="FP32"/>
			</output>
		</layer>
		<layer id="257" name="2497250111254" type="Const" version="opset1">
			<data element_type="f32" offset="1163644" shape="" size="4"/>
			<output>
				<port id="0" precision="FP32"/>
			</output>
		</layer>
		<layer id="258" name="2498250213339" type="Const" version="opset1">
			<data element_type="f32" offset="1163648" shape="" size="4"/>
			<output>
				<port id="0" precision="FP32"/>
			</output>
		</layer>
		<layer id="259" name="data_mul_11032110363395270212517" type="Const" version="opset1">
			<data element_type="f32" offset="1163652" shape="1,40,1,1,1" size="160"/>
			<output>
				<port id="0" precision="FP32">
					<dim>1</dim>
					<dim>40</dim>
					<dim>1</dim>
					<dim>1</dim>
					<dim>1</dim>
				</port>
			</output>
		</layer>
		<layer id="260" name="75183377270012214" type="Const" version="opset1">
			<data element_type="i64" offset="16" shape="5" size="40"/>
			<output>
				<port id="0" precision="I64">
					<dim>5</dim>
				</port>
			</output>
		</layer>
		<layer id="261" name="4908491212889" type="Const" version="opset1">
			<data element_type="f32" offset="1163812" shape="" size="4"/>
			<output>
				<port id="0" precision="FP32"/>
			</output>
		</layer>
		<layer id="262" name="4909491311011" type="Const" version="opset1">
			<data element_type="f32" offset="1163816" shape="" size="4"/>
			<output>
				<port id="0" precision="FP32"/>
			</output>
		</layer>
		<layer id="263" name="4910491413156" type="Const" version="opset1">
			<data element_type="f32" offset="1163812" shape="" size="4"/>
			<output>
				<port id="0" precision="FP32"/>
			</output>
		</layer>
		<layer id="264" name="4911491512244" type="Const" version="opset1">
			<data element_type="f32" offset="1163816" shape="" size="4"/>
			<output>
				<port id="0" precision="FP32"/>
			</output>
		</layer>
		<layer id="265" name="1336133812667" type="Const" version="opset1">
			<data element_type="f32" offset="643704" shape="1,40,1,1,1" size="160"/>
			<output>
				<port id="0" precision="FP32">
					<dim>1</dim>
					<dim>40</dim>
					<dim>1</dim>
					<dim>1</dim>
					<dim>1</dim>
				</port>
			</output>
		</layer>
		<layer id="266" name="3005300910807" type="Const" version="opset1">
			<data element_type="f32" offset="1163820" shape="40,1,1,1,1" size="160"/>
			<output>
				<port id="0" precision="FP32">
					<dim>40</dim>
					<dim>1</dim>
					<dim>1</dim>
					<dim>1</dim>
					<dim>1</dim>
				</port>
			</output>
		</layer>
		<layer id="267" name="3006301011401" type="Const" version="opset1">
			<data element_type="f32" offset="1163980" shape="40,1,1,1,1" size="160"/>
			<output>
				<port id="0" precision="FP32">
					<dim>40</dim>
					<dim>1</dim>
					<dim>1</dim>
					<dim>1</dim>
					<dim>1</dim>
				</port>
			</output>
		</layer>
		<layer id="268" name="3007301110885" type="Const" version="opset1">
			<data element_type="f32" offset="1163820" shape="40,1,1,1,1" size="160"/>
			<output>
				<port id="0" precision="FP32">
					<dim>40</dim>
					<dim>1</dim>
					<dim>1</dim>
					<dim>1</dim>
					<dim>1</dim>
				</port>
			</output>
		</layer>
		<layer id="269" name="3008301211647" type="Const" version="opset1">
			<data element_type="f32" offset="1163980" shape="40,1,1,1,1" size="160"/>
			<output>
				<port id="0" precision="FP32">
					<dim>40</dim>
					<dim>1</dim>
					<dim>1</dim>
					<dim>1</dim>
					<dim>1</dim>
				</port>
			</output>
		</layer>
		<layer id="270" name="net/transpose_7069813390" type="Const" version="opset1">
			<data element_type="f32" offset="1164140" shape="40,30,3,3,3" size="129600"/>
			<output>
				<port id="0" names="net/transpose_70:0" precision="FP32">
					<dim>40</dim>
					<dim>30</dim>
					<dim>3</dim>
					<dim>3</dim>
					<dim>3</dim>
				</port>
			</output>
		</layer>
		<layer id="271" name="net/Conv3D_32/fq_weights_1" type="FakeQuantize" version="opset1">
			<data auto_broadcast="numpy" levels="255"/>
			<input>
				<port id="0">
					<dim>40</dim>
					<dim>30</dim>
					<dim>3</dim>
					<dim>3</dim>
					<dim>3</dim>
				</port>
				<port id="1">
					<dim>40</dim>
					<dim>1</dim>
					<dim>1</dim>
					<dim>1</dim>
					<dim>1</dim>
				</port>
				<port id="2">
					<dim>40</dim>
					<dim>1</dim>
					<dim>1</dim>
					<dim>1</dim>
					<dim>1</dim>
				</port>
				<port id="3">
					<dim>40</dim>
					<dim>1</dim>
					<dim>1</dim>
					<dim>1</dim>
					<dim>1</dim>
				</port>
				<port id="4">
					<dim>40</dim>
					<dim>1</dim>
					<dim>1</dim>
					<dim>1</dim>
					<dim>1</dim>
				</port>
			</input>
			<output>
				<port id="5" precision="FP32">
					<dim>40</dim>
					<dim>30</dim>
					<dim>3</dim>
					<dim>3</dim>
					<dim>3</dim>
				</port>
			</output>
		</layer>
		<layer id="272" name="net/transpose_75/perm69612793" type="Const" version="opset1">
			<data element_type="i64" offset="16" shape="5" size="40"/>
			<output>
				<port id="0" names="net/transpose_75/perm:0" precision="I64">
					<dim>5</dim>
				</port>
			</output>
		</layer>
		<layer id="273" name="4548455210717" type="Const" version="opset1">
			<data element_type="f32" offset="1163624" shape="" size="4"/>
			<output>
				<port id="0" precision="FP32"/>
			</output>
		</layer>
		<layer id="274" name="4549455312208" type="Const" version="opset1">
			<data element_type="f32" offset="1293740" shape="" size="4"/>
			<output>
				<port id="0" precision="FP32"/>
			</output>
		</layer>
		<layer id="275" name="4550455412424" type="Const" version="opset1">
			<data element_type="f32" offset="1163624" shape="" size="4"/>
			<output>
				<port id="0" precision="FP32"/>
			</output>
		</layer>
		<layer id="276" name="4551455510957" type="Const" version="opset1">
			<data element_type="f32" offset="1293740" shape="" size="4"/>
			<output>
				<port id="0" precision="FP32"/>
			</output>
		</layer>
		<layer id="277" name="2865286912658" type="Const" version="opset1">
			<data element_type="f32" offset="1163624" shape="" size="4"/>
			<output>
				<port id="0" precision="FP32"/>
			</output>
		</layer>
		<layer id="278" name="2866287011743" type="Const" version="opset1">
			<data element_type="f32" offset="1293744" shape="" size="4"/>
			<output>
				<port id="0" precision="FP32"/>
			</output>
		</layer>
		<layer id="279" name="2867287111434" type="Const" version="opset1">
			<data element_type="f32" offset="1163624" shape="" size="4"/>
			<output>
				<port id="0" precision="FP32"/>
			</output>
		</layer>
		<layer id="280" name="2868287210798" type="Const" version="opset1">
			<data element_type="f32" offset="1293744" shape="" size="4"/>
			<output>
				<port id="0" precision="FP32"/>
			</output>
		</layer>
		<layer id="281" name="2675267912556" type="Const" version="opset1">
			<data element_type="f32" offset="1293748" shape="" size="4"/>
			<output>
				<port id="0" precision="FP32"/>
			</output>
		</layer>
		<layer id="282" name="2676268012925" type="Const" version="opset1">
			<data element_type="f32" offset="1293752" shape="" size="4"/>
			<output>
				<port id="0" precision="FP32"/>
			</output>
		</layer>
		<layer id="283" name="2677268112901" type="Const" version="opset1">
			<data element_type="f32" offset="1293748" shape="" size="4"/>
			<output>
				<port id="0" precision="FP32"/>
			</output>
		</layer>
		<layer id="284" name="2678268212742" type="Const" version="opset1">
			<data element_type="f32" offset="1293752" shape="" size="4"/>
			<output>
				<port id="0" precision="FP32"/>
			</output>
		</layer>
		<layer id="285" name="1915191912427" type="Const" version="opset1">
			<data element_type="f32" offset="1293756" shape="" size="4"/>
			<output>
				<port id="0" precision="FP32"/>
			</output>
		</layer>
		<layer id="286" name="1916192011716" type="Const" version="opset1">
			<data element_type="f32" offset="1293760" shape="" size="4"/>
			<output>
				<port id="0" precision="FP32"/>
			</output>
		</layer>
		<layer id="287" name="1917192111872" type="Const" version="opset1">
			<data element_type="f32" offset="1293756" shape="" size="4"/>
			<output>
				<port id="0" precision="FP32"/>
			</output>
		</layer>
		<layer id="288" name="1918192210762" type="Const" version="opset1">
			<data element_type="f32" offset="1293760" shape="" size="4"/>
			<output>
				<port id="0" precision="FP32"/>
			</output>
		</layer>
		<layer id="289" name="data_mul_11020110243406968612505" type="Const" version="opset1">
			<data element_type="f32" offset="1293764" shape="1,30,1,1,1" size="120"/>
			<output>
				<port id="0" precision="FP32">
					<dim>1</dim>
					<dim>30</dim>
					<dim>1</dim>
					<dim>1</dim>
					<dim>1</dim>
				</port>
			</output>
		</layer>
		<layer id="290" name="75103421068411746" type="Const" version="opset1">
			<data element_type="i64" offset="16" shape="5" size="40"/>
			<output>
				<port id="0" precision="I64">
					<dim>5</dim>
				</port>
			</output>
		</layer>
		<layer id="291" name="4898490211965" type="Const" version="opset1">
			<data element_type="f32" offset="1293884" shape="" size="4"/>
			<output>
				<port id="0" precision="FP32"/>
			</output>
		</layer>
		<layer id="292" name="4899490312883" type="Const" version="opset1">
			<data element_type="f32" offset="1293888" shape="" size="4"/>
			<output>
				<port id="0" precision="FP32"/>
			</output>
		</layer>
		<layer id="293" name="4900490411365" type="Const" version="opset1">
			<data element_type="f32" offset="1293884" shape="" size="4"/>
			<output>
				<port id="0" precision="FP32"/>
			</output>
		</layer>
		<layer id="294" name="4901490512280" type="Const" version="opset1">
			<data element_type="f32" offset="1293888" shape="" size="4"/>
			<output>
				<port id="0" precision="FP32"/>
			</output>
		</layer>
		<layer id="295" name="1332133412634" type="Const" version="opset1">
			<data element_type="f32" offset="1293892" shape="1,30,1,1,1" size="120"/>
			<output>
				<port id="0" precision="FP32">
					<dim>1</dim>
					<dim>30</dim>
					<dim>1</dim>
					<dim>1</dim>
					<dim>1</dim>
				</port>
			</output>
		</layer>
		<layer id="296" name="2205220912415" type="Const" version="opset1">
			<data element_type="f32" offset="1294012" shape="30,1,1,1,1" size="120"/>
			<output>
				<port id="0" precision="FP32">
					<dim>30</dim>
					<dim>1</dim>
					<dim>1</dim>
					<dim>1</dim>
					<dim>1</dim>
				</port>
			</output>
		</layer>
		<layer id="297" name="2206221011530" type="Const" version="opset1">
			<data element_type="f32" offset="1294132" shape="30,1,1,1,1" size="120"/>
			<output>
				<port id="0" precision="FP32">
					<dim>30</dim>
					<dim>1</dim>
					<dim>1</dim>
					<dim>1</dim>
					<dim>1</dim>
				</port>
			</output>
		</layer>
		<layer id="298" name="2207221110711" type="Const" version="opset1">
			<data element_type="f32" offset="1294012" shape="30,1,1,1,1" size="120"/>
			<output>
				<port id="0" precision="FP32">
					<dim>30</dim>
					<dim>1</dim>
					<dim>1</dim>
					<dim>1</dim>
					<dim>1</dim>
				</port>
			</output>
		</layer>
		<layer id="299" name="2208221211089" type="Const" version="opset1">
			<data element_type="f32" offset="1294132" shape="30,1,1,1,1" size="120"/>
			<output>
				<port id="0" precision="FP32">
					<dim>30</dim>
					<dim>1</dim>
					<dim>1</dim>
					<dim>1</dim>
					<dim>1</dim>
				</port>
			</output>
		</layer>
		<layer id="300" name="net/transpose_6368211005" type="Const" version="opset1">
			<data element_type="f32" offset="1294252" shape="30,30,3,3,3" size="97200"/>
			<output>
				<port id="0" names="net/transpose_63:0" precision="FP32">
					<dim>30</dim>
					<dim>30</dim>
					<dim>3</dim>
					<dim>3</dim>
					<dim>3</dim>
				</port>
			</output>
		</layer>
		<layer id="301" name="net/Conv3D_29/fq_weights_1" type="FakeQuantize" version="opset1">
			<data auto_broadcast="numpy" levels="255"/>
			<input>
				<port id="0">
					<dim>30</dim>
					<dim>30</dim>
					<dim>3</dim>
					<dim>3</dim>
					<dim>3</dim>
				</port>
				<port id="1">
					<dim>30</dim>
					<dim>1</dim>
					<dim>1</dim>
					<dim>1</dim>
					<dim>1</dim>
				</port>
				<port id="2">
					<dim>30</dim>
					<dim>1</dim>
					<dim>1</dim>
					<dim>1</dim>
					<dim>1</dim>
				</port>
				<port id="3">
					<dim>30</dim>
					<dim>1</dim>
					<dim>1</dim>
					<dim>1</dim>
					<dim>1</dim>
				</port>
				<port id="4">
					<dim>30</dim>
					<dim>1</dim>
					<dim>1</dim>
					<dim>1</dim>
					<dim>1</dim>
				</port>
			</input>
			<output>
				<port id="5" precision="FP32">
					<dim>30</dim>
					<dim>30</dim>
					<dim>3</dim>
					<dim>3</dim>
					<dim>3</dim>
				</port>
			</output>
		</layer>
		<layer id="302" name="net/transpose_68/perm68012592" type="Const" version="opset1">
			<data element_type="i64" offset="16" shape="5" size="40"/>
			<output>
				<port id="0" names="net/transpose_68/perm:0" precision="I64">
					<dim>5</dim>
				</port>
			</output>
		</layer>
		<layer id="303" name="4538454213081" type="Const" version="opset1">
			<data element_type="f32" offset="1391452" shape="" size="4"/>
			<output>
				<port id="0" precision="FP32"/>
			</output>
		</layer>
		<layer id="304" name="4539454312232" type="Const" version="opset1">
			<data element_type="f32" offset="1391456" shape="" size="4"/>
			<output>
				<port id="0" precision="FP32"/>
			</output>
		</layer>
		<layer id="305" name="4540454411383" type="Const" version="opset1">
			<data element_type="f32" offset="1391452" shape="" size="4"/>
			<output>
				<port id="0" precision="FP32"/>
			</output>
		</layer>
		<layer id="306" name="4541454512937" type="Const" version="opset1">
			<data element_type="f32" offset="1391456" shape="" size="4"/>
			<output>
				<port id="0" precision="FP32"/>
			</output>
		</layer>
		<layer id="307" name="3445344911428" type="Const" version="opset1">
			<data element_type="f32" offset="1391460" shape="" size="4"/>
			<output>
				<port id="0" precision="FP32"/>
			</output>
		</layer>
		<layer id="308" name="3446345010738" type="Const" version="opset1">
			<data element_type="f32" offset="1391464" shape="" size="4"/>
			<output>
				<port id="0" precision="FP32"/>
			</output>
		</layer>
		<layer id="309" name="3447345110771" type="Const" version="opset1">
			<data element_type="f32" offset="1391460" shape="" size="4"/>
			<output>
				<port id="0" precision="FP32"/>
			</output>
		</layer>
		<layer id="310" name="3448345213414" type="Const" version="opset1">
			<data element_type="f32" offset="1391464" shape="" size="4"/>
			<output>
				<port id="0" precision="FP32"/>
			</output>
		</layer>
		<layer id="311" name="3455345913057" type="Const" version="opset1">
			<data element_type="f32" offset="1391468" shape="" size="4"/>
			<output>
				<port id="0" precision="FP32"/>
			</output>
		</layer>
		<layer id="312" name="3456346012655" type="Const" version="opset1">
			<data element_type="f32" offset="1391472" shape="" size="4"/>
			<output>
				<port id="0" precision="FP32"/>
			</output>
		</layer>
		<layer id="313" name="3457346112589" type="Const" version="opset1">
			<data element_type="f32" offset="1391468" shape="" size="4"/>
			<output>
				<port id="0" precision="FP32"/>
			</output>
		</layer>
		<layer id="314" name="3458346213054" type="Const" version="opset1">
			<data element_type="f32" offset="1391472" shape="" size="4"/>
			<output>
				<port id="0" precision="FP32"/>
			</output>
		</layer>
		<layer id="315" name="2775277912205" type="Const" version="opset1">
			<data element_type="f32" offset="1391476" shape="" size="4"/>
			<output>
				<port id="0" precision="FP32"/>
			</output>
		</layer>
		<layer id="316" name="2776278011095" type="Const" version="opset1">
			<data element_type="f32" offset="1391480" shape="" size="4"/>
			<output>
				<port id="0" precision="FP32"/>
			</output>
		</layer>
		<layer id="317" name="2777278112070" type="Const" version="opset1">
			<data element_type="f32" offset="1391476" shape="" size="4"/>
			<output>
				<port id="0" precision="FP32"/>
			</output>
		</layer>
		<layer id="318" name="2778278212931" type="Const" version="opset1">
			<data element_type="f32" offset="1391480" shape="" size="4"/>
			<output>
				<port id="0" precision="FP32"/>
			</output>
		</layer>
		<layer id="319" name="data_mul_110123414167012508" type="Const" version="opset1">
			<data element_type="f32" offset="1391484" shape="1,30,1,1,1" size="120"/>
			<output>
				<port id="0" precision="FP32">
					<dim>1</dim>
					<dim>30</dim>
					<dim>1</dim>
					<dim>1</dim>
					<dim>1</dim>
				</port>
			</output>
		</layer>
		<layer id="320" name="75023364666812154" type="Const" version="opset1">
			<data element_type="i64" offset="16" shape="5" size="40"/>
			<output>
				<port id="0" precision="I64">
					<dim>5</dim>
				</port>
			</output>
		</layer>
		<layer id="321" name="4888489213420" type="Const" version="opset1">
			<data element_type="f32" offset="1391604" shape="" size="4"/>
			<output>
				<port id="0" precision="FP32"/>
			</output>
		</layer>
		<layer id="322" name="4889489312673" type="Const" version="opset1">
			<data element_type="f32" offset="1391608" shape="" size="4"/>
			<output>
				<port id="0" precision="FP32"/>
			</output>
		</layer>
		<layer id="323" name="4890489411206" type="Const" version="opset1">
			<data element_type="f32" offset="1391604" shape="" size="4"/>
			<output>
				<port id="0" precision="FP32"/>
			</output>
		</layer>
		<layer id="324" name="4891489512277" type="Const" version="opset1">
			<data element_type="f32" offset="1391608" shape="" size="4"/>
			<output>
				<port id="0" precision="FP32"/>
			</output>
		</layer>
		<layer id="325" name="1328133013168" type="Const" version="opset1">
			<data element_type="f32" offset="1293892" shape="1,30,1,1,1" size="120"/>
			<output>
				<port id="0" precision="FP32">
					<dim>1</dim>
					<dim>30</dim>
					<dim>1</dim>
					<dim>1</dim>
					<dim>1</dim>
				</port>
			</output>
		</layer>
		<layer id="326" name="2805280911236" type="Const" version="opset1">
			<data element_type="f32" offset="1391612" shape="30,1,1,1,1" size="120"/>
			<output>
				<port id="0" precision="FP32">
					<dim>30</dim>
					<dim>1</dim>
					<dim>1</dim>
					<dim>1</dim>
					<dim>1</dim>
				</port>
			</output>
		</layer>
		<layer id="327" name="2806281011938" type="Const" version="opset1">
			<data element_type="f32" offset="1391732" shape="30,1,1,1,1" size="120"/>
			<output>
				<port id="0" precision="FP32">
					<dim>30</dim>
					<dim>1</dim>
					<dim>1</dim>
					<dim>1</dim>
					<dim>1</dim>
				</port>
			</output>
		</layer>
		<layer id="328" name="2807281111776" type="Const" version="opset1">
			<data element_type="f32" offset="1391852" shape="30,1,1,1,1" size="120"/>
			<output>
				<port id="0" precision="FP32">
					<dim>30</dim>
					<dim>1</dim>
					<dim>1</dim>
					<dim>1</dim>
					<dim>1</dim>
				</port>
			</output>
		</layer>
		<layer id="329" name="2808281211869" type="Const" version="opset1">
			<data element_type="f32" offset="1391972" shape="30,1,1,1,1" size="120"/>
			<output>
				<port id="0" precision="FP32">
					<dim>30</dim>
					<dim>1</dim>
					<dim>1</dim>
					<dim>1</dim>
					<dim>1</dim>
				</port>
			</output>
		</layer>
		<layer id="330" name="net/transpose_5666611686" type="Const" version="opset1">
			<data element_type="f32" offset="1392092" shape="30,1,3,3,3" size="3240"/>
			<output>
				<port id="0" names="net/transpose_56:0" precision="FP32">
					<dim>30</dim>
					<dim>1</dim>
					<dim>3</dim>
					<dim>3</dim>
					<dim>3</dim>
				</port>
			</output>
		</layer>
		<layer id="331" name="net/Conv3D_26/fq_weights_1" type="FakeQuantize" version="opset1">
			<data auto_broadcast="numpy" levels="255"/>
			<input>
				<port id="0">
					<dim>30</dim>
					<dim>1</dim>
					<dim>3</dim>
					<dim>3</dim>
					<dim>3</dim>
				</port>
				<port id="1">
					<dim>30</dim>
					<dim>1</dim>
					<dim>1</dim>
					<dim>1</dim>
					<dim>1</dim>
				</port>
				<port id="2">
					<dim>30</dim>
					<dim>1</dim>
					<dim>1</dim>
					<dim>1</dim>
					<dim>1</dim>
				</port>
				<port id="3">
					<dim>30</dim>
					<dim>1</dim>
					<dim>1</dim>
					<dim>1</dim>
					<dim>1</dim>
				</port>
				<port id="4">
					<dim>30</dim>
					<dim>1</dim>
					<dim>1</dim>
					<dim>1</dim>
					<dim>1</dim>
				</port>
			</input>
			<output>
				<port id="5" precision="FP32">
					<dim>30</dim>
					<dim>1</dim>
					<dim>3</dim>
					<dim>3</dim>
					<dim>3</dim>
				</port>
			</output>
		</layer>
		<layer id="332" name="net/transpose_61/perm66411188" type="Const" version="opset1">
			<data element_type="i64" offset="16" shape="5" size="40"/>
			<output>
				<port id="0" names="net/transpose_61/perm:0" precision="I64">
					<dim>5</dim>
				</port>
			</output>
		</layer>
		<layer id="333" name="4528453212820" type="Const" version="opset1">
			<data element_type="f32" offset="1395332" shape="" size="4"/>
			<output>
				<port id="0" precision="FP32"/>
			</output>
		</layer>
		<layer id="334" name="4529453311584" type="Const" version="opset1">
			<data element_type="f32" offset="1395336" shape="" size="4"/>
			<output>
				<port id="0" precision="FP32"/>
			</output>
		</layer>
		<layer id="335" name="4530453411101" type="Const" version="opset1">
			<data element_type="f32" offset="1395332" shape="" size="4"/>
			<output>
				<port id="0" precision="FP32"/>
			</output>
		</layer>
		<layer id="336" name="4531453512943" type="Const" version="opset1">
			<data element_type="f32" offset="1395336" shape="" size="4"/>
			<output>
				<port id="0" precision="FP32"/>
			</output>
		</layer>
		<layer id="337" name="net/inp_x_sub_0_test" type="Parameter" version="opset1">
			<data element_type="f32" shape="10,1,26,26,26"/>
			<output>
				<port id="0" names="net/inp_x_sub_0_test:0" precision="FP32">
					<dim>10</dim>
					<dim>1</dim>
					<dim>26</dim>
					<dim>26</dim>
					<dim>26</dim>
				</port>
			</output>
		</layer>
		<layer id="338" name="net/Reshape_5066212373" type="Const" version="opset1">
			<data element_type="f32" offset="1395340" shape="1,1,1,1,1" size="4"/>
			<output>
				<port id="0" names="net/Reshape_50:0" precision="FP32">
					<dim>1</dim>
					<dim>1</dim>
					<dim>1</dim>
					<dim>1</dim>
					<dim>1</dim>
				</port>
			</output>
		</layer>
		<layer id="339" name="net/add_75" type="Add" version="opset1">
			<data auto_broadcast="numpy"/>
			<input>
				<port id="0">
					<dim>10</dim>
					<dim>1</dim>
					<dim>26</dim>
					<dim>26</dim>
					<dim>26</dim>
				</port>
				<port id="1">
					<dim>1</dim>
					<dim>1</dim>
					<dim>1</dim>
					<dim>1</dim>
					<dim>1</dim>
				</port>
			</input>
			<output>
				<port id="2" names="net/add_75:0" precision="FP32">
					<dim>10</dim>
					<dim>1</dim>
					<dim>26</dim>
					<dim>26</dim>
					<dim>26</dim>
				</port>
			</output>
		</layer>
		<layer id="340" name="net/transpose_61/fq_input_0" type="FakeQuantize" version="opset1">
			<data auto_broadcast="numpy" levels="256"/>
			<input>
				<port id="0">
					<dim>10</dim>
					<dim>1</dim>
					<dim>26</dim>
					<dim>26</dim>
					<dim>26</dim>
				</port>
				<port id="1"/>
				<port id="2"/>
				<port id="3"/>
				<port id="4"/>
			</input>
			<output>
				<port id="5" precision="FP32">
					<dim>10</dim>
					<dim>1</dim>
					<dim>26</dim>
					<dim>26</dim>
					<dim>26</dim>
				</port>
			</output>
		</layer>
		<layer id="341" name="net/transpose_61" type="Transpose" version="opset1">
			<input>
				<port id="0">
					<dim>10</dim>
					<dim>1</dim>
					<dim>26</dim>
					<dim>26</dim>
					<dim>26</dim>
				</port>
				<port id="1">
					<dim>5</dim>
				</port>
			</input>
			<output>
				<port id="2" names="net/transpose_61:0" precision="FP32">
					<dim>10</dim>
					<dim>1</dim>
					<dim>26</dim>
					<dim>26</dim>
					<dim>26</dim>
				</port>
			</output>
		</layer>
		<layer id="342" name="net/Conv3D_26" type="Convolution" version="opset1">
			<data auto_pad="valid" dilations="1,1,1" pads_begin="0,0,0" pads_end="0,0,0" strides="1,1,1"/>
			<input>
				<port id="0">
					<dim>10</dim>
					<dim>1</dim>
					<dim>26</dim>
					<dim>26</dim>
					<dim>26</dim>
				</port>
				<port id="1">
					<dim>30</dim>
					<dim>1</dim>
					<dim>3</dim>
					<dim>3</dim>
					<dim>3</dim>
				</port>
			</input>
			<output>
				<port id="2" precision="FP32">
					<dim>10</dim>
					<dim>30</dim>
					<dim>24</dim>
					<dim>24</dim>
					<dim>24</dim>
				</port>
			</output>
		</layer>
		<layer id="343" name="net/Conv3D_26/add_" type="Add" version="opset1">
			<data auto_broadcast="numpy"/>
			<input>
				<port id="0">
					<dim>10</dim>
					<dim>30</dim>
					<dim>24</dim>
					<dim>24</dim>
					<dim>24</dim>
				</port>
				<port id="1">
					<dim>1</dim>
					<dim>30</dim>
					<dim>1</dim>
					<dim>1</dim>
					<dim>1</dim>
				</port>
			</input>
			<output>
				<port id="2" precision="FP32">
					<dim>10</dim>
					<dim>30</dim>
					<dim>24</dim>
					<dim>24</dim>
					<dim>24</dim>
				</port>
			</output>
		</layer>
		<layer id="344" name="net/Conv3D_26/output_transpose/fq_input_0" type="FakeQuantize" version="opset1">
			<data auto_broadcast="numpy" levels="256"/>
			<input>
				<port id="0">
					<dim>10</dim>
					<dim>30</dim>
					<dim>24</dim>
					<dim>24</dim>
					<dim>24</dim>
				</port>
				<port id="1"/>
				<port id="2"/>
				<port id="3"/>
				<port id="4"/>
			</input>
			<output>
				<port id="5" precision="FP32">
					<dim>10</dim>
					<dim>30</dim>
					<dim>24</dim>
					<dim>24</dim>
					<dim>24</dim>
				</port>
			</output>
		</layer>
		<layer id="345" name="net/Conv3D_26/output_transpose" type="Transpose" version="opset1">
			<input>
				<port id="0">
					<dim>10</dim>
					<dim>30</dim>
					<dim>24</dim>
					<dim>24</dim>
					<dim>24</dim>
				</port>
				<port id="1">
					<dim>5</dim>
				</port>
			</input>
			<output>
				<port id="2" names="net/Conv3D_26:0,net/transpose_62:0" precision="FP32">
					<dim>10</dim>
					<dim>30</dim>
					<dim>24</dim>
					<dim>24</dim>
					<dim>24</dim>
				</port>
			</output>
		</layer>
		<layer id="346" name="net/truediv_23/Fused_Mul_" type="Multiply" version="opset1">
			<data auto_broadcast="numpy"/>
			<input>
				<port id="0">
					<dim>10</dim>
					<dim>30</dim>
					<dim>24</dim>
					<dim>24</dim>
					<dim>24</dim>
				</port>
				<port id="1">
					<dim>1</dim>
					<dim>30</dim>
					<dim>1</dim>
					<dim>1</dim>
					<dim>1</dim>
				</port>
			</input>
			<output>
				<port id="2" precision="FP32">
					<dim>10</dim>
					<dim>30</dim>
					<dim>24</dim>
					<dim>24</dim>
					<dim>24</dim>
				</port>
			</output>
		</layer>
		<layer id="347" name="data_add_110143436367212217" type="Const" version="opset1">
			<data element_type="f32" offset="1395344" shape="1,30,1,1,1" size="120"/>
			<output>
				<port id="0" precision="FP32">
					<dim>1</dim>
					<dim>30</dim>
					<dim>1</dim>
					<dim>1</dim>
					<dim>1</dim>
				</port>
			</output>
		</layer>
		<layer id="348" name="net/sub_44/Fused_Add_" type="Add" version="opset1">
			<data auto_broadcast="numpy"/>
			<input>
				<port id="0">
					<dim>10</dim>
					<dim>30</dim>
					<dim>24</dim>
					<dim>24</dim>
					<dim>24</dim>
				</port>
				<port id="1">
					<dim>1</dim>
					<dim>30</dim>
					<dim>1</dim>
					<dim>1</dim>
					<dim>1</dim>
				</port>
			</input>
			<output>
				<port id="2" names="net/add_80:0" precision="FP32">
					<dim>10</dim>
					<dim>30</dim>
					<dim>24</dim>
					<dim>24</dim>
					<dim>24</dim>
				</port>
			</output>
		</layer>
		<layer id="349" name="net/sub_47/sub/fq_input_0" type="FakeQuantize" version="opset1">
			<data auto_broadcast="numpy" levels="256"/>
			<input>
				<port id="0">
					<dim>10</dim>
					<dim>30</dim>
					<dim>24</dim>
					<dim>24</dim>
					<dim>24</dim>
				</port>
				<port id="1"/>
				<port id="2"/>
				<port id="3"/>
				<port id="4"/>
			</input>
			<output>
				<port id="5" precision="FP32">
					<dim>10</dim>
					<dim>30</dim>
					<dim>24</dim>
					<dim>24</dim>
					<dim>24</dim>
				</port>
			</output>
		</layer>
		<layer id="350" name="2785278912781" type="Const" version="opset1">
			<data element_type="f32" offset="1163624" shape="" size="4"/>
			<output>
				<port id="0" precision="FP32"/>
			</output>
		</layer>
		<layer id="351" name="2786279012115" type="Const" version="opset1">
			<data element_type="f32" offset="1391480" shape="" size="4"/>
			<output>
				<port id="0" precision="FP32"/>
			</output>
		</layer>
		<layer id="352" name="2787279111446" type="Const" version="opset1">
			<data element_type="f32" offset="1163624" shape="" size="4"/>
			<output>
				<port id="0" precision="FP32"/>
			</output>
		</layer>
		<layer id="353" name="2788279212712" type="Const" version="opset1">
			<data element_type="f32" offset="1391480" shape="" size="4"/>
			<output>
				<port id="0" precision="FP32"/>
			</output>
		</layer>
		<layer id="354" name="net/Abs_23" type="Abs" version="opset1">
			<input>
				<port id="0">
					<dim>10</dim>
					<dim>30</dim>
					<dim>24</dim>
					<dim>24</dim>
					<dim>24</dim>
				</port>
			</input>
			<output>
				<port id="1" precision="FP32">
					<dim>10</dim>
					<dim>30</dim>
					<dim>24</dim>
					<dim>24</dim>
					<dim>24</dim>
				</port>
			</output>
		</layer>
		<layer id="355" name="net/sub_47/sub/fq_input_1" type="FakeQuantize" version="opset1">
			<data auto_broadcast="numpy" levels="256"/>
			<input>
				<port id="0">
					<dim>10</dim>
					<dim>30</dim>
					<dim>24</dim>
					<dim>24</dim>
					<dim>24</dim>
				</port>
				<port id="1"/>
				<port id="2"/>
				<port id="3"/>
				<port id="4"/>
			</input>
			<output>
				<port id="5" precision="FP32">
					<dim>10</dim>
					<dim>30</dim>
					<dim>24</dim>
					<dim>24</dim>
					<dim>24</dim>
				</port>
			</output>
		</layer>
		<layer id="356" name="net/sub_47/sub" type="Subtract" version="opset1">
			<data auto_broadcast="numpy"/>
			<input>
				<port id="0">
					<dim>10</dim>
					<dim>30</dim>
					<dim>24</dim>
					<dim>24</dim>
					<dim>24</dim>
				</port>
				<port id="1">
					<dim>10</dim>
					<dim>30</dim>
					<dim>24</dim>
					<dim>24</dim>
					<dim>24</dim>
				</port>
			</input>
			<output>
				<port id="2" names="net/sub_47:0" precision="FP32">
					<dim>10</dim>
					<dim>30</dim>
					<dim>24</dim>
					<dim>24</dim>
					<dim>24</dim>
				</port>
			</output>
		</layer>
		<layer id="357" name="net/mul_70/Fused_Mul_/fq_input_0" type="FakeQuantize" version="opset1">
			<data auto_broadcast="numpy" levels="256"/>
			<input>
				<port id="0">
					<dim>10</dim>
					<dim>30</dim>
					<dim>24</dim>
					<dim>24</dim>
					<dim>24</dim>
				</port>
				<port id="1"/>
				<port id="2"/>
				<port id="3"/>
				<port id="4"/>
			</input>
			<output>
				<port id="5" precision="FP32">
					<dim>10</dim>
					<dim>30</dim>
					<dim>24</dim>
					<dim>24</dim>
					<dim>24</dim>
				</port>
			</output>
		</layer>
		<layer id="358" name="3465346911587" type="Const" version="opset1">
			<data element_type="f32" offset="1395464" shape="1,1,1,1,1" size="4"/>
			<output>
				<port id="0" precision="FP32">
					<dim>1</dim>
					<dim>1</dim>
					<dim>1</dim>
					<dim>1</dim>
					<dim>1</dim>
				</port>
			</output>
		</layer>
		<layer id="359" name="3466347012202" type="Const" version="opset1">
			<data element_type="f32" offset="1395468" shape="1,1,1,1,1" size="4"/>
			<output>
				<port id="0" precision="FP32">
					<dim>1</dim>
					<dim>1</dim>
					<dim>1</dim>
					<dim>1</dim>
					<dim>1</dim>
				</port>
			</output>
		</layer>
		<layer id="360" name="3467347112271" type="Const" version="opset1">
			<data element_type="f32" offset="1395464" shape="1,1,1,1,1" size="4"/>
			<output>
				<port id="0" precision="FP32">
					<dim>1</dim>
					<dim>1</dim>
					<dim>1</dim>
					<dim>1</dim>
					<dim>1</dim>
				</port>
			</output>
		</layer>
		<layer id="361" name="3468347211809" type="Const" version="opset1">
			<data element_type="f32" offset="1395468" shape="1,1,1,1,1" size="4"/>
			<output>
				<port id="0" precision="FP32">
					<dim>1</dim>
					<dim>1</dim>
					<dim>1</dim>
					<dim>1</dim>
					<dim>1</dim>
				</port>
			</output>
		</layer>
		<layer id="362" name="data_mul_11016110183389867711077" type="Const" version="opset1">
			<data element_type="f32" offset="1395472" shape="1,30,1,1,1" size="120"/>
			<output>
				<port id="0" precision="FP32">
					<dim>1</dim>
					<dim>30</dim>
					<dim>1</dim>
					<dim>1</dim>
					<dim>1</dim>
				</port>
			</output>
		</layer>
		<layer id="363" name="net/mul_70/Fused_Mul_/fq_input_1" type="FakeQuantize" version="opset1">
			<data auto_broadcast="numpy" levels="255"/>
			<input>
				<port id="0">
					<dim>1</dim>
					<dim>30</dim>
					<dim>1</dim>
					<dim>1</dim>
					<dim>1</dim>
				</port>
				<port id="1">
					<dim>1</dim>
					<dim>1</dim>
					<dim>1</dim>
					<dim>1</dim>
					<dim>1</dim>
				</port>
				<port id="2">
					<dim>1</dim>
					<dim>1</dim>
					<dim>1</dim>
					<dim>1</dim>
					<dim>1</dim>
				</port>
				<port id="3">
					<dim>1</dim>
					<dim>1</dim>
					<dim>1</dim>
					<dim>1</dim>
					<dim>1</dim>
				</port>
				<port id="4">
					<dim>1</dim>
					<dim>1</dim>
					<dim>1</dim>
					<dim>1</dim>
					<dim>1</dim>
				</port>
			</input>
			<output>
				<port id="5" precision="FP32">
					<dim>1</dim>
					<dim>30</dim>
					<dim>1</dim>
					<dim>1</dim>
					<dim>1</dim>
				</port>
			</output>
		</layer>
		<layer id="364" name="net/mul_70/Fused_Mul_" type="Multiply" version="opset1">
			<data auto_broadcast="numpy"/>
			<input>
				<port id="0">
					<dim>10</dim>
					<dim>30</dim>
					<dim>24</dim>
					<dim>24</dim>
					<dim>24</dim>
				</port>
				<port id="1">
					<dim>1</dim>
					<dim>30</dim>
					<dim>1</dim>
					<dim>1</dim>
					<dim>1</dim>
				</port>
			</input>
			<output>
				<port id="2" names="net/mul_71:0" precision="FP32">
					<dim>10</dim>
					<dim>30</dim>
					<dim>24</dim>
					<dim>24</dim>
					<dim>24</dim>
				</port>
			</output>
		</layer>
		<layer id="365" name="net/add_85/fq_input_1" type="FakeQuantize" version="opset1">
			<data auto_broadcast="numpy" levels="256"/>
			<input>
				<port id="0">
					<dim>10</dim>
					<dim>30</dim>
					<dim>24</dim>
					<dim>24</dim>
					<dim>24</dim>
				</port>
				<port id="1"/>
				<port id="2"/>
				<port id="3"/>
				<port id="4"/>
			</input>
			<output>
				<port id="5" precision="FP32">
					<dim>10</dim>
					<dim>30</dim>
					<dim>24</dim>
					<dim>24</dim>
					<dim>24</dim>
				</port>
			</output>
		</layer>
		<layer id="366" name="4818482210828" type="Const" version="opset1">
			<data element_type="f32" offset="1395592" shape="1,1,1,1,1" size="4"/>
			<output>
				<port id="0" precision="FP32">
					<dim>1</dim>
					<dim>1</dim>
					<dim>1</dim>
					<dim>1</dim>
					<dim>1</dim>
				</port>
			</output>
		</layer>
		<layer id="367" name="4819482312337" type="Const" version="opset1">
			<data element_type="f32" offset="1395596" shape="1,1,1,1,1" size="4"/>
			<output>
				<port id="0" precision="FP32">
					<dim>1</dim>
					<dim>1</dim>
					<dim>1</dim>
					<dim>1</dim>
					<dim>1</dim>
				</port>
			</output>
		</layer>
		<layer id="368" name="4820482413438" type="Const" version="opset1">
			<data element_type="f32" offset="1395592" shape="1,1,1,1,1" size="4"/>
			<output>
				<port id="0" precision="FP32">
					<dim>1</dim>
					<dim>1</dim>
					<dim>1</dim>
					<dim>1</dim>
					<dim>1</dim>
				</port>
			</output>
		</layer>
		<layer id="369" name="4821482511986" type="Const" version="opset1">
			<data element_type="f32" offset="1395596" shape="1,1,1,1,1" size="4"/>
			<output>
				<port id="0" precision="FP32">
					<dim>1</dim>
					<dim>1</dim>
					<dim>1</dim>
					<dim>1</dim>
					<dim>1</dim>
				</port>
			</output>
		</layer>
		<layer id="370" name="net/Maximum_23/x66112376" type="Const" version="opset1">
			<data element_type="f32" offset="1395600" shape="1,1,1,1,1" size="4"/>
			<output>
				<port id="0" names="net/Maximum_23/x:0" precision="FP32">
					<dim>1</dim>
					<dim>1</dim>
					<dim>1</dim>
					<dim>1</dim>
					<dim>1</dim>
				</port>
			</output>
		</layer>
		<layer id="371" name="net/Maximum_23/fq_input_0" type="FakeQuantize" version="opset1">
			<data auto_broadcast="numpy" levels="255"/>
			<input>
				<port id="0">
					<dim>1</dim>
					<dim>1</dim>
					<dim>1</dim>
					<dim>1</dim>
					<dim>1</dim>
				</port>
				<port id="1">
					<dim>1</dim>
					<dim>1</dim>
					<dim>1</dim>
					<dim>1</dim>
					<dim>1</dim>
				</port>
				<port id="2">
					<dim>1</dim>
					<dim>1</dim>
					<dim>1</dim>
					<dim>1</dim>
					<dim>1</dim>
				</port>
				<port id="3">
					<dim>1</dim>
					<dim>1</dim>
					<dim>1</dim>
					<dim>1</dim>
					<dim>1</dim>
				</port>
				<port id="4">
					<dim>1</dim>
					<dim>1</dim>
					<dim>1</dim>
					<dim>1</dim>
					<dim>1</dim>
				</port>
			</input>
			<output>
				<port id="5" precision="FP32">
					<dim>1</dim>
					<dim>1</dim>
					<dim>1</dim>
					<dim>1</dim>
					<dim>1</dim>
				</port>
			</output>
		</layer>
		<layer id="372" name="net/Maximum_23" type="Maximum" version="opset1">
			<data auto_broadcast="numpy"/>
			<input>
				<port id="0">
					<dim>1</dim>
					<dim>1</dim>
					<dim>1</dim>
					<dim>1</dim>
					<dim>1</dim>
				</port>
				<port id="1">
					<dim>10</dim>
					<dim>30</dim>
					<dim>24</dim>
					<dim>24</dim>
					<dim>24</dim>
				</port>
			</input>
			<output>
				<port id="2" names="net/Maximum_23:0" precision="FP32">
					<dim>10</dim>
					<dim>30</dim>
					<dim>24</dim>
					<dim>24</dim>
					<dim>24</dim>
				</port>
			</output>
		</layer>
		<layer id="373" name="net/add_85" type="Add" version="opset1">
			<data auto_broadcast="numpy"/>
			<input>
				<port id="0">
					<dim>10</dim>
					<dim>30</dim>
					<dim>24</dim>
					<dim>24</dim>
					<dim>24</dim>
				</port>
				<port id="1">
					<dim>10</dim>
					<dim>30</dim>
					<dim>24</dim>
					<dim>24</dim>
					<dim>24</dim>
				</port>
			</input>
			<output>
				<port id="2" names="net/add_85:0" precision="FP32">
					<dim>10</dim>
					<dim>30</dim>
					<dim>24</dim>
					<dim>24</dim>
					<dim>24</dim>
				</port>
			</output>
		</layer>
		<layer id="374" name="net/transpose_68/fq_input_0" type="FakeQuantize" version="opset1">
			<data auto_broadcast="numpy" levels="256"/>
			<input>
				<port id="0">
					<dim>10</dim>
					<dim>30</dim>
					<dim>24</dim>
					<dim>24</dim>
					<dim>24</dim>
				</port>
				<port id="1"/>
				<port id="2"/>
				<port id="3"/>
				<port id="4"/>
			</input>
			<output>
				<port id="5" precision="FP32">
					<dim>10</dim>
					<dim>30</dim>
					<dim>24</dim>
					<dim>24</dim>
					<dim>24</dim>
				</port>
			</output>
		</layer>
		<layer id="375" name="net/transpose_68" type="Transpose" version="opset1">
			<input>
				<port id="0">
					<dim>10</dim>
					<dim>30</dim>
					<dim>24</dim>
					<dim>24</dim>
					<dim>24</dim>
				</port>
				<port id="1">
					<dim>5</dim>
				</port>
			</input>
			<output>
				<port id="2" names="net/transpose_68:0" precision="FP32">
					<dim>10</dim>
					<dim>30</dim>
					<dim>24</dim>
					<dim>24</dim>
					<dim>24</dim>
				</port>
			</output>
		</layer>
		<layer id="376" name="net/Conv3D_29" type="Convolution" version="opset1">
			<data auto_pad="valid" dilations="1,1,1" pads_begin="0,0,0" pads_end="0,0,0" strides="1,1,1"/>
			<input>
				<port id="0">
					<dim>10</dim>
					<dim>30</dim>
					<dim>24</dim>
					<dim>24</dim>
					<dim>24</dim>
				</port>
				<port id="1">
					<dim>30</dim>
					<dim>30</dim>
					<dim>3</dim>
					<dim>3</dim>
					<dim>3</dim>
				</port>
			</input>
			<output>
				<port id="2" precision="FP32">
					<dim>10</dim>
					<dim>30</dim>
					<dim>22</dim>
					<dim>22</dim>
					<dim>22</dim>
				</port>
			</output>
		</layer>
		<layer id="377" name="net/Conv3D_29/add_" type="Add" version="opset1">
			<data auto_broadcast="numpy"/>
			<input>
				<port id="0">
					<dim>10</dim>
					<dim>30</dim>
					<dim>22</dim>
					<dim>22</dim>
					<dim>22</dim>
				</port>
				<port id="1">
					<dim>1</dim>
					<dim>30</dim>
					<dim>1</dim>
					<dim>1</dim>
					<dim>1</dim>
				</port>
			</input>
			<output>
				<port id="2" precision="FP32">
					<dim>10</dim>
					<dim>30</dim>
					<dim>22</dim>
					<dim>22</dim>
					<dim>22</dim>
				</port>
			</output>
		</layer>
		<layer id="378" name="net/Conv3D_29/output_transpose/fq_input_0" type="FakeQuantize" version="opset1">
			<data auto_broadcast="numpy" levels="256"/>
			<input>
				<port id="0">
					<dim>10</dim>
					<dim>30</dim>
					<dim>22</dim>
					<dim>22</dim>
					<dim>22</dim>
				</port>
				<port id="1"/>
				<port id="2"/>
				<port id="3"/>
				<port id="4"/>
			</input>
			<output>
				<port id="5" precision="FP32">
					<dim>10</dim>
					<dim>30</dim>
					<dim>22</dim>
					<dim>22</dim>
					<dim>22</dim>
				</port>
			</output>
		</layer>
		<layer id="379" name="net/Conv3D_29/output_transpose" type="Transpose" version="opset1">
			<input>
				<port id="0">
					<dim>10</dim>
					<dim>30</dim>
					<dim>22</dim>
					<dim>22</dim>
					<dim>22</dim>
				</port>
				<port id="1">
					<dim>5</dim>
				</port>
			</input>
			<output>
				<port id="2" names="net/Conv3D_29:0,net/transpose_69:0" precision="FP32">
					<dim>10</dim>
					<dim>30</dim>
					<dim>22</dim>
					<dim>22</dim>
					<dim>22</dim>
				</port>
			</output>
		</layer>
		<layer id="380" name="net/truediv_26/Fused_Mul_" type="Multiply" version="opset1">
			<data auto_broadcast="numpy"/>
			<input>
				<port id="0">
					<dim>10</dim>
					<dim>30</dim>
					<dim>22</dim>
					<dim>22</dim>
					<dim>22</dim>
				</port>
				<port id="1">
					<dim>1</dim>
					<dim>30</dim>
					<dim>1</dim>
					<dim>1</dim>
					<dim>1</dim>
				</port>
			</input>
			<output>
				<port id="2" precision="FP32">
					<dim>10</dim>
					<dim>30</dim>
					<dim>22</dim>
					<dim>22</dim>
					<dim>22</dim>
				</port>
			</output>
		</layer>
		<layer id="381" name="data_add_11021110263405468812754" type="Const" version="opset1">
			<data element_type="f32" offset="1395604" shape="1,30,1,1,1" size="120"/>
			<output>
				<port id="0" precision="FP32">
					<dim>1</dim>
					<dim>30</dim>
					<dim>1</dim>
					<dim>1</dim>
					<dim>1</dim>
				</port>
			</output>
		</layer>
		<layer id="382" name="net/sub_50/Fused_Add_" type="Add" version="opset1">
			<data auto_broadcast="numpy"/>
			<input>
				<port id="0">
					<dim>10</dim>
					<dim>30</dim>
					<dim>22</dim>
					<dim>22</dim>
					<dim>22</dim>
				</port>
				<port id="1">
					<dim>1</dim>
					<dim>30</dim>
					<dim>1</dim>
					<dim>1</dim>
					<dim>1</dim>
				</port>
			</input>
			<output>
				<port id="2" names="net/add_90:0" precision="FP32">
					<dim>10</dim>
					<dim>30</dim>
					<dim>22</dim>
					<dim>22</dim>
					<dim>22</dim>
				</port>
			</output>
		</layer>
		<layer id="383" name="net/sub_53/sub/fq_input_0" type="FakeQuantize" version="opset1">
			<data auto_broadcast="numpy" levels="256"/>
			<input>
				<port id="0">
					<dim>10</dim>
					<dim>30</dim>
					<dim>22</dim>
					<dim>22</dim>
					<dim>22</dim>
				</port>
				<port id="1"/>
				<port id="2"/>
				<port id="3"/>
				<port id="4"/>
			</input>
			<output>
				<port id="5" precision="FP32">
					<dim>10</dim>
					<dim>30</dim>
					<dim>22</dim>
					<dim>22</dim>
					<dim>22</dim>
				</port>
			</output>
		</layer>
		<layer id="384" name="1925192911440" type="Const" version="opset1">
			<data element_type="f32" offset="1395724" shape="" size="4"/>
			<output>
				<port id="0" precision="FP32"/>
			</output>
		</layer>
		<layer id="385" name="1926193011320" type="Const" version="opset1">
			<data element_type="f32" offset="1293760" shape="" size="4"/>
			<output>
				<port id="0" precision="FP32"/>
			</output>
		</layer>
		<layer id="386" name="1927193111140" type="Const" version="opset1">
			<data element_type="f32" offset="1395724" shape="" size="4"/>
			<output>
				<port id="0" precision="FP32"/>
			</output>
		</layer>
		<layer id="387" name="1928193211290" type="Const" version="opset1">
			<data element_type="f32" offset="1293760" shape="" size="4"/>
			<output>
				<port id="0" precision="FP32"/>
			</output>
		</layer>
		<layer id="388" name="net/Abs_26" type="Abs" version="opset1">
			<input>
				<port id="0">
					<dim>10</dim>
					<dim>30</dim>
					<dim>22</dim>
					<dim>22</dim>
					<dim>22</dim>
				</port>
			</input>
			<output>
				<port id="1" precision="FP32">
					<dim>10</dim>
					<dim>30</dim>
					<dim>22</dim>
					<dim>22</dim>
					<dim>22</dim>
				</port>
			</output>
		</layer>
		<layer id="389" name="net/sub_53/sub/fq_input_1" type="FakeQuantize" version="opset1">
			<data auto_broadcast="numpy" levels="256"/>
			<input>
				<port id="0">
					<dim>10</dim>
					<dim>30</dim>
					<dim>22</dim>
					<dim>22</dim>
					<dim>22</dim>
				</port>
				<port id="1"/>
				<port id="2"/>
				<port id="3"/>
				<port id="4"/>
			</input>
			<output>
				<port id="5" precision="FP32">
					<dim>10</dim>
					<dim>30</dim>
					<dim>22</dim>
					<dim>22</dim>
					<dim>22</dim>
				</port>
			</output>
		</layer>
		<layer id="390" name="net/sub_53/sub" type="Subtract" version="opset1">
			<data auto_broadcast="numpy"/>
			<input>
				<port id="0">
					<dim>10</dim>
					<dim>30</dim>
					<dim>22</dim>
					<dim>22</dim>
					<dim>22</dim>
				</port>
				<port id="1">
					<dim>10</dim>
					<dim>30</dim>
					<dim>22</dim>
					<dim>22</dim>
					<dim>22</dim>
				</port>
			</input>
			<output>
				<port id="2" names="net/sub_53:0" precision="FP32">
					<dim>10</dim>
					<dim>30</dim>
					<dim>22</dim>
					<dim>22</dim>
					<dim>22</dim>
				</port>
			</output>
		</layer>
		<layer id="391" name="net/mul_79/Fused_Mul_/fq_input_0" type="FakeQuantize" version="opset1">
			<data auto_broadcast="numpy" levels="256"/>
			<input>
				<port id="0">
					<dim>10</dim>
					<dim>30</dim>
					<dim>22</dim>
					<dim>22</dim>
					<dim>22</dim>
				</port>
				<port id="1"/>
				<port id="2"/>
				<port id="3"/>
				<port id="4"/>
			</input>
			<output>
				<port id="5" precision="FP32">
					<dim>10</dim>
					<dim>30</dim>
					<dim>22</dim>
					<dim>22</dim>
					<dim>22</dim>
				</port>
			</output>
		</layer>
		<layer id="392" name="2685268912445" type="Const" version="opset1">
			<data element_type="f32" offset="1395728" shape="1,1,1,1,1" size="4"/>
			<output>
				<port id="0" precision="FP32">
					<dim>1</dim>
					<dim>1</dim>
					<dim>1</dim>
					<dim>1</dim>
					<dim>1</dim>
				</port>
			</output>
		</layer>
		<layer id="393" name="2686269011791" type="Const" version="opset1">
			<data element_type="f32" offset="1395732" shape="1,1,1,1,1" size="4"/>
			<output>
				<port id="0" precision="FP32">
					<dim>1</dim>
					<dim>1</dim>
					<dim>1</dim>
					<dim>1</dim>
					<dim>1</dim>
				</port>
			</output>
		</layer>
		<layer id="394" name="2687269112040" type="Const" version="opset1">
			<data element_type="f32" offset="1395728" shape="1,1,1,1,1" size="4"/>
			<output>
				<port id="0" precision="FP32">
					<dim>1</dim>
					<dim>1</dim>
					<dim>1</dim>
					<dim>1</dim>
					<dim>1</dim>
				</port>
			</output>
		</layer>
		<layer id="395" name="2688269212670" type="Const" version="opset1">
			<data element_type="f32" offset="1395732" shape="1,1,1,1,1" size="4"/>
			<output>
				<port id="0" precision="FP32">
					<dim>1</dim>
					<dim>1</dim>
					<dim>1</dim>
					<dim>1</dim>
					<dim>1</dim>
				</port>
			</output>
		</layer>
		<layer id="396" name="data_mul_11028110303379669311152" type="Const" version="opset1">
			<data element_type="f32" offset="1395736" shape="1,30,1,1,1" size="120"/>
			<output>
				<port id="0" precision="FP32">
					<dim>1</dim>
					<dim>30</dim>
					<dim>1</dim>
					<dim>1</dim>
					<dim>1</dim>
				</port>
			</output>
		</layer>
		<layer id="397" name="net/mul_79/Fused_Mul_/fq_input_1" type="FakeQuantize" version="opset1">
			<data auto_broadcast="numpy" levels="255"/>
			<input>
				<port id="0">
					<dim>1</dim>
					<dim>30</dim>
					<dim>1</dim>
					<dim>1</dim>
					<dim>1</dim>
				</port>
				<port id="1">
					<dim>1</dim>
					<dim>1</dim>
					<dim>1</dim>
					<dim>1</dim>
					<dim>1</dim>
				</port>
				<port id="2">
					<dim>1</dim>
					<dim>1</dim>
					<dim>1</dim>
					<dim>1</dim>
					<dim>1</dim>
				</port>
				<port id="3">
					<dim>1</dim>
					<dim>1</dim>
					<dim>1</dim>
					<dim>1</dim>
					<dim>1</dim>
				</port>
				<port id="4">
					<dim>1</dim>
					<dim>1</dim>
					<dim>1</dim>
					<dim>1</dim>
					<dim>1</dim>
				</port>
			</input>
			<output>
				<port id="5" precision="FP32">
					<dim>1</dim>
					<dim>30</dim>
					<dim>1</dim>
					<dim>1</dim>
					<dim>1</dim>
				</port>
			</output>
		</layer>
		<layer id="398" name="net/mul_79/Fused_Mul_" type="Multiply" version="opset1">
			<data auto_broadcast="numpy"/>
			<input>
				<port id="0">
					<dim>10</dim>
					<dim>30</dim>
					<dim>22</dim>
					<dim>22</dim>
					<dim>22</dim>
				</port>
				<port id="1">
					<dim>1</dim>
					<dim>30</dim>
					<dim>1</dim>
					<dim>1</dim>
					<dim>1</dim>
				</port>
			</input>
			<output>
				<port id="2" names="net/mul_80:0" precision="FP32">
					<dim>10</dim>
					<dim>30</dim>
					<dim>22</dim>
					<dim>22</dim>
					<dim>22</dim>
				</port>
			</output>
		</layer>
		<layer id="399" name="net/add_95/fq_input_1" type="FakeQuantize" version="opset1">
			<data auto_broadcast="numpy" levels="256"/>
			<input>
				<port id="0">
					<dim>10</dim>
					<dim>30</dim>
					<dim>22</dim>
					<dim>22</dim>
					<dim>22</dim>
				</port>
				<port id="1"/>
				<port id="2"/>
				<port id="3"/>
				<port id="4"/>
			</input>
			<output>
				<port id="5" precision="FP32">
					<dim>10</dim>
					<dim>30</dim>
					<dim>22</dim>
					<dim>22</dim>
					<dim>22</dim>
				</port>
			</output>
		</layer>
		<layer id="400" name="4828483212679" type="Const" version="opset1">
			<data element_type="f32" offset="1395592" shape="1,1,1,1,1" size="4"/>
			<output>
				<port id="0" precision="FP32">
					<dim>1</dim>
					<dim>1</dim>
					<dim>1</dim>
					<dim>1</dim>
					<dim>1</dim>
				</port>
			</output>
		</layer>
		<layer id="401" name="4829483311602" type="Const" version="opset1">
			<data element_type="f32" offset="1395596" shape="1,1,1,1,1" size="4"/>
			<output>
				<port id="0" precision="FP32">
					<dim>1</dim>
					<dim>1</dim>
					<dim>1</dim>
					<dim>1</dim>
					<dim>1</dim>
				</port>
			</output>
		</layer>
		<layer id="402" name="4830483412349" type="Const" version="opset1">
			<data element_type="f32" offset="1395592" shape="1,1,1,1,1" size="4"/>
			<output>
				<port id="0" precision="FP32">
					<dim>1</dim>
					<dim>1</dim>
					<dim>1</dim>
					<dim>1</dim>
					<dim>1</dim>
				</port>
			</output>
		</layer>
		<layer id="403" name="4831483511308" type="Const" version="opset1">
			<data element_type="f32" offset="1395596" shape="1,1,1,1,1" size="4"/>
			<output>
				<port id="0" precision="FP32">
					<dim>1</dim>
					<dim>1</dim>
					<dim>1</dim>
					<dim>1</dim>
					<dim>1</dim>
				</port>
			</output>
		</layer>
		<layer id="404" name="net/Maximum_26/x66013141" type="Const" version="opset1">
			<data element_type="f32" offset="1395856" shape="1,1,1,1,1" size="4"/>
			<output>
				<port id="0" names="net/Maximum_26/x:0" precision="FP32">
					<dim>1</dim>
					<dim>1</dim>
					<dim>1</dim>
					<dim>1</dim>
					<dim>1</dim>
				</port>
			</output>
		</layer>
		<layer id="405" name="net/Maximum_26/fq_input_0" type="FakeQuantize" version="opset1">
			<data auto_broadcast="numpy" levels="255"/>
			<input>
				<port id="0">
					<dim>1</dim>
					<dim>1</dim>
					<dim>1</dim>
					<dim>1</dim>
					<dim>1</dim>
				</port>
				<port id="1">
					<dim>1</dim>
					<dim>1</dim>
					<dim>1</dim>
					<dim>1</dim>
					<dim>1</dim>
				</port>
				<port id="2">
					<dim>1</dim>
					<dim>1</dim>
					<dim>1</dim>
					<dim>1</dim>
					<dim>1</dim>
				</port>
				<port id="3">
					<dim>1</dim>
					<dim>1</dim>
					<dim>1</dim>
					<dim>1</dim>
					<dim>1</dim>
				</port>
				<port id="4">
					<dim>1</dim>
					<dim>1</dim>
					<dim>1</dim>
					<dim>1</dim>
					<dim>1</dim>
				</port>
			</input>
			<output>
				<port id="5" precision="FP32">
					<dim>1</dim>
					<dim>1</dim>
					<dim>1</dim>
					<dim>1</dim>
					<dim>1</dim>
				</port>
			</output>
		</layer>
		<layer id="406" name="net/Maximum_26" type="Maximum" version="opset1">
			<data auto_broadcast="numpy"/>
			<input>
				<port id="0">
					<dim>1</dim>
					<dim>1</dim>
					<dim>1</dim>
					<dim>1</dim>
					<dim>1</dim>
				</port>
				<port id="1">
					<dim>10</dim>
					<dim>30</dim>
					<dim>22</dim>
					<dim>22</dim>
					<dim>22</dim>
				</port>
			</input>
			<output>
				<port id="2" names="net/Maximum_26:0" precision="FP32">
					<dim>10</dim>
					<dim>30</dim>
					<dim>22</dim>
					<dim>22</dim>
					<dim>22</dim>
				</port>
			</output>
		</layer>
		<layer id="407" name="net/add_95" type="Add" version="opset1">
			<data auto_broadcast="numpy"/>
			<input>
				<port id="0">
					<dim>10</dim>
					<dim>30</dim>
					<dim>22</dim>
					<dim>22</dim>
					<dim>22</dim>
				</port>
				<port id="1">
					<dim>10</dim>
					<dim>30</dim>
					<dim>22</dim>
					<dim>22</dim>
					<dim>22</dim>
				</port>
			</input>
			<output>
				<port id="2" names="net/add_95:0" precision="FP32">
					<dim>10</dim>
					<dim>30</dim>
					<dim>22</dim>
					<dim>22</dim>
					<dim>22</dim>
				</port>
			</output>
		</layer>
		<layer id="408" name="net/transpose_75/fq_input_0" type="FakeQuantize" version="opset1">
			<data auto_broadcast="numpy" levels="256"/>
			<input>
				<port id="0">
					<dim>10</dim>
					<dim>30</dim>
					<dim>22</dim>
					<dim>22</dim>
					<dim>22</dim>
				</port>
				<port id="1"/>
				<port id="2"/>
				<port id="3"/>
				<port id="4"/>
			</input>
			<output>
				<port id="5" precision="FP32">
					<dim>10</dim>
					<dim>30</dim>
					<dim>22</dim>
					<dim>22</dim>
					<dim>22</dim>
				</port>
			</output>
		</layer>
		<layer id="409" name="net/transpose_75" type="Transpose" version="opset1">
			<input>
				<port id="0">
					<dim>10</dim>
					<dim>30</dim>
					<dim>22</dim>
					<dim>22</dim>
					<dim>22</dim>
				</port>
				<port id="1">
					<dim>5</dim>
				</port>
			</input>
			<output>
				<port id="2" names="net/transpose_75:0" precision="FP32">
					<dim>10</dim>
					<dim>30</dim>
					<dim>22</dim>
					<dim>22</dim>
					<dim>22</dim>
				</port>
			</output>
		</layer>
		<layer id="410" name="net/Conv3D_32" type="Convolution" version="opset1">
			<data auto_pad="valid" dilations="1,1,1" pads_begin="0,0,0" pads_end="0,0,0" strides="1,1,1"/>
			<input>
				<port id="0">
					<dim>10</dim>
					<dim>30</dim>
					<dim>22</dim>
					<dim>22</dim>
					<dim>22</dim>
				</port>
				<port id="1">
					<dim>40</dim>
					<dim>30</dim>
					<dim>3</dim>
					<dim>3</dim>
					<dim>3</dim>
				</port>
			</input>
			<output>
				<port id="2" precision="FP32">
					<dim>10</dim>
					<dim>40</dim>
					<dim>20</dim>
					<dim>20</dim>
					<dim>20</dim>
				</port>
			</output>
		</layer>
		<layer id="411" name="net/Conv3D_32/add_" type="Add" version="opset1">
			<data auto_broadcast="numpy"/>
			<input>
				<port id="0">
					<dim>10</dim>
					<dim>40</dim>
					<dim>20</dim>
					<dim>20</dim>
					<dim>20</dim>
				</port>
				<port id="1">
					<dim>1</dim>
					<dim>40</dim>
					<dim>1</dim>
					<dim>1</dim>
					<dim>1</dim>
				</port>
			</input>
			<output>
				<port id="2" precision="FP32">
					<dim>10</dim>
					<dim>40</dim>
					<dim>20</dim>
					<dim>20</dim>
					<dim>20</dim>
				</port>
			</output>
		</layer>
		<layer id="412" name="net/Conv3D_32/output_transpose/fq_input_0" type="FakeQuantize" version="opset1">
			<data auto_broadcast="numpy" levels="256"/>
			<input>
				<port id="0">
					<dim>10</dim>
					<dim>40</dim>
					<dim>20</dim>
					<dim>20</dim>
					<dim>20</dim>
				</port>
				<port id="1"/>
				<port id="2"/>
				<port id="3"/>
				<port id="4"/>
			</input>
			<output>
				<port id="5" precision="FP32">
					<dim>10</dim>
					<dim>40</dim>
					<dim>20</dim>
					<dim>20</dim>
					<dim>20</dim>
				</port>
			</output>
		</layer>
		<layer id="413" name="net/Conv3D_32/output_transpose" type="Transpose" version="opset1">
			<input>
				<port id="0">
					<dim>10</dim>
					<dim>40</dim>
					<dim>20</dim>
					<dim>20</dim>
					<dim>20</dim>
				</port>
				<port id="1">
					<dim>5</dim>
				</port>
			</input>
			<output>
				<port id="2" names="net/Conv3D_32:0,net/transpose_76:0" precision="FP32">
					<dim>10</dim>
					<dim>40</dim>
					<dim>20</dim>
					<dim>20</dim>
					<dim>20</dim>
				</port>
			</output>
		</layer>
		<layer id="414" name="net/truediv_29/Fused_Mul_" type="Multiply" version="opset1">
			<data auto_broadcast="numpy"/>
			<input>
				<port id="0">
					<dim>10</dim>
					<dim>40</dim>
					<dim>20</dim>
					<dim>20</dim>
					<dim>20</dim>
				</port>
				<port id="1">
					<dim>1</dim>
					<dim>40</dim>
					<dim>1</dim>
					<dim>1</dim>
					<dim>1</dim>
				</port>
			</input>
			<output>
				<port id="2" precision="FP32">
					<dim>10</dim>
					<dim>40</dim>
					<dim>20</dim>
					<dim>20</dim>
					<dim>20</dim>
				</port>
			</output>
		</layer>
		<layer id="415" name="data_add_11033110383404870413219" type="Const" version="opset1">
			<data element_type="f32" offset="1395860" shape="1,40,1,1,1" size="160"/>
			<output>
				<port id="0" precision="FP32">
					<dim>1</dim>
					<dim>40</dim>
					<dim>1</dim>
					<dim>1</dim>
					<dim>1</dim>
				</port>
			</output>
		</layer>
		<layer id="416" name="net/sub_56/Fused_Add_" type="Add" version="opset1">
			<data auto_broadcast="numpy"/>
			<input>
				<port id="0">
					<dim>10</dim>
					<dim>40</dim>
					<dim>20</dim>
					<dim>20</dim>
					<dim>20</dim>
				</port>
				<port id="1">
					<dim>1</dim>
					<dim>40</dim>
					<dim>1</dim>
					<dim>1</dim>
					<dim>1</dim>
				</port>
			</input>
			<output>
				<port id="2" names="net/add_100:0" precision="FP32">
					<dim>10</dim>
					<dim>40</dim>
					<dim>20</dim>
					<dim>20</dim>
					<dim>20</dim>
				</port>
			</output>
		</layer>
		<layer id="417" name="net/sub_59/sub/fq_input_0" type="FakeQuantize" version="opset1">
			<data auto_broadcast="numpy" levels="256"/>
			<input>
				<port id="0">
					<dim>10</dim>
					<dim>40</dim>
					<dim>20</dim>
					<dim>20</dim>
					<dim>20</dim>
				</port>
				<port id="1"/>
				<port id="2"/>
				<port id="3"/>
				<port id="4"/>
			</input>
			<output>
				<port id="5" precision="FP32">
					<dim>10</dim>
					<dim>40</dim>
					<dim>20</dim>
					<dim>20</dim>
					<dim>20</dim>
				</port>
			</output>
		</layer>
		<layer id="418" name="2505250911836" type="Const" version="opset1">
			<data element_type="f32" offset="1396020" shape="" size="4"/>
			<output>
				<port id="0" precision="FP32"/>
			</output>
		</layer>
		<layer id="419" name="2506251012532" type="Const" version="opset1">
			<data element_type="f32" offset="1163648" shape="" size="4"/>
			<output>
				<port id="0" precision="FP32"/>
			</output>
		</layer>
		<layer id="420" name="2507251112862" type="Const" version="opset1">
			<data element_type="f32" offset="1396020" shape="" size="4"/>
			<output>
				<port id="0" precision="FP32"/>
			</output>
		</layer>
		<layer id="421" name="2508251212442" type="Const" version="opset1">
			<data element_type="f32" offset="1163648" shape="" size="4"/>
			<output>
				<port id="0" precision="FP32"/>
			</output>
		</layer>
		<layer id="422" name="net/Abs_29" type="Abs" version="opset1">
			<input>
				<port id="0">
					<dim>10</dim>
					<dim>40</dim>
					<dim>20</dim>
					<dim>20</dim>
					<dim>20</dim>
				</port>
			</input>
			<output>
				<port id="1" precision="FP32">
					<dim>10</dim>
					<dim>40</dim>
					<dim>20</dim>
					<dim>20</dim>
					<dim>20</dim>
				</port>
			</output>
		</layer>
		<layer id="423" name="net/sub_59/sub/fq_input_1" type="FakeQuantize" version="opset1">
			<data auto_broadcast="numpy" levels="256"/>
			<input>
				<port id="0">
					<dim>10</dim>
					<dim>40</dim>
					<dim>20</dim>
					<dim>20</dim>
					<dim>20</dim>
				</port>
				<port id="1"/>
				<port id="2"/>
				<port id="3"/>
				<port id="4"/>
			</input>
			<output>
				<port id="5" precision="FP32">
					<dim>10</dim>
					<dim>40</dim>
					<dim>20</dim>
					<dim>20</dim>
					<dim>20</dim>
				</port>
			</output>
		</layer>
		<layer id="424" name="net/sub_59/sub" type="Subtract" version="opset1">
			<data auto_broadcast="numpy"/>
			<input>
				<port id="0">
					<dim>10</dim>
					<dim>40</dim>
					<dim>20</dim>
					<dim>20</dim>
					<dim>20</dim>
				</port>
				<port id="1">
					<dim>10</dim>
					<dim>40</dim>
					<dim>20</dim>
					<dim>20</dim>
					<dim>20</dim>
				</port>
			</input>
			<output>
				<port id="2" names="net/sub_59:0" precision="FP32">
					<dim>10</dim>
					<dim>40</dim>
					<dim>20</dim>
					<dim>20</dim>
					<dim>20</dim>
				</port>
			</output>
		</layer>
		<layer id="425" name="net/mul_88/Fused_Mul_/fq_input_0" type="FakeQuantize" version="opset1">
			<data auto_broadcast="numpy" levels="256"/>
			<input>
				<port id="0">
					<dim>10</dim>
					<dim>40</dim>
					<dim>20</dim>
					<dim>20</dim>
					<dim>20</dim>
				</port>
				<port id="1"/>
				<port id="2"/>
				<port id="3"/>
				<port id="4"/>
			</input>
			<output>
				<port id="5" precision="FP32">
					<dim>10</dim>
					<dim>40</dim>
					<dim>20</dim>
					<dim>20</dim>
					<dim>20</dim>
				</port>
			</output>
		</layer>
		<layer id="426" name="2105210912607" type="Const" version="opset1">
			<data element_type="f32" offset="1396024" shape="1,1,1,1,1" size="4"/>
			<output>
				<port id="0" precision="FP32">
					<dim>1</dim>
					<dim>1</dim>
					<dim>1</dim>
					<dim>1</dim>
					<dim>1</dim>
				</port>
			</output>
		</layer>
		<layer id="427" name="2106211011437" type="Const" version="opset1">
			<data element_type="f32" offset="1396028" shape="1,1,1,1,1" size="4"/>
			<output>
				<port id="0" precision="FP32">
					<dim>1</dim>
					<dim>1</dim>
					<dim>1</dim>
					<dim>1</dim>
					<dim>1</dim>
				</port>
			</output>
		</layer>
		<layer id="428" name="2107211113285" type="Const" version="opset1">
			<data element_type="f32" offset="1396024" shape="1,1,1,1,1" size="4"/>
			<output>
				<port id="0" precision="FP32">
					<dim>1</dim>
					<dim>1</dim>
					<dim>1</dim>
					<dim>1</dim>
					<dim>1</dim>
				</port>
			</output>
		</layer>
		<layer id="429" name="2108211211923" type="Const" version="opset1">
			<data element_type="f32" offset="1396028" shape="1,1,1,1,1" size="4"/>
			<output>
				<port id="0" precision="FP32">
					<dim>1</dim>
					<dim>1</dim>
					<dim>1</dim>
					<dim>1</dim>
					<dim>1</dim>
				</port>
			</output>
		</layer>
		<layer id="430" name="data_mul_11040110423393470910948" type="Const" version="opset1">
			<data element_type="f32" offset="1396032" shape="1,40,1,1,1" size="160"/>
			<output>
				<port id="0" precision="FP32">
					<dim>1</dim>
					<dim>40</dim>
					<dim>1</dim>
					<dim>1</dim>
					<dim>1</dim>
				</port>
			</output>
		</layer>
		<layer id="431" name="net/mul_88/Fused_Mul_/fq_input_1" type="FakeQuantize" version="opset1">
			<data auto_broadcast="numpy" levels="255"/>
			<input>
				<port id="0">
					<dim>1</dim>
					<dim>40</dim>
					<dim>1</dim>
					<dim>1</dim>
					<dim>1</dim>
				</port>
				<port id="1">
					<dim>1</dim>
					<dim>1</dim>
					<dim>1</dim>
					<dim>1</dim>
					<dim>1</dim>
				</port>
				<port id="2">
					<dim>1</dim>
					<dim>1</dim>
					<dim>1</dim>
					<dim>1</dim>
					<dim>1</dim>
				</port>
				<port id="3">
					<dim>1</dim>
					<dim>1</dim>
					<dim>1</dim>
					<dim>1</dim>
					<dim>1</dim>
				</port>
				<port id="4">
					<dim>1</dim>
					<dim>1</dim>
					<dim>1</dim>
					<dim>1</dim>
					<dim>1</dim>
				</port>
			</input>
			<output>
				<port id="5" precision="FP32">
					<dim>1</dim>
					<dim>40</dim>
					<dim>1</dim>
					<dim>1</dim>
					<dim>1</dim>
				</port>
			</output>
		</layer>
		<layer id="432" name="net/mul_88/Fused_Mul_" type="Multiply" version="opset1">
			<data auto_broadcast="numpy"/>
			<input>
				<port id="0">
					<dim>10</dim>
					<dim>40</dim>
					<dim>20</dim>
					<dim>20</dim>
					<dim>20</dim>
				</port>
				<port id="1">
					<dim>1</dim>
					<dim>40</dim>
					<dim>1</dim>
					<dim>1</dim>
					<dim>1</dim>
				</port>
			</input>
			<output>
				<port id="2" names="net/mul_89:0" precision="FP32">
					<dim>10</dim>
					<dim>40</dim>
					<dim>20</dim>
					<dim>20</dim>
					<dim>20</dim>
				</port>
			</output>
		</layer>
		<layer id="433" name="net/add_105/fq_input_1" type="FakeQuantize" version="opset1">
			<data auto_broadcast="numpy" levels="256"/>
			<input>
				<port id="0">
					<dim>10</dim>
					<dim>40</dim>
					<dim>20</dim>
					<dim>20</dim>
					<dim>20</dim>
				</port>
				<port id="1"/>
				<port id="2"/>
				<port id="3"/>
				<port id="4"/>
			</input>
			<output>
				<port id="5" precision="FP32">
					<dim>10</dim>
					<dim>40</dim>
					<dim>20</dim>
					<dim>20</dim>
					<dim>20</dim>
				</port>
			</output>
		</layer>
		<layer id="434" name="4658466212553" type="Const" version="opset1">
			<data element_type="f32" offset="1395592" shape="1,1,1,1,1" size="4"/>
			<output>
				<port id="0" precision="FP32">
					<dim>1</dim>
					<dim>1</dim>
					<dim>1</dim>
					<dim>1</dim>
					<dim>1</dim>
				</port>
			</output>
		</layer>
		<layer id="435" name="4659466310984" type="Const" version="opset1">
			<data element_type="f32" offset="1395596" shape="1,1,1,1,1" size="4"/>
			<output>
				<port id="0" precision="FP32">
					<dim>1</dim>
					<dim>1</dim>
					<dim>1</dim>
					<dim>1</dim>
					<dim>1</dim>
				</port>
			</output>
		</layer>
		<layer id="436" name="4660466413174" type="Const" version="opset1">
			<data element_type="f32" offset="1395592" shape="1,1,1,1,1" size="4"/>
			<output>
				<port id="0" precision="FP32">
					<dim>1</dim>
					<dim>1</dim>
					<dim>1</dim>
					<dim>1</dim>
					<dim>1</dim>
				</port>
			</output>
		</layer>
		<layer id="437" name="4661466513192" type="Const" version="opset1">
			<data element_type="f32" offset="1395596" shape="1,1,1,1,1" size="4"/>
			<output>
				<port id="0" precision="FP32">
					<dim>1</dim>
					<dim>1</dim>
					<dim>1</dim>
					<dim>1</dim>
					<dim>1</dim>
				</port>
			</output>
		</layer>
		<layer id="438" name="net/Maximum_29/x65911599" type="Const" version="opset1">
			<data element_type="f32" offset="1396192" shape="1,1,1,1,1" size="4"/>
			<output>
				<port id="0" names="net/Maximum_29/x:0" precision="FP32">
					<dim>1</dim>
					<dim>1</dim>
					<dim>1</dim>
					<dim>1</dim>
					<dim>1</dim>
				</port>
			</output>
		</layer>
		<layer id="439" name="net/Maximum_29/fq_input_0" type="FakeQuantize" version="opset1">
			<data auto_broadcast="numpy" levels="255"/>
			<input>
				<port id="0">
					<dim>1</dim>
					<dim>1</dim>
					<dim>1</dim>
					<dim>1</dim>
					<dim>1</dim>
				</port>
				<port id="1">
					<dim>1</dim>
					<dim>1</dim>
					<dim>1</dim>
					<dim>1</dim>
					<dim>1</dim>
				</port>
				<port id="2">
					<dim>1</dim>
					<dim>1</dim>
					<dim>1</dim>
					<dim>1</dim>
					<dim>1</dim>
				</port>
				<port id="3">
					<dim>1</dim>
					<dim>1</dim>
					<dim>1</dim>
					<dim>1</dim>
					<dim>1</dim>
				</port>
				<port id="4">
					<dim>1</dim>
					<dim>1</dim>
					<dim>1</dim>
					<dim>1</dim>
					<dim>1</dim>
				</port>
			</input>
			<output>
				<port id="5" precision="FP32">
					<dim>1</dim>
					<dim>1</dim>
					<dim>1</dim>
					<dim>1</dim>
					<dim>1</dim>
				</port>
			</output>
		</layer>
		<layer id="440" name="net/Maximum_29" type="Maximum" version="opset1">
			<data auto_broadcast="numpy"/>
			<input>
				<port id="0">
					<dim>1</dim>
					<dim>1</dim>
					<dim>1</dim>
					<dim>1</dim>
					<dim>1</dim>
				</port>
				<port id="1">
					<dim>10</dim>
					<dim>40</dim>
					<dim>20</dim>
					<dim>20</dim>
					<dim>20</dim>
				</port>
			</input>
			<output>
				<port id="2" names="net/Maximum_29:0" precision="FP32">
					<dim>10</dim>
					<dim>40</dim>
					<dim>20</dim>
					<dim>20</dim>
					<dim>20</dim>
				</port>
			</output>
		</layer>
		<layer id="441" name="net/add_105" type="Add" version="opset1">
			<data auto_broadcast="numpy"/>
			<input>
				<port id="0">
					<dim>10</dim>
					<dim>40</dim>
					<dim>20</dim>
					<dim>20</dim>
					<dim>20</dim>
				</port>
				<port id="1">
					<dim>10</dim>
					<dim>40</dim>
					<dim>20</dim>
					<dim>20</dim>
					<dim>20</dim>
				</port>
			</input>
			<output>
				<port id="2" names="net/add_105:0" precision="FP32">
					<dim>10</dim>
					<dim>40</dim>
					<dim>20</dim>
					<dim>20</dim>
					<dim>20</dim>
				</port>
			</output>
		</layer>
		<layer id="442" name="net/transpose_82/fq_input_0" type="FakeQuantize" version="opset1">
			<data auto_broadcast="numpy" levels="256"/>
			<input>
				<port id="0">
					<dim>10</dim>
					<dim>40</dim>
					<dim>20</dim>
					<dim>20</dim>
					<dim>20</dim>
				</port>
				<port id="1"/>
				<port id="2"/>
				<port id="3"/>
				<port id="4"/>
			</input>
			<output>
				<port id="5" precision="FP32">
					<dim>10</dim>
					<dim>40</dim>
					<dim>20</dim>
					<dim>20</dim>
					<dim>20</dim>
				</port>
			</output>
		</layer>
		<layer id="443" name="net/transpose_82" type="Transpose" version="opset1">
			<input>
				<port id="0">
					<dim>10</dim>
					<dim>40</dim>
					<dim>20</dim>
					<dim>20</dim>
					<dim>20</dim>
				</port>
				<port id="1">
					<dim>5</dim>
				</port>
			</input>
			<output>
				<port id="2" names="net/transpose_82:0" precision="FP32">
					<dim>10</dim>
					<dim>40</dim>
					<dim>20</dim>
					<dim>20</dim>
					<dim>20</dim>
				</port>
			</output>
		</layer>
		<layer id="444" name="net/Conv3D_35" type="Convolution" version="opset1">
			<data auto_pad="valid" dilations="1,1,1" pads_begin="0,0,0" pads_end="0,0,0" strides="1,1,1"/>
			<input>
				<port id="0">
					<dim>10</dim>
					<dim>40</dim>
					<dim>20</dim>
					<dim>20</dim>
					<dim>20</dim>
				</port>
				<port id="1">
					<dim>40</dim>
					<dim>40</dim>
					<dim>3</dim>
					<dim>3</dim>
					<dim>3</dim>
				</port>
			</input>
			<output>
				<port id="2" precision="FP32">
					<dim>10</dim>
					<dim>40</dim>
					<dim>18</dim>
					<dim>18</dim>
					<dim>18</dim>
				</port>
			</output>
		</layer>
		<layer id="445" name="net/Conv3D_35/add_" type="Add" version="opset1">
			<data auto_broadcast="numpy"/>
			<input>
				<port id="0">
					<dim>10</dim>
					<dim>40</dim>
					<dim>18</dim>
					<dim>18</dim>
					<dim>18</dim>
				</port>
				<port id="1">
					<dim>1</dim>
					<dim>40</dim>
					<dim>1</dim>
					<dim>1</dim>
					<dim>1</dim>
				</port>
			</input>
			<output>
				<port id="2" precision="FP32">
					<dim>10</dim>
					<dim>40</dim>
					<dim>18</dim>
					<dim>18</dim>
					<dim>18</dim>
				</port>
			</output>
		</layer>
		<layer id="446" name="net/Conv3D_35/output_transpose/fq_input_0" type="FakeQuantize" version="opset1">
			<data auto_broadcast="numpy" levels="256"/>
			<input>
				<port id="0">
					<dim>10</dim>
					<dim>40</dim>
					<dim>18</dim>
					<dim>18</dim>
					<dim>18</dim>
				</port>
				<port id="1"/>
				<port id="2"/>
				<port id="3"/>
				<port id="4"/>
			</input>
			<output>
				<port id="5" precision="FP32">
					<dim>10</dim>
					<dim>40</dim>
					<dim>18</dim>
					<dim>18</dim>
					<dim>18</dim>
				</port>
			</output>
		</layer>
		<layer id="447" name="net/Conv3D_35/output_transpose" type="Transpose" version="opset1">
			<input>
				<port id="0">
					<dim>10</dim>
					<dim>40</dim>
					<dim>18</dim>
					<dim>18</dim>
					<dim>18</dim>
				</port>
				<port id="1">
					<dim>5</dim>
				</port>
			</input>
			<output>
				<port id="2" names="net/Conv3D_35:0,net/transpose_83:0" precision="FP32">
					<dim>10</dim>
					<dim>40</dim>
					<dim>18</dim>
					<dim>18</dim>
					<dim>18</dim>
				</port>
			</output>
		</layer>
		<layer id="448" name="net/truediv_32/Fused_Mul_" type="Multiply" version="opset1">
			<data auto_broadcast="numpy"/>
			<input>
				<port id="0">
					<dim>10</dim>
					<dim>40</dim>
					<dim>18</dim>
					<dim>18</dim>
					<dim>18</dim>
				</port>
				<port id="1">
					<dim>1</dim>
					<dim>40</dim>
					<dim>1</dim>
					<dim>1</dim>
					<dim>1</dim>
				</port>
			</input>
			<output>
				<port id="2" precision="FP32">
					<dim>10</dim>
					<dim>40</dim>
					<dim>18</dim>
					<dim>18</dim>
					<dim>18</dim>
				</port>
			</output>
		</layer>
		<layer id="449" name="data_add_11045110503416572011302" type="Const" version="opset1">
			<data element_type="f32" offset="1396196" shape="1,40,1,1,1" size="160"/>
			<output>
				<port id="0" precision="FP32">
					<dim>1</dim>
					<dim>40</dim>
					<dim>1</dim>
					<dim>1</dim>
					<dim>1</dim>
				</port>
			</output>
		</layer>
		<layer id="450" name="net/sub_62/Fused_Add_" type="Add" version="opset1">
			<data auto_broadcast="numpy"/>
			<input>
				<port id="0">
					<dim>10</dim>
					<dim>40</dim>
					<dim>18</dim>
					<dim>18</dim>
					<dim>18</dim>
				</port>
				<port id="1">
					<dim>1</dim>
					<dim>40</dim>
					<dim>1</dim>
					<dim>1</dim>
					<dim>1</dim>
				</port>
			</input>
			<output>
				<port id="2" names="net/add_110:0" precision="FP32">
					<dim>10</dim>
					<dim>40</dim>
					<dim>18</dim>
					<dim>18</dim>
					<dim>18</dim>
				</port>
			</output>
		</layer>
		<layer id="451" name="net/sub_65/sub/fq_input_0" type="FakeQuantize" version="opset1">
			<data auto_broadcast="numpy" levels="256"/>
			<input>
				<port id="0">
					<dim>10</dim>
					<dim>40</dim>
					<dim>18</dim>
					<dim>18</dim>
					<dim>18</dim>
				</port>
				<port id="1"/>
				<port id="2"/>
				<port id="3"/>
				<port id="4"/>
			</input>
			<output>
				<port id="5" precision="FP32">
					<dim>10</dim>
					<dim>40</dim>
					<dim>18</dim>
					<dim>18</dim>
					<dim>18</dim>
				</port>
			</output>
		</layer>
		<layer id="452" name="2345234910900" type="Const" version="opset1">
			<data element_type="f32" offset="1396356" shape="" size="4"/>
			<output>
				<port id="0" precision="FP32"/>
			</output>
		</layer>
		<layer id="453" name="2346235011674" type="Const" version="opset1">
			<data element_type="f32" offset="990332" shape="" size="4"/>
			<output>
				<port id="0" precision="FP32"/>
			</output>
		</layer>
		<layer id="454" name="2347235111818" type="Const" version="opset1">
			<data element_type="f32" offset="1396356" shape="" size="4"/>
			<output>
				<port id="0" precision="FP32"/>
			</output>
		</layer>
		<layer id="455" name="2348235210816" type="Const" version="opset1">
			<data element_type="f32" offset="990332" shape="" size="4"/>
			<output>
				<port id="0" precision="FP32"/>
			</output>
		</layer>
		<layer id="456" name="net/Abs_32" type="Abs" version="opset1">
			<input>
				<port id="0">
					<dim>10</dim>
					<dim>40</dim>
					<dim>18</dim>
					<dim>18</dim>
					<dim>18</dim>
				</port>
			</input>
			<output>
				<port id="1" precision="FP32">
					<dim>10</dim>
					<dim>40</dim>
					<dim>18</dim>
					<dim>18</dim>
					<dim>18</dim>
				</port>
			</output>
		</layer>
		<layer id="457" name="net/sub_65/sub/fq_input_1" type="FakeQuantize" version="opset1">
			<data auto_broadcast="numpy" levels="256"/>
			<input>
				<port id="0">
					<dim>10</dim>
					<dim>40</dim>
					<dim>18</dim>
					<dim>18</dim>
					<dim>18</dim>
				</port>
				<port id="1"/>
				<port id="2"/>
				<port id="3"/>
				<port id="4"/>
			</input>
			<output>
				<port id="5" precision="FP32">
					<dim>10</dim>
					<dim>40</dim>
					<dim>18</dim>
					<dim>18</dim>
					<dim>18</dim>
				</port>
			</output>
		</layer>
		<layer id="458" name="net/sub_65/sub" type="Subtract" version="opset1">
			<data auto_broadcast="numpy"/>
			<input>
				<port id="0">
					<dim>10</dim>
					<dim>40</dim>
					<dim>18</dim>
					<dim>18</dim>
					<dim>18</dim>
				</port>
				<port id="1">
					<dim>10</dim>
					<dim>40</dim>
					<dim>18</dim>
					<dim>18</dim>
					<dim>18</dim>
				</port>
			</input>
			<output>
				<port id="2" names="net/sub_65:0" precision="FP32">
					<dim>10</dim>
					<dim>40</dim>
					<dim>18</dim>
					<dim>18</dim>
					<dim>18</dim>
				</port>
			</output>
		</layer>
		<layer id="459" name="net/mul_97/Fused_Mul_/fq_input_0" type="FakeQuantize" version="opset1">
			<data auto_broadcast="numpy" levels="256"/>
			<input>
				<port id="0">
					<dim>10</dim>
					<dim>40</dim>
					<dim>18</dim>
					<dim>18</dim>
					<dim>18</dim>
				</port>
				<port id="1"/>
				<port id="2"/>
				<port id="3"/>
				<port id="4"/>
			</input>
			<output>
				<port id="5" precision="FP32">
					<dim>10</dim>
					<dim>40</dim>
					<dim>18</dim>
					<dim>18</dim>
					<dim>18</dim>
				</port>
			</output>
		</layer>
		<layer id="460" name="2935293911455" type="Const" version="opset1">
			<data element_type="f32" offset="1396360" shape="1,1,1,1,1" size="4"/>
			<output>
				<port id="0" precision="FP32">
					<dim>1</dim>
					<dim>1</dim>
					<dim>1</dim>
					<dim>1</dim>
					<dim>1</dim>
				</port>
			</output>
		</layer>
		<layer id="461" name="2936294010975" type="Const" version="opset1">
			<data element_type="f32" offset="1396364" shape="1,1,1,1,1" size="4"/>
			<output>
				<port id="0" precision="FP32">
					<dim>1</dim>
					<dim>1</dim>
					<dim>1</dim>
					<dim>1</dim>
					<dim>1</dim>
				</port>
			</output>
		</layer>
		<layer id="462" name="2937294113468" type="Const" version="opset1">
			<data element_type="f32" offset="1396360" shape="1,1,1,1,1" size="4"/>
			<output>
				<port id="0" precision="FP32">
					<dim>1</dim>
					<dim>1</dim>
					<dim>1</dim>
					<dim>1</dim>
					<dim>1</dim>
				</port>
			</output>
		</layer>
		<layer id="463" name="2938294212970" type="Const" version="opset1">
			<data element_type="f32" offset="1396364" shape="1,1,1,1,1" size="4"/>
			<output>
				<port id="0" precision="FP32">
					<dim>1</dim>
					<dim>1</dim>
					<dim>1</dim>
					<dim>1</dim>
					<dim>1</dim>
				</port>
			</output>
		</layer>
		<layer id="464" name="data_mul_11052110543407572513027" type="Const" version="opset1">
			<data element_type="f32" offset="1396368" shape="1,40,1,1,1" size="160"/>
			<output>
				<port id="0" precision="FP32">
					<dim>1</dim>
					<dim>40</dim>
					<dim>1</dim>
					<dim>1</dim>
					<dim>1</dim>
				</port>
			</output>
		</layer>
		<layer id="465" name="net/mul_97/Fused_Mul_/fq_input_1" type="FakeQuantize" version="opset1">
			<data auto_broadcast="numpy" levels="255"/>
			<input>
				<port id="0">
					<dim>1</dim>
					<dim>40</dim>
					<dim>1</dim>
					<dim>1</dim>
					<dim>1</dim>
				</port>
				<port id="1">
					<dim>1</dim>
					<dim>1</dim>
					<dim>1</dim>
					<dim>1</dim>
					<dim>1</dim>
				</port>
				<port id="2">
					<dim>1</dim>
					<dim>1</dim>
					<dim>1</dim>
					<dim>1</dim>
					<dim>1</dim>
				</port>
				<port id="3">
					<dim>1</dim>
					<dim>1</dim>
					<dim>1</dim>
					<dim>1</dim>
					<dim>1</dim>
				</port>
				<port id="4">
					<dim>1</dim>
					<dim>1</dim>
					<dim>1</dim>
					<dim>1</dim>
					<dim>1</dim>
				</port>
			</input>
			<output>
				<port id="5" precision="FP32">
					<dim>1</dim>
					<dim>40</dim>
					<dim>1</dim>
					<dim>1</dim>
					<dim>1</dim>
				</port>
			</output>
		</layer>
		<layer id="466" name="net/mul_97/Fused_Mul_" type="Multiply" version="opset1">
			<data auto_broadcast="numpy"/>
			<input>
				<port id="0">
					<dim>10</dim>
					<dim>40</dim>
					<dim>18</dim>
					<dim>18</dim>
					<dim>18</dim>
				</port>
				<port id="1">
					<dim>1</dim>
					<dim>40</dim>
					<dim>1</dim>
					<dim>1</dim>
					<dim>1</dim>
				</port>
			</input>
			<output>
				<port id="2" names="net/mul_98:0" precision="FP32">
					<dim>10</dim>
					<dim>40</dim>
					<dim>18</dim>
					<dim>18</dim>
					<dim>18</dim>
				</port>
			</output>
		</layer>
		<layer id="467" name="net/add_115/fq_input_1" type="FakeQuantize" version="opset1">
			<data auto_broadcast="numpy" levels="256"/>
			<input>
				<port id="0">
					<dim>10</dim>
					<dim>40</dim>
					<dim>18</dim>
					<dim>18</dim>
					<dim>18</dim>
				</port>
				<port id="1"/>
				<port id="2"/>
				<port id="3"/>
				<port id="4"/>
			</input>
			<output>
				<port id="5" precision="FP32">
					<dim>10</dim>
					<dim>40</dim>
					<dim>18</dim>
					<dim>18</dim>
					<dim>18</dim>
				</port>
			</output>
		</layer>
		<layer id="468" name="4668467211650" type="Const" version="opset1">
			<data element_type="f32" offset="1395592" shape="1,1,1,1,1" size="4"/>
			<output>
				<port id="0" precision="FP32">
					<dim>1</dim>
					<dim>1</dim>
					<dim>1</dim>
					<dim>1</dim>
					<dim>1</dim>
				</port>
			</output>
		</layer>
		<layer id="469" name="4669467312991" type="Const" version="opset1">
			<data element_type="f32" offset="1395596" shape="1,1,1,1,1" size="4"/>
			<output>
				<port id="0" precision="FP32">
					<dim>1</dim>
					<dim>1</dim>
					<dim>1</dim>
					<dim>1</dim>
					<dim>1</dim>
				</port>
…
		<edge from-layer="878" from-port="0" to-layer="881" to-port="3"/>
		<edge from-layer="879" from-port="0" to-layer="881" to-port="4"/>
		<edge from-layer="910" from-port="0" to-layer="911" to-port="0"/>
		<edge from-layer="906" from-port="0" to-layer="911" to-port="1"/>
		<edge from-layer="907" from-port="0" to-layer="911" to-port="2"/>
		<edge from-layer="908" from-port="0" to-layer="911" to-port="3"/>
		<edge from-layer="909" from-port="0" to-layer="911" to-port="4"/>
		<edge from-layer="940" from-port="0" to-layer="941" to-port="0"/>
		<edge from-layer="936" from-port="0" to-layer="941" to-port="1"/>
		<edge from-layer="937" from-port="0" to-layer="941" to-port="2"/>
		<edge from-layer="938" from-port="0" to-layer="941" to-port="3"/>
		<edge from-layer="939" from-port="0" to-layer="941" to-port="4"/>
		<edge from-layer="970" from-port="0" to-layer="971" to-port="0"/>
		<edge from-layer="966" from-port="0" to-layer="971" to-port="1"/>
		<edge from-layer="967" from-port="0" to-layer="971" to-port="2"/>
		<edge from-layer="968" from-port="0" to-layer="971" to-port="3"/>
		<edge from-layer="969" from-port="0" to-layer="971" to-port="4"/>
		<edge from-layer="1000" from-port="0" to-layer="1001" to-port="0"/>
		<edge from-layer="996" from-port="0" to-layer="1001" to-port="1"/>
		<edge from-layer="997" from-port="0" to-layer="1001" to-port="2"/>
		<edge from-layer="998" from-port="0" to-layer="1001" to-port="3"/>
		<edge from-layer="999" from-port="0" to-layer="1001" to-port="4"/>
		<edge from-layer="1007" from-port="0" to-layer="1009" to-port="0"/>
		<edge from-layer="1008" from-port="0" to-layer="1009" to-port="1"/>
		<edge from-layer="1009" from-port="2" to-layer="1010" to-port="0"/>
		<edge from-layer="1003" from-port="0" to-layer="1010" to-port="1"/>
		<edge from-layer="1004" from-port="0" to-layer="1010" to-port="2"/>
		<edge from-layer="1005" from-port="0" to-layer="1010" to-port="3"/>
		<edge from-layer="1006" from-port="0" to-layer="1010" to-port="4"/>
		<edge from-layer="1010" from-port="5" to-layer="1011" to-port="0"/>
		<edge from-layer="1002" from-port="0" to-layer="1011" to-port="1"/>
		<edge from-layer="1011" from-port="2" to-layer="1012" to-port="0"/>
		<edge from-layer="1001" from-port="5" to-layer="1012" to-port="1"/>
		<edge from-layer="1012" from-port="2" to-layer="1013" to-port="0"/>
		<edge from-layer="995" from-port="0" to-layer="1013" to-port="1"/>
		<edge from-layer="1013" from-port="2" to-layer="1014" to-port="0"/>
		<edge from-layer="991" from-port="0" to-layer="1014" to-port="1"/>
		<edge from-layer="992" from-port="0" to-layer="1014" to-port="2"/>
		<edge from-layer="993" from-port="0" to-layer="1014" to-port="3"/>
		<edge from-layer="994" from-port="0" to-layer="1014" to-port="4"/>
		<edge from-layer="1014" from-port="5" to-layer="1015" to-port="0"/>
		<edge from-layer="990" from-port="0" to-layer="1015" to-port="1"/>
		<edge from-layer="1015" from-port="2" to-layer="1016" to-port="0"/>
		<edge from-layer="989" from-port="0" to-layer="1016" to-port="1"/>
		<edge from-layer="1016" from-port="2" to-layer="1018" to-port="0"/>
		<edge from-layer="1017" from-port="0" to-layer="1018" to-port="1"/>
		<edge from-layer="1018" from-port="2" to-layer="1019" to-port="0"/>
		<edge from-layer="985" from-port="0" to-layer="1019" to-port="1"/>
		<edge from-layer="986" from-port="0" to-layer="1019" to-port="2"/>
		<edge from-layer="987" from-port="0" to-layer="1019" to-port="3"/>
		<edge from-layer="988" from-port="0" to-layer="1019" to-port="4"/>
		<edge from-layer="1018" from-port="2" to-layer="1024" to-port="0"/>
		<edge from-layer="1024" from-port="1" to-layer="1025" to-port="0"/>
		<edge from-layer="1020" from-port="0" to-layer="1025" to-port="1"/>
		<edge from-layer="1021" from-port="0" to-layer="1025" to-port="2"/>
		<edge from-layer="1022" from-port="0" to-layer="1025" to-port="3"/>
		<edge from-layer="1023" from-port="0" to-layer="1025" to-port="4"/>
		<edge from-layer="1019" from-port="5" to-layer="1026" to-port="0"/>
		<edge from-layer="1025" from-port="5" to-layer="1026" to-port="1"/>
		<edge from-layer="1026" from-port="2" to-layer="1027" to-port="0"/>
		<edge from-layer="981" from-port="0" to-layer="1027" to-port="1"/>
		<edge from-layer="982" from-port="0" to-layer="1027" to-port="2"/>
		<edge from-layer="983" from-port="0" to-layer="1027" to-port="3"/>
		<edge from-layer="984" from-port="0" to-layer="1027" to-port="4"/>
		<edge from-layer="1032" from-port="0" to-layer="1033" to-port="0"/>
		<edge from-layer="1028" from-port="0" to-layer="1033" to-port="1"/>
		<edge from-layer="1029" from-port="0" to-layer="1033" to-port="2"/>
		<edge from-layer="1030" from-port="0" to-layer="1033" to-port="3"/>
		<edge from-layer="1031" from-port="0" to-layer="1033" to-port="4"/>
		<edge from-layer="1027" from-port="5" to-layer="1034" to-port="0"/>
		<edge from-layer="1033" from-port="5" to-layer="1034" to-port="1"/>
		<edge from-layer="1034" from-port="2" to-layer="1035" to-port="0"/>
		<edge from-layer="977" from-port="0" to-layer="1035" to-port="1"/>
		<edge from-layer="978" from-port="0" to-layer="1035" to-port="2"/>
		<edge from-layer="979" from-port="0" to-layer="1035" to-port="3"/>
		<edge from-layer="980" from-port="0" to-layer="1035" to-port="4"/>
		<edge from-layer="1040" from-port="0" to-layer="1041" to-port="0"/>
		<edge from-layer="1036" from-port="0" to-layer="1041" to-port="1"/>
		<edge from-layer="1037" from-port="0" to-layer="1041" to-port="2"/>
		<edge from-layer="1038" from-port="0" to-layer="1041" to-port="3"/>
		<edge from-layer="1039" from-port="0" to-layer="1041" to-port="4"/>
		<edge from-layer="1041" from-port="5" to-layer="1042" to-port="0"/>
		<edge from-layer="1018" from-port="2" to-layer="1042" to-port="1"/>
		<edge from-layer="1042" from-port="2" to-layer="1043" to-port="0"/>
		<edge from-layer="1035" from-port="5" to-layer="1043" to-port="1"/>
		<edge from-layer="1043" from-port="2" to-layer="1044" to-port="0"/>
		<edge from-layer="973" from-port="0" to-layer="1044" to-port="1"/>
		<edge from-layer="974" from-port="0" to-layer="1044" to-port="2"/>
		<edge from-layer="975" from-port="0" to-layer="1044" to-port="3"/>
		<edge from-layer="976" from-port="0" to-layer="1044" to-port="4"/>
		<edge from-layer="1044" from-port="5" to-layer="1045" to-port="0"/>
		<edge from-layer="972" from-port="0" to-layer="1045" to-port="1"/>
		<edge from-layer="1045" from-port="2" to-layer="1046" to-port="0"/>
		<edge from-layer="971" from-port="5" to-layer="1046" to-port="1"/>
		<edge from-layer="1046" from-port="2" to-layer="1047" to-port="0"/>
		<edge from-layer="965" from-port="0" to-layer="1047" to-port="1"/>
		<edge from-layer="1047" from-port="2" to-layer="1048" to-port="0"/>
		<edge from-layer="961" from-port="0" to-layer="1048" to-port="1"/>
		<edge from-layer="962" from-port="0" to-layer="1048" to-port="2"/>
		<edge from-layer="963" from-port="0" to-layer="1048" to-port="3"/>
		<edge from-layer="964" from-port="0" to-layer="1048" to-port="4"/>
		<edge from-layer="1048" from-port="5" to-layer="1049" to-port="0"/>
		<edge from-layer="960" from-port="0" to-layer="1049" to-port="1"/>
		<edge from-layer="1049" from-port="2" to-layer="1050" to-port="0"/>
		<edge from-layer="959" from-port="0" to-layer="1050" to-port="1"/>
		<edge from-layer="1050" from-port="2" to-layer="1052" to-port="0"/>
		<edge from-layer="1051" from-port="0" to-layer="1052" to-port="1"/>
		<edge from-layer="1052" from-port="2" to-layer="1053" to-port="0"/>
		<edge from-layer="955" from-port="0" to-layer="1053" to-port="1"/>
		<edge from-layer="956" from-port="0" to-layer="1053" to-port="2"/>
		<edge from-layer="957" from-port="0" to-layer="1053" to-port="3"/>
		<edge from-layer="958" from-port="0" to-layer="1053" to-port="4"/>
		<edge from-layer="1052" from-port="2" to-layer="1058" to-port="0"/>
		<edge from-layer="1058" from-port="1" to-layer="1059" to-port="0"/>
		<edge from-layer="1054" from-port="0" to-layer="1059" to-port="1"/>
		<edge from-layer="1055" from-port="0" to-layer="1059" to-port="2"/>
		<edge from-layer="1056" from-port="0" to-layer="1059" to-port="3"/>
		<edge from-layer="1057" from-port="0" to-layer="1059" to-port="4"/>
		<edge from-layer="1053" from-port="5" to-layer="1060" to-port="0"/>
		<edge from-layer="1059" from-port="5" to-layer="1060" to-port="1"/>
		<edge from-layer="1060" from-port="2" to-layer="1061" to-port="0"/>
		<edge from-layer="951" from-port="0" to-layer="1061" to-port="1"/>
		<edge from-layer="952" from-port="0" to-layer="1061" to-port="2"/>
		<edge from-layer="953" from-port="0" to-layer="1061" to-port="3"/>
		<edge from-layer="954" from-port="0" to-layer="1061" to-port="4"/>
		<edge from-layer="1066" from-port="0" to-layer="1067" to-port="0"/>
		<edge from-layer="1062" from-port="0" to-layer="1067" to-port="1"/>
		<edge from-layer="1063" from-port="0" to-layer="1067" to-port="2"/>
		<edge from-layer="1064" from-port="0" to-layer="1067" to-port="3"/>
		<edge from-layer="1065" from-port="0" to-layer="1067" to-port="4"/>
		<edge from-layer="1061" from-port="5" to-layer="1068" to-port="0"/>
		<edge from-layer="1067" from-port="5" to-layer="1068" to-port="1"/>
		<edge from-layer="1068" from-port="2" to-layer="1069" to-port="0"/>
		<edge from-layer="947" from-port="0" to-layer="1069" to-port="1"/>
		<edge from-layer="948" from-port="0" to-layer="1069" to-port="2"/>
		<edge from-layer="949" from-port="0" to-layer="1069" to-port="3"/>
		<edge from-layer="950" from-port="0" to-layer="1069" to-port="4"/>
		<edge from-layer="1074" from-port="0" to-layer="1075" to-port="0"/>
		<edge from-layer="1070" from-port="0" to-layer="1075" to-port="1"/>
		<edge from-layer="1071" from-port="0" to-layer="1075" to-port="2"/>
		<edge from-layer="1072" from-port="0" to-layer="1075" to-port="3"/>
		<edge from-layer="1073" from-port="0" to-layer="1075" to-port="4"/>
		<edge from-layer="1075" from-port="5" to-layer="1076" to-port="0"/>
		<edge from-layer="1052" from-port="2" to-layer="1076" to-port="1"/>
		<edge from-layer="1076" from-port="2" to-layer="1077" to-port="0"/>
		<edge from-layer="1069" from-port="5" to-layer="1077" to-port="1"/>
		<edge from-layer="1077" from-port="2" to-layer="1078" to-port="0"/>
		<edge from-layer="943" from-port="0" to-layer="1078" to-port="1"/>
		<edge from-layer="944" from-port="0" to-layer="1078" to-port="2"/>
		<edge from-layer="945" from-port="0" to-layer="1078" to-port="3"/>
		<edge from-layer="946" from-port="0" to-layer="1078" to-port="4"/>
		<edge from-layer="1078" from-port="5" to-layer="1079" to-port="0"/>
		<edge from-layer="942" from-port="0" to-layer="1079" to-port="1"/>
		<edge from-layer="1079" from-port="2" to-layer="1080" to-port="0"/>
		<edge from-layer="941" from-port="5" to-layer="1080" to-port="1"/>
		<edge from-layer="1080" from-port="2" to-layer="1081" to-port="0"/>
		<edge from-layer="935" from-port="0" to-layer="1081" to-port="1"/>
		<edge from-layer="1081" from-port="2" to-layer="1082" to-port="0"/>
		<edge from-layer="931" from-port="0" to-layer="1082" to-port="1"/>
		<edge from-layer="932" from-port="0" to-layer="1082" to-port="2"/>
		<edge from-layer="933" from-port="0" to-layer="1082" to-port="3"/>
		<edge from-layer="934" from-port="0" to-layer="1082" to-port="4"/>
		<edge from-layer="1082" from-port="5" to-layer="1083" to-port="0"/>
		<edge from-layer="930" from-port="0" to-layer="1083" to-port="1"/>
		<edge from-layer="1083" from-port="2" to-layer="1084" to-port="0"/>
		<edge from-layer="929" from-port="0" to-layer="1084" to-port="1"/>
		<edge from-layer="1084" from-port="2" to-layer="1086" to-port="0"/>
		<edge from-layer="1085" from-port="0" to-layer="1086" to-port="1"/>
		<edge from-layer="1086" from-port="2" to-layer="1087" to-port="0"/>
		<edge from-layer="925" from-port="0" to-layer="1087" to-port="1"/>
		<edge from-layer="926" from-port="0" to-layer="1087" to-port="2"/>
		<edge from-layer="927" from-port="0" to-layer="1087" to-port="3"/>
		<edge from-layer="928" from-port="0" to-layer="1087" to-port="4"/>
		<edge from-layer="1086" from-port="2" to-layer="1092" to-port="0"/>
		<edge from-layer="1092" from-port="1" to-layer="1093" to-port="0"/>
		<edge from-layer="1088" from-port="0" to-layer="1093" to-port="1"/>
		<edge from-layer="1089" from-port="0" to-layer="1093" to-port="2"/>
		<edge from-layer="1090" from-port="0" to-layer="1093" to-port="3"/>
		<edge from-layer="1091" from-port="0" to-layer="1093" to-port="4"/>
		<edge from-layer="1087" from-port="5" to-layer="1094" to-port="0"/>
		<edge from-layer="1093" from-port="5" to-layer="1094" to-port="1"/>
		<edge from-layer="1094" from-port="2" to-layer="1095" to-port="0"/>
		<edge from-layer="921" from-port="0" to-layer="1095" to-port="1"/>
		<edge from-layer="922" from-port="0" to-layer="1095" to-port="2"/>
		<edge from-layer="923" from-port="0" to-layer="1095" to-port="3"/>
		<edge from-layer="924" from-port="0" to-layer="1095" to-port="4"/>
		<edge from-layer="1100" from-port="0" to-layer="1101" to-port="0"/>
		<edge from-layer="1096" from-port="0" to-layer="1101" to-port="1"/>
		<edge from-layer="1097" from-port="0" to-layer="1101" to-port="2"/>
		<edge from-layer="1098" from-port="0" to-layer="1101" to-port="3"/>
		<edge from-layer="1099" from-port="0" to-layer="1101" to-port="4"/>
		<edge from-layer="1095" from-port="5" to-layer="1102" to-port="0"/>
		<edge from-layer="1101" from-port="5" to-layer="1102" to-port="1"/>
		<edge from-layer="1102" from-port="2" to-layer="1103" to-port="0"/>
		<edge from-layer="917" from-port="0" to-layer="1103" to-port="1"/>
		<edge from-layer="918" from-port="0" to-layer="1103" to-port="2"/>
		<edge from-layer="919" from-port="0" to-layer="1103" to-port="3"/>
		<edge from-layer="920" from-port="0" to-layer="1103" to-port="4"/>
		<edge from-layer="1108" from-port="0" to-layer="1109" to-port="0"/>
		<edge from-layer="1104" from-port="0" to-layer="1109" to-port="1"/>
		<edge from-layer="1105" from-port="0" to-layer="1109" to-port="2"/>
		<edge from-layer="1106" from-port="0" to-layer="1109" to-port="3"/>
		<edge from-layer="1107" from-port="0" to-layer="1109" to-port="4"/>
		<edge from-layer="1109" from-port="5" to-layer="1110" to-port="0"/>
		<edge from-layer="1086" from-port="2" to-layer="1110" to-port="1"/>
		<edge from-layer="1110" from-port="2" to-layer="1111" to-port="0"/>
		<edge from-layer="1103" from-port="5" to-layer="1111" to-port="1"/>
		<edge from-layer="1111" from-port="2" to-layer="1112" to-port="0"/>
		<edge from-layer="913" from-port="0" to-layer="1112" to-port="1"/>
		<edge from-layer="914" from-port="0" to-layer="1112" to-port="2"/>
		<edge from-layer="915" from-port="0" to-layer="1112" to-port="3"/>
		<edge from-layer="916" from-port="0" to-layer="1112" to-port="4"/>
		<edge from-layer="1112" from-port="5" to-layer="1113" to-port="0"/>
		<edge from-layer="912" from-port="0" to-layer="1113" to-port="1"/>
		<edge from-layer="1113" from-port="2" to-layer="1114" to-port="0"/>
		<edge from-layer="911" from-port="5" to-layer="1114" to-port="1"/>
		<edge from-layer="1114" from-port="2" to-layer="1115" to-port="0"/>
		<edge from-layer="905" from-port="0" to-layer="1115" to-port="1"/>
		<edge from-layer="1115" from-port="2" to-layer="1116" to-port="0"/>
		<edge from-layer="901" from-port="0" to-layer="1116" to-port="1"/>
		<edge from-layer="902" from-port="0" to-layer="1116" to-port="2"/>
		<edge from-layer="903" from-port="0" to-layer="1116" to-port="3"/>
		<edge from-layer="904" from-port="0" to-layer="1116" to-port="4"/>
		<edge from-layer="1116" from-port="5" to-layer="1117" to-port="0"/>
		<edge from-layer="900" from-port="0" to-layer="1117" to-port="1"/>
		<edge from-layer="1117" from-port="2" to-layer="1118" to-port="0"/>
		<edge from-layer="899" from-port="0" to-layer="1118" to-port="1"/>
		<edge from-layer="1118" from-port="2" to-layer="1120" to-port="0"/>
		<edge from-layer="1119" from-port="0" to-layer="1120" to-port="1"/>
		<edge from-layer="1120" from-port="2" to-layer="1121" to-port="0"/>
		<edge from-layer="895" from-port="0" to-layer="1121" to-port="1"/>
		<edge from-layer="896" from-port="0" to-layer="1121" to-port="2"/>
		<edge from-layer="897" from-port="0" to-layer="1121" to-port="3"/>
		<edge from-layer="898" from-port="0" to-layer="1121" to-port="4"/>
		<edge from-layer="1120" from-port="2" to-layer="1126" to-port="0"/>
		<edge from-layer="1126" from-port="1" to-layer="1127" to-port="0"/>
		<edge from-layer="1122" from-port="0" to-layer="1127" to-port="1"/>
		<edge from-layer="1123" from-port="0" to-layer="1127" to-port="2"/>
		<edge from-layer="1124" from-port="0" to-layer="1127" to-port="3"/>
		<edge from-layer="1125" from-port="0" to-layer="1127" to-port="4"/>
		<edge from-layer="1121" from-port="5" to-layer="1128" to-port="0"/>
		<edge from-layer="1127" from-port="5" to-layer="1128" to-port="1"/>
		<edge from-layer="1128" from-port="2" to-layer="1129" to-port="0"/>
		<edge from-layer="891" from-port="0" to-layer="1129" to-port="1"/>
		<edge from-layer="892" from-port="0" to-layer="1129" to-port="2"/>
		<edge from-layer="893" from-port="0" to-layer="1129" to-port="3"/>
		<edge from-layer="894" from-port="0" to-layer="1129" to-port="4"/>
		<edge from-layer="1134" from-port="0" to-layer="1135" to-port="0"/>
		<edge from-layer="1130" from-port="0" to-layer="1135" to-port="1"/>
		<edge from-layer="1131" from-port="0" to-layer="1135" to-port="2"/>
		<edge from-layer="1132" from-port="0" to-layer="1135" to-port="3"/>
		<edge from-layer="1133" from-port="0" to-layer="1135" to-port="4"/>
		<edge from-layer="1129" from-port="5" to-layer="1136" to-port="0"/>
		<edge from-layer="1135" from-port="5" to-layer="1136" to-port="1"/>
		<edge from-layer="1136" from-port="2" to-layer="1137" to-port="0"/>
		<edge from-layer="887" from-port="0" to-layer="1137" to-port="1"/>
		<edge from-layer="888" from-port="0" to-layer="1137" to-port="2"/>
		<edge from-layer="889" from-port="0" to-layer="1137" to-port="3"/>
		<edge from-layer="890" from-port="0" to-layer="1137" to-port="4"/>
		<edge from-layer="1142" from-port="0" to-layer="1143" to-port="0"/>
		<edge from-layer="1138" from-port="0" to-layer="1143" to-port="1"/>
		<edge from-layer="1139" from-port="0" to-layer="1143" to-port="2"/>
		<edge from-layer="1140" from-port="0" to-layer="1143" to-port="3"/>
		<edge from-layer="1141" from-port="0" to-layer="1143" to-port="4"/>
		<edge from-layer="1143" from-port="5" to-layer="1144" to-port="0"/>
		<edge from-layer="1120" from-port="2" to-layer="1144" to-port="1"/>
		<edge from-layer="1144" from-port="2" to-layer="1145" to-port="0"/>
		<edge from-layer="1137" from-port="5" to-layer="1145" to-port="1"/>
		<edge from-layer="1145" from-port="2" to-layer="1146" to-port="0"/>
		<edge from-layer="883" from-port="0" to-layer="1146" to-port="1"/>
		<edge from-layer="884" from-port="0" to-layer="1146" to-port="2"/>
		<edge from-layer="885" from-port="0" to-layer="1146" to-port="3"/>
		<edge from-layer="886" from-port="0" to-layer="1146" to-port="4"/>
		<edge from-layer="1146" from-port="5" to-layer="1147" to-port="0"/>
		<edge from-layer="882" from-port="0" to-layer="1147" to-port="1"/>
		<edge from-layer="1147" from-port="2" to-layer="1148" to-port="0"/>
		<edge from-layer="881" from-port="5" to-layer="1148" to-port="1"/>
		<edge from-layer="1148" from-port="2" to-layer="1149" to-port="0"/>
		<edge from-layer="875" from-port="0" to-layer="1149" to-port="1"/>
		<edge from-layer="1149" from-port="2" to-layer="1150" to-port="0"/>
		<edge from-layer="871" from-port="0" to-layer="1150" to-port="1"/>
		<edge from-layer="872" from-port="0" to-layer="1150" to-port="2"/>
		<edge from-layer="873" from-port="0" to-layer="1150" to-port="3"/>
		<edge from-layer="874" from-port="0" to-layer="1150" to-port="4"/>
		<edge from-layer="1150" from-port="5" to-layer="1151" to-port="0"/>
		<edge from-layer="870" from-port="0" to-layer="1151" to-port="1"/>
		<edge from-layer="1151" from-port="2" to-layer="1152" to-port="0"/>
		<edge from-layer="869" from-port="0" to-layer="1152" to-port="1"/>
		<edge from-layer="1152" from-port="2" to-layer="1154" to-port="0"/>
		<edge from-layer="1153" from-port="0" to-layer="1154" to-port="1"/>
		<edge from-layer="1154" from-port="2" to-layer="1155" to-port="0"/>
		<edge from-layer="865" from-port="0" to-layer="1155" to-port="1"/>
		<edge from-layer="866" from-port="0" to-layer="1155" to-port="2"/>
		<edge from-layer="867" from-port="0" to-layer="1155" to-port="3"/>
		<edge from-layer="868" from-port="0" to-layer="1155" to-port="4"/>
		<edge from-layer="1154" from-port="2" to-layer="1160" to-port="0"/>
		<edge from-layer="1160" from-port="1" to-layer="1161" to-port="0"/>
		<edge from-layer="1156" from-port="0" to-layer="1161" to-port="1"/>
		<edge from-layer="1157" from-port="0" to-layer="1161" to-port="2"/>
		<edge from-layer="1158" from-port="0" to-layer="1161" to-port="3"/>
		<edge from-layer="1159" from-port="0" to-layer="1161" to-port="4"/>
		<edge from-layer="1155" from-port="5" to-layer="1162" to-port="0"/>
		<edge from-layer="1161" from-port="5" to-layer="1162" to-port="1"/>
		<edge from-layer="1162" from-port="2" to-layer="1163" to-port="0"/>
		<edge from-layer="861" from-port="0" to-layer="1163" to-port="1"/>
		<edge from-layer="862" from-port="0" to-layer="1163" to-port="2"/>
		<edge from-layer="863" from-port="0" to-layer="1163" to-port="3"/>
		<edge from-layer="864" from-port="0" to-layer="1163" to-port="4"/>
		<edge from-layer="1168" from-port="0" to-layer="1169" to-port="0"/>
		<edge from-layer="1164" from-port="0" to-layer="1169" to-port="1"/>
		<edge from-layer="1165" from-port="0" to-layer="1169" to-port="2"/>
		<edge from-layer="1166" from-port="0" to-layer="1169" to-port="3"/>
		<edge from-layer="1167" from-port="0" to-layer="1169" to-port="4"/>
		<edge from-layer="1163" from-port="5" to-layer="1170" to-port="0"/>
		<edge from-layer="1169" from-port="5" to-layer="1170" to-port="1"/>
		<edge from-layer="1170" from-port="2" to-layer="1171" to-port="0"/>
		<edge from-layer="857" from-port="0" to-layer="1171" to-port="1"/>
		<edge from-layer="858" from-port="0" to-layer="1171" to-port="2"/>
		<edge from-layer="859" from-port="0" to-layer="1171" to-port="3"/>
		<edge from-layer="860" from-port="0" to-layer="1171" to-port="4"/>
		<edge from-layer="1176" from-port="0" to-layer="1177" to-port="0"/>
		<edge from-layer="1172" from-port="0" to-layer="1177" to-port="1"/>
		<edge from-layer="1173" from-port="0" to-layer="1177" to-port="2"/>
		<edge from-layer="1174" from-port="0" to-layer="1177" to-port="3"/>
		<edge from-layer="1175" from-port="0" to-layer="1177" to-port="4"/>
		<edge from-layer="1177" from-port="5" to-layer="1178" to-port="0"/>
		<edge from-layer="1154" from-port="2" to-layer="1178" to-port="1"/>
		<edge from-layer="1178" from-port="2" to-layer="1179" to-port="0"/>
		<edge from-layer="1171" from-port="5" to-layer="1179" to-port="1"/>
		<edge from-layer="1179" from-port="2" to-layer="1180" to-port="0"/>
		<edge from-layer="853" from-port="0" to-layer="1180" to-port="1"/>
		<edge from-layer="854" from-port="0" to-layer="1180" to-port="2"/>
		<edge from-layer="855" from-port="0" to-layer="1180" to-port="3"/>
		<edge from-layer="856" from-port="0" to-layer="1180" to-port="4"/>
		<edge from-layer="1180" from-port="5" to-layer="1181" to-port="0"/>
		<edge from-layer="852" from-port="0" to-layer="1181" to-port="1"/>
		<edge from-layer="1181" from-port="2" to-layer="1182" to-port="0"/>
		<edge from-layer="851" from-port="5" to-layer="1182" to-port="1"/>
		<edge from-layer="1182" from-port="2" to-layer="1183" to-port="0"/>
		<edge from-layer="845" from-port="0" to-layer="1183" to-port="1"/>
		<edge from-layer="1183" from-port="2" to-layer="1184" to-port="0"/>
		<edge from-layer="841" from-port="0" to-layer="1184" to-port="1"/>
		<edge from-layer="842" from-port="0" to-layer="1184" to-port="2"/>
		<edge from-layer="843" from-port="0" to-layer="1184" to-port="3"/>
		<edge from-layer="844" from-port="0" to-layer="1184" to-port="4"/>
		<edge from-layer="1184" from-port="5" to-layer="1185" to-port="0"/>
		<edge from-layer="840" from-port="0" to-layer="1185" to-port="1"/>
		<edge from-layer="1185" from-port="2" to-layer="1186" to-port="0"/>
		<edge from-layer="839" from-port="0" to-layer="1186" to-port="1"/>
		<edge from-layer="1186" from-port="2" to-layer="1188" to-port="0"/>
		<edge from-layer="1187" from-port="0" to-layer="1188" to-port="1"/>
		<edge from-layer="1188" from-port="2" to-layer="1189" to-port="0"/>
		<edge from-layer="835" from-port="0" to-layer="1189" to-port="1"/>
		<edge from-layer="836" from-port="0" to-layer="1189" to-port="2"/>
		<edge from-layer="837" from-port="0" to-layer="1189" to-port="3"/>
		<edge from-layer="838" from-port="0" to-layer="1189" to-port="4"/>
		<edge from-layer="1188" from-port="2" to-layer="1194" to-port="0"/>
		<edge from-layer="1194" from-port="1" to-layer="1195" to-port="0"/>
		<edge from-layer="1190" from-port="0" to-layer="1195" to-port="1"/>
		<edge from-layer="1191" from-port="0" to-layer="1195" to-port="2"/>
		<edge from-layer="1192" from-port="0" to-layer="1195" to-port="3"/>
		<edge from-layer="1193" from-port="0" to-layer="1195" to-port="4"/>
		<edge from-layer="1189" from-port="5" to-layer="1196" to-port="0"/>
		<edge from-layer="1195" from-port="5" to-layer="1196" to-port="1"/>
		<edge from-layer="1196" from-port="2" to-layer="1197" to-port="0"/>
		<edge from-layer="831" from-port="0" to-layer="1197" to-port="1"/>
		<edge from-layer="832" from-port="0" to-layer="1197" to-port="2"/>
		<edge from-layer="833" from-port="0" to-layer="1197" to-port="3"/>
		<edge from-layer="834" from-port="0" to-layer="1197" to-port="4"/>
		<edge from-layer="1202" from-port="0" to-layer="1203" to-port="0"/>
		<edge from-layer="1198" from-port="0" to-layer="1203" to-port="1"/>
		<edge from-layer="1199" from-port="0" to-layer="1203" to-port="2"/>
		<edge from-layer="1200" from-port="0" to-layer="1203" to-port="3"/>
		<edge from-layer="1201" from-port="0" to-layer="1203" to-port="4"/>
		<edge from-layer="1197" from-port="5" to-layer="1204" to-port="0"/>
		<edge from-layer="1203" from-port="5" to-layer="1204" to-port="1"/>
		<edge from-layer="1204" from-port="2" to-layer="1205" to-port="0"/>
		<edge from-layer="827" from-port="0" to-layer="1205" to-port="1"/>
		<edge from-layer="828" from-port="0" to-layer="1205" to-port="2"/>
		<edge from-layer="829" from-port="0" to-layer="1205" to-port="3"/>
		<edge from-layer="830" from-port="0" to-layer="1205" to-port="4"/>
		<edge from-layer="1210" from-port="0" to-layer="1211" to-port="0"/>
		<edge from-layer="1206" from-port="0" to-layer="1211" to-port="1"/>
		<edge from-layer="1207" from-port="0" to-layer="1211" to-port="2"/>
		<edge from-layer="1208" from-port="0" to-layer="1211" to-port="3"/>
		<edge from-layer="1209" from-port="0" to-layer="1211" to-port="4"/>
		<edge from-layer="1211" from-port="5" to-layer="1212" to-port="0"/>
		<edge from-layer="1188" from-port="2" to-layer="1212" to-port="1"/>
		<edge from-layer="1212" from-port="2" to-layer="1213" to-port="0"/>
		<edge from-layer="1205" from-port="5" to-layer="1213" to-port="1"/>
		<edge from-layer="1213" from-port="2" to-layer="1214" to-port="0"/>
		<edge from-layer="823" from-port="0" to-layer="1214" to-port="1"/>
		<edge from-layer="824" from-port="0" to-layer="1214" to-port="2"/>
		<edge from-layer="825" from-port="0" to-layer="1214" to-port="3"/>
		<edge from-layer="826" from-port="0" to-layer="1214" to-port="4"/>
		<edge from-layer="1214" from-port="5" to-layer="1215" to-port="0"/>
		<edge from-layer="822" from-port="0" to-layer="1215" to-port="1"/>
		<edge from-layer="1215" from-port="2" to-layer="1216" to-port="0"/>
		<edge from-layer="821" from-port="5" to-layer="1216" to-port="1"/>
		<edge from-layer="1216" from-port="2" to-layer="1217" to-port="0"/>
		<edge from-layer="815" from-port="0" to-layer="1217" to-port="1"/>
		<edge from-layer="1217" from-port="2" to-layer="1218" to-port="0"/>
		<edge from-layer="811" from-port="0" to-layer="1218" to-port="1"/>
		<edge from-layer="812" from-port="0" to-layer="1218" to-port="2"/>
		<edge from-layer="813" from-port="0" to-layer="1218" to-port="3"/>
		<edge from-layer="814" from-port="0" to-layer="1218" to-port="4"/>
		<edge from-layer="1218" from-port="5" to-layer="1219" to-port="0"/>
		<edge from-layer="810" from-port="0" to-layer="1219" to-port="1"/>
		<edge from-layer="1219" from-port="2" to-layer="1220" to-port="0"/>
		<edge from-layer="809" from-port="0" to-layer="1220" to-port="1"/>
		<edge from-layer="1220" from-port="2" to-layer="1222" to-port="0"/>
		<edge from-layer="1221" from-port="0" to-layer="1222" to-port="1"/>
		<edge from-layer="1222" from-port="2" to-layer="1223" to-port="0"/>
		<edge from-layer="805" from-port="0" to-layer="1223" to-port="1"/>
		<edge from-layer="806" from-port="0" to-layer="1223" to-port="2"/>
		<edge from-layer="807" from-port="0" to-layer="1223" to-port="3"/>
		<edge from-layer="808" from-port="0" to-layer="1223" to-port="4"/>
		<edge from-layer="1222" from-port="2" to-layer="1228" to-port="0"/>
		<edge from-layer="1228" from-port="1" to-layer="1229" to-port="0"/>
		<edge from-layer="1224" from-port="0" to-layer="1229" to-port="1"/>
		<edge from-layer="1225" from-port="0" to-layer="1229" to-port="2"/>
		<edge from-layer="1226" from-port="0" to-layer="1229" to-port="3"/>
		<edge from-layer="1227" from-port="0" to-layer="1229" to-port="4"/>
		<edge from-layer="1223" from-port="5" to-layer="1230" to-port="0"/>
		<edge from-layer="1229" from-port="5" to-layer="1230" to-port="1"/>
		<edge from-layer="1230" from-port="2" to-layer="1231" to-port="0"/>
		<edge from-layer="801" from-port="0" to-layer="1231" to-port="1"/>
		<edge from-layer="802" from-port="0" to-layer="1231" to-port="2"/>
		<edge from-layer="803" from-port="0" to-layer="1231" to-port="3"/>
		<edge from-layer="804" from-port="0" to-layer="1231" to-port="4"/>
		<edge from-layer="1236" from-port="0" to-layer="1237" to-port="0"/>
		<edge from-layer="1232" from-port="0" to-layer="1237" to-port="1"/>
		<edge from-layer="1233" from-port="0" to-layer="1237" to-port="2"/>
		<edge from-layer="1234" from-port="0" to-layer="1237" to-port="3"/>
		<edge from-layer="1235" from-port="0" to-layer="1237" to-port="4"/>
		<edge from-layer="1231" from-port="5" to-layer="1238" to-port="0"/>
		<edge from-layer="1237" from-port="5" to-layer="1238" to-port="1"/>
		<edge from-layer="1238" from-port="2" to-layer="1239" to-port="0"/>
		<edge from-layer="797" from-port="0" to-layer="1239" to-port="1"/>
		<edge from-layer="798" from-port="0" to-layer="1239" to-port="2"/>
		<edge from-layer="799" from-port="0" to-layer="1239" to-port="3"/>
		<edge from-layer="800" from-port="0" to-layer="1239" to-port="4"/>
		<edge from-layer="1244" from-port="0" to-layer="1245" to-port="0"/>
		<edge from-layer="1240" from-port="0" to-layer="1245" to-port="1"/>
		<edge from-layer="1241" from-port="0" to-layer="1245" to-port="2"/>
		<edge from-layer="1242" from-port="0" to-layer="1245" to-port="3"/>
		<edge from-layer="1243" from-port="0" to-layer="1245" to-port="4"/>
		<edge from-layer="1245" from-port="5" to-layer="1246" to-port="0"/>
		<edge from-layer="1222" from-port="2" to-layer="1246" to-port="1"/>
		<edge from-layer="1246" from-port="2" to-layer="1247" to-port="0"/>
		<edge from-layer="1239" from-port="5" to-layer="1247" to-port="1"/>
		<edge from-layer="1247" from-port="2" to-layer="1248" to-port="0"/>
		<edge from-layer="793" from-port="0" to-layer="1248" to-port="1"/>
		<edge from-layer="794" from-port="0" to-layer="1248" to-port="2"/>
		<edge from-layer="795" from-port="0" to-layer="1248" to-port="3"/>
		<edge from-layer="796" from-port="0" to-layer="1248" to-port="4"/>
		<edge from-layer="1248" from-port="5" to-layer="1249" to-port="0"/>
		<edge from-layer="792" from-port="0" to-layer="1249" to-port="1"/>
		<edge from-layer="1249" from-port="2" to-layer="1250" to-port="0"/>
		<edge from-layer="791" from-port="5" to-layer="1250" to-port="1"/>
		<edge from-layer="1250" from-port="2" to-layer="1251" to-port="0"/>
		<edge from-layer="785" from-port="0" to-layer="1251" to-port="1"/>
		<edge from-layer="1251" from-port="2" to-layer="1252" to-port="0"/>
		<edge from-layer="781" from-port="0" to-layer="1252" to-port="1"/>
		<edge from-layer="782" from-port="0" to-layer="1252" to-port="2"/>
		<edge from-layer="783" from-port="0" to-layer="1252" to-port="3"/>
		<edge from-layer="784" from-port="0" to-layer="1252" to-port="4"/>
		<edge from-layer="1252" from-port="5" to-layer="1253" to-port="0"/>
		<edge from-layer="780" from-port="0" to-layer="1253" to-port="1"/>
		<edge from-layer="1253" from-port="2" to-layer="1254" to-port="0"/>
		<edge from-layer="779" from-port="4" to-layer="1254" to-port="1"/>
		<edge from-layer="1254" from-port="2" to-layer="1255" to-port="0"/>
		<edge from-layer="103" from-port="0" to-layer="1255" to-port="1"/>
		<edge from-layer="1255" from-port="2" to-layer="1257" to-port="0"/>
		<edge from-layer="1256" from-port="0" to-layer="1257" to-port="1"/>
		<edge from-layer="1257" from-port="2" to-layer="1258" to-port="0"/>
		<edge from-layer="99" from-port="0" to-layer="1258" to-port="1"/>
		<edge from-layer="100" from-port="0" to-layer="1258" to-port="2"/>
		<edge from-layer="101" from-port="0" to-layer="1258" to-port="3"/>
		<edge from-layer="102" from-port="0" to-layer="1258" to-port="4"/>
		<edge from-layer="1257" from-port="2" to-layer="1263" to-port="0"/>
		<edge from-layer="1263" from-port="1" to-layer="1264" to-port="0"/>
		<edge from-layer="1259" from-port="0" to-layer="1264" to-port="1"/>
		<edge from-layer="1260" from-port="0" to-layer="1264" to-port="2"/>
		<edge from-layer="1261" from-port="0" to-layer="1264" to-port="3"/>
		<edge from-layer="1262" from-port="0" to-layer="1264" to-port="4"/>
		<edge from-layer="1258" from-port="5" to-layer="1265" to-port="0"/>
		<edge from-layer="1264" from-port="5" to-layer="1265" to-port="1"/>
		<edge from-layer="1265" from-port="2" to-layer="1266" to-port="0"/>
		<edge from-layer="95" from-port="0" to-layer="1266" to-port="1"/>
		<edge from-layer="96" from-port="0" to-layer="1266" to-port="2"/>
		<edge from-layer="97" from-port="0" to-layer="1266" to-port="3"/>
		<edge from-layer="98" from-port="0" to-layer="1266" to-port="4"/>
		<edge from-layer="1271" from-port="0" to-layer="1272" to-port="0"/>
		<edge from-layer="1267" from-port="0" to-layer="1272" to-port="1"/>
		<edge from-layer="1268" from-port="0" to-layer="1272" to-port="2"/>
		<edge from-layer="1269" from-port="0" to-layer="1272" to-port="3"/>
		<edge from-layer="1270" from-port="0" to-layer="1272" to-port="4"/>
		<edge from-layer="1266" from-port="5" to-layer="1273" to-port="0"/>
		<edge from-layer="1272" from-port="5" to-layer="1273" to-port="1"/>
		<edge from-layer="1273" from-port="2" to-layer="1274" to-port="0"/>
		<edge from-layer="91" from-port="0" to-layer="1274" to-port="1"/>
		<edge from-layer="92" from-port="0" to-layer="1274" to-port="2"/>
		<edge from-layer="93" from-port="0" to-layer="1274" to-port="3"/>
		<edge from-layer="94" from-port="0" to-layer="1274" to-port="4"/>
		<edge from-layer="1279" from-port="0" to-layer="1280" to-port="0"/>
		<edge from-layer="1275" from-port="0" to-layer="1280" to-port="1"/>
		<edge from-layer="1276" from-port="0" to-layer="1280" to-port="2"/>
		<edge from-layer="1277" from-port="0" to-layer="1280" to-port="3"/>
		<edge from-layer="1278" from-port="0" to-layer="1280" to-port="4"/>
		<edge from-layer="1280" from-port="5" to-layer="1281" to-port="0"/>
		<edge from-layer="1257" from-port="2" to-layer="1281" to-port="1"/>
		<edge from-layer="1281" from-port="2" to-layer="1282" to-port="0"/>
		<edge from-layer="1274" from-port="5" to-layer="1282" to-port="1"/>
		<edge from-layer="1282" from-port="2" to-layer="1283" to-port="0"/>
		<edge from-layer="87" from-port="0" to-layer="1283" to-port="1"/>
		<edge from-layer="88" from-port="0" to-layer="1283" to-port="2"/>
		<edge from-layer="89" from-port="0" to-layer="1283" to-port="3"/>
		<edge from-layer="90" from-port="0" to-layer="1283" to-port="4"/>
		<edge from-layer="1283" from-port="5" to-layer="1284" to-port="0"/>
		<edge from-layer="86" from-port="0" to-layer="1284" to-port="1"/>
		<edge from-layer="1284" from-port="2" to-layer="1285" to-port="0"/>
		<edge from-layer="85" from-port="5" to-layer="1285" to-port="1"/>
		<edge from-layer="1285" from-port="2" to-layer="1286" to-port="0"/>
		<edge from-layer="79" from-port="0" to-layer="1286" to-port="1"/>
		<edge from-layer="1286" from-port="2" to-layer="1287" to-port="0"/>
		<edge from-layer="75" from-port="0" to-layer="1287" to-port="1"/>
		<edge from-layer="76" from-port="0" to-layer="1287" to-port="2"/>
		<edge from-layer="77" from-port="0" to-layer="1287" to-port="3"/>
		<edge from-layer="78" from-port="0" to-layer="1287" to-port="4"/>
		<edge from-layer="1287" from-port="5" to-layer="1288" to-port="0"/>
		<edge from-layer="74" from-port="0" to-layer="1288" to-port="1"/>
		<edge from-layer="1288" from-port="2" to-layer="1289" to-port="0"/>
		<edge from-layer="73" from-port="0" to-layer="1289" to-port="1"/>
		<edge from-layer="1289" from-port="2" to-layer="1291" to-port="0"/>
		<edge from-layer="1290" from-port="0" to-layer="1291" to-port="1"/>
		<edge from-layer="1291" from-port="2" to-layer="1292" to-port="0"/>
		<edge from-layer="69" from-port="0" to-layer="1292" to-port="1"/>
		<edge from-layer="70" from-port="0" to-layer="1292" to-port="2"/>
		<edge from-layer="71" from-port="0" to-layer="1292" to-port="3"/>
		<edge from-layer="72" from-port="0" to-layer="1292" to-port="4"/>
		<edge from-layer="1291" from-port="2" to-layer="1297" to-port="0"/>
		<edge from-layer="1297" from-port="1" to-layer="1298" to-port="0"/>
		<edge from-layer="1293" from-port="0" to-layer="1298" to-port="1"/>
		<edge from-layer="1294" from-port="0" to-layer="1298" to-port="2"/>
		<edge from-layer="1295" from-port="0" to-layer="1298" to-port="3"/>
		<edge from-layer="1296" from-port="0" to-layer="1298" to-port="4"/>
		<edge from-layer="1292" from-port="5" to-layer="1299" to-port="0"/>
		<edge from-layer="1298" from-port="5" to-layer="1299" to-port="1"/>
		<edge from-layer="1299" from-port="2" to-layer="1300" to-port="0"/>
		<edge from-layer="65" from-port="0" to-layer="1300" to-port="1"/>
		<edge from-layer="66" from-port="0" to-layer="1300" to-port="2"/>
		<edge from-layer="67" from-port="0" to-layer="1300" to-port="3"/>
		<edge from-layer="68" from-port="0" to-layer="1300" to-port="4"/>
		<edge from-layer="1305" from-port="0" to-layer="1306" to-port="0"/>
		<edge from-layer="1301" from-port="0" to-layer="1306" to-port="1"/>
		<edge from-layer="1302" from-port="0" to-layer="1306" to-port="2"/>
		<edge from-layer="1303" from-port="0" to-layer="1306" to-port="3"/>
		<edge from-layer="1304" from-port="0" to-layer="1306" to-port="4"/>
		<edge from-layer="1300" from-port="5" to-layer="1307" to-port="0"/>
		<edge from-layer="1306" from-port="5" to-layer="1307" to-port="1"/>
		<edge from-layer="1307" from-port="2" to-layer="1308" to-port="0"/>
		<edge from-layer="61" from-port="0" to-layer="1308" to-port="1"/>
		<edge from-layer="62" from-port="0" to-layer="1308" to-port="2"/>
		<edge from-layer="63" from-port="0" to-layer="1308" to-port="3"/>
		<edge from-layer="64" from-port="0" to-layer="1308" to-port="4"/>
		<edge from-layer="1313" from-port="0" to-layer="1314" to-port="0"/>
		<edge from-layer="1309" from-port="0" to-layer="1314" to-port="1"/>
		<edge from-layer="1310" from-port="0" to-layer="1314" to-port="2"/>
		<edge from-layer="1311" from-port="0" to-layer="1314" to-port="3"/>
		<edge from-layer="1312" from-port="0" to-layer="1314" to-port="4"/>
		<edge from-layer="1314" from-port="5" to-layer="1315" to-port="0"/>
		<edge from-layer="1291" from-port="2" to-layer="1315" to-port="1"/>
		<edge from-layer="1315" from-port="2" to-layer="1316" to-port="0"/>
		<edge from-layer="1308" from-port="5" to-layer="1316" to-port="1"/>
		<edge from-layer="1316" from-port="2" to-layer="1317" to-port="0"/>
		<edge from-layer="57" from-port="0" to-layer="1317" to-port="1"/>
		<edge from-layer="58" from-port="0" to-layer="1317" to-port="2"/>
		<edge from-layer="59" from-port="0" to-layer="1317" to-port="3"/>
		<edge from-layer="60" from-port="0" to-layer="1317" to-port="4"/>
		<edge from-layer="1322" from-port="0" to-layer="1323" to-port="0"/>
		<edge from-layer="1318" from-port="0" to-layer="1323" to-port="1"/>
		<edge from-layer="1319" from-port="0" to-layer="1323" to-port="2"/>
		<edge from-layer="1320" from-port="0" to-layer="1323" to-port="3"/>
		<edge from-layer="1321" from-port="0" to-layer="1323" to-port="4"/>
		<edge from-layer="1317" from-port="5" to-layer="1324" to-port="0"/>
		<edge from-layer="1323" from-port="5" to-layer="1324" to-port="1"/>
		<edge from-layer="1324" from-port="2" to-layer="1325" to-port="0"/>
		<edge from-layer="53" from-port="0" to-layer="1325" to-port="1"/>
		<edge from-layer="54" from-port="0" to-layer="1325" to-port="2"/>
		<edge from-layer="55" from-port="0" to-layer="1325" to-port="3"/>
		<edge from-layer="56" from-port="0" to-layer="1325" to-port="4"/>
		<edge from-layer="1325" from-port="5" to-layer="1326" to-port="0"/>
		<edge from-layer="52" from-port="0" to-layer="1326" to-port="1"/>
		<edge from-layer="1326" from-port="2" to-layer="1327" to-port="0"/>
		<edge from-layer="51" from-port="5" to-layer="1327" to-port="1"/>
		<edge from-layer="1327" from-port="2" to-layer="1328" to-port="0"/>
		<edge from-layer="45" from-port="0" to-layer="1328" to-port="1"/>
		<edge from-layer="1328" from-port="2" to-layer="1329" to-port="0"/>
		<edge from-layer="41" from-port="0" to-layer="1329" to-port="1"/>
		<edge from-layer="42" from-port="0" to-layer="1329" to-port="2"/>
		<edge from-layer="43" from-port="0" to-layer="1329" to-port="3"/>
		<edge from-layer="44" from-port="0" to-layer="1329" to-port="4"/>
		<edge from-layer="1329" from-port="5" to-layer="1330" to-port="0"/>
		<edge from-layer="40" from-port="0" to-layer="1330" to-port="1"/>
		<edge from-layer="1330" from-port="2" to-layer="1331" to-port="0"/>
		<edge from-layer="39" from-port="0" to-layer="1331" to-port="1"/>
		<edge from-layer="1331" from-port="2" to-layer="1333" to-port="0"/>
		<edge from-layer="1332" from-port="0" to-layer="1333" to-port="1"/>
		<edge from-layer="1333" from-port="2" to-layer="1334" to-port="0"/>
		<edge from-layer="35" from-port="0" to-layer="1334" to-port="1"/>
		<edge from-layer="36" from-port="0" to-layer="1334" to-port="2"/>
		<edge from-layer="37" from-port="0" to-layer="1334" to-port="3"/>
		<edge from-layer="38" from-port="0" to-layer="1334" to-port="4"/>
		<edge from-layer="1333" from-port="2" to-layer="1339" to-port="0"/>
		<edge from-layer="1339" from-port="1" to-layer="1340" to-port="0"/>
		<edge from-layer="1335" from-port="0" to-layer="1340" to-port="1"/>
		<edge from-layer="1336" from-port="0" to-layer="1340" to-port="2"/>
		<edge from-layer="1337" from-port="0" to-layer="1340" to-port="3"/>
		<edge from-layer="1338" from-port="0" to-layer="1340" to-port="4"/>
		<edge from-layer="1334" from-port="5" to-layer="1341" to-port="0"/>
		<edge from-layer="1340" from-port="5" to-layer="1341" to-port="1"/>
		<edge from-layer="1341" from-port="2" to-layer="1342" to-port="0"/>
		<edge from-layer="31" from-port="0" to-layer="1342" to-port="1"/>
		<edge from-layer="32" from-port="0" to-layer="1342" to-port="2"/>
		<edge from-layer="33" from-port="0" to-layer="1342" to-port="3"/>
		<edge from-layer="34" from-port="0" to-layer="1342" to-port="4"/>
		<edge from-layer="1347" from-port="0" to-layer="1348" to-port="0"/>
		<edge from-layer="1343" from-port="0" to-layer="1348" to-port="1"/>
		<edge from-layer="1344" from-port="0" to-layer="1348" to-port="2"/>
		<edge from-layer="1345" from-port="0" to-layer="1348" to-port="3"/>
		<edge from-layer="1346" from-port="0" to-layer="1348" to-port="4"/>
		<edge from-layer="1342" from-port="5" to-layer="1349" to-port="0"/>
		<edge from-layer="1348" from-port="5" to-layer="1349" to-port="1"/>
		<edge from-layer="1349" from-port="2" to-layer="1350" to-port="0"/>
		<edge from-layer="27" from-port="0" to-layer="1350" to-port="1"/>
		<edge from-layer="28" from-port="0" to-layer="1350" to-port="2"/>
		<edge from-layer="29" from-port="0" to-layer="1350" to-port="3"/>
		<edge from-layer="30" from-port="0" to-layer="1350" to-port="4"/>
		<edge from-layer="1355" from-port="0" to-layer="1356" to-port="0"/>
		<edge from-layer="1351" from-port="0" to-layer="1356" to-port="1"/>
		<edge from-layer="1352" from-port="0" to-layer="1356" to-port="2"/>
		<edge from-layer="1353" from-port="0" to-layer="1356" to-port="3"/>
		<edge from-layer="1354" from-port="0" to-layer="1356" to-port="4"/>
		<edge from-layer="1356" from-port="5" to-layer="1357" to-port="0"/>
		<edge from-layer="1333" from-port="2" to-layer="1357" to-port="1"/>
		<edge from-layer="1357" from-port="2" to-layer="1358" to-port="0"/>
		<edge from-layer="1350" from-port="5" to-layer="1358" to-port="1"/>
		<edge from-layer="1358" from-port="2" to-layer="1359" to-port="0"/>
		<edge from-layer="23" from-port="0" to-layer="1359" to-port="1"/>
		<edge from-layer="24" from-port="0" to-layer="1359" to-port="2"/>
		<edge from-layer="25" from-port="0" to-layer="1359" to-port="3"/>
		<edge from-layer="26" from-port="0" to-layer="1359" to-port="4"/>
		<edge from-layer="1364" from-port="0" to-layer="1365" to-port="0"/>
		<edge from-layer="1360" from-port="0" to-layer="1365" to-port="1"/>
		<edge from-layer="1361" from-port="0" to-layer="1365" to-port="2"/>
		<edge from-layer="1362" from-port="0" to-layer="1365" to-port="3"/>
		<edge from-layer="1363" from-port="0" to-layer="1365" to-port="4"/>
		<edge from-layer="1359" from-port="5" to-layer="1366" to-port="0"/>
		<edge from-layer="1365" from-port="5" to-layer="1366" to-port="1"/>
		<edge from-layer="1366" from-port="2" to-layer="1367" to-port="0"/>
		<edge from-layer="19" from-port="0" to-layer="1367" to-port="1"/>
		<edge from-layer="20" from-port="0" to-layer="1367" to-port="2"/>
		<edge from-layer="21" from-port="0" to-layer="1367" to-port="3"/>
		<edge from-layer="22" from-port="0" to-layer="1367" to-port="4"/>
		<edge from-layer="1367" from-port="5" to-layer="1368" to-port="0"/>
		<edge from-layer="18" from-port="0" to-layer="1368" to-port="1"/>
		<edge from-layer="1368" from-port="2" to-layer="1369" to-port="0"/>
		<edge from-layer="17" from-port="5" to-layer="1369" to-port="1"/>
		<edge from-layer="1369" from-port="2" to-layer="1370" to-port="0"/>
		<edge from-layer="11" from-port="0" to-layer="1370" to-port="1"/>
		<edge from-layer="1370" from-port="2" to-layer="1371" to-port="0"/>
		<edge from-layer="7" from-port="0" to-layer="1371" to-port="1"/>
		<edge from-layer="8" from-port="0" to-layer="1371" to-port="2"/>
		<edge from-layer="9" from-port="0" to-layer="1371" to-port="3"/>
		<edge from-layer="10" from-port="0" to-layer="1371" to-port="4"/>
		<edge from-layer="1371" from-port="5" to-layer="1372" to-port="0"/>
		<edge from-layer="6" from-port="0" to-layer="1372" to-port="1"/>
		<edge from-layer="1372" from-port="2" to-layer="1373" to-port="0"/>
		<edge from-layer="5" from-port="5" to-layer="1373" to-port="1"/>
		<edge from-layer="1373" from-port="2" to-layer="1375" to-port="0"/>
		<edge from-layer="1374" from-port="0" to-layer="1375" to-port="1"/>
		<edge from-layer="1375" from-port="2" to-layer="1376" to-port="0"/>
		<edge from-layer="1376" from-port="1" to-layer="1378" to-port="0"/>
		<edge from-layer="1377" from-port="0" to-layer="1378" to-port="1"/>
		<edge from-layer="1378" from-port="2" to-layer="1379" to-port="0"/>
	</edges>
	<meta_data>
		<MO_version value="2021.4.2-3976-0943ed67223-refs/pull/539/head"/>
		<cli_parameters>
			<caffe_parser_path value="DIR"/>
			<data_type value="float"/>
			<disable_nhwc_to_nchw value="True"/>
			<disable_omitting_optional value="False"/>
			<disable_resnet_optimization value="False"/>
			<disable_weights_compression value="False"/>
			<enable_concat_optimization value="False"/>
			<enable_flattening_nested_params value="False"/>
			<enable_ssd_gluoncv value="False"/>
			<extensions value="DIR"/>
			<framework value="tf"/>
			<freeze_placeholder_with_value value="{}"/>
			<generate_deprecated_IR_V7 value="False"/>
			<input value="net/inp_x_test,net/inp_x_sub_0_test"/>
			<input_meta_graph value="DIR/deepmedic-4-ov.model.ckpt.meta"/>
			<input_model_is_text value="False"/>
			<input_shape value="[10,1,45,45,45],[10,1,26,26,26]"/>
			<k value="DIR/CustomLayersMapping.xml"/>
			<keep_shape_ops value="True"/>
			<legacy_ir_generation value="False"/>
			<legacy_mxnet_model value="False"/>
			<log_level value="ERROR"/>
			<mean_scale_values value="{}"/>
			<mean_values value="()"/>
			<model_name value="deepmedic-4-ov.model.ckpt"/>
			<output value="['net/transpose_138']"/>
			<output_dir value="DIR"/>
			<placeholder_data_types value="{}"/>
			<placeholder_shapes value="{'net/inp_x_test': array([10,  1, 45, 45, 45]), 'net/inp_x_sub_0_test': array([10,  1, 26, 26, 26])}"/>
			<progress value="False"/>
			<remove_memory value="False"/>
			<remove_output_softmax value="False"/>
			<reverse_input_channels value="False"/>
			<save_params_from_nd value="False"/>
			<scale_values value="()"/>
			<silent value="False"/>
			<static_shape value="False"/>
			<stream_output value="False"/>
			<transform value=""/>
			<unset unset_cli_parameters="batch, counts, disable_fusing, disable_gfusing, finegrain_fusing, input_checkpoint, input_model, input_proto, input_symbol, mean_file, mean_file_offsets, move_to_preprocess, nd_prefix_name, pretrained_model_name, saved_model_dir, saved_model_tags, scale, tensorboard_logdir, tensorflow_custom_layer_libraries, tensorflow_custom_operations_config_update, tensorflow_object_detection_api_pipeline_config, tensorflow_use_custom_operations_config, transformations_config"/>
		</cli_parameters>
	</meta_data>
	<quantization_parameters>
		<config/>
		<version value="{}"/>
		<cli_params value="{}"/>
	</quantization_parameters>
</net>
