<?xml version="1.0" ?>
<net name="deepmedic-4-ov.model.ckpt" version="11">
	<layers>
		<layer id="0" name="3517352114119" type="Const" version="opset1">
			<data offset="0" size="4" shape="1,1,1,1,1" element_type="f32"/>
			<output>
				<port id="0" precision="FP32">
					<dim>1</dim>
					<dim>1</dim>
					<dim>1</dim>
					<dim>1</dim>
					<dim>1</dim>
				</port>
			</output>
		</layer>
		<layer id="1" name="3518352211899" type="Const" version="opset1">
			<data offset="4" size="4" shape="1,1,1,1,1" element_type="f32"/>
			<output>
				<port id="0" precision="FP32">
					<dim>1</dim>
					<dim>1</dim>
					<dim>1</dim>
					<dim>1</dim>
					<dim>1</dim>
				</port>
			</output>
		</layer>
		<layer id="2" name="3519352313078" type="Const" version="opset1">
			<data offset="0" size="4" shape="1,1,1,1,1" element_type="f32"/>
			<output>
				<port id="0" precision="FP32">
					<dim>1</dim>
					<dim>1</dim>
					<dim>1</dim>
					<dim>1</dim>
					<dim>1</dim>
				</port>
			</output>
		</layer>
		<layer id="3" name="3520352413393" type="Const" version="opset1">
			<data offset="4" size="4" shape="1,1,1,1,1" element_type="f32"/>
			<output>
				<port id="0" precision="FP32">
					<dim>1</dim>
					<dim>1</dim>
					<dim>1</dim>
					<dim>1</dim>
					<dim>1</dim>
				</port>
			</output>
		</layer>
		<layer id="4" name="data_add_115541155634126103714092" type="Const" version="opset1">
			<data offset="8" size="8" shape="1,2,1,1,1" element_type="f32"/>
			<rt_info>
				<attribute name="fused_names" version="0" value="data_add_115541155634126"/>
			</rt_info>
			<output>
				<port id="0" precision="FP32">
					<dim>1</dim>
					<dim>2</dim>
					<dim>1</dim>
					<dim>1</dim>
					<dim>1</dim>
				</port>
			</output>
		</layer>
		<layer id="5" name="net/add_180/Fused_Add_/fq_input_1" type="FakeQuantize" version="opset1">
			<data levels="255" auto_broadcast="numpy"/>
			<input>
				<port id="0">
					<dim>1</dim>
					<dim>2</dim>
					<dim>1</dim>
					<dim>1</dim>
					<dim>1</dim>
				</port>
				<port id="1">
					<dim>1</dim>
					<dim>1</dim>
					<dim>1</dim>
					<dim>1</dim>
					<dim>1</dim>
				</port>
				<port id="2">
					<dim>1</dim>
					<dim>1</dim>
					<dim>1</dim>
					<dim>1</dim>
					<dim>1</dim>
				</port>
				<port id="3">
					<dim>1</dim>
					<dim>1</dim>
					<dim>1</dim>
					<dim>1</dim>
					<dim>1</dim>
				</port>
				<port id="4">
					<dim>1</dim>
					<dim>1</dim>
					<dim>1</dim>
					<dim>1</dim>
					<dim>1</dim>
				</port>
			</input>
			<output>
				<port id="5" precision="FP32">
					<dim>1</dim>
					<dim>2</dim>
					<dim>1</dim>
					<dim>1</dim>
					<dim>1</dim>
				</port>
			</output>
		</layer>
		<layer id="6" name="758234312103513918" type="Const" version="opset1">
			<data offset="16" size="40" shape="5" element_type="i64"/>
			<rt_info>
				<attribute name="fused_names" version="0" value="758234312"/>
			</rt_info>
			<output>
				<port id="0" precision="I64">
					<dim>5</dim>
				</port>
			</output>
		</layer>
		<layer id="7" name="5000500414440" type="Const" version="opset1">
			<data offset="56" size="4" shape="" element_type="f32"/>
			<output>
				<port id="0" precision="FP32"/>
			</output>
		</layer>
		<layer id="8" name="5001500513696" type="Const" version="opset1">
			<data offset="60" size="4" shape="" element_type="f32"/>
			<output>
				<port id="0" precision="FP32"/>
			</output>
		</layer>
		<layer id="9" name="5002500614065" type="Const" version="opset1">
			<data offset="56" size="4" shape="" element_type="f32"/>
			<output>
				<port id="0" precision="FP32"/>
			</output>
		</layer>
		<layer id="10" name="5003500712229" type="Const" version="opset1">
			<data offset="60" size="4" shape="" element_type="f32"/>
			<output>
				<port id="0" precision="FP32"/>
			</output>
		</layer>
		<layer id="11" name="1620162212781" type="Const" version="opset1">
			<data offset="64" size="8" shape="1,2,1,1,1" element_type="f32"/>
			<output>
				<port id="0" precision="FP32">
					<dim>1</dim>
					<dim>2</dim>
					<dim>1</dim>
					<dim>1</dim>
					<dim>1</dim>
				</port>
			</output>
		</layer>
		<layer id="12" name="2847285112022" type="Const" version="opset1">
			<data offset="72" size="8" shape="2,1,1,1,1" element_type="f32"/>
			<output>
				<port id="0" precision="FP32">
					<dim>2</dim>
					<dim>1</dim>
					<dim>1</dim>
					<dim>1</dim>
					<dim>1</dim>
				</port>
			</output>
		</layer>
		<layer id="13" name="2848285213063" type="Const" version="opset1">
			<data offset="80" size="8" shape="2,1,1,1,1" element_type="f32"/>
			<output>
				<port id="0" precision="FP32">
					<dim>2</dim>
					<dim>1</dim>
					<dim>1</dim>
					<dim>1</dim>
					<dim>1</dim>
				</port>
			</output>
		</layer>
		<layer id="14" name="2849285314590" type="Const" version="opset1">
			<data offset="72" size="8" shape="2,1,1,1,1" element_type="f32"/>
			<output>
				<port id="0" precision="FP32">
					<dim>2</dim>
					<dim>1</dim>
					<dim>1</dim>
					<dim>1</dim>
					<dim>1</dim>
				</port>
			</output>
		</layer>
		<layer id="15" name="2850285413969" type="Const" version="opset1">
			<data offset="80" size="8" shape="2,1,1,1,1" element_type="f32"/>
			<output>
				<port id="0" precision="FP32">
					<dim>2</dim>
					<dim>1</dim>
					<dim>1</dim>
					<dim>1</dim>
					<dim>1</dim>
				</port>
			</output>
		</layer>
		<layer id="16" name="net/transpose_126103312043" type="Const" version="opset1">
			<data offset="88" size="1200" shape="2,150,1,1,1" element_type="f32"/>
			<rt_info>
				<attribute name="fused_names" version="0" value="net/transpose_126"/>
			</rt_info>
			<output>
				<port id="0" precision="FP32" names="net/transpose_126:0">
					<dim>2</dim>
					<dim>150</dim>
					<dim>1</dim>
					<dim>1</dim>
					<dim>1</dim>
				</port>
			</output>
		</layer>
		<layer id="17" name="net/Conv3D_56/fq_weights_1" type="FakeQuantize" version="opset1">
			<data levels="255" auto_broadcast="numpy"/>
			<input>
				<port id="0">
					<dim>2</dim>
					<dim>150</dim>
					<dim>1</dim>
					<dim>1</dim>
					<dim>1</dim>
				</port>
				<port id="1">
					<dim>2</dim>
					<dim>1</dim>
					<dim>1</dim>
					<dim>1</dim>
					<dim>1</dim>
				</port>
				<port id="2">
					<dim>2</dim>
					<dim>1</dim>
					<dim>1</dim>
					<dim>1</dim>
					<dim>1</dim>
				</port>
				<port id="3">
					<dim>2</dim>
					<dim>1</dim>
					<dim>1</dim>
					<dim>1</dim>
					<dim>1</dim>
				</port>
				<port id="4">
					<dim>2</dim>
					<dim>1</dim>
					<dim>1</dim>
					<dim>1</dim>
					<dim>1</dim>
				</port>
			</input>
			<output>
				<port id="5" precision="FP32">
					<dim>2</dim>
					<dim>150</dim>
					<dim>1</dim>
					<dim>1</dim>
					<dim>1</dim>
				</port>
			</output>
		</layer>
		<layer id="18" name="net/transpose_131/perm103113402" type="Const" version="opset1">
			<data offset="16" size="40" shape="5" element_type="i64"/>
			<rt_info>
				<attribute name="fused_names" version="0" value="net/transpose_131/perm"/>
			</rt_info>
			<output>
				<port id="0" precision="I64" names="net/transpose_131/perm:0">
					<dim>5</dim>
				</port>
			</output>
		</layer>
		<layer id="19" name="4890489412451" type="Const" version="opset1">
			<data offset="1288" size="4" shape="" element_type="f32"/>
			<output>
				<port id="0" precision="FP32"/>
			</output>
		</layer>
		<layer id="20" name="4891489512244" type="Const" version="opset1">
			<data offset="1292" size="4" shape="" element_type="f32"/>
			<output>
				<port id="0" precision="FP32"/>
			</output>
		</layer>
		<layer id="21" name="4892489612991" type="Const" version="opset1">
			<data offset="1288" size="4" shape="" element_type="f32"/>
			<output>
				<port id="0" precision="FP32"/>
			</output>
		</layer>
		<layer id="22" name="4893489712112" type="Const" version="opset1">
			<data offset="1292" size="4" shape="" element_type="f32"/>
			<output>
				<port id="0" precision="FP32"/>
			</output>
		</layer>
		<layer id="23" name="3227323114179" type="Const" version="opset1">
			<data offset="1296" size="4" shape="" element_type="f32"/>
			<output>
				<port id="0" precision="FP32"/>
			</output>
		</layer>
		<layer id="24" name="3228323211896" type="Const" version="opset1">
			<data offset="1300" size="4" shape="" element_type="f32"/>
			<output>
				<port id="0" precision="FP32"/>
			</output>
		</layer>
		<layer id="25" name="3229323311998" type="Const" version="opset1">
			<data offset="1296" size="4" shape="" element_type="f32"/>
			<output>
				<port id="0" precision="FP32"/>
			</output>
		</layer>
		<layer id="26" name="3230323414194" type="Const" version="opset1">
			<data offset="1300" size="4" shape="" element_type="f32"/>
			<output>
				<port id="0" precision="FP32"/>
			</output>
		</layer>
		<layer id="27" name="3257326114653" type="Const" version="opset1">
			<data offset="1304" size="4" shape="" element_type="f32"/>
			<output>
				<port id="0" precision="FP32"/>
			</output>
		</layer>
		<layer id="28" name="3258326214068" type="Const" version="opset1">
			<data offset="1308" size="4" shape="" element_type="f32"/>
			<output>
				<port id="0" precision="FP32"/>
			</output>
		</layer>
		<layer id="29" name="3259326314530" type="Const" version="opset1">
			<data offset="1304" size="4" shape="" element_type="f32"/>
			<output>
				<port id="0" precision="FP32"/>
			</output>
		</layer>
		<layer id="30" name="3260326411932" type="Const" version="opset1">
			<data offset="1308" size="4" shape="" element_type="f32"/>
			<output>
				<port id="0" precision="FP32"/>
			</output>
		</layer>
		<layer id="31" name="3487349113768" type="Const" version="opset1">
			<data offset="1312" size="4" shape="" element_type="f32"/>
			<output>
				<port id="0" precision="FP32"/>
			</output>
		</layer>
		<layer id="32" name="3488349213972" type="Const" version="opset1">
			<data offset="1316" size="4" shape="" element_type="f32"/>
			<output>
				<port id="0" precision="FP32"/>
			</output>
		</layer>
		<layer id="33" name="3489349312847" type="Const" version="opset1">
			<data offset="1312" size="4" shape="" element_type="f32"/>
			<output>
				<port id="0" precision="FP32"/>
			</output>
		</layer>
		<layer id="34" name="3490349411938" type="Const" version="opset1">
			<data offset="1316" size="4" shape="" element_type="f32"/>
			<output>
				<port id="0" precision="FP32"/>
			</output>
		</layer>
		<layer id="35" name="3697370112304" type="Const" version="opset1">
			<data offset="1320" size="4" shape="" element_type="f32"/>
			<output>
				<port id="0" precision="FP32"/>
			</output>
		</layer>
		<layer id="36" name="3698370212346" type="Const" version="opset1">
			<data offset="1324" size="4" shape="" element_type="f32"/>
			<output>
				<port id="0" precision="FP32"/>
			</output>
		</layer>
		<layer id="37" name="3699370312850" type="Const" version="opset1">
			<data offset="1320" size="4" shape="" element_type="f32"/>
			<output>
				<port id="0" precision="FP32"/>
			</output>
		</layer>
		<layer id="38" name="3700370412157" type="Const" version="opset1">
			<data offset="1324" size="4" shape="" element_type="f32"/>
			<output>
				<port id="0" precision="FP32"/>
			</output>
		</layer>
		<layer id="39" name="data_mul_115421154633928101914584" type="Const" version="opset1">
			<data offset="1328" size="600" shape="1,150,1,1,1" element_type="f32"/>
			<rt_info>
				<attribute name="fused_names" version="0" value="data_mul_115421154633928"/>
			</rt_info>
			<output>
				<port id="0" precision="FP32">
					<dim>1</dim>
					<dim>150</dim>
					<dim>1</dim>
					<dim>1</dim>
					<dim>1</dim>
				</port>
			</output>
		</layer>
		<layer id="40" name="757433691101712124" type="Const" version="opset1">
			<data offset="16" size="40" shape="5" element_type="i64"/>
			<rt_info>
				<attribute name="fused_names" version="0" value="757433691"/>
			</rt_info>
			<output>
				<port id="0" precision="I64">
					<dim>5</dim>
				</port>
			</output>
		</layer>
		<layer id="41" name="5370537414599" type="Const" version="opset1">
			<data offset="1928" size="4" shape="" element_type="f32"/>
			<output>
				<port id="0" precision="FP32"/>
			</output>
		</layer>
		<layer id="42" name="5371537513273" type="Const" version="opset1">
			<data offset="1932" size="4" shape="" element_type="f32"/>
			<output>
				<port id="0" precision="FP32"/>
			</output>
		</layer>
		<layer id="43" name="5372537613810" type="Const" version="opset1">
			<data offset="1928" size="4" shape="" element_type="f32"/>
			<output>
				<port id="0" precision="FP32"/>
			</output>
		</layer>
		<layer id="44" name="5373537713678" type="Const" version="opset1">
			<data offset="1932" size="4" shape="" element_type="f32"/>
			<output>
				<port id="0" precision="FP32"/>
			</output>
		</layer>
		<layer id="45" name="1616161812058" type="Const" version="opset1">
			<data offset="1936" size="600" shape="1,150,1,1,1" element_type="f32"/>
			<output>
				<port id="0" precision="FP32">
					<dim>1</dim>
					<dim>150</dim>
					<dim>1</dim>
					<dim>1</dim>
					<dim>1</dim>
				</port>
			</output>
		</layer>
		<layer id="46" name="3647365114158" type="Const" version="opset1">
			<data offset="2536" size="600" shape="150,1,1,1,1" element_type="f32"/>
			<output>
				<port id="0" precision="FP32">
					<dim>150</dim>
					<dim>1</dim>
					<dim>1</dim>
					<dim>1</dim>
					<dim>1</dim>
				</port>
			</output>
		</layer>
		<layer id="47" name="3648365213237" type="Const" version="opset1">
			<data offset="3136" size="600" shape="150,1,1,1,1" element_type="f32"/>
			<output>
				<port id="0" precision="FP32">
					<dim>150</dim>
					<dim>1</dim>
					<dim>1</dim>
					<dim>1</dim>
					<dim>1</dim>
				</port>
			</output>
		</layer>
		<layer id="48" name="3649365314545" type="Const" version="opset1">
			<data offset="2536" size="600" shape="150,1,1,1,1" element_type="f32"/>
			<output>
				<port id="0" precision="FP32">
					<dim>150</dim>
					<dim>1</dim>
					<dim>1</dim>
					<dim>1</dim>
					<dim>1</dim>
				</port>
			</output>
		</layer>
		<layer id="49" name="3650365414551" type="Const" version="opset1">
			<data offset="3136" size="600" shape="150,1,1,1,1" element_type="f32"/>
			<output>
				<port id="0" precision="FP32">
					<dim>150</dim>
					<dim>1</dim>
					<dim>1</dim>
					<dim>1</dim>
					<dim>1</dim>
				</port>
			</output>
		</layer>
		<layer id="50" name="net/transpose_119101513813" type="Const" version="opset1">
			<data offset="3736" size="90000" shape="150,150,1,1,1" element_type="f32"/>
			<rt_info>
				<attribute name="fused_names" version="0" value="net/transpose_119"/>
			</rt_info>
			<output>
				<port id="0" precision="FP32" names="net/transpose_119:0">
					<dim>150</dim>
					<dim>150</dim>
					<dim>1</dim>
					<dim>1</dim>
					<dim>1</dim>
				</port>
			</output>
		</layer>
		<layer id="51" name="net/Conv3D_53/fq_weights_1" type="FakeQuantize" version="opset1">
			<data levels="255" auto_broadcast="numpy"/>
			<input>
				<port id="0">
					<dim>150</dim>
					<dim>150</dim>
					<dim>1</dim>
					<dim>1</dim>
					<dim>1</dim>
				</port>
				<port id="1">
					<dim>150</dim>
					<dim>1</dim>
					<dim>1</dim>
					<dim>1</dim>
					<dim>1</dim>
				</port>
				<port id="2">
					<dim>150</dim>
					<dim>1</dim>
					<dim>1</dim>
					<dim>1</dim>
					<dim>1</dim>
				</port>
				<port id="3">
					<dim>150</dim>
					<dim>1</dim>
					<dim>1</dim>
					<dim>1</dim>
					<dim>1</dim>
				</port>
				<port id="4">
					<dim>150</dim>
					<dim>1</dim>
					<dim>1</dim>
					<dim>1</dim>
					<dim>1</dim>
				</port>
			</input>
			<output>
				<port id="5" precision="FP32">
					<dim>150</dim>
					<dim>150</dim>
					<dim>1</dim>
					<dim>1</dim>
					<dim>1</dim>
				</port>
			</output>
		</layer>
		<layer id="52" name="net/transpose_124/perm101314128" type="Const" version="opset1">
			<data offset="16" size="40" shape="5" element_type="i64"/>
			<rt_info>
				<attribute name="fused_names" version="0" value="net/transpose_124/perm"/>
			</rt_info>
			<output>
				<port id="0" precision="I64" names="net/transpose_124/perm:0">
					<dim>5</dim>
				</port>
			</output>
		</layer>
		<layer id="53" name="4880488412724" type="Const" version="opset1">
			<data offset="93736" size="4" shape="" element_type="f32"/>
			<output>
				<port id="0" precision="FP32"/>
			</output>
		</layer>
		<layer id="54" name="4881488513864" type="Const" version="opset1">
			<data offset="93740" size="4" shape="" element_type="f32"/>
			<output>
				<port id="0" precision="FP32"/>
			</output>
		</layer>
		<layer id="55" name="4882488614416" type="Const" version="opset1">
			<data offset="93736" size="4" shape="" element_type="f32"/>
			<output>
				<port id="0" precision="FP32"/>
			</output>
		</layer>
		<layer id="56" name="4883488713018" type="Const" version="opset1">
			<data offset="93740" size="4" shape="" element_type="f32"/>
			<output>
				<port id="0" precision="FP32"/>
			</output>
		</layer>
		<layer id="57" name="3527353113828" type="Const" version="opset1">
			<data offset="93744" size="4" shape="" element_type="f32"/>
			<output>
				<port id="0" precision="FP32"/>
			</output>
		</layer>
		<layer id="58" name="3528353213300" type="Const" version="opset1">
			<data offset="93748" size="4" shape="" element_type="f32"/>
			<output>
				<port id="0" precision="FP32"/>
			</output>
		</layer>
		<layer id="59" name="3529353312277" type="Const" version="opset1">
			<data offset="93744" size="4" shape="" element_type="f32"/>
			<output>
				<port id="0" precision="FP32"/>
			</output>
		</layer>
		<layer id="60" name="3530353414338" type="Const" version="opset1">
			<data offset="93748" size="4" shape="" element_type="f32"/>
			<output>
				<port id="0" precision="FP32"/>
			</output>
		</layer>
		<layer id="61" name="2237224111893" type="Const" version="opset1">
			<data offset="93752" size="4" shape="" element_type="f32"/>
			<output>
				<port id="0" precision="FP32"/>
			</output>
		</layer>
		<layer id="62" name="2238224213177" type="Const" version="opset1">
			<data offset="93756" size="4" shape="" element_type="f32"/>
			<output>
				<port id="0" precision="FP32"/>
			</output>
		</layer>
		<layer id="63" name="2239224313276" type="Const" version="opset1">
			<data offset="93752" size="4" shape="" element_type="f32"/>
			<output>
				<port id="0" precision="FP32"/>
			</output>
		</layer>
		<layer id="64" name="2240224411935" type="Const" version="opset1">
			<data offset="93756" size="4" shape="" element_type="f32"/>
			<output>
				<port id="0" precision="FP32"/>
			</output>
		</layer>
		<layer id="65" name="3387339112772" type="Const" version="opset1">
			<data offset="93760" size="4" shape="" element_type="f32"/>
			<output>
				<port id="0" precision="FP32"/>
			</output>
		</layer>
		<layer id="66" name="3388339212892" type="Const" version="opset1">
			<data offset="93764" size="4" shape="" element_type="f32"/>
			<output>
				<port id="0" precision="FP32"/>
			</output>
		</layer>
		<layer id="67" name="3389339312655" type="Const" version="opset1">
			<data offset="93760" size="4" shape="" element_type="f32"/>
			<output>
				<port id="0" precision="FP32"/>
			</output>
		</layer>
		<layer id="68" name="3390339412442" type="Const" version="opset1">
			<data offset="93764" size="4" shape="" element_type="f32"/>
			<output>
				<port id="0" precision="FP32"/>
			</output>
		</layer>
		<layer id="69" name="3657366113612" type="Const" version="opset1">
			<data offset="93768" size="4" shape="" element_type="f32"/>
			<output>
				<port id="0" precision="FP32"/>
			</output>
		</layer>
		<layer id="70" name="3658366213399" type="Const" version="opset1">
			<data offset="93772" size="4" shape="" element_type="f32"/>
			<output>
				<port id="0" precision="FP32"/>
			</output>
		</layer>
		<layer id="71" name="3659366313453" type="Const" version="opset1">
			<data offset="93768" size="4" shape="" element_type="f32"/>
			<output>
				<port id="0" precision="FP32"/>
			</output>
		</layer>
		<layer id="72" name="3660366412463" type="Const" version="opset1">
			<data offset="93772" size="4" shape="" element_type="f32"/>
			<output>
				<port id="0" precision="FP32"/>
			</output>
		</layer>
		<layer id="73" name="data_mul_115301153434018100114041" type="Const" version="opset1">
			<data offset="93776" size="600" shape="1,150,1,1,1" element_type="f32"/>
			<rt_info>
				<attribute name="fused_names" version="0" value="data_mul_115301153434018"/>
			</rt_info>
			<output>
				<port id="0" precision="FP32">
					<dim>1</dim>
					<dim>150</dim>
					<dim>1</dim>
					<dim>1</dim>
					<dim>1</dim>
				</port>
			</output>
		</layer>
		<layer id="74" name="75663377599913450" type="Const" version="opset1">
			<data offset="16" size="40" shape="5" element_type="i64"/>
			<rt_info>
				<attribute name="fused_names" version="0" value="756633775"/>
			</rt_info>
			<output>
				<port id="0" precision="I64">
					<dim>5</dim>
				</port>
			</output>
		</layer>
		<layer id="75" name="5350535413477" type="Const" version="opset1">
			<data offset="94376" size="4" shape="" element_type="f32"/>
			<output>
				<port id="0" precision="FP32"/>
			</output>
		</layer>
		<layer id="76" name="5351535512610" type="Const" version="opset1">
			<data offset="94380" size="4" shape="" element_type="f32"/>
			<output>
				<port id="0" precision="FP32"/>
			</output>
		</layer>
		<layer id="77" name="5352535612091" type="Const" version="opset1">
			<data offset="94376" size="4" shape="" element_type="f32"/>
			<output>
				<port id="0" precision="FP32"/>
			</output>
		</layer>
		<layer id="78" name="5353535714371" type="Const" version="opset1">
			<data offset="94380" size="4" shape="" element_type="f32"/>
			<output>
				<port id="0" precision="FP32"/>
			</output>
		</layer>
		<layer id="79" name="1612161412865" type="Const" version="opset1">
			<data offset="1936" size="600" shape="1,150,1,1,1" element_type="f32"/>
			<output>
				<port id="0" precision="FP32">
					<dim>1</dim>
					<dim>150</dim>
					<dim>1</dim>
					<dim>1</dim>
					<dim>1</dim>
				</port>
			</output>
		</layer>
		<layer id="80" name="2307231112100" type="Const" version="opset1">
			<data offset="94384" size="600" shape="150,1,1,1,1" element_type="f32"/>
			<output>
				<port id="0" precision="FP32">
					<dim>150</dim>
					<dim>1</dim>
					<dim>1</dim>
					<dim>1</dim>
					<dim>1</dim>
				</port>
			</output>
		</layer>
		<layer id="81" name="2308231213459" type="Const" version="opset1">
			<data offset="94984" size="600" shape="150,1,1,1,1" element_type="f32"/>
			<output>
				<port id="0" precision="FP32">
					<dim>150</dim>
					<dim>1</dim>
					<dim>1</dim>
					<dim>1</dim>
					<dim>1</dim>
				</port>
			</output>
		</layer>
		<layer id="82" name="2309231314617" type="Const" version="opset1">
			<data offset="94384" size="600" shape="150,1,1,1,1" element_type="f32"/>
			<output>
				<port id="0" precision="FP32">
					<dim>150</dim>
					<dim>1</dim>
					<dim>1</dim>
					<dim>1</dim>
					<dim>1</dim>
				</port>
			</output>
		</layer>
		<layer id="83" name="2310231412391" type="Const" version="opset1">
			<data offset="94984" size="600" shape="150,1,1,1,1" element_type="f32"/>
			<output>
				<port id="0" precision="FP32">
					<dim>150</dim>
					<dim>1</dim>
					<dim>1</dim>
					<dim>1</dim>
					<dim>1</dim>
				</port>
			</output>
		</layer>
		<layer id="84" name="net/transpose_11299713936" type="Const" version="opset1">
			<data offset="95584" size="60000" shape="150,100,1,1,1" element_type="f32"/>
			<rt_info>
				<attribute name="fused_names" version="0" value="net/transpose_112"/>
			</rt_info>
			<output>
				<port id="0" precision="FP32" names="net/transpose_112:0">
					<dim>150</dim>
					<dim>100</dim>
					<dim>1</dim>
					<dim>1</dim>
					<dim>1</dim>
				</port>
			</output>
		</layer>
		<layer id="85" name="net/Conv3D_50/fq_weights_1" type="FakeQuantize" version="opset1">
			<data levels="255" auto_broadcast="numpy"/>
			<input>
				<port id="0">
					<dim>150</dim>
					<dim>100</dim>
					<dim>1</dim>
					<dim>1</dim>
					<dim>1</dim>
				</port>
				<port id="1">
					<dim>150</dim>
					<dim>1</dim>
					<dim>1</dim>
					<dim>1</dim>
					<dim>1</dim>
				</port>
				<port id="2">
					<dim>150</dim>
					<dim>1</dim>
					<dim>1</dim>
					<dim>1</dim>
					<dim>1</dim>
				</port>
				<port id="3">
					<dim>150</dim>
					<dim>1</dim>
					<dim>1</dim>
					<dim>1</dim>
					<dim>1</dim>
				</port>
				<port id="4">
					<dim>150</dim>
					<dim>1</dim>
					<dim>1</dim>
					<dim>1</dim>
					<dim>1</dim>
				</port>
			</input>
			<output>
				<port id="5" precision="FP32">
					<dim>150</dim>
					<dim>100</dim>
					<dim>1</dim>
					<dim>1</dim>
					<dim>1</dim>
				</port>
			</output>
		</layer>
		<layer id="86" name="net/transpose_117/perm99512811" type="Const" version="opset1">
			<data offset="16" size="40" shape="5" element_type="i64"/>
			<rt_info>
				<attribute name="fused_names" version="0" value="net/transpose_117/perm"/>
			</rt_info>
			<output>
				<port id="0" precision="I64" names="net/transpose_117/perm:0">
					<dim>5</dim>
				</port>
			</output>
		</layer>
		<layer id="87" name="4870487414344" type="Const" version="opset1">
			<data offset="155584" size="4" shape="" element_type="f32"/>
			<output>
				<port id="0" precision="FP32"/>
			</output>
		</layer>
		<layer id="88" name="4871487514635" type="Const" version="opset1">
			<data offset="155588" size="4" shape="" element_type="f32"/>
			<output>
				<port id="0" precision="FP32"/>
			</output>
		</layer>
		<layer id="89" name="4872487613951" type="Const" version="opset1">
			<data offset="155584" size="4" shape="" element_type="f32"/>
			<output>
				<port id="0" precision="FP32"/>
			</output>
		</layer>
		<layer id="90" name="4873487711968" type="Const" version="opset1">
			<data offset="155588" size="4" shape="" element_type="f32"/>
			<output>
				<port id="0" precision="FP32"/>
			</output>
		</layer>
		<layer id="91" name="3187319112403" type="Const" version="opset1">
			<data offset="155592" size="4" shape="" element_type="f32"/>
			<output>
				<port id="0" precision="FP32"/>
			</output>
		</layer>
		<layer id="92" name="3188319213507" type="Const" version="opset1">
			<data offset="155596" size="4" shape="" element_type="f32"/>
			<output>
				<port id="0" precision="FP32"/>
			</output>
		</layer>
		<layer id="93" name="3189319314038" type="Const" version="opset1">
			<data offset="155592" size="4" shape="" element_type="f32"/>
			<output>
				<port id="0" precision="FP32"/>
			</output>
		</layer>
		<layer id="94" name="3190319412211" type="Const" version="opset1">
			<data offset="155596" size="4" shape="" element_type="f32"/>
			<output>
				<port id="0" precision="FP32"/>
			</output>
		</layer>
		<layer id="95" name="3607361112367" type="Const" version="opset1">
			<data offset="155600" size="4" shape="" element_type="f32"/>
			<output>
				<port id="0" precision="FP32"/>
			</output>
		</layer>
		<layer id="96" name="3608361212145" type="Const" version="opset1">
			<data offset="155604" size="4" shape="" element_type="f32"/>
			<output>
				<port id="0" precision="FP32"/>
			</output>
		</layer>
		<layer id="97" name="3609361312127" type="Const" version="opset1">
			<data offset="155600" size="4" shape="" element_type="f32"/>
			<output>
				<port id="0" precision="FP32"/>
			</output>
		</layer>
		<layer id="98" name="3610361413240" type="Const" version="opset1">
			<data offset="155604" size="4" shape="" element_type="f32"/>
			<output>
				<port id="0" precision="FP32"/>
			</output>
		</layer>
		<layer id="99" name="2737274114137" type="Const" version="opset1">
			<data offset="155608" size="4" shape="" element_type="f32"/>
			<output>
				<port id="0" precision="FP32"/>
			</output>
		</layer>
		<layer id="100" name="2738274212652" type="Const" version="opset1">
			<data offset="155612" size="4" shape="" element_type="f32"/>
			<output>
				<port id="0" precision="FP32"/>
			</output>
		</layer>
		<layer id="101" name="2739274313522" type="Const" version="opset1">
			<data offset="155608" size="4" shape="" element_type="f32"/>
			<output>
				<port id="0" precision="FP32"/>
			</output>
		</layer>
		<layer id="102" name="2740274413336" type="Const" version="opset1">
			<data offset="155612" size="4" shape="" element_type="f32"/>
			<output>
				<port id="0" precision="FP32"/>
			</output>
		</layer>
		<layer id="103" name="data_mul_11518115223405498514209" type="Const" version="opset1">
			<data offset="155616" size="400" shape="1,100,1,1,1" element_type="f32"/>
			<rt_info>
				<attribute name="fused_names" version="0" value="data_mul_115181152234054"/>
			</rt_info>
			<output>
				<port id="0" precision="FP32">
					<dim>1</dim>
					<dim>100</dim>
					<dim>1</dim>
					<dim>1</dim>
					<dim>1</dim>
				</port>
			</output>
		</layer>
		<layer id="104" name="net/strided_slice_111/stack98012550" type="Const" version="opset1">
			<data offset="156016" size="40" shape="5" element_type="i64"/>
			<rt_info>
				<attribute name="fused_names" version="0" value="net/strided_slice_111/stack"/>
			</rt_info>
			<output>
				<port id="0" precision="I64" names="net/strided_slice_111/stack:0">
					<dim>5</dim>
				</port>
			</output>
		</layer>
		<layer id="105" name="net/strided_slice_111/stack_198113378" type="Const" version="opset1">
			<data offset="156056" size="40" shape="5" element_type="i64"/>
			<rt_info>
				<attribute name="fused_names" version="0" value="net/strided_slice_111/stack_1"/>
			</rt_info>
			<output>
				<port id="0" precision="I64" names="net/strided_slice_111/stack_1:0">
					<dim>5</dim>
				</port>
			</output>
		</layer>
		<layer id="106" name="net/strided_slice_111/stack_298212385" type="Const" version="opset1">
			<data offset="156096" size="40" shape="5" element_type="i64"/>
			<rt_info>
				<attribute name="fused_names" version="0" value="net/strided_slice_111/stack_2"/>
			</rt_info>
			<output>
				<port id="0" precision="I64" names="net/strided_slice_111/stack_2:0">
					<dim>5</dim>
				</port>
			</output>
		</layer>
		<layer id="107" name="net/Tile_8/multiples94813735" type="Const" version="opset1">
			<data offset="156136" size="40" shape="5" element_type="i64"/>
			<rt_info>
				<attribute name="fused_names" version="0" value="net/Tile_8/multiples"/>
			</rt_info>
			<output>
				<port id="0" precision="I64" names="net/Tile_8/multiples:0">
					<dim>5</dim>
				</port>
			</output>
		</layer>
		<layer id="108" name="net/Tile_7/multiples88212613" type="Const" version="opset1">
			<data offset="156176" size="40" shape="5" element_type="i64"/>
			<rt_info>
				<attribute name="fused_names" version="0" value="net/Tile_7/multiples"/>
			</rt_info>
			<output>
				<port id="0" precision="I64" names="net/Tile_7/multiples:0">
					<dim>5</dim>
				</port>
			</output>
		</layer>
		<layer id="109" name="net/Tile_6/multiples81613516" type="Const" version="opset1">
			<data offset="156216" size="40" shape="5" element_type="i64"/>
			<rt_info>
				<attribute name="fused_names" version="0" value="net/Tile_6/multiples"/>
			</rt_info>
			<output>
				<port id="0" precision="I64" names="net/Tile_6/multiples:0">
					<dim>5</dim>
				</port>
			</output>
		</layer>
		<layer id="110" name="75583363778013048" type="Const" version="opset1">
			<data offset="16" size="40" shape="5" element_type="i64"/>
			<rt_info>
				<attribute name="fused_names" version="0" value="755833637"/>
			</rt_info>
			<output>
				<port id="0" precision="I64">
					<dim>5</dim>
				</port>
			</output>
		</layer>
		<layer id="111" name="5330533414275" type="Const" version="opset1">
			<data offset="156256" size="4" shape="" element_type="f32"/>
			<output>
				<port id="0" precision="FP32"/>
			</output>
		</layer>
		<layer id="112" name="5331533513795" type="Const" version="opset1">
			<data offset="156260" size="4" shape="" element_type="f32"/>
			<output>
				<port id="0" precision="FP32"/>
			</output>
		</layer>
		<layer id="113" name="5332533613369" type="Const" version="opset1">
			<data offset="156256" size="4" shape="" element_type="f32"/>
			<output>
				<port id="0" precision="FP32"/>
			</output>
		</layer>
		<layer id="114" name="5333533712823" type="Const" version="opset1">
			<data offset="156260" size="4" shape="" element_type="f32"/>
			<output>
				<port id="0" precision="FP32"/>
			</output>
		</layer>
		<layer id="115" name="1608161012637" type="Const" version="opset1">
			<data offset="156264" size="200" shape="1,50,1,1,1" element_type="f32"/>
			<output>
				<port id="0" precision="FP32">
					<dim>1</dim>
					<dim>50</dim>
					<dim>1</dim>
					<dim>1</dim>
					<dim>1</dim>
				</port>
			</output>
		</layer>
		<layer id="116" name="2447245113039" type="Const" version="opset1">
			<data offset="156464" size="200" shape="50,1,1,1,1" element_type="f32"/>
			<output>
				<port id="0" precision="FP32">
					<dim>50</dim>
					<dim>1</dim>
					<dim>1</dim>
					<dim>1</dim>
					<dim>1</dim>
				</port>
			</output>
		</layer>
		<layer id="117" name="2448245212379" type="Const" version="opset1">
			<data offset="156664" size="200" shape="50,1,1,1,1" element_type="f32"/>
			<output>
				<port id="0" precision="FP32">
					<dim>50</dim>
					<dim>1</dim>
					<dim>1</dim>
					<dim>1</dim>
					<dim>1</dim>
				</port>
			</output>
		</layer>
		<layer id="118" name="2449245312886" type="Const" version="opset1">
			<data offset="156464" size="200" shape="50,1,1,1,1" element_type="f32"/>
			<output>
				<port id="0" precision="FP32">
					<dim>50</dim>
					<dim>1</dim>
					<dim>1</dim>
					<dim>1</dim>
					<dim>1</dim>
				</port>
			</output>
		</layer>
		<layer id="119" name="2450245413771" type="Const" version="opset1">
			<data offset="156664" size="200" shape="50,1,1,1,1" element_type="f32"/>
			<output>
				<port id="0" precision="FP32">
					<dim>50</dim>
					<dim>1</dim>
					<dim>1</dim>
					<dim>1</dim>
					<dim>1</dim>
				</port>
			</output>
		</layer>
		<layer id="120" name="net/transpose_10577812508" type="Const" version="opset1">
			<data offset="156864" size="270000" shape="50,50,3,3,3" element_type="f32"/>
			<rt_info>
				<attribute name="fused_names" version="0" value="net/transpose_105"/>
			</rt_info>
			<output>
				<port id="0" precision="FP32" names="net/transpose_105:0">
					<dim>50</dim>
					<dim>50</dim>
					<dim>3</dim>
					<dim>3</dim>
					<dim>3</dim>
				</port>
			</output>
		</layer>
		<layer id="121" name="net/Conv3D_47/fq_weights_1" type="FakeQuantize" version="opset1">
			<data levels="255" auto_broadcast="numpy"/>
			<input>
				<port id="0">
					<dim>50</dim>
					<dim>50</dim>
					<dim>3</dim>
					<dim>3</dim>
					<dim>3</dim>
				</port>
				<port id="1">
					<dim>50</dim>
					<dim>1</dim>
					<dim>1</dim>
					<dim>1</dim>
					<dim>1</dim>
				</port>
				<port id="2">
					<dim>50</dim>
					<dim>1</dim>
					<dim>1</dim>
					<dim>1</dim>
					<dim>1</dim>
				</port>
				<port id="3">
					<dim>50</dim>
					<dim>1</dim>
					<dim>1</dim>
					<dim>1</dim>
					<dim>1</dim>
				</port>
				<port id="4">
					<dim>50</dim>
					<dim>1</dim>
					<dim>1</dim>
					<dim>1</dim>
					<dim>1</dim>
				</port>
			</input>
			<output>
				<port id="5" precision="FP32">
					<dim>50</dim>
					<dim>50</dim>
					<dim>3</dim>
					<dim>3</dim>
					<dim>3</dim>
				</port>
			</output>
		</layer>
		<layer id="122" name="net/transpose_110/perm77614134" type="Const" version="opset1">
			<data offset="16" size="40" shape="5" element_type="i64"/>
			<rt_info>
				<attribute name="fused_names" version="0" value="net/transpose_110/perm"/>
			</rt_info>
			<output>
				<port id="0" precision="I64" names="net/transpose_110/perm:0">
					<dim>5</dim>
				</port>
			</output>
		</layer>
		<layer id="123" name="4850485414509" type="Const" version="opset1">
			<data offset="426864" size="4" shape="" element_type="f32"/>
			<output>
				<port id="0" precision="FP32"/>
			</output>
		</layer>
		<layer id="124" name="4851485512337" type="Const" version="opset1">
			<data offset="426868" size="4" shape="" element_type="f32"/>
			<output>
				<port id="0" precision="FP32"/>
			</output>
		</layer>
		<layer id="125" name="4852485611914" type="Const" version="opset1">
			<data offset="426864" size="4" shape="" element_type="f32"/>
			<output>
				<port id="0" precision="FP32"/>
			</output>
		</layer>
		<layer id="126" name="4853485712088" type="Const" version="opset1">
			<data offset="426868" size="4" shape="" element_type="f32"/>
			<output>
				<port id="0" precision="FP32"/>
			</output>
		</layer>
		<layer id="127" name="2177218114425" type="Const" version="opset1">
			<data offset="426872" size="4" shape="" element_type="f32"/>
			<output>
				<port id="0" precision="FP32"/>
			</output>
		</layer>
		<layer id="128" name="2178218212103" type="Const" version="opset1">
			<data offset="426876" size="4" shape="" element_type="f32"/>
			<output>
				<port id="0" precision="FP32"/>
			</output>
		</layer>
		<layer id="129" name="2179218313906" type="Const" version="opset1">
			<data offset="426872" size="4" shape="" element_type="f32"/>
			<output>
				<port id="0" precision="FP32"/>
			</output>
		</layer>
		<layer id="130" name="2180218414446" type="Const" version="opset1">
			<data offset="426876" size="4" shape="" element_type="f32"/>
			<output>
				<port id="0" precision="FP32"/>
			</output>
		</layer>
		<layer id="131" name="2757276112910" type="Const" version="opset1">
			<data offset="426880" size="4" shape="" element_type="f32"/>
			<output>
				<port id="0" precision="FP32"/>
			</output>
		</layer>
		<layer id="132" name="2758276213618" type="Const" version="opset1">
			<data offset="426884" size="4" shape="" element_type="f32"/>
			<output>
				<port id="0" precision="FP32"/>
			</output>
		</layer>
		<layer id="133" name="2759276313456" type="Const" version="opset1">
			<data offset="426880" size="4" shape="" element_type="f32"/>
			<output>
				<port id="0" precision="FP32"/>
			</output>
		</layer>
		<layer id="134" name="2760276412055" type="Const" version="opset1">
			<data offset="426884" size="4" shape="" element_type="f32"/>
			<output>
				<port id="0" precision="FP32"/>
			</output>
		</layer>
		<layer id="135" name="2697270111929" type="Const" version="opset1">
			<data offset="426888" size="4" shape="" element_type="f32"/>
			<output>
				<port id="0" precision="FP32"/>
			</output>
		</layer>
		<layer id="136" name="2698270212418" type="Const" version="opset1">
			<data offset="426892" size="4" shape="" element_type="f32"/>
			<output>
				<port id="0" precision="FP32"/>
			</output>
		</layer>
		<layer id="137" name="2699270312283" type="Const" version="opset1">
			<data offset="426888" size="4" shape="" element_type="f32"/>
			<output>
				<port id="0" precision="FP32"/>
			</output>
		</layer>
		<layer id="138" name="2700270414422" type="Const" version="opset1">
			<data offset="426892" size="4" shape="" element_type="f32"/>
			<output>
				<port id="0" precision="FP32"/>
			</output>
		</layer>
		<layer id="139" name="data_mul_11422114263420776613297" type="Const" version="opset1">
			<data offset="426896" size="200" shape="1,50,1,1,1" element_type="f32"/>
			<rt_info>
				<attribute name="fused_names" version="0" value="data_mul_114221142634207"/>
			</rt_info>
			<output>
				<port id="0" precision="FP32">
					<dim>1</dim>
					<dim>50</dim>
					<dim>1</dim>
					<dim>1</dim>
					<dim>1</dim>
				</port>
			</output>
		</layer>
		<layer id="140" name="75503405776414059" type="Const" version="opset1">
			<data offset="16" size="40" shape="5" element_type="i64"/>
			<rt_info>
				<attribute name="fused_names" version="0" value="755034057"/>
			</rt_info>
			<output>
				<port id="0" precision="I64">
					<dim>5</dim>
				</port>
			</output>
		</layer>
		<layer id="141" name="5200520413594" type="Const" version="opset1">
			<data offset="427096" size="4" shape="" element_type="f32"/>
			<output>
				<port id="0" precision="FP32"/>
			</output>
		</layer>
		<layer id="142" name="5201520512808" type="Const" version="opset1">
			<data offset="427100" size="4" shape="" element_type="f32"/>
			<output>
				<port id="0" precision="FP32"/>
			</output>
		</layer>
		<layer id="143" name="5202520613315" type="Const" version="opset1">
			<data offset="427096" size="4" shape="" element_type="f32"/>
			<output>
				<port id="0" precision="FP32"/>
			</output>
		</layer>
		<layer id="144" name="5203520714077" type="Const" version="opset1">
			<data offset="427100" size="4" shape="" element_type="f32"/>
			<output>
				<port id="0" precision="FP32"/>
			</output>
		</layer>
		<layer id="145" name="1604160612481" type="Const" version="opset1">
			<data offset="156264" size="200" shape="1,50,1,1,1" element_type="f32"/>
			<output>
				<port id="0" precision="FP32">
					<dim>1</dim>
					<dim>50</dim>
					<dim>1</dim>
					<dim>1</dim>
					<dim>1</dim>
				</port>
			</output>
		</layer>
		<layer id="146" name="2787279113888" type="Const" version="opset1">
			<data offset="427104" size="200" shape="50,1,1,1,1" element_type="f32"/>
			<output>
				<port id="0" precision="FP32">
					<dim>50</dim>
					<dim>1</dim>
					<dim>1</dim>
					<dim>1</dim>
					<dim>1</dim>
				</port>
			</output>
		</layer>
		<layer id="147" name="2788279213165" type="Const" version="opset1">
			<data offset="427304" size="200" shape="50,1,1,1,1" element_type="f32"/>
			<output>
				<port id="0" precision="FP32">
					<dim>50</dim>
					<dim>1</dim>
					<dim>1</dim>
					<dim>1</dim>
					<dim>1</dim>
				</port>
			</output>
		</layer>
		<layer id="148" name="2789279314515" type="Const" version="opset1">
			<data offset="427104" size="200" shape="50,1,1,1,1" element_type="f32"/>
			<output>
				<port id="0" precision="FP32">
					<dim>50</dim>
					<dim>1</dim>
					<dim>1</dim>
					<dim>1</dim>
					<dim>1</dim>
				</port>
			</output>
		</layer>
		<layer id="149" name="2790279413420" type="Const" version="opset1">
			<data offset="427304" size="200" shape="50,1,1,1,1" element_type="f32"/>
			<output>
				<port id="0" precision="FP32">
					<dim>50</dim>
					<dim>1</dim>
					<dim>1</dim>
					<dim>1</dim>
					<dim>1</dim>
				</port>
			</output>
		</layer>
		<layer id="150" name="net/transpose_9876213204" type="Const" version="opset1">
			<data offset="427504" size="216000" shape="50,40,3,3,3" element_type="f32"/>
			<rt_info>
				<attribute name="fused_names" version="0" value="net/transpose_98"/>
			</rt_info>
			<output>
				<port id="0" precision="FP32" names="net/transpose_98:0">
					<dim>50</dim>
					<dim>40</dim>
					<dim>3</dim>
					<dim>3</dim>
					<dim>3</dim>
				</port>
			</output>
		</layer>
		<layer id="151" name="net/Conv3D_44/fq_weights_1" type="FakeQuantize" version="opset1">
			<data levels="255" auto_broadcast="numpy"/>
			<input>
				<port id="0">
					<dim>50</dim>
					<dim>40</dim>
					<dim>3</dim>
					<dim>3</dim>
					<dim>3</dim>
				</port>
				<port id="1">
					<dim>50</dim>
					<dim>1</dim>
					<dim>1</dim>
					<dim>1</dim>
					<dim>1</dim>
				</port>
				<port id="2">
					<dim>50</dim>
					<dim>1</dim>
					<dim>1</dim>
					<dim>1</dim>
					<dim>1</dim>
				</port>
				<port id="3">
					<dim>50</dim>
					<dim>1</dim>
					<dim>1</dim>
					<dim>1</dim>
					<dim>1</dim>
				</port>
				<port id="4">
					<dim>50</dim>
					<dim>1</dim>
					<dim>1</dim>
					<dim>1</dim>
					<dim>1</dim>
				</port>
			</input>
			<output>
				<port id="5" precision="FP32">
					<dim>50</dim>
					<dim>40</dim>
					<dim>3</dim>
					<dim>3</dim>
					<dim>3</dim>
				</port>
			</output>
		</layer>
		<layer id="152" name="net/transpose_103/perm76013876" type="Const" version="opset1">
			<data offset="16" size="40" shape="5" element_type="i64"/>
			<rt_info>
				<attribute name="fused_names" version="0" value="net/transpose_103/perm"/>
			</rt_info>
			<output>
				<port id="0" precision="I64" names="net/transpose_103/perm:0">
					<dim>5</dim>
				</port>
			</output>
		</layer>
		<layer id="153" name="4840484414593" type="Const" version="opset1">
			<data offset="643504" size="4" shape="" element_type="f32"/>
			<output>
				<port id="0" precision="FP32"/>
			</output>
		</layer>
		<layer id="154" name="4841484513495" type="Const" version="opset1">
			<data offset="643508" size="4" shape="" element_type="f32"/>
			<output>
				<port id="0" precision="FP32"/>
			</output>
		</layer>
		<layer id="155" name="4842484613180" type="Const" version="opset1">
			<data offset="643504" size="4" shape="" element_type="f32"/>
			<output>
				<port id="0" precision="FP32"/>
			</output>
		</layer>
		<layer id="156" name="4843484714167" type="Const" version="opset1">
			<data offset="643508" size="4" shape="" element_type="f32"/>
			<output>
				<port id="0" precision="FP32"/>
			</output>
		</layer>
		<layer id="157" name="3437344112358" type="Const" version="opset1">
			<data offset="643512" size="4" shape="" element_type="f32"/>
			<output>
				<port id="0" precision="FP32"/>
			</output>
		</layer>
		<layer id="158" name="3438344212538" type="Const" version="opset1">
			<data offset="643516" size="4" shape="" element_type="f32"/>
			<output>
				<port id="0" precision="FP32"/>
			</output>
		</layer>
		<layer id="159" name="3439344313981" type="Const" version="opset1">
			<data offset="643512" size="4" shape="" element_type="f32"/>
			<output>
				<port id="0" precision="FP32"/>
			</output>
		</layer>
		<layer id="160" name="3440344414122" type="Const" version="opset1">
			<data offset="643516" size="4" shape="" element_type="f32"/>
			<output>
				<port id="0" precision="FP32"/>
			</output>
		</layer>
		<layer id="161" name="2887289113870" type="Const" version="opset1">
			<data offset="643520" size="4" shape="" element_type="f32"/>
			<output>
				<port id="0" precision="FP32"/>
			</output>
		</layer>
		<layer id="162" name="2888289212604" type="Const" version="opset1">
			<data offset="643524" size="4" shape="" element_type="f32"/>
			<output>
				<port id="0" precision="FP32"/>
			</output>
		</layer>
		<layer id="163" name="2889289311905" type="Const" version="opset1">
			<data offset="643520" size="4" shape="" element_type="f32"/>
			<output>
				<port id="0" precision="FP32"/>
			</output>
		</layer>
		<layer id="164" name="2890289412595" type="Const" version="opset1">
			<data offset="643524" size="4" shape="" element_type="f32"/>
			<output>
				<port id="0" precision="FP32"/>
			</output>
		</layer>
		<layer id="165" name="2927293113423" type="Const" version="opset1">
			<data offset="643528" size="4" shape="" element_type="f32"/>
			<output>
				<port id="0" precision="FP32"/>
			</output>
		</layer>
		<layer id="166" name="2928293212874" type="Const" version="opset1">
			<data offset="643532" size="4" shape="" element_type="f32"/>
			<output>
				<port id="0" precision="FP32"/>
			</output>
		</layer>
		<layer id="167" name="2929293313699" type="Const" version="opset1">
			<data offset="643528" size="4" shape="" element_type="f32"/>
			<output>
				<port id="0" precision="FP32"/>
			</output>
		</layer>
		<layer id="168" name="2930293413531" type="Const" version="opset1">
			<data offset="643532" size="4" shape="" element_type="f32"/>
			<output>
				<port id="0" precision="FP32"/>
			</output>
		</layer>
		<layer id="169" name="data_mul_11410114143376675013303" type="Const" version="opset1">
			<data offset="643536" size="160" shape="1,40,1,1,1" element_type="f32"/>
			<rt_info>
				<attribute name="fused_names" version="0" value="data_mul_114101141433766"/>
			</rt_info>
			<output>
				<port id="0" precision="FP32">
					<dim>1</dim>
					<dim>40</dim>
					<dim>1</dim>
					<dim>1</dim>
					<dim>1</dim>
				</port>
			</output>
		</layer>
		<layer id="170" name="75423362574812262" type="Const" version="opset1">
			<data offset="16" size="40" shape="5" element_type="i64"/>
			<rt_info>
				<attribute name="fused_names" version="0" value="754233625"/>
			</rt_info>
			<output>
				<port id="0" precision="I64">
					<dim>5</dim>
				</port>
			</output>
		</layer>
		<layer id="171" name="5190519414227" type="Const" version="opset1">
			<data offset="643696" size="4" shape="" element_type="f32"/>
			<output>
				<port id="0" precision="FP32"/>
			</output>
		</layer>
		<layer id="172" name="5191519513156" type="Const" version="opset1">
			<data offset="643700" size="4" shape="" element_type="f32"/>
			<output>
				<port id="0" precision="FP32"/>
			</output>
		</layer>
		<layer id="173" name="5192519613009" type="Const" version="opset1">
			<data offset="643696" size="4" shape="" element_type="f32"/>
			<output>
				<port id="0" precision="FP32"/>
			</output>
		</layer>
		<layer id="174" name="5193519712052" type="Const" version="opset1">
			<data offset="643700" size="4" shape="" element_type="f32"/>
			<output>
				<port id="0" precision="FP32"/>
			</output>
		</layer>
		<layer id="175" name="1600160212511" type="Const" version="opset1">
			<data offset="643704" size="160" shape="1,40,1,1,1" element_type="f32"/>
			<output>
				<port id="0" precision="FP32">
					<dim>1</dim>
					<dim>40</dim>
					<dim>1</dim>
					<dim>1</dim>
					<dim>1</dim>
				</port>
			</output>
		</layer>
		<layer id="176" name="3087309113306" type="Const" version="opset1">
			<data offset="643864" size="160" shape="40,1,1,1,1" element_type="f32"/>
			<output>
				<port id="0" precision="FP32">
					<dim>40</dim>
					<dim>1</dim>
					<dim>1</dim>
					<dim>1</dim>
					<dim>1</dim>
				</port>
			</output>
		</layer>
		<layer id="177" name="3088309212859" type="Const" version="opset1">
			<data offset="644024" size="160" shape="40,1,1,1,1" element_type="f32"/>
			<output>
				<port id="0" precision="FP32">
					<dim>40</dim>
					<dim>1</dim>
					<dim>1</dim>
					<dim>1</dim>
					<dim>1</dim>
				</port>
			</output>
		</layer>
		<layer id="178" name="3089309312223" type="Const" version="opset1">
			<data offset="643864" size="160" shape="40,1,1,1,1" element_type="f32"/>
			<output>
				<port id="0" precision="FP32">
					<dim>40</dim>
					<dim>1</dim>
					<dim>1</dim>
					<dim>1</dim>
					<dim>1</dim>
				</port>
			</output>
		</layer>
		<layer id="179" name="3090309414401" type="Const" version="opset1">
			<data offset="644024" size="160" shape="40,1,1,1,1" element_type="f32"/>
			<output>
				<port id="0" precision="FP32">
					<dim>40</dim>
					<dim>1</dim>
					<dim>1</dim>
					<dim>1</dim>
					<dim>1</dim>
				</port>
			</output>
		</layer>
		<layer id="180" name="net/transpose_9174613537" type="Const" version="opset1">
			<data offset="644184" size="172800" shape="40,40,3,3,3" element_type="f32"/>
			<rt_info>
				<attribute name="fused_names" version="0" value="net/transpose_91"/>
			</rt_info>
			<output>
				<port id="0" precision="FP32" names="net/transpose_91:0">
					<dim>40</dim>
					<dim>40</dim>
					<dim>3</dim>
					<dim>3</dim>
					<dim>3</dim>
				</port>
			</output>
		</layer>
		<layer id="181" name="net/Conv3D_41/fq_weights_1" type="FakeQuantize" version="opset1">
			<data levels="255" auto_broadcast="numpy"/>
			<input>
				<port id="0">
					<dim>40</dim>
					<dim>40</dim>
					<dim>3</dim>
					<dim>3</dim>
					<dim>3</dim>
				</port>
				<port id="1">
					<dim>40</dim>
					<dim>1</dim>
					<dim>1</dim>
					<dim>1</dim>
					<dim>1</dim>
				</port>
				<port id="2">
					<dim>40</dim>
					<dim>1</dim>
					<dim>1</dim>
					<dim>1</dim>
					<dim>1</dim>
				</port>
				<port id="3">
					<dim>40</dim>
					<dim>1</dim>
					<dim>1</dim>
					<dim>1</dim>
					<dim>1</dim>
				</port>
				<port id="4">
					<dim>40</dim>
					<dim>1</dim>
					<dim>1</dim>
					<dim>1</dim>
					<dim>1</dim>
				</port>
			</input>
			<output>
				<port id="5" precision="FP32">
					<dim>40</dim>
					<dim>40</dim>
					<dim>3</dim>
					<dim>3</dim>
					<dim>3</dim>
				</port>
			</output>
		</layer>
		<layer id="182" name="net/transpose_96/perm74412013" type="Const" version="opset1">
			<data offset="16" size="40" shape="5" element_type="i64"/>
			<rt_info>
				<attribute name="fused_names" version="0" value="net/transpose_96/perm"/>
			</rt_info>
			<output>
				<port id="0" precision="I64" names="net/transpose_96/perm:0">
					<dim>5</dim>
				</port>
			</output>
		</layer>
		<layer id="183" name="4830483413348" type="Const" version="opset1">
			<data offset="816984" size="4" shape="" element_type="f32"/>
			<output>
				<port id="0" precision="FP32"/>
			</output>
		</layer>
		<layer id="184" name="4831483513150" type="Const" version="opset1">
			<data offset="816988" size="4" shape="" element_type="f32"/>
			<output>
				<port id="0" precision="FP32"/>
			</output>
		</layer>
		<layer id="185" name="4832483614341" type="Const" version="opset1">
			<data offset="816984" size="4" shape="" element_type="f32"/>
			<output>
				<port id="0" precision="FP32"/>
			</output>
		</layer>
		<layer id="186" name="4833483713573" type="Const" version="opset1">
			<data offset="816988" size="4" shape="" element_type="f32"/>
			<output>
				<port id="0" precision="FP32"/>
			</output>
		</layer>
		<layer id="187" name="3027303113990" type="Const" version="opset1">
			<data offset="816992" size="4" shape="" element_type="f32"/>
			<output>
				<port id="0" precision="FP32"/>
			</output>
		</layer>
		<layer id="188" name="3028303212340" type="Const" version="opset1">
			<data offset="816996" size="4" shape="" element_type="f32"/>
			<output>
				<port id="0" precision="FP32"/>
			</output>
		</layer>
		<layer id="189" name="3029303314155" type="Const" version="opset1">
			<data offset="816992" size="4" shape="" element_type="f32"/>
			<output>
				<port id="0" precision="FP32"/>
			</output>
		</layer>
		<layer id="190" name="3030303413117" type="Const" version="opset1">
			<data offset="816996" size="4" shape="" element_type="f32"/>
			<output>
				<port id="0" precision="FP32"/>
			</output>
		</layer>
		<layer id="191" name="2317232114164" type="Const" version="opset1">
			<data offset="817000" size="4" shape="" element_type="f32"/>
			<output>
				<port id="0" precision="FP32"/>
			</output>
		</layer>
		<layer id="192" name="2318232214491" type="Const" version="opset1">
			<data offset="817004" size="4" shape="" element_type="f32"/>
			<output>
				<port id="0" precision="FP32"/>
			</output>
		</layer>
		<layer id="193" name="2319232312964" type="Const" version="opset1">
			<data offset="817000" size="4" shape="" element_type="f32"/>
			<output>
				<port id="0" precision="FP32"/>
			</output>
		</layer>
		<layer id="194" name="2320232413885" type="Const" version="opset1">
			<data offset="817004" size="4" shape="" element_type="f32"/>
			<output>
				<port id="0" precision="FP32"/>
			</output>
		</layer>
		<layer id="195" name="2947295114272" type="Const" version="opset1">
			<data offset="817008" size="4" shape="" element_type="f32"/>
			<output>
				<port id="0" precision="FP32"/>
			</output>
		</layer>
		<layer id="196" name="2948295213291" type="Const" version="opset1">
			<data offset="817012" size="4" shape="" element_type="f32"/>
			<output>
				<port id="0" precision="FP32"/>
			</output>
		</layer>
		<layer id="197" name="2949295311926" type="Const" version="opset1">
			<data offset="817008" size="4" shape="" element_type="f32"/>
			<output>
				<port id="0" precision="FP32"/>
			</output>
		</layer>
		<layer id="198" name="2950295414527" type="Const" version="opset1">
			<data offset="817012" size="4" shape="" element_type="f32"/>
			<output>
				<port id="0" precision="FP32"/>
			</output>
		</layer>
		<layer id="199" name="data_mul_11398114023372173413582" type="Const" version="opset1">
			<data offset="817016" size="160" shape="1,40,1,1,1" element_type="f32"/>
			<rt_info>
				<attribute name="fused_names" version="0" value="data_mul_113981140233721"/>
			</rt_info>
			<output>
				<port id="0" precision="FP32">
					<dim>1</dim>
					<dim>40</dim>
					<dim>1</dim>
					<dim>1</dim>
					<dim>1</dim>
				</port>
			</output>
		</layer>
		<layer id="200" name="75343431873212940" type="Const" version="opset1">
			<data offset="16" size="40" shape="5" element_type="i64"/>
			<rt_info>
				<attribute name="fused_names" version="0" value="753434318"/>
			</rt_info>
			<output>
				<port id="0" precision="I64">
					<dim>5</dim>
				</port>
			</output>
		</layer>
		<layer id="201" name="5180518412763" type="Const" version="opset1">
			<data offset="817176" size="4" shape="" element_type="f32"/>
			<output>
				<port id="0" precision="FP32"/>
			</output>
		</layer>
		<layer id="202" name="5181518512394" type="Const" version="opset1">
			<data offset="817180" size="4" shape="" element_type="f32"/>
			<output>
				<port id="0" precision="FP32"/>
			</output>
		</layer>
		<layer id="203" name="5182518613474" type="Const" version="opset1">
			<data offset="817176" size="4" shape="" element_type="f32"/>
			<output>
				<port id="0" precision="FP32"/>
			</output>
		</layer>
		<layer id="204" name="5183518712415" type="Const" version="opset1">
			<data offset="817180" size="4" shape="" element_type="f32"/>
			<output>
				<port id="0" precision="FP32"/>
			</output>
		</layer>
		<layer id="205" name="1596159813363" type="Const" version="opset1">
			<data offset="643704" size="160" shape="1,40,1,1,1" element_type="f32"/>
			<output>
				<port id="0" precision="FP32">
					<dim>1</dim>
					<dim>40</dim>
					<dim>1</dim>
					<dim>1</dim>
					<dim>1</dim>
				</port>
			</output>
		</layer>
		<layer id="206" name="3307331112439" type="Const" version="opset1">
			<data offset="817184" size="160" shape="40,1,1,1,1" element_type="f32"/>
			<output>
				<port id="0" precision="FP32">
					<dim>40</dim>
					<dim>1</dim>
					<dim>1</dim>
					<dim>1</dim>
					<dim>1</dim>
				</port>
			</output>
		</layer>
		<layer id="207" name="3308331213471" type="Const" version="opset1">
			<data offset="817344" size="160" shape="40,1,1,1,1" element_type="f32"/>
			<output>
				<port id="0" precision="FP32">
					<dim>40</dim>
					<dim>1</dim>
					<dim>1</dim>
					<dim>1</dim>
					<dim>1</dim>
				</port>
			</output>
		</layer>
		<layer id="208" name="3309331312496" type="Const" version="opset1">
			<data offset="817184" size="160" shape="40,1,1,1,1" element_type="f32"/>
			<output>
				<port id="0" precision="FP32">
					<dim>40</dim>
					<dim>1</dim>
					<dim>1</dim>
					<dim>1</dim>
					<dim>1</dim>
				</port>
			</output>
		</layer>
		<layer id="209" name="3310331412571" type="Const" version="opset1">
			<data offset="817344" size="160" shape="40,1,1,1,1" element_type="f32"/>
			<output>
				<port id="0" precision="FP32">
					<dim>40</dim>
					<dim>1</dim>
					<dim>1</dim>
					<dim>1</dim>
					<dim>1</dim>
				</port>
			</output>
		</layer>
		<layer id="210" name="net/transpose_8473014185" type="Const" version="opset1">
			<data offset="817504" size="172800" shape="40,40,3,3,3" element_type="f32"/>
			<rt_info>
				<attribute name="fused_names" version="0" value="net/transpose_84"/>
			</rt_info>
			<output>
				<port id="0" precision="FP32" names="net/transpose_84:0">
					<dim>40</dim>
					<dim>40</dim>
					<dim>3</dim>
					<dim>3</dim>
					<dim>3</dim>
				</port>
			</output>
		</layer>
		<layer id="211" name="net/Conv3D_38/fq_weights_1" type="FakeQuantize" version="opset1">
			<data levels="255" auto_broadcast="numpy"/>
			<input>
				<port id="0">
					<dim>40</dim>
					<dim>40</dim>
					<dim>3</dim>
					<dim>3</dim>
					<dim>3</dim>
				</port>
				<port id="1">
					<dim>40</dim>
					<dim>1</dim>
					<dim>1</dim>
					<dim>1</dim>
					<dim>1</dim>
				</port>
				<port id="2">
					<dim>40</dim>
					<dim>1</dim>
					<dim>1</dim>
					<dim>1</dim>
					<dim>1</dim>
				</port>
				<port id="3">
					<dim>40</dim>
					<dim>1</dim>
					<dim>1</dim>
					<dim>1</dim>
					<dim>1</dim>
				</port>
				<port id="4">
					<dim>40</dim>
					<dim>1</dim>
					<dim>1</dim>
					<dim>1</dim>
					<dim>1</dim>
				</port>
			</input>
			<output>
				<port id="5" precision="FP32">
					<dim>40</dim>
					<dim>40</dim>
					<dim>3</dim>
					<dim>3</dim>
					<dim>3</dim>
				</port>
			</output>
		</layer>
		<layer id="212" name="net/transpose_89/perm72812421" type="Const" version="opset1">
			<data offset="16" size="40" shape="5" element_type="i64"/>
			<rt_info>
				<attribute name="fused_names" version="0" value="net/transpose_89/perm"/>
			</rt_info>
			<output>
				<port id="0" precision="I64" names="net/transpose_89/perm:0">
					<dim>5</dim>
				</port>
			</output>
		</layer>
		<layer id="213" name="4820482412871" type="Const" version="opset1">
			<data offset="990304" size="4" shape="" element_type="f32"/>
			<output>
				<port id="0" precision="FP32"/>
			</output>
		</layer>
		<layer id="214" name="4821482514020" type="Const" version="opset1">
			<data offset="990308" size="4" shape="" element_type="f32"/>
			<output>
				<port id="0" precision="FP32"/>
			</output>
		</layer>
		<layer id="215" name="4822482612856" type="Const" version="opset1">
			<data offset="990304" size="4" shape="" element_type="f32"/>
			<output>
				<port id="0" precision="FP32"/>
			</output>
		</layer>
		<layer id="216" name="4823482713726" type="Const" version="opset1">
			<data offset="990308" size="4" shape="" element_type="f32"/>
			<output>
				<port id="0" precision="FP32"/>
			</output>
		</layer>
		<layer id="217" name="3417342113144" type="Const" version="opset1">
			<data offset="990312" size="4" shape="" element_type="f32"/>
			<output>
				<port id="0" precision="FP32"/>
			</output>
		</layer>
		<layer id="218" name="3418342212982" type="Const" version="opset1">
			<data offset="990316" size="4" shape="" element_type="f32"/>
			<output>
				<port id="0" precision="FP32"/>
			</output>
		</layer>
		<layer id="219" name="3419342313921" type="Const" version="opset1">
			<data offset="990312" size="4" shape="" element_type="f32"/>
			<output>
				<port id="0" precision="FP32"/>
			</output>
		</layer>
		<layer id="220" name="3420342413657" type="Const" version="opset1">
			<data offset="990316" size="4" shape="" element_type="f32"/>
			<output>
				<port id="0" precision="FP32"/>
			</output>
		</layer>
		<layer id="221" name="2717272113249" type="Const" version="opset1">
			<data offset="990320" size="4" shape="" element_type="f32"/>
			<output>
				<port id="0" precision="FP32"/>
			</output>
		</layer>
		<layer id="222" name="2718272213702" type="Const" version="opset1">
			<data offset="990324" size="4" shape="" element_type="f32"/>
			<output>
				<port id="0" precision="FP32"/>
			</output>
		</layer>
		<layer id="223" name="2719272312949" type="Const" version="opset1">
			<data offset="990320" size="4" shape="" element_type="f32"/>
			<output>
				<port id="0" precision="FP32"/>
			</output>
		</layer>
		<layer id="224" name="2720272413999" type="Const" version="opset1">
			<data offset="990324" size="4" shape="" element_type="f32"/>
			<output>
				<port id="0" precision="FP32"/>
			</output>
		</layer>
		<layer id="225" name="2357236112889" type="Const" version="opset1">
			<data offset="990328" size="4" shape="" element_type="f32"/>
			<output>
				<port id="0" precision="FP32"/>
			</output>
		</layer>
		<layer id="226" name="2358236212061" type="Const" version="opset1">
			<data offset="990332" size="4" shape="" element_type="f32"/>
			<output>
				<port id="0" precision="FP32"/>
			</output>
		</layer>
		<layer id="227" name="2359236314296" type="Const" version="opset1">
			<data offset="990328" size="4" shape="" element_type="f32"/>
			<output>
				<port id="0" precision="FP32"/>
			</output>
		</layer>
		<layer id="228" name="2360236414557" type="Const" version="opset1">
			<data offset="990332" size="4" shape="" element_type="f32"/>
			<output>
				<port id="0" precision="FP32"/>
			</output>
		</layer>
		<layer id="229" name="data_mul_11386113903402171814455" type="Const" version="opset1">
			<data offset="990336" size="160" shape="1,40,1,1,1" element_type="f32"/>
			<rt_info>
				<attribute name="fused_names" version="0" value="data_mul_113861139034021"/>
			</rt_info>
			<output>
				<port id="0" precision="FP32">
					<dim>1</dim>
					<dim>40</dim>
					<dim>1</dim>
					<dim>1</dim>
					<dim>1</dim>
				</port>
			</output>
		</layer>
		<layer id="230" name="75263356271613909" type="Const" version="opset1">
			<data offset="16" size="40" shape="5" element_type="i64"/>
			<rt_info>
				<attribute name="fused_names" version="0" value="752633562"/>
			</rt_info>
			<output>
				<port id="0" precision="I64">
					<dim>5</dim>
				</port>
			</output>
		</layer>
		<layer id="231" name="5170517413663" type="Const" version="opset1">
			<data offset="990496" size="4" shape="" element_type="f32"/>
			<output>
				<port id="0" precision="FP32"/>
			</output>
		</layer>
		<layer id="232" name="5171517514050" type="Const" version="opset1">
			<data offset="990500" size="4" shape="" element_type="f32"/>
			<output>
				<port id="0" precision="FP32"/>
			</output>
		</layer>
		<layer id="233" name="5172517613693" type="Const" version="opset1">
			<data offset="990496" size="4" shape="" element_type="f32"/>
			<output>
				<port id="0" precision="FP32"/>
			</output>
		</layer>
		<layer id="234" name="5173517713396" type="Const" version="opset1">
			<data offset="990500" size="4" shape="" element_type="f32"/>
			<output>
				<port id="0" precision="FP32"/>
			</output>
		</layer>
		<layer id="235" name="1592159414044" type="Const" version="opset1">
			<data offset="643704" size="160" shape="1,40,1,1,1" element_type="f32"/>
			<output>
				<port id="0" precision="FP32">
					<dim>1</dim>
					<dim>40</dim>
					<dim>1</dim>
					<dim>1</dim>
					<dim>1</dim>
				</port>
			</output>
		</layer>
		<layer id="236" name="2627263113777" type="Const" version="opset1">
			<data offset="990504" size="160" shape="40,1,1,1,1" element_type="f32"/>
			<output>
				<port id="0" precision="FP32">
					<dim>40</dim>
					<dim>1</dim>
					<dim>1</dim>
					<dim>1</dim>
					<dim>1</dim>
				</port>
			</output>
		</layer>
		<layer id="237" name="2628263214002" type="Const" version="opset1">
			<data offset="990664" size="160" shape="40,1,1,1,1" element_type="f32"/>
			<output>
				<port id="0" precision="FP32">
					<dim>40</dim>
					<dim>1</dim>
					<dim>1</dim>
					<dim>1</dim>
					<dim>1</dim>
				</port>
			</output>
		</layer>
		<layer id="238" name="2629263311881" type="Const" version="opset1">
			<data offset="990504" size="160" shape="40,1,1,1,1" element_type="f32"/>
			<output>
				<port id="0" precision="FP32">
					<dim>40</dim>
					<dim>1</dim>
					<dim>1</dim>
					<dim>1</dim>
					<dim>1</dim>
				</port>
			</output>
		</layer>
		<layer id="239" name="2630263413822" type="Const" version="opset1">
			<data offset="990664" size="160" shape="40,1,1,1,1" element_type="f32"/>
			<output>
				<port id="0" precision="FP32">
					<dim>40</dim>
					<dim>1</dim>
					<dim>1</dim>
					<dim>1</dim>
					<dim>1</dim>
				</port>
			</output>
		</layer>
		<layer id="240" name="net/transpose_7771413309" type="Const" version="opset1">
			<data offset="990824" size="172800" shape="40,40,3,3,3" element_type="f32"/>
			<rt_info>
				<attribute name="fused_names" version="0" value="net/transpose_77"/>
			</rt_info>
			<output>
				<port id="0" precision="FP32" names="net/transpose_77:0">
					<dim>40</dim>
					<dim>40</dim>
					<dim>3</dim>
					<dim>3</dim>
					<dim>3</dim>
				</port>
			</output>
		</layer>
		<layer id="241" name="net/Conv3D_35/fq_weights_1" type="FakeQuantize" version="opset1">
			<data levels="255" auto_broadcast="numpy"/>
			<input>
				<port id="0">
					<dim>40</dim>
					<dim>40</dim>
					<dim>3</dim>
					<dim>3</dim>
					<dim>3</dim>
				</port>
				<port id="1">
					<dim>40</dim>
					<dim>1</dim>
					<dim>1</dim>
					<dim>1</dim>
					<dim>1</dim>
				</port>
				<port id="2">
					<dim>40</dim>
					<dim>1</dim>
					<dim>1</dim>
					<dim>1</dim>
					<dim>1</dim>
				</port>
				<port id="3">
					<dim>40</dim>
					<dim>1</dim>
					<dim>1</dim>
					<dim>1</dim>
					<dim>1</dim>
				</port>
				<port id="4">
					<dim>40</dim>
					<dim>1</dim>
					<dim>1</dim>
					<dim>1</dim>
					<dim>1</dim>
				</port>
			</input>
			<output>
				<port id="5" precision="FP32">
					<dim>40</dim>
					<dim>40</dim>
					<dim>3</dim>
					<dim>3</dim>
					<dim>3</dim>
				</port>
			</output>
		</layer>
		<layer id="242" name="net/transpose_82/perm71212673" type="Const" version="opset1">
			<data offset="16" size="40" shape="5" element_type="i64"/>
			<rt_info>
				<attribute name="fused_names" version="0" value="net/transpose_82/perm"/>
			</rt_info>
			<output>
				<port id="0" precision="I64" names="net/transpose_82/perm:0">
					<dim>5</dim>
				</port>
			</output>
		</layer>
		<layer id="243" name="4810481414494" type="Const" version="opset1">
			<data offset="1163624" size="4" shape="" element_type="f32"/>
			<output>
				<port id="0" precision="FP32"/>
			</output>
		</layer>
		<layer id="244" name="4811481514482" type="Const" version="opset1">
			<data offset="1163628" size="4" shape="" element_type="f32"/>
			<output>
				<port id="0" precision="FP32"/>
			</output>
		</layer>
		<layer id="245" name="4812481613561" type="Const" version="opset1">
			<data offset="1163624" size="4" shape="" element_type="f32"/>
			<output>
				<port id="0" precision="FP32"/>
			</output>
		</layer>
		<layer id="246" name="4813481714191" type="Const" version="opset1">
			<data offset="1163628" size="4" shape="" element_type="f32"/>
			<output>
				<port id="0" precision="FP32"/>
			</output>
		</layer>
		<layer id="247" name="2257226112484" type="Const" version="opset1">
			<data offset="1163624" size="4" shape="" element_type="f32"/>
			<output>
				<port id="0" precision="FP32"/>
			</output>
		</layer>
		<layer id="248" name="2258226213849" type="Const" version="opset1">
			<data offset="1163632" size="4" shape="" element_type="f32"/>
			<output>
				<port id="0" precision="FP32"/>
			</output>
		</layer>
		<layer id="249" name="2259226314305" type="Const" version="opset1">
			<data offset="1163624" size="4" shape="" element_type="f32"/>
			<output>
				<port id="0" precision="FP32"/>
			</output>
		</layer>
		<layer id="250" name="2260226414311" type="Const" version="opset1">
			<data offset="1163632" size="4" shape="" element_type="f32"/>
			<output>
				<port id="0" precision="FP32"/>
			</output>
		</layer>
		<layer id="251" name="3747375112895" type="Const" version="opset1">
			<data offset="1163636" size="4" shape="" element_type="f32"/>
			<output>
				<port id="0" precision="FP32"/>
			</output>
		</layer>
		<layer id="252" name="3748375212835" type="Const" version="opset1">
			<data offset="1163640" size="4" shape="" element_type="f32"/>
			<output>
				<port id="0" precision="FP32"/>
			</output>
		</layer>
		<layer id="253" name="3749375313546" type="Const" version="opset1">
			<data offset="1163636" size="4" shape="" element_type="f32"/>
			<output>
				<port id="0" precision="FP32"/>
			</output>
		</layer>
		<layer id="254" name="3750375412682" type="Const" version="opset1">
			<data offset="1163640" size="4" shape="" element_type="f32"/>
			<output>
				<port id="0" precision="FP32"/>
			</output>
		</layer>
		<layer id="255" name="3367337112028" type="Const" version="opset1">
			<data offset="1163644" size="4" shape="" element_type="f32"/>
			<output>
				<port id="0" precision="FP32"/>
			</output>
		</layer>
		<layer id="256" name="3368337213780" type="Const" version="opset1">
			<data offset="1163648" size="4" shape="" element_type="f32"/>
			<output>
				<port id="0" precision="FP32"/>
			</output>
		</layer>
		<layer id="257" name="3369337314248" type="Const" version="opset1">
			<data offset="1163644" size="4" shape="" element_type="f32"/>
			<output>
				<port id="0" precision="FP32"/>
			</output>
		</layer>
		<layer id="258" name="3370337413783" type="Const" version="opset1">
			<data offset="1163648" size="4" shape="" element_type="f32"/>
			<output>
				<port id="0" precision="FP32"/>
			</output>
		</layer>
		<layer id="259" name="data_mul_11374113783356870213081" type="Const" version="opset1">
			<data offset="1163652" size="160" shape="1,40,1,1,1" element_type="f32"/>
			<rt_info>
				<attribute name="fused_names" version="0" value="data_mul_113741137833568"/>
			</rt_info>
			<output>
				<port id="0" precision="FP32">
					<dim>1</dim>
					<dim>40</dim>
					<dim>1</dim>
					<dim>1</dim>
					<dim>1</dim>
				</port>
			</output>
		</layer>
		<layer id="260" name="75183400370012436" type="Const" version="opset1">
			<data offset="16" size="40" shape="5" element_type="i64"/>
			<rt_info>
				<attribute name="fused_names" version="0" value="751834003"/>
			</rt_info>
			<output>
				<port id="0" precision="I64">
					<dim>5</dim>
				</port>
			</output>
		</layer>
		<layer id="261" name="5160516413705" type="Const" version="opset1">
			<data offset="1163812" size="4" shape="" element_type="f32"/>
			<output>
				<port id="0" precision="FP32"/>
			</output>
		</layer>
		<layer id="262" name="5161516513345" type="Const" version="opset1">
			<data offset="1163816" size="4" shape="" element_type="f32"/>
			<output>
				<port id="0" precision="FP32"/>
			</output>
		</layer>
		<layer id="263" name="5162516612601" type="Const" version="opset1">
			<data offset="1163812" size="4" shape="" element_type="f32"/>
			<output>
				<port id="0" precision="FP32"/>
			</output>
		</layer>
		<layer id="264" name="5163516712754" type="Const" version="opset1">
			<data offset="1163816" size="4" shape="" element_type="f32"/>
			<output>
				<port id="0" precision="FP32"/>
			</output>
		</layer>
		<layer id="265" name="1588159012328" type="Const" version="opset1">
			<data offset="643704" size="160" shape="1,40,1,1,1" element_type="f32"/>
			<output>
				<port id="0" precision="FP32">
					<dim>1</dim>
					<dim>40</dim>
					<dim>1</dim>
					<dim>1</dim>
					<dim>1</dim>
				</port>
			</output>
		</layer>
		<layer id="266" name="2827283113129" type="Const" version="opset1">
			<data offset="1163820" size="160" shape="40,1,1,1,1" element_type="f32"/>
			<output>
				<port id="0" precision="FP32">
					<dim>40</dim>
					<dim>1</dim>
					<dim>1</dim>
					<dim>1</dim>
					<dim>1</dim>
				</port>
			</output>
		</layer>
		<layer id="267" name="2828283212931" type="Const" version="opset1">
			<data offset="1163980" size="160" shape="40,1,1,1,1" element_type="f32"/>
			<output>
				<port id="0" precision="FP32">
					<dim>40</dim>
					<dim>1</dim>
					<dim>1</dim>
					<dim>1</dim>
					<dim>1</dim>
				</port>
			</output>
		</layer>
		<layer id="268" name="2829283312064" type="Const" version="opset1">
			<data offset="1163820" size="160" shape="40,1,1,1,1" element_type="f32"/>
			<output>
				<port id="0" precision="FP32">
					<dim>40</dim>
					<dim>1</dim>
					<dim>1</dim>
					<dim>1</dim>
					<dim>1</dim>
				</port>
			</output>
		</layer>
		<layer id="269" name="2830283414650" type="Const" version="opset1">
			<data offset="1163980" size="160" shape="40,1,1,1,1" element_type="f32"/>
			<output>
				<port id="0" precision="FP32">
					<dim>40</dim>
					<dim>1</dim>
					<dim>1</dim>
					<dim>1</dim>
					<dim>1</dim>
				</port>
			</output>
		</layer>
		<layer id="270" name="net/transpose_7069814356" type="Const" version="opset1">
			<data offset="1164140" size="129600" shape="40,30,3,3,3" element_type="f32"/>
			<rt_info>
				<attribute name="fused_names" version="0" value="net/transpose_70"/>
			</rt_info>
			<output>
				<port id="0" precision="FP32" names="net/transpose_70:0">
					<dim>40</dim>
					<dim>30</dim>
					<dim>3</dim>
					<dim>3</dim>
					<dim>3</dim>
				</port>
			</output>
		</layer>
		<layer id="271" name="net/Conv3D_32/fq_weights_1" type="FakeQuantize" version="opset1">
			<data levels="255" auto_broadcast="numpy"/>
			<input>
				<port id="0">
					<dim>40</dim>
					<dim>30</dim>
					<dim>3</dim>
					<dim>3</dim>
					<dim>3</dim>
				</port>
				<port id="1">
					<dim>40</dim>
					<dim>1</dim>
					<dim>1</dim>
					<dim>1</dim>
					<dim>1</dim>
				</port>
				<port id="2">
					<dim>40</dim>
					<dim>1</dim>
					<dim>1</dim>
					<dim>1</dim>
					<dim>1</dim>
				</port>
				<port id="3">
					<dim>40</dim>
					<dim>1</dim>
					<dim>1</dim>
					<dim>1</dim>
					<dim>1</dim>
				</port>
				<port id="4">
					<dim>40</dim>
					<dim>1</dim>
					<dim>1</dim>
					<dim>1</dim>
					<dim>1</dim>
				</port>
			</input>
			<output>
				<port id="5" precision="FP32">
					<dim>40</dim>
					<dim>30</dim>
					<dim>3</dim>
					<dim>3</dim>
					<dim>3</dim>
				</port>
			</output>
		</layer>
		<layer id="272" name="net/transpose_75/perm69612583" type="Const" version="opset1">
			<data offset="16" size="40" shape="5" element_type="i64"/>
			<rt_info>
				<attribute name="fused_names" version="0" value="net/transpose_75/perm"/>
			</rt_info>
			<output>
				<port id="0" precision="I64" names="net/transpose_75/perm:0">
					<dim>5</dim>
				</port>
			</output>
		</layer>
		<layer id="273" name="4800480413054" type="Const" version="opset1">
			<data offset="1163624" size="4" shape="" element_type="f32"/>
			<output>
				<port id="0" precision="FP32"/>
			</output>
		</layer>
		<layer id="274" name="4801480514389" type="Const" version="opset1">
			<data offset="1293740" size="4" shape="" element_type="f32"/>
			<output>
				<port id="0" precision="FP32"/>
			</output>
		</layer>
		<layer id="275" name="4802480612307" type="Const" version="opset1">
			<data offset="1163624" size="4" shape="" element_type="f32"/>
			<output>
				<port id="0" precision="FP32"/>
			</output>
		</layer>
		<layer id="276" name="4803480714572" type="Const" version="opset1">
			<data offset="1293740" size="4" shape="" element_type="f32"/>
			<output>
				<port id="0" precision="FP32"/>
			</output>
		</layer>
		<layer id="277" name="2657266113417" type="Const" version="opset1">
			<data offset="1163624" size="4" shape="" element_type="f32"/>
			<output>
				<port id="0" precision="FP32"/>
			</output>
		</layer>
		<layer id="278" name="2658266212970" type="Const" version="opset1">
			<data offset="1293744" size="4" shape="" element_type="f32"/>
			<output>
				<port id="0" precision="FP32"/>
			</output>
		</layer>
		<layer id="279" name="2659266314188" type="Const" version="opset1">
			<data offset="1163624" size="4" shape="" element_type="f32"/>
			<output>
				<port id="0" precision="FP32"/>
			</output>
		</layer>
		<layer id="280" name="2660266413153" type="Const" version="opset1">
			<data offset="1293744" size="4" shape="" element_type="f32"/>
			<output>
				<port id="0" precision="FP32"/>
			</output>
		</layer>
		<layer id="281" name="2557256113534" type="Const" version="opset1">
			<data offset="1293748" size="4" shape="" element_type="f32"/>
			<output>
				<port id="0" precision="FP32"/>
			</output>
		</layer>
		<layer id="282" name="2558256212901" type="Const" version="opset1">
			<data offset="1293752" size="4" shape="" element_type="f32"/>
			<output>
				<port id="0" precision="FP32"/>
			</output>
		</layer>
		<layer id="283" name="2559256312916" type="Const" version="opset1">
			<data offset="1293748" size="4" shape="" element_type="f32"/>
			<output>
				<port id="0" precision="FP32"/>
			</output>
		</layer>
		<layer id="284" name="2560256412829" type="Const" version="opset1">
			<data offset="1293752" size="4" shape="" element_type="f32"/>
			<output>
				<port id="0" precision="FP32"/>
			</output>
		</layer>
		<layer id="285" name="2277228114095" type="Const" version="opset1">
			<data offset="1293756" size="4" shape="" element_type="f32"/>
			<output>
				<port id="0" precision="FP32"/>
			</output>
		</layer>
		<layer id="286" name="2278228213003" type="Const" version="opset1">
			<data offset="1293760" size="4" shape="" element_type="f32"/>
			<output>
				<port id="0" precision="FP32"/>
			</output>
		</layer>
		<layer id="287" name="2279228313147" type="Const" version="opset1">
			<data offset="1293756" size="4" shape="" element_type="f32"/>
			<output>
				<port id="0" precision="FP32"/>
			</output>
		</layer>
		<layer id="288" name="2280228414419" type="Const" version="opset1">
			<data offset="1293760" size="4" shape="" element_type="f32"/>
			<output>
				<port id="0" precision="FP32"/>
			</output>
		</layer>
		<layer id="289" name="data_mul_11362113663425568612976" type="Const" version="opset1">
			<data offset="1293764" size="120" shape="1,30,1,1,1" element_type="f32"/>
			<rt_info>
				<attribute name="fused_names" version="0" value="data_mul_113621136634255"/>
			</rt_info>
			<output>
				<port id="0" precision="FP32">
					<dim>1</dim>
					<dim>30</dim>
					<dim>1</dim>
					<dim>1</dim>
					<dim>1</dim>
				</port>
			</output>
		</layer>
		<layer id="290" name="75103384168413225" type="Const" version="opset1">
			<data offset="16" size="40" shape="5" element_type="i64"/>
			<rt_info>
				<attribute name="fused_names" version="0" value="751033841"/>
			</rt_info>
			<output>
				<port id="0" precision="I64">
					<dim>5</dim>
				</port>
			</output>
		</layer>
		<layer id="291" name="5150515414131" type="Const" version="opset1">
			<data offset="1293884" size="4" shape="" element_type="f32"/>
			<output>
				<port id="0" precision="FP32"/>
			</output>
		</layer>
		<layer id="292" name="5151515512217" type="Const" version="opset1">
			<data offset="1293888" size="4" shape="" element_type="f32"/>
			<output>
				<port id="0" precision="FP32"/>
			</output>
		</layer>
		<layer id="293" name="5152515612709" type="Const" version="opset1">
			<data offset="1293884" size="4" shape="" element_type="f32"/>
			<output>
				<port id="0" precision="FP32"/>
			</output>
		</layer>
		<layer id="294" name="5153515713327" type="Const" version="opset1">
			<data offset="1293888" size="4" shape="" element_type="f32"/>
			<output>
				<port id="0" precision="FP32"/>
			</output>
		</layer>
		<layer id="295" name="1584158613585" type="Const" version="opset1">
			<data offset="1293892" size="120" shape="1,30,1,1,1" element_type="f32"/>
			<output>
				<port id="0" precision="FP32">
					<dim>1</dim>
					<dim>30</dim>
					<dim>1</dim>
					<dim>1</dim>
					<dim>1</dim>
				</port>
			</output>
		</layer>
		<layer id="296" name="2807281114587" type="Const" version="opset1">
			<data offset="1294012" size="120" shape="30,1,1,1,1" element_type="f32"/>
			<output>
				<port id="0" precision="FP32">
					<dim>30</dim>
					<dim>1</dim>
					<dim>1</dim>
					<dim>1</dim>
					<dim>1</dim>
				</port>
			</output>
		</layer>
		<layer id="297" name="2808281214152" type="Const" version="opset1">
			<data offset="1294132" size="120" shape="30,1,1,1,1" element_type="f32"/>
			<output>
				<port id="0" precision="FP32">
					<dim>30</dim>
					<dim>1</dim>
					<dim>1</dim>
					<dim>1</dim>
					<dim>1</dim>
				</port>
			</output>
		</layer>
		<layer id="298" name="2809281313648" type="Const" version="opset1">
			<data offset="1294012" size="120" shape="30,1,1,1,1" element_type="f32"/>
			<output>
				<port id="0" precision="FP32">
					<dim>30</dim>
					<dim>1</dim>
					<dim>1</dim>
					<dim>1</dim>
					<dim>1</dim>
				</port>
			</output>
		</layer>
		<layer id="299" name="2810281412376" type="Const" version="opset1">
			<data offset="1294132" size="120" shape="30,1,1,1,1" element_type="f32"/>
			<output>
				<port id="0" precision="FP32">
					<dim>30</dim>
					<dim>1</dim>
					<dim>1</dim>
					<dim>1</dim>
					<dim>1</dim>
				</port>
			</output>
		</layer>
		<layer id="300" name="net/transpose_6368214098" type="Const" version="opset1">
			<data offset="1294252" size="97200" shape="30,30,3,3,3" element_type="f32"/>
			<rt_info>
				<attribute name="fused_names" version="0" value="net/transpose_63"/>
			</rt_info>
			<output>
				<port id="0" precision="FP32" names="net/transpose_63:0">
					<dim>30</dim>
					<dim>30</dim>
					<dim>3</dim>
					<dim>3</dim>
					<dim>3</dim>
				</port>
			</output>
		</layer>
		<layer id="301" name="net/Conv3D_29/fq_weights_1" type="FakeQuantize" version="opset1">
			<data levels="255" auto_broadcast="numpy"/>
			<input>
				<port id="0">
					<dim>30</dim>
					<dim>30</dim>
					<dim>3</dim>
					<dim>3</dim>
					<dim>3</dim>
				</port>
				<port id="1">
					<dim>30</dim>
					<dim>1</dim>
					<dim>1</dim>
					<dim>1</dim>
					<dim>1</dim>
				</port>
				<port id="2">
					<dim>30</dim>
					<dim>1</dim>
					<dim>1</dim>
					<dim>1</dim>
					<dim>1</dim>
				</port>
				<port id="3">
					<dim>30</dim>
					<dim>1</dim>
					<dim>1</dim>
					<dim>1</dim>
					<dim>1</dim>
				</port>
				<port id="4">
					<dim>30</dim>
					<dim>1</dim>
					<dim>1</dim>
					<dim>1</dim>
					<dim>1</dim>
				</port>
			</input>
			<output>
				<port id="5" precision="FP32">
					<dim>30</dim>
					<dim>30</dim>
					<dim>3</dim>
					<dim>3</dim>
					<dim>3</dim>
				</port>
			</output>
		</layer>
		<layer id="302" name="net/transpose_68/perm68013873" type="Const" version="opset1">
			<data offset="16" size="40" shape="5" element_type="i64"/>
			<rt_info>
				<attribute name="fused_names" version="0" value="net/transpose_68/perm"/>
			</rt_info>
			<output>
				<port id="0" precision="I64" names="net/transpose_68/perm:0">
					<dim>5</dim>
				</port>
			</output>
		</layer>
		<layer id="303" name="4790479414434" type="Const" version="opset1">
			<data offset="1391452" size="4" shape="" element_type="f32"/>
			<output>
				<port id="0" precision="FP32"/>
			</output>
		</layer>
		<layer id="304" name="4791479513741" type="Const" version="opset1">
			<data offset="1391456" size="4" shape="" element_type="f32"/>
			<output>
				<port id="0" precision="FP32"/>
			</output>
		</layer>
		<layer id="305" name="4792479614449" type="Const" version="opset1">
			<data offset="1391452" size="4" shape="" element_type="f32"/>
			<output>
				<port id="0" precision="FP32"/>
			</output>
		</layer>
		<layer id="306" name="4793479714329" type="Const" version="opset1">
			<data offset="1391456" size="4" shape="" element_type="f32"/>
			<output>
				<port id="0" precision="FP32"/>
			</output>
		</layer>
		<layer id="307" name="2197220113978" type="Const" version="opset1">
			<data offset="1391460" size="4" shape="" element_type="f32"/>
			<output>
				<port id="0" precision="FP32"/>
			</output>
		</layer>
		<layer id="308" name="2198220214302" type="Const" version="opset1">
			<data offset="1391464" size="4" shape="" element_type="f32"/>
			<output>
				<port id="0" precision="FP32"/>
			</output>
		</layer>
		<layer id="309" name="2199220313123" type="Const" version="opset1">
			<data offset="1391460" size="4" shape="" element_type="f32"/>
			<output>
				<port id="0" precision="FP32"/>
			</output>
		</layer>
		<layer id="310" name="2200220413501" type="Const" version="opset1">
			<data offset="1391464" size="4" shape="" element_type="f32"/>
			<output>
				<port id="0" precision="FP32"/>
			</output>
		</layer>
		<layer id="311" name="3547355113984" type="Const" version="opset1">
			<data offset="1391468" size="4" shape="" element_type="f32"/>
			<output>
				<port id="0" precision="FP32"/>
			</output>
		</layer>
		<layer id="312" name="3548355213720" type="Const" version="opset1">
			<data offset="1391472" size="4" shape="" element_type="f32"/>
			<output>
				<port id="0" precision="FP32"/>
			</output>
		</layer>
		<layer id="313" name="3549355314026" type="Const" version="opset1">
			<data offset="1391468" size="4" shape="" element_type="f32"/>
			<output>
				<port id="0" precision="FP32"/>
			</output>
		</layer>
		<layer id="314" name="3550355412196" type="Const" version="opset1">
			<data offset="1391472" size="4" shape="" element_type="f32"/>
			<output>
				<port id="0" precision="FP32"/>
			</output>
		</layer>
		<layer id="315" name="2467247113858" type="Const" version="opset1">
			<data offset="1391476" size="4" shape="" element_type="f32"/>
			<output>
				<port id="0" precision="FP32"/>
			</output>
		</layer>
		<layer id="316" name="2468247214233" type="Const" version="opset1">
			<data offset="1391480" size="4" shape="" element_type="f32"/>
			<output>
				<port id="0" precision="FP32"/>
			</output>
		</layer>
		<layer id="317" name="2469247313030" type="Const" version="opset1">
			<data offset="1391476" size="4" shape="" element_type="f32"/>
			<output>
				<port id="0" precision="FP32"/>
			</output>
		</layer>
		<layer id="318" name="2470247413312" type="Const" version="opset1">
			<data offset="1391480" size="4" shape="" element_type="f32"/>
			<output>
				<port id="0" precision="FP32"/>
			</output>
		</layer>
		<layer id="319" name="data_mul_113543379667013462" type="Const" version="opset1">
			<data offset="1391484" size="120" shape="1,30,1,1,1" element_type="f32"/>
			<rt_info>
				<attribute name="fused_names" version="0" value="data_mul_1135433796"/>
			</rt_info>
			<output>
				<port id="0" precision="FP32">
					<dim>1</dim>
					<dim>30</dim>
					<dim>1</dim>
					<dim>1</dim>
					<dim>1</dim>
				</port>
			</output>
		</layer>
		<layer id="320" name="75023408166813747" type="Const" version="opset1">
			<data offset="16" size="40" shape="5" element_type="i64"/>
			<rt_info>
				<attribute name="fused_names" version="0" value="750234081"/>
			</rt_info>
			<output>
				<port id="0" precision="I64">
					<dim>5</dim>
				</port>
			</output>
		</layer>
		<layer id="321" name="5140514413372" type="Const" version="opset1">
			<data offset="1391604" size="4" shape="" element_type="f32"/>
			<output>
				<port id="0" precision="FP32"/>
			</output>
		</layer>
		<layer id="322" name="5141514511947" type="Const" version="opset1">
			<data offset="1391608" size="4" shape="" element_type="f32"/>
			<output>
				<port id="0" precision="FP32"/>
			</output>
		</layer>
		<layer id="323" name="5142514612565" type="Const" version="opset1">
			<data offset="1391604" size="4" shape="" element_type="f32"/>
			<output>
				<port id="0" precision="FP32"/>
			</output>
		</layer>
		<layer id="324" name="5143514712286" type="Const" version="opset1">
			<data offset="1391608" size="4" shape="" element_type="f32"/>
			<output>
				<port id="0" precision="FP32"/>
			</output>
		</layer>
		<layer id="325" name="1580158214575" type="Const" version="opset1">
			<data offset="1293892" size="120" shape="1,30,1,1,1" element_type="f32"/>
			<output>
				<port id="0" precision="FP32">
					<dim>1</dim>
					<dim>30</dim>
					<dim>1</dim>
					<dim>1</dim>
					<dim>1</dim>
				</port>
			</output>
		</layer>
		<layer id="326" name="3277328114236" type="Const" version="opset1">
			<data offset="1391612" size="120" shape="30,1,1,1,1" element_type="f32"/>
			<output>
				<port id="0" precision="FP32">
					<dim>30</dim>
					<dim>1</dim>
					<dim>1</dim>
					<dim>1</dim>
					<dim>1</dim>
				</port>
			</output>
		</layer>
		<layer id="327" name="3278328213690" type="Const" version="opset1">
			<data offset="1391732" size="120" shape="30,1,1,1,1" element_type="f32"/>
			<output>
				<port id="0" precision="FP32">
					<dim>30</dim>
					<dim>1</dim>
					<dim>1</dim>
					<dim>1</dim>
					<dim>1</dim>
				</port>
			</output>
		</layer>
		<layer id="328" name="3279328314386" type="Const" version="opset1">
			<data offset="1391852" size="120" shape="30,1,1,1,1" element_type="f32"/>
			<output>
				<port id="0" precision="FP32">
					<dim>30</dim>
					<dim>1</dim>
					<dim>1</dim>
					<dim>1</dim>
					<dim>1</dim>
				</port>
			</output>
		</layer>
		<layer id="329" name="3280328413321" type="Const" version="opset1">
			<data offset="1391972" size="120" shape="30,1,1,1,1" element_type="f32"/>
			<output>
				<port id="0" precision="FP32">
					<dim>30</dim>
					<dim>1</dim>
					<dim>1</dim>
					<dim>1</dim>
					<dim>1</dim>
				</port>
			</output>
		</layer>
		<layer id="330" name="net/transpose_5666613609" type="Const" version="opset1">
			<data offset="1392092" size="3240" shape="30,1,3,3,3" element_type="f32"/>
			<rt_info>
				<attribute name="fused_names" version="0" value="net/transpose_56"/>
			</rt_info>
			<output>
				<port id="0" precision="FP32" names="net/transpose_56:0">
					<dim>30</dim>
					<dim>1</dim>
					<dim>3</dim>
					<dim>3</dim>
					<dim>3</dim>
				</port>
			</output>
		</layer>
		<layer id="331" name="net/Conv3D_26/fq_weights_1" type="FakeQuantize" version="opset1">
			<data levels="255" auto_broadcast="numpy"/>
			<input>
				<port id="0">
					<dim>30</dim>
					<dim>1</dim>
					<dim>3</dim>
					<dim>3</dim>
					<dim>3</dim>
				</port>
				<port id="1">
					<dim>30</dim>
					<dim>1</dim>
					<dim>1</dim>
					<dim>1</dim>
					<dim>1</dim>
				</port>
				<port id="2">
					<dim>30</dim>
					<dim>1</dim>
					<dim>1</dim>
					<dim>1</dim>
					<dim>1</dim>
				</port>
				<port id="3">
					<dim>30</dim>
					<dim>1</dim>
					<dim>1</dim>
					<dim>1</dim>
					<dim>1</dim>
				</port>
				<port id="4">
					<dim>30</dim>
					<dim>1</dim>
					<dim>1</dim>
					<dim>1</dim>
					<dim>1</dim>
				</port>
			</input>
			<output>
				<port id="5" precision="FP32">
					<dim>30</dim>
					<dim>1</dim>
					<dim>3</dim>
					<dim>3</dim>
					<dim>3</dim>
				</port>
			</output>
		</layer>
		<layer id="332" name="net/transpose_61/perm66412535" type="Const" version="opset1">
			<data offset="16" size="40" shape="5" element_type="i64"/>
			<rt_info>
				<attribute name="fused_names" version="0" value="net/transpose_61/perm"/>
			</rt_info>
			<output>
				<port id="0" precision="I64" names="net/transpose_61/perm:0">
					<dim>5</dim>
				</port>
			</output>
		</layer>
		<layer id="333" name="4780478412718" type="Const" version="opset1">
			<data offset="1395332" size="4" shape="" element_type="f32"/>
			<output>
				<port id="0" precision="FP32"/>
			</output>
		</layer>
		<layer id="334" name="4781478513285" type="Const" version="opset1">
			<data offset="1395336" size="4" shape="" element_type="f32"/>
			<output>
				<port id="0" precision="FP32"/>
			</output>
		</layer>
		<layer id="335" name="4782478612169" type="Const" version="opset1">
			<data offset="1395332" size="4" shape="" element_type="f32"/>
			<output>
				<port id="0" precision="FP32"/>
			</output>
		</layer>
		<layer id="336" name="4783478712907" type="Const" version="opset1">
			<data offset="1395336" size="4" shape="" element_type="f32"/>
			<output>
				<port id="0" precision="FP32"/>
			</output>
		</layer>
		<layer id="337" name="net/inp_x_sub_0_test" type="Parameter" version="opset1">
			<data shape="10,1,26,26,26" element_type="f32"/>
			<rt_info>
				<attribute name="fused_names" version="0" value="net/inp_x_sub_0_test"/>
			</rt_info>
			<output>
				<port id="0" precision="FP32" names="net/inp_x_sub_0_test,net/inp_x_sub_0_test:0">
					<dim>10</dim>
					<dim>1</dim>
					<dim>26</dim>
					<dim>26</dim>
					<dim>26</dim>
					<rt_info/>
				</port>
			</output>
		</layer>
		<layer id="338" name="net/Reshape_5066212805" type="Const" version="opset1">
			<data offset="1395340" size="4" shape="1,1,1,1,1" element_type="f32"/>
			<rt_info>
				<attribute name="fused_names" version="0" value="net/Reshape_50"/>
			</rt_info>
			<output>
				<port id="0" precision="FP32" names="net/Reshape_50:0">
					<dim>1</dim>
					<dim>1</dim>
					<dim>1</dim>
					<dim>1</dim>
					<dim>1</dim>
				</port>
			</output>
		</layer>
		<layer id="339" name="net/add_75" type="Add" version="opset1">
			<data auto_broadcast="numpy"/>
			<rt_info>
				<attribute name="fused_names" version="0" value="net/add_75"/>
			</rt_info>
			<input>
				<port id="0">
					<dim>10</dim>
					<dim>1</dim>
					<dim>26</dim>
					<dim>26</dim>
					<dim>26</dim>
				</port>
				<port id="1">
					<dim>1</dim>
					<dim>1</dim>
					<dim>1</dim>
					<dim>1</dim>
					<dim>1</dim>
				</port>
			</input>
			<output>
				<port id="2" precision="FP32" names="net/add_75:0">
					<dim>10</dim>
					<dim>1</dim>
					<dim>26</dim>
					<dim>26</dim>
					<dim>26</dim>
				</port>
			</output>
		</layer>
		<layer id="340" name="net/transpose_61/fq_input_0" type="FakeQuantize" version="opset1">
			<data levels="256" auto_broadcast="numpy"/>
			<input>
				<port id="0">
					<dim>10</dim>
					<dim>1</dim>
					<dim>26</dim>
					<dim>26</dim>
					<dim>26</dim>
				</port>
				<port id="1"/>
				<port id="2"/>
				<port id="3"/>
				<port id="4"/>
			</input>
			<output>
				<port id="5" precision="FP32">
					<dim>10</dim>
					<dim>1</dim>
					<dim>26</dim>
					<dim>26</dim>
					<dim>26</dim>
				</port>
			</output>
		</layer>
		<layer id="341" name="net/transpose_61" type="Transpose" version="opset1">
			<rt_info>
				<attribute name="fused_names" version="0" value="net/transpose_61"/>
			</rt_info>
			<input>
				<port id="0">
					<dim>10</dim>
					<dim>1</dim>
					<dim>26</dim>
					<dim>26</dim>
					<dim>26</dim>
				</port>
				<port id="1">
					<dim>5</dim>
				</port>
			</input>
			<output>
				<port id="2" precision="FP32" names="net/transpose_61:0">
					<dim>10</dim>
					<dim>1</dim>
					<dim>26</dim>
					<dim>26</dim>
					<dim>26</dim>
				</port>
			</output>
		</layer>
		<layer id="342" name="net/Conv3D_26" type="Convolution" version="opset1">
			<data auto_pad="valid" strides="1,1,1" dilations="1,1,1" pads_begin="0,0,0" pads_end="0,0,0"/>
			<rt_info>
				<attribute name="fused_names" version="0" value="net/Conv3D_26"/>
			</rt_info>
			<input>
				<port id="0">
					<dim>10</dim>
					<dim>1</dim>
					<dim>26</dim>
					<dim>26</dim>
					<dim>26</dim>
				</port>
				<port id="1">
					<dim>30</dim>
					<dim>1</dim>
					<dim>3</dim>
					<dim>3</dim>
					<dim>3</dim>
				</port>
			</input>
			<output>
				<port id="2" precision="FP32">
					<dim>10</dim>
					<dim>30</dim>
					<dim>24</dim>
					<dim>24</dim>
					<dim>24</dim>
				</port>
			</output>
		</layer>
		<layer id="343" name="net/Conv3D_26/add_" type="Add" version="opset1">
			<data auto_broadcast="numpy"/>
			<input>
				<port id="0">
					<dim>10</dim>
					<dim>30</dim>
					<dim>24</dim>
					<dim>24</dim>
					<dim>24</dim>
				</port>
				<port id="1">
					<dim>1</dim>
					<dim>30</dim>
					<dim>1</dim>
					<dim>1</dim>
					<dim>1</dim>
				</port>
			</input>
			<output>
				<port id="2" precision="FP32">
					<dim>10</dim>
					<dim>30</dim>
					<dim>24</dim>
					<dim>24</dim>
					<dim>24</dim>
				</port>
			</output>
		</layer>
		<layer id="344" name="net/Conv3D_26/output_transpose/fq_input_0" type="FakeQuantize" version="opset1">
			<data levels="256" auto_broadcast="numpy"/>
			<input>
				<port id="0">
					<dim>10</dim>
					<dim>30</dim>
					<dim>24</dim>
					<dim>24</dim>
					<dim>24</dim>
				</port>
				<port id="1"/>
				<port id="2"/>
				<port id="3"/>
				<port id="4"/>
			</input>
			<output>
				<port id="5" precision="FP32">
					<dim>10</dim>
					<dim>30</dim>
					<dim>24</dim>
					<dim>24</dim>
					<dim>24</dim>
				</port>
			</output>
		</layer>
		<layer id="345" name="net/Conv3D_26/output_transpose" type="Transpose" version="opset1">
			<rt_info>
				<attribute name="fused_names" version="0" value="net/Conv3D_26/output_transpose"/>
			</rt_info>
			<input>
				<port id="0">
					<dim>10</dim>
					<dim>30</dim>
					<dim>24</dim>
					<dim>24</dim>
					<dim>24</dim>
				</port>
				<port id="1">
					<dim>5</dim>
				</port>
			</input>
			<output>
				<port id="2" precision="FP32" names="net/Conv3D_26:0,net/transpose_62:0">
					<dim>10</dim>
					<dim>30</dim>
					<dim>24</dim>
					<dim>24</dim>
					<dim>24</dim>
				</port>
			</output>
		</layer>
		<layer id="346" name="net/truediv_23/Fused_Mul_" type="Multiply" version="opset1">
			<data auto_broadcast="numpy"/>
			<rt_info>
				<attribute name="fused_names" version="0" value="net/truediv_23/Fused_Mul_"/>
			</rt_info>
			<input>
				<port id="0">
					<dim>10</dim>
					<dim>30</dim>
					<dim>24</dim>
					<dim>24</dim>
					<dim>24</dim>
				</port>
				<port id="1">
					<dim>1</dim>
					<dim>30</dim>
					<dim>1</dim>
					<dim>1</dim>
					<dim>1</dim>
				</port>
			</input>
			<output>
				<port id="2" precision="FP32">
					<dim>10</dim>
					<dim>30</dim>
					<dim>24</dim>
					<dim>24</dim>
					<dim>24</dim>
				</port>
			</output>
		</layer>
		<layer id="347" name="data_add_113563357767212667" type="Const" version="opset1">
			<data offset="1395344" size="120" shape="1,30,1,1,1" element_type="f32"/>
			<rt_info>
				<attribute name="fused_names" version="0" value="data_add_1135633577"/>
			</rt_info>
			<output>
				<port id="0" precision="FP32">
					<dim>1</dim>
					<dim>30</dim>
					<dim>1</dim>
					<dim>1</dim>
					<dim>1</dim>
				</port>
			</output>
		</layer>
		<layer id="348" name="net/sub_44/Fused_Add_" type="Add" version="opset1">
			<data auto_broadcast="numpy"/>
			<rt_info>
				<attribute name="fused_names" version="0" value="net/sub_44/Fused_Add_"/>
			</rt_info>
			<input>
				<port id="0">
					<dim>10</dim>
					<dim>30</dim>
					<dim>24</dim>
					<dim>24</dim>
					<dim>24</dim>
				</port>
				<port id="1">
					<dim>1</dim>
					<dim>30</dim>
					<dim>1</dim>
					<dim>1</dim>
					<dim>1</dim>
				</port>
			</input>
			<output>
				<port id="2" precision="FP32" names="net/add_80:0">
					<dim>10</dim>
					<dim>30</dim>
					<dim>24</dim>
					<dim>24</dim>
					<dim>24</dim>
				</port>
			</output>
		</layer>
		<layer id="349" name="net/sub_47/fq_input_0" type="FakeQuantize" version="opset1">
			<data levels="256" auto_broadcast="numpy"/>
			<input>
				<port id="0">
					<dim>10</dim>
					<dim>30</dim>
					<dim>24</dim>
					<dim>24</dim>
					<dim>24</dim>
				</port>
				<port id="1"/>
				<port id="2"/>
				<port id="3"/>
				<port id="4"/>
			</input>
			<output>
				<port id="5" precision="FP32">
					<dim>10</dim>
					<dim>30</dim>
					<dim>24</dim>
					<dim>24</dim>
					<dim>24</dim>
				</port>
			</output>
		</layer>
		<layer id="350" name="2477248113234" type="Const" version="opset1">
			<data offset="1163624" size="4" shape="" element_type="f32"/>
			<output>
				<port id="0" precision="FP32"/>
			</output>
		</layer>
		<layer id="351" name="2478248214608" type="Const" version="opset1">
			<data offset="1391480" size="4" shape="" element_type="f32"/>
			<output>
				<port id="0" precision="FP32"/>
			</output>
		</layer>
		<layer id="352" name="2479248313033" type="Const" version="opset1">
			<data offset="1163624" size="4" shape="" element_type="f32"/>
			<output>
				<port id="0" precision="FP32"/>
			</output>
		</layer>
		<layer id="353" name="2480248414326" type="Const" version="opset1">
			<data offset="1391480" size="4" shape="" element_type="f32"/>
			<output>
				<port id="0" precision="FP32"/>
			</output>
		</layer>
		<layer id="354" name="net/Abs_23" type="Abs" version="opset1">
			<rt_info>
				<attribute name="fused_names" version="0" value="net/Abs_23"/>
			</rt_info>
			<input>
				<port id="0">
					<dim>10</dim>
					<dim>30</dim>
					<dim>24</dim>
					<dim>24</dim>
					<dim>24</dim>
				</port>
			</input>
			<output>
				<port id="1" precision="FP32">
					<dim>10</dim>
					<dim>30</dim>
					<dim>24</dim>
					<dim>24</dim>
					<dim>24</dim>
				</port>
			</output>
		</layer>
		<layer id="355" name="net/sub_47/fq_input_1" type="FakeQuantize" version="opset1">
			<data levels="256" auto_broadcast="numpy"/>
			<input>
				<port id="0">
					<dim>10</dim>
					<dim>30</dim>
					<dim>24</dim>
					<dim>24</dim>
					<dim>24</dim>
				</port>
				<port id="1"/>
				<port id="2"/>
				<port id="3"/>
				<port id="4"/>
			</input>
			<output>
				<port id="5" precision="FP32">
					<dim>10</dim>
					<dim>30</dim>
					<dim>24</dim>
					<dim>24</dim>
					<dim>24</dim>
				</port>
			</output>
		</layer>
		<layer id="356" name="net/sub_47" type="Subtract" version="opset1">
			<data auto_broadcast="numpy"/>
			<rt_info>
				<attribute name="fused_names" version="0" value="net/sub_47, net/sub_47/neg_"/>
			</rt_info>
			<input>
				<port id="0">
					<dim>10</dim>
					<dim>30</dim>
					<dim>24</dim>
					<dim>24</dim>
					<dim>24</dim>
				</port>
				<port id="1">
					<dim>10</dim>
					<dim>30</dim>
					<dim>24</dim>
					<dim>24</dim>
					<dim>24</dim>
				</port>
			</input>
			<output>
				<port id="2" precision="FP32" names="net/sub_47:0">
					<dim>10</dim>
					<dim>30</dim>
					<dim>24</dim>
					<dim>24</dim>
					<dim>24</dim>
				</port>
			</output>
		</layer>
		<layer id="357" name="net/mul_70/Fused_Mul_/fq_input_0" type="FakeQuantize" version="opset1">
			<data levels="256" auto_broadcast="numpy"/>
			<input>
				<port id="0">
					<dim>10</dim>
					<dim>30</dim>
					<dim>24</dim>
					<dim>24</dim>
					<dim>24</dim>
				</port>
				<port id="1"/>
				<port id="2"/>
				<port id="3"/>
				<port id="4"/>
			</input>
			<output>
				<port id="5" precision="FP32">
					<dim>10</dim>
					<dim>30</dim>
					<dim>24</dim>
					<dim>24</dim>
					<dim>24</dim>
				</port>
			</output>
		</layer>
		<layer id="358" name="3557356112592" type="Const" version="opset1">
			<data offset="1395464" size="4" shape="1,1,1,1,1" element_type="f32"/>
			<output>
				<port id="0" precision="FP32">
					<dim>1</dim>
					<dim>1</dim>
					<dim>1</dim>
					<dim>1</dim>
					<dim>1</dim>
				</port>
			</output>
		</layer>
		<layer id="359" name="3558356213111" type="Const" version="opset1">
			<data offset="1395468" size="4" shape="1,1,1,1,1" element_type="f32"/>
			<output>
				<port id="0" precision="FP32">
					<dim>1</dim>
					<dim>1</dim>
					<dim>1</dim>
					<dim>1</dim>
					<dim>1</dim>
				</port>
			</output>
		</layer>
		<layer id="360" name="3559356312796" type="Const" version="opset1">
			<data offset="1395464" size="4" shape="1,1,1,1,1" element_type="f32"/>
			<output>
				<port id="0" precision="FP32">
					<dim>1</dim>
					<dim>1</dim>
					<dim>1</dim>
					<dim>1</dim>
					<dim>1</dim>
				</port>
			</output>
		</layer>
		<layer id="361" name="3560356412046" type="Const" version="opset1">
			<data offset="1395468" size="4" shape="1,1,1,1,1" element_type="f32"/>
			<output>
				<port id="0" precision="FP32">
					<dim>1</dim>
					<dim>1</dim>
					<dim>1</dim>
					<dim>1</dim>
					<dim>1</dim>
				</port>
			</output>
		</layer>
		<layer id="362" name="data_mul_11358113603381767714560" type="Const" version="opset1">
			<data offset="1395472" size="120" shape="1,30,1,1,1" element_type="f32"/>
			<rt_info>
				<attribute name="fused_names" version="0" value="data_mul_113581136033817"/>
			</rt_info>
			<output>
				<port id="0" precision="FP32">
					<dim>1</dim>
					<dim>30</dim>
					<dim>1</dim>
					<dim>1</dim>
					<dim>1</dim>
				</port>
			</output>
		</layer>
		<layer id="363" name="net/mul_70/Fused_Mul_/fq_input_1" type="FakeQuantize" version="opset1">
			<data levels="255" auto_broadcast="numpy"/>
			<input>
				<port id="0">
					<dim>1</dim>
					<dim>30</dim>
					<dim>1</dim>
					<dim>1</dim>
					<dim>1</dim>
				</port>
				<port id="1">
					<dim>1</dim>
					<dim>1</dim>
					<dim>1</dim>
					<dim>1</dim>
					<dim>1</dim>
				</port>
				<port id="2">
					<dim>1</dim>
					<dim>1</dim>
					<dim>1</dim>
					<dim>1</dim>
					<dim>1</dim>
				</port>
				<port id="3">
					<dim>1</dim>
					<dim>1</dim>
					<dim>1</dim>
					<dim>1</dim>
					<dim>1</dim>
				</port>
				<port id="4">
					<dim>1</dim>
					<dim>1</dim>
					<dim>1</dim>
					<dim>1</dim>
					<dim>1</dim>
				</port>
			</input>
			<output>
				<port id="5" precision="FP32">
					<dim>1</dim>
					<dim>30</dim>
					<dim>1</dim>
					<dim>1</dim>
					<dim>1</dim>
				</port>
			</output>
		</layer>
		<layer id="364" name="net/mul_70/Fused_Mul_" type="Multiply" version="opset1">
			<data auto_broadcast="numpy"/>
			<rt_info>
				<attribute name="fused_names" version="0" value="net/mul_70/Fused_Mul_"/>
			</rt_info>
			<input>
				<port id="0">
					<dim>10</dim>
					<dim>30</dim>
					<dim>24</dim>
					<dim>24</dim>
					<dim>24</dim>
				</port>
				<port id="1">
					<dim>1</dim>
					<dim>30</dim>
					<dim>1</dim>
					<dim>1</dim>
					<dim>1</dim>
				</port>
			</input>
			<output>
				<port id="2" precision="FP32" names="net/mul_71:0">
					<dim>10</dim>
					<dim>30</dim>
					<dim>24</dim>
					<dim>24</dim>
					<dim>24</dim>
				</port>
			</output>
		</layer>
		<layer id="365" name="net/add_85/fq_input_1" type="FakeQuantize" version="opset1">
			<data levels="256" auto_broadcast="numpy"/>
			<input>
				<port id="0">
					<dim>10</dim>
					<dim>30</dim>
					<dim>24</dim>
					<dim>24</dim>
					<dim>24</dim>
				</port>
				<port id="1"/>
				<port id="2"/>
				<port id="3"/>
				<port id="4"/>
			</input>
			<output>
				<port id="5" precision="FP32">
					<dim>10</dim>
					<dim>30</dim>
					<dim>24</dim>
					<dim>24</dim>
					<dim>24</dim>
				</port>
			</output>
		</layer>
		<layer id="366" name="5070507412616" type="Const" version="opset1">
			<data offset="1395592" size="4" shape="1,1,1,1,1" element_type="f32"/>
			<output>
				<port id="0" precision="FP32">
					<dim>1</dim>
					<dim>1</dim>
					<dim>1</dim>
					<dim>1</dim>
					<dim>1</dim>
				</port>
			</output>
		</layer>
		<layer id="367" name="5071507512361" type="Const" version="opset1">
			<data offset="1395596" size="4" shape="1,1,1,1,1" element_type="f32"/>
			<output>
				<port id="0" precision="FP32">
					<dim>1</dim>
					<dim>1</dim>
					<dim>1</dim>
					<dim>1</dim>
					<dim>1</dim>
				</port>
			</output>
		</layer>
		<layer id="368" name="5072507614221" type="Const" version="opset1">
			<data offset="1395592" size="4" shape="1,1,1,1,1" element_type="f32"/>
			<output>
				<port id="0" precision="FP32">
					<dim>1</dim>
					<dim>1</dim>
					<dim>1</dim>
					<dim>1</dim>
					<dim>1</dim>
				</port>
			</output>
		</layer>
		<layer id="369" name="5073507712799" type="Const" version="opset1">
			<data offset="1395596" size="4" shape="1,1,1,1,1" element_type="f32"/>
			<output>
				<port id="0" precision="FP32">
					<dim>1</dim>
					<dim>1</dim>
					<dim>1</dim>
					<dim>1</dim>
					<dim>1</dim>
				</port>
			</output>
		</layer>
		<layer id="370" name="net/Maximum_23/x66113105" type="Const" version="opset1">
			<data offset="1395600" size="4" shape="1,1,1,1,1" element_type="f32"/>
			<rt_info>
				<attribute name="fused_names" version="0" value="net/Maximum_23/x"/>
			</rt_info>
			<output>
				<port id="0" precision="FP32" names="net/Maximum_23/x:0">
					<dim>1</dim>
					<dim>1</dim>
					<dim>1</dim>
					<dim>1</dim>
					<dim>1</dim>
				</port>
			</output>
		</layer>
		<layer id="371" name="net/Maximum_23/fq_input_0" type="FakeQuantize" version="opset1">
			<data levels="255" auto_broadcast="numpy"/>
			<input>
				<port id="0">
					<dim>1</dim>
					<dim>1</dim>
					<dim>1</dim>
					<dim>1</dim>
					<dim>1</dim>
				</port>
				<port id="1">
					<dim>1</dim>
					<dim>1</dim>
					<dim>1</dim>
					<dim>1</dim>
					<dim>1</dim>
				</port>
				<port id="2">
					<dim>1</dim>
					<dim>1</dim>
					<dim>1</dim>
					<dim>1</dim>
					<dim>1</dim>
				</port>
				<port id="3">
					<dim>1</dim>
					<dim>1</dim>
					<dim>1</dim>
					<dim>1</dim>
					<dim>1</dim>
				</port>
				<port id="4">
					<dim>1</dim>
					<dim>1</dim>
					<dim>1</dim>
					<dim>1</dim>
					<dim>1</dim>
				</port>
			</input>
			<output>
				<port id="5" precision="FP32">
					<dim>1</dim>
					<dim>1</dim>
					<dim>1</dim>
					<dim>1</dim>
					<dim>1</dim>
				</port>
			</output>
		</layer>
		<layer id="372" name="net/Maximum_23" type="Maximum" version="opset1">
			<data auto_broadcast="numpy"/>
			<rt_info>
				<attribute name="fused_names" version="0" value="net/Maximum_23"/>
			</rt_info>
			<input>
				<port id="0">
					<dim>1</dim>
					<dim>1</dim>
					<dim>1</dim>
					<dim>1</dim>
					<dim>1</dim>
				</port>
				<port id="1">
					<dim>10</dim>
					<dim>30</dim>
					<dim>24</dim>
					<dim>24</dim>
					<dim>24</dim>
				</port>
			</input>
			<output>
				<port id="2" precision="FP32" names="net/Maximum_23:0">
					<dim>10</dim>
					<dim>30</dim>
					<dim>24</dim>
					<dim>24</dim>
					<dim>24</dim>
				</port>
			</output>
		</layer>
		<layer id="373" name="net/add_85" type="Add" version="opset1">
			<data auto_broadcast="numpy"/>
			<rt_info>
				<attribute name="fused_names" version="0" value="net/add_85"/>
			</rt_info>
			<input>
				<port id="0">
					<dim>10</dim>
					<dim>30</dim>
					<dim>24</dim>
					<dim>24</dim>
					<dim>24</dim>
				</port>
				<port id="1">
					<dim>10</dim>
					<dim>30</dim>
					<dim>24</dim>
					<dim>24</dim>
					<dim>24</dim>
				</port>
			</input>
			<output>
				<port id="2" precision="FP32" names="net/add_85:0">
					<dim>10</dim>
					<dim>30</dim>
					<dim>24</dim>
					<dim>24</dim>
					<dim>24</dim>
				</port>
			</output>
		</layer>
		<layer id="374" name="net/transpose_68/fq_input_0" type="FakeQuantize" version="opset1">
			<data levels="256" auto_broadcast="numpy"/>
			<input>
				<port id="0">
					<dim>10</dim>
					<dim>30</dim>
					<dim>24</dim>
					<dim>24</dim>
					<dim>24</dim>
				</port>
				<port id="1"/>
				<port id="2"/>
				<port id="3"/>
				<port id="4"/>
			</input>
			<output>
				<port id="5" precision="FP32">
					<dim>10</dim>
					<dim>30</dim>
					<dim>24</dim>
					<dim>24</dim>
					<dim>24</dim>
				</port>
			</output>
		</layer>
		<layer id="375" name="net/transpose_68" type="Transpose" version="opset1">
			<rt_info>
				<attribute name="fused_names" version="0" value="net/transpose_68"/>
			</rt_info>
			<input>
				<port id="0">
					<dim>10</dim>
					<dim>30</dim>
					<dim>24</dim>
					<dim>24</dim>
					<dim>24</dim>
				</port>
				<port id="1">
					<dim>5</dim>
				</port>
			</input>
			<output>
				<port id="2" precision="FP32" names="net/transpose_68:0">
					<dim>10</dim>
					<dim>30</dim>
					<dim>24</dim>
					<dim>24</dim>
					<dim>24</dim>
				</port>
			</output>
		</layer>
		<layer id="376" name="net/Conv3D_29" type="Convolution" version="opset1">
			<data auto_pad="valid" strides="1,1,1" dilations="1,1,1" pads_begin="0,0,0" pads_end="0,0,0"/>
			<rt_info>
				<attribute name="fused_names" version="0" value="net/Conv3D_29"/>
			</rt_info>
			<input>
				<port id="0">
					<dim>10</dim>
					<dim>30</dim>
					<dim>24</dim>
					<dim>24</dim>
					<dim>24</dim>
				</port>
				<port id="1">
					<dim>30</dim>
					<dim>30</dim>
					<dim>3</dim>
					<dim>3</dim>
					<dim>3</dim>
				</port>
			</input>
			<output>
				<port id="2" precision="FP32">
					<dim>10</dim>
					<dim>30</dim>
					<dim>22</dim>
					<dim>22</dim>
					<dim>22</dim>
				</port>
			</output>
		</layer>
		<layer id="377" name="net/Conv3D_29/add_" type="Add" version="opset1">
			<data auto_broadcast="numpy"/>
			<input>
				<port id="0">
					<dim>10</dim>
					<dim>30</dim>
					<dim>22</dim>
					<dim>22</dim>
					<dim>22</dim>
				</port>
				<port id="1">
					<dim>1</dim>
					<dim>30</dim>
					<dim>1</dim>
					<dim>1</dim>
					<dim>1</dim>
				</port>
			</input>
			<output>
				<port id="2" precision="FP32">
					<dim>10</dim>
					<dim>30</dim>
					<dim>22</dim>
					<dim>22</dim>
					<dim>22</dim>
				</port>
			</output>
		</layer>
		<layer id="378" name="net/Conv3D_29/output_transpose/fq_input_0" type="FakeQuantize" version="opset1">
			<data levels="256" auto_broadcast="numpy"/>
			<input>
				<port id="0">
					<dim>10</dim>
					<dim>30</dim>
					<dim>22</dim>
					<dim>22</dim>
					<dim>22</dim>
				</port>
				<port id="1"/>
				<port id="2"/>
				<port id="3"/>
				<port id="4"/>
			</input>
			<output>
				<port id="5" precision="FP32">
					<dim>10</dim>
					<dim>30</dim>
					<dim>22</dim>
					<dim>22</dim>
					<dim>22</dim>
				</port>
			</output>
		</layer>
		<layer id="379" name="net/Conv3D_29/output_transpose" type="Transpose" version="opset1">
			<rt_info>
				<attribute name="fused_names" version="0" value="net/Conv3D_29/output_transpose"/>
			</rt_info>
			<input>
				<port id="0">
					<dim>10</dim>
					<dim>30</dim>
					<dim>22</dim>
					<dim>22</dim>
					<dim>22</dim>
				</port>
				<port id="1">
					<dim>5</dim>
				</port>
			</input>
			<output>
				<port id="2" precision="FP32" names="net/Conv3D_29:0,net/transpose_69:0">
					<dim>10</dim>
					<dim>30</dim>
					<dim>22</dim>
					<dim>22</dim>
					<dim>22</dim>
				</port>
			</output>
		</layer>
		<layer id="380" name="net/truediv_26/Fused_Mul_" type="Multiply" version="opset1">
			<data auto_broadcast="numpy"/>
			<rt_info>
				<attribute name="fused_names" version="0" value="net/truediv_26/Fused_Mul_"/>
			</rt_info>
			<input>
				<port id="0">
					<dim>10</dim>
					<dim>30</dim>
					<dim>22</dim>
					<dim>22</dim>
					<dim>22</dim>
				</port>
				<port id="1">
					<dim>1</dim>
					<dim>30</dim>
					<dim>1</dim>
					<dim>1</dim>
					<dim>1</dim>
				</port>
			</input>
			<output>
				<port id="2" precision="FP32">
					<dim>10</dim>
					<dim>30</dim>
					<dim>22</dim>
					<dim>22</dim>
					<dim>22</dim>
				</port>
			</output>
		</layer>
		<layer id="381" name="data_add_11363113683421968812712" type="Const" version="opset1">
			<data offset="1395604" size="120" shape="1,30,1,1,1" element_type="f32"/>
			<rt_info>
				<attribute name="fused_names" version="0" value="data_add_113631136834219"/>
			</rt_info>
			<output>
				<port id="0" precision="FP32">
					<dim>1</dim>
					<dim>30</dim>
					<dim>1</dim>
					<dim>1</dim>
					<dim>1</dim>
				</port>
			</output>
		</layer>
		<layer id="382" name="net/sub_50/Fused_Add_" type="Add" version="opset1">
			<data auto_broadcast="numpy"/>
			<rt_info>
				<attribute name="fused_names" version="0" value="net/sub_50/Fused_Add_"/>
			</rt_info>
			<input>
				<port id="0">
					<dim>10</dim>
					<dim>30</dim>
					<dim>22</dim>
					<dim>22</dim>
					<dim>22</dim>
				</port>
				<port id="1">
					<dim>1</dim>
					<dim>30</dim>
					<dim>1</dim>
					<dim>1</dim>
					<dim>1</dim>
				</port>
			</input>
			<output>
				<port id="2" precision="FP32" names="net/add_90:0">
					<dim>10</dim>
					<dim>30</dim>
					<dim>22</dim>
					<dim>22</dim>
					<dim>22</dim>
				</port>
			</output>
		</layer>
		<layer id="383" name="net/sub_53/fq_input_0" type="FakeQuantize" version="opset1">
			<data levels="256" auto_broadcast="numpy"/>
			<input>
				<port id="0">
					<dim>10</dim>
					<dim>30</dim>
					<dim>22</dim>
					<dim>22</dim>
					<dim>22</dim>
				</port>
				<port id="1"/>
				<port id="2"/>
				<port id="3"/>
				<port id="4"/>
			</input>
			<output>
				<port id="5" precision="FP32">
					<dim>10</dim>
					<dim>30</dim>
					<dim>22</dim>
					<dim>22</dim>
					<dim>22</dim>
				</port>
			</output>
		</layer>
		<layer id="384" name="2287229113171" type="Const" version="opset1">
			<data offset="1395724" size="4" shape="" element_type="f32"/>
			<output>
				<port id="0" precision="FP32"/>
			</output>
		</layer>
		<layer id="385" name="2288229211992" type="Const" version="opset1">
			<data offset="1293760" size="4" shape="" element_type="f32"/>
			<output>
				<port id="0" precision="FP32"/>
			</output>
		</layer>
		<layer id="386" name="2289229312172" type="Const" version="opset1">
			<data offset="1395724" size="4" shape="" element_type="f32"/>
			<output>
				<port id="0" precision="FP32"/>
			</output>
		</layer>
		<layer id="387" name="2290229413486" type="Const" version="opset1">
			<data offset="1293760" size="4" shape="" element_type="f32"/>
			<output>
				<port id="0" precision="FP32"/>
			</output>
		</layer>
		<layer id="388" name="net/Abs_26" type="Abs" version="opset1">
			<rt_info>
				<attribute name="fused_names" version="0" value="net/Abs_26"/>
			</rt_info>
			<input>
				<port id="0">
					<dim>10</dim>
					<dim>30</dim>
					<dim>22</dim>
					<dim>22</dim>
					<dim>22</dim>
				</port>
			</input>
			<output>
				<port id="1" precision="FP32">
					<dim>10</dim>
					<dim>30</dim>
					<dim>22</dim>
					<dim>22</dim>
					<dim>22</dim>
				</port>
			</output>
		</layer>
		<layer id="389" name="net/sub_53/fq_input_1" type="FakeQuantize" version="opset1">
			<data levels="256" auto_broadcast="numpy"/>
			<input>
				<port id="0">
					<dim>10</dim>
					<dim>30</dim>
					<dim>22</dim>
					<dim>22</dim>
					<dim>22</dim>
				</port>
				<port id="1"/>
				<port id="2"/>
				<port id="3"/>
				<port id="4"/>
			</input>
			<output>
				<port id="5" precision="FP32">
					<dim>10</dim>
					<dim>30</dim>
					<dim>22</dim>
					<dim>22</dim>
					<dim>22</dim>
				</port>
			</output>
		</layer>
		<layer id="390" name="net/sub_53" type="Subtract" version="opset1">
			<data auto_broadcast="numpy"/>
			<rt_info>
				<attribute name="fused_names" version="0" value="net/sub_53, net/sub_53/neg_"/>
			</rt_info>
			<input>
				<port id="0">
					<dim>10</dim>
					<dim>30</dim>
					<dim>22</dim>
					<dim>22</dim>
					<dim>22</dim>
				</port>
				<port id="1">
					<dim>10</dim>
					<dim>30</dim>
					<dim>22</dim>
					<dim>22</dim>
					<dim>22</dim>
				</port>
			</input>
			<output>
				<port id="2" precision="FP32" names="net/sub_53:0">
					<dim>10</dim>
					<dim>30</dim>
					<dim>22</dim>
					<dim>22</dim>
					<dim>22</dim>
				</port>
			</output>
		</layer>
		<layer id="391" name="net/mul_79/Fused_Mul_/fq_input_0" type="FakeQuantize" version="opset1">
			<data levels="256" auto_broadcast="numpy"/>
			<input>
				<port id="0">
					<dim>10</dim>
					<dim>30</dim>
					<dim>22</dim>
					<dim>22</dim>
					<dim>22</dim>
				</port>
				<port id="1"/>
				<port id="2"/>
				<port id="3"/>
				<port id="4"/>
			</input>
			<output>
				<port id="5" precision="FP32">
					<dim>10</dim>
					<dim>30</dim>
					<dim>22</dim>
					<dim>22</dim>
					<dim>22</dim>
				</port>
			</output>
		</layer>
		<layer id="392" name="2567257112547" type="Const" version="opset1">
			<data offset="1395728" size="4" shape="1,1,1,1,1" element_type="f32"/>
			<output>
				<port id="0" precision="FP32">
					<dim>1</dim>
					<dim>1</dim>
					<dim>1</dim>
					<dim>1</dim>
					<dim>1</dim>
				</port>
			</output>
		</layer>
		<layer id="393" name="2568257212034" type="Const" version="opset1">
			<data offset="1395732" size="4" shape="1,1,1,1,1" element_type="f32"/>
			<output>
				<port id="0" precision="FP32">
					<dim>1</dim>
					<dim>1</dim>
					<dim>1</dim>
					<dim>1</dim>
					<dim>1</dim>
				</port>
			</output>
		</layer>
		<layer id="394" name="2569257314062" type="Const" version="opset1">
			<data offset="1395728" size="4" shape="1,1,1,1,1" element_type="f32"/>
			<output>
				<port id="0" precision="FP32">
					<dim>1</dim>
					<dim>1</dim>
					<dim>1</dim>
					<dim>1</dim>
					<dim>1</dim>
				</port>
			</output>
		</layer>
		<layer id="395" name="2570257412388" type="Const" version="opset1">
			<data offset="1395732" size="4" shape="1,1,1,1,1" element_type="f32"/>
			<output>
				<port id="0" precision="FP32">
					<dim>1</dim>
					<dim>1</dim>
					<dim>1</dim>
					<dim>1</dim>
					<dim>1</dim>
				</port>
			</output>
		</layer>
		<layer id="396" name="data_mul_11370113723419569312049" type="Const" version="opset1">
			<data offset="1395736" size="120" shape="1,30,1,1,1" element_type="f32"/>
			<rt_info>
				<attribute name="fused_names" version="0" value="data_mul_113701137234195"/>
			</rt_info>
			<output>
				<port id="0" precision="FP32">
					<dim>1</dim>
					<dim>30</dim>
					<dim>1</dim>
					<dim>1</dim>
					<dim>1</dim>
				</port>
			</output>
		</layer>
		<layer id="397" name="net/mul_79/Fused_Mul_/fq_input_1" type="FakeQuantize" version="opset1">
			<data levels="255" auto_broadcast="numpy"/>
			<input>
				<port id="0">
					<dim>1</dim>
					<dim>30</dim>
					<dim>1</dim>
					<dim>1</dim>
					<dim>1</dim>
				</port>
				<port id="1">
					<dim>1</dim>
					<dim>1</dim>
					<dim>1</dim>
					<dim>1</dim>
					<dim>1</dim>
				</port>
				<port id="2">
					<dim>1</dim>
					<dim>1</dim>
					<dim>1</dim>
					<dim>1</dim>
					<dim>1</dim>
				</port>
				<port id="3">
					<dim>1</dim>
					<dim>1</dim>
					<dim>1</dim>
					<dim>1</dim>
					<dim>1</dim>
				</port>
				<port id="4">
					<dim>1</dim>
					<dim>1</dim>
					<dim>1</dim>
					<dim>1</dim>
					<dim>1</dim>
				</port>
			</input>
			<output>
				<port id="5" precision="FP32">
					<dim>1</dim>
					<dim>30</dim>
					<dim>1</dim>
					<dim>1</dim>
					<dim>1</dim>
				</port>
			</output>
		</layer>
		<layer id="398" name="net/mul_79/Fused_Mul_" type="Multiply" version="opset1">
			<data auto_broadcast="numpy"/>
			<rt_info>
				<attribute name="fused_names" version="0" value="net/mul_79/Fused_Mul_"/>
			</rt_info>
			<input>
				<port id="0">
					<dim>10</dim>
					<dim>30</dim>
					<dim>22</dim>
					<dim>22</dim>
					<dim>22</dim>
				</port>
				<port id="1">
					<dim>1</dim>
					<dim>30</dim>
					<dim>1</dim>
					<dim>1</dim>
					<dim>1</dim>
				</port>
			</input>
			<output>
				<port id="2" precision="FP32" names="net/mul_80:0">
					<dim>10</dim>
					<dim>30</dim>
					<dim>22</dim>
					<dim>22</dim>
					<dim>22</dim>
				</port>
			</output>
		</layer>
		<layer id="399" name="net/add_95/fq_input_1" type="FakeQuantize" version="opset1">
			<data levels="256" auto_broadcast="numpy"/>
			<input>
				<port id="0">
					<dim>10</dim>
					<dim>30</dim>
					<dim>22</dim>
					<dim>22</dim>
					<dim>22</dim>
				</port>
				<port id="1"/>
				<port id="2"/>
				<port id="3"/>
				<port id="4"/>
			</input>
			<output>
				<port id="5" precision="FP32">
					<dim>10</dim>
					<dim>30</dim>
					<dim>22</dim>
					<dim>22</dim>
					<dim>22</dim>
				</port>
			</output>
		</layer>
		<layer id="400" name="5080508412469" type="Const" version="opset1">
			<data offset="1395592" size="4" shape="1,1,1,1,1" element_type="f32"/>
			<output>
				<port id="0" precision="FP32">
					<dim>1</dim>
					<dim>1</dim>
					<dim>1</dim>
					<dim>1</dim>
					<dim>1</dim>
				</port>
			</output>
		</layer>
		<layer id="401" name="5081508512298" type="Const" version="opset1">
			<data offset="1395596" size="4" shape="1,1,1,1,1" element_type="f32"/>
			<output>
				<port id="0" precision="FP32">
					<dim>1</dim>
					<dim>1</dim>
					<dim>1</dim>
					<dim>1</dim>
					<dim>1</dim>
				</port>
			</output>
		</layer>
		<layer id="402" name="5082508613933" type="Const" version="opset1">
			<data offset="1395592" size="4" shape="1,1,1,1,1" element_type="f32"/>
			<output>
				<port id="0" precision="FP32">
					<dim>1</dim>
					<dim>1</dim>
					<dim>1</dim>
					<dim>1</dim>
					<dim>1</dim>
				</port>
			</output>
		</layer>
		<layer id="403" name="5083508714173" type="Const" version="opset1">
			<data offset="1395596" size="4" shape="1,1,1,1,1" element_type="f32"/>
			<output>
				<port id="0" precision="FP32">
					<dim>1</dim>
					<dim>1</dim>
					<dim>1</dim>
					<dim>1</dim>
					<dim>1</dim>
				</port>
			</output>
		</layer>
		<layer id="404" name="net/Maximum_26/x66013093" type="Const" version="opset1">
			<data offset="1395856" size="4" shape="1,1,1,1,1" element_type="f32"/>
			<rt_info>
				<attribute name="fused_names" version="0" value="net/Maximum_26/x"/>
			</rt_info>
			<output>
				<port id="0" precision="FP32" names="net/Maximum_26/x:0">
					<dim>1</dim>
					<dim>1</dim>
					<dim>1</dim>
					<dim>1</dim>
					<dim>1</dim>
				</port>
			</output>
		</layer>
		<layer id="405" name="net/Maximum_26/fq_input_0" type="FakeQuantize" version="opset1">
			<data levels="255" auto_broadcast="numpy"/>
			<input>
				<port id="0">
					<dim>1</dim>
					<dim>1</dim>
					<dim>1</dim>
					<dim>1</dim>
					<dim>1</dim>
				</port>
				<port id="1">
					<dim>1</dim>
					<dim>1</dim>
					<dim>1</dim>
					<dim>1</dim>
					<dim>1</dim>
				</port>
				<port id="2">
					<dim>1</dim>
					<dim>1</dim>
					<dim>1</dim>
					<dim>1</dim>
					<dim>1</dim>
				</port>
				<port id="3">
					<dim>1</dim>
					<dim>1</dim>
					<dim>1</dim>
					<dim>1</dim>
					<dim>1</dim>
				</port>
				<port id="4">
					<dim>1</dim>
					<dim>1</dim>
					<dim>1</dim>
					<dim>1</dim>
					<dim>1</dim>
				</port>
			</input>
			<output>
				<port id="5" precision="FP32">
					<dim>1</dim>
					<dim>1</dim>
					<dim>1</dim>
					<dim>1</dim>
					<dim>1</dim>
				</port>
			</output>
		</layer>
		<layer id="406" name="net/Maximum_26" type="Maximum" version="opset1">
			<data auto_broadcast="numpy"/>
			<rt_info>
				<attribute name="fused_names" version="0" value="net/Maximum_26"/>
			</rt_info>
			<input>
				<port id="0">
					<dim>1</dim>
					<dim>1</dim>
					<dim>1</dim>
					<dim>1</dim>
					<dim>1</dim>
				</port>
				<port id="1">
					<dim>10</dim>
					<dim>30</dim>
					<dim>22</dim>
					<dim>22</dim>
					<dim>22</dim>
				</port>
			</input>
			<output>
				<port id="2" precision="FP32" names="net/Maximum_26:0">
					<dim>10</dim>
					<dim>30</dim>
					<dim>22</dim>
					<dim>22</dim>
					<dim>22</dim>
				</port>
			</output>
		</layer>
		<layer id="407" name="net/add_95" type="Add" version="opset1">
			<data auto_broadcast="numpy"/>
			<rt_info>
				<attribute name="fused_names" version="0" value="net/add_95"/>
			</rt_info>
			<input>
				<port id="0">
					<dim>10</dim>
					<dim>30</dim>
					<dim>22</dim>
					<dim>22</dim>
					<dim>22</dim>
				</port>
				<port id="1">
					<dim>10</dim>
					<dim>30</dim>
					<dim>22</dim>
					<dim>22</dim>
					<dim>22</dim>
				</port>
			</input>
			<output>
				<port id="2" precision="FP32" names="net/add_95:0">
					<dim>10</dim>
					<dim>30</dim>
					<dim>22</dim>
					<dim>22</dim>
					<dim>22</dim>
				</port>
			</output>
		</layer>
		<layer id="408" name="net/transpose_75/fq_input_0" type="FakeQuantize" version="opset1">
			<data levels="256" auto_broadcast="numpy"/>
			<input>
				<port id="0">
					<dim>10</dim>
					<dim>30</dim>
					<dim>22</dim>
					<dim>22</dim>
					<dim>22</dim>
				</port>
				<port id="1"/>
				<port id="2"/>
				<port id="3"/>
				<port id="4"/>
			</input>
			<output>
				<port id="5" precision="FP32">
					<dim>10</dim>
					<dim>30</dim>
					<dim>22</dim>
					<dim>22</dim>
					<dim>22</dim>
				</port>
			</output>
		</layer>
		<layer id="409" name="net/transpose_75" type="Transpose" version="opset1">
			<rt_info>
				<attribute name="fused_names" version="0" value="net/transpose_75"/>
			</rt_info>
			<input>
				<port id="0">
					<dim>10</dim>
					<dim>30</dim>
					<dim>22</dim>
					<dim>22</dim>
					<dim>22</dim>
				</port>
				<port id="1">
					<dim>5</dim>
				</port>
			</input>
			<output>
				<port id="2" precision="FP32" names="net/transpose_75:0">
					<dim>10</dim>
					<dim>30</dim>
					<dim>22</dim>
					<dim>22</dim>
					<dim>22</dim>
				</port>
			</output>
		</layer>
		<layer id="410" name="net/Conv3D_32" type="Convolution" version="opset1">
			<data auto_pad="valid" strides="1,1,1" dilations="1,1,1" pads_begin="0,0,0" pads_end="0,0,0"/>
			<rt_info>
				<attribute name="fused_names" version="0" value="net/Conv3D_32"/>
			</rt_info>
			<input>
				<port id="0">
					<dim>10</dim>
					<dim>30</dim>
					<dim>22</dim>
					<dim>22</dim>
					<dim>22</dim>
				</port>
				<port id="1">
					<dim>40</dim>
					<dim>30</dim>
					<dim>3</dim>
					<dim>3</dim>
					<dim>3</dim>
				</port>
			</input>
			<output>
				<port id="2" precision="FP32">
					<dim>10</dim>
					<dim>40</dim>
					<dim>20</dim>
					<dim>20</dim>
					<dim>20</dim>
				</port>
			</output>
		</layer>
		<layer id="411" name="net/Conv3D_32/add_" type="Add" version="opset1">
			<data auto_broadcast="numpy"/>
			<input>
				<port id="0">
					<dim>10</dim>
					<dim>40</dim>
					<dim>20</dim>
					<dim>20</dim>
					<dim>20</dim>
				</port>
				<port id="1">
					<dim>1</dim>
					<dim>40</dim>
					<dim>1</dim>
					<dim>1</dim>
					<dim>1</dim>
				</port>
			</input>
			<output>
				<port id="2" precision="FP32">
					<dim>10</dim>
					<dim>40</dim>
					<dim>20</dim>
					<dim>20</dim>
					<dim>20</dim>
				</port>
			</output>
		</layer>
		<layer id="412" name="net/Conv3D_32/output_transpose/fq_input_0" type="FakeQuantize" version="opset1">
			<data levels="256" auto_broadcast="numpy"/>
			<input>
				<port id="0">
					<dim>10</dim>
					<dim>40</dim>
					<dim>20</dim>
					<dim>20</dim>
					<dim>20</dim>
				</port>
				<port id="1"/>
				<port id="2"/>
				<port id="3"/>
				<port id="4"/>
			</input>
			<output>
				<port id="5" precision="FP32">
					<dim>10</dim>
					<dim>40</dim>
					<dim>20</dim>
					<dim>20</dim>
					<dim>20</dim>
				</port>
			</output>
		</layer>
		<layer id="413" name="net/Conv3D_32/output_transpose" type="Transpose" version="opset1">
			<rt_info>
				<attribute name="fused_names" version="0" value="net/Conv3D_32/output_transpose"/>
			</rt_info>
			<input>
				<port id="0">
					<dim>10</dim>
					<dim>40</dim>
					<dim>20</dim>
					<dim>20</dim>
					<dim>20</dim>
				</port>
				<port id="1">
					<dim>5</dim>
				</port>
			</input>
			<output>
				<port id="2" precision="FP32" names="net/Conv3D_32:0,net/transpose_76:0">
					<dim>10</dim>
					<dim>40</dim>
					<dim>20</dim>
					<dim>20</dim>
					<dim>20</dim>
				</port>
			</output>
		</layer>
		<layer id="414" name="net/truediv_29/Fused_Mul_" type="Multiply" version="opset1">
			<data auto_broadcast="numpy"/>
			<rt_info>
				<attribute name="fused_names" version="0" value="net/truediv_29/Fused_Mul_"/>
			</rt_info>
			<input>
				<port id="0">
					<dim>10</dim>
					<dim>40</dim>
					<dim>20</dim>
					<dim>20</dim>
					<dim>20</dim>
				</port>
				<port id="1">
					<dim>1</dim>
					<dim>40</dim>
					<dim>1</dim>
					<dim>1</dim>
					<dim>1</dim>
				</port>
			</input>
			<output>
				<port id="2" precision="FP32">
					<dim>10</dim>
					<dim>40</dim>
					<dim>20</dim>
					<dim>20</dim>
					<dim>20</dim>
				</port>
			</output>
		</layer>
		<layer id="415" name="data_add_11375113803379970412568" type="Const" version="opset1">
			<data offset="1395860" size="160" shape="1,40,1,1,1" element_type="f32"/>
			<rt_info>
				<attribute name="fused_names" version="0" value="data_add_113751138033799"/>
			</rt_info>
			<output>
				<port id="0" precision="FP32">
					<dim>1</dim>
					<dim>40</dim>
					<dim>1</dim>
					<dim>1</dim>
					<dim>1</dim>
				</port>
			</output>
		</layer>
		<layer id="416" name="net/sub_56/Fused_Add_" type="Add" version="opset1">
			<data auto_broadcast="numpy"/>
			<rt_info>
				<attribute name="fused_names" version="0" value="net/sub_56/Fused_Add_"/>
			</rt_info>
			<input>
				<port id="0">
					<dim>10</dim>
					<dim>40</dim>
					<dim>20</dim>
					<dim>20</dim>
					<dim>20</dim>
				</port>
				<port id="1">
					<dim>1</dim>
					<dim>40</dim>
					<dim>1</dim>
					<dim>1</dim>
					<dim>1</dim>
				</port>
			</input>
			<output>
				<port id="2" precision="FP32" names="net/add_100:0">
					<dim>10</dim>
					<dim>40</dim>
					<dim>20</dim>
					<dim>20</dim>
					<dim>20</dim>
				</port>
			</output>
		</layer>
		<layer id="417" name="net/sub_59/fq_input_0" type="FakeQuantize" version="opset1">
			<data levels="256" auto_broadcast="numpy"/>
			<input>
				<port id="0">
					<dim>10</dim>
					<dim>40</dim>
					<dim>20</dim>
					<dim>20</dim>
					<dim>20</dim>
				</port>
				<port id="1"/>
				<port id="2"/>
				<port id="3"/>
				<port id="4"/>
			</input>
			<output>
				<port id="5" precision="FP32">
					<dim>10</dim>
					<dim>40</dim>
					<dim>20</dim>
					<dim>20</dim>
					<dim>20</dim>
				</port>
			</output>
		</layer>
		<layer id="418" name="3377338112973" type="Const" version="opset1">
			<data offset="1396020" size="4" shape="" element_type="f32"/>
			<output>
				<port id="0" precision="FP32"/>
			</output>
		</layer>
		<layer id="419" name="3378338214017" type="Const" version="opset1">
			<data offset="1163648" size="4" shape="" element_type="f32"/>
			<output>
				<port id="0" precision="FP32"/>
			</output>
		</layer>
		<layer id="420" name="3379338312457" type="Const" version="opset1">
			<data offset="1396020" size="4" shape="" element_type="f32"/>
			<output>
				<port id="0" precision="FP32"/>
			</output>
		</layer>
		<layer id="421" name="3380338414257" type="Const" version="opset1">
			<data offset="1163648" size="4" shape="" element_type="f32"/>
			<output>
				<port id="0" precision="FP32"/>
			</output>
		</layer>
		<layer id="422" name="net/Abs_29" type="Abs" version="opset1">
			<rt_info>
				<attribute name="fused_names" version="0" value="net/Abs_29"/>
			</rt_info>
			<input>
				<port id="0">
					<dim>10</dim>
					<dim>40</dim>
					<dim>20</dim>
					<dim>20</dim>
					<dim>20</dim>
				</port>
			</input>
			<output>
				<port id="1" precision="FP32">
					<dim>10</dim>
					<dim>40</dim>
					<dim>20</dim>
					<dim>20</dim>
					<dim>20</dim>
				</port>
			</output>
		</layer>
		<layer id="423" name="net/sub_59/fq_input_1" type="FakeQuantize" version="opset1">
			<data levels="256" auto_broadcast="numpy"/>
			<input>
				<port id="0">
					<dim>10</dim>
					<dim>40</dim>
					<dim>20</dim>
					<dim>20</dim>
					<dim>20</dim>
				</port>
				<port id="1"/>
				<port id="2"/>
				<port id="3"/>
				<port id="4"/>
			</input>
			<output>
				<port id="5" precision="FP32">
					<dim>10</dim>
					<dim>40</dim>
					<dim>20</dim>
					<dim>20</dim>
					<dim>20</dim>
				</port>
			</output>
		</layer>
		<layer id="424" name="net/sub_59" type="Subtract" version="opset1">
			<data auto_broadcast="numpy"/>
			<rt_info>
				<attribute name="fused_names" version="0" value="net/sub_59, net/sub_59/neg_"/>
			</rt_info>
			<input>
				<port id="0">
					<dim>10</dim>
					<dim>40</dim>
					<dim>20</dim>
					<dim>20</dim>
					<dim>20</dim>
				</port>
				<port id="1">
					<dim>10</dim>
					<dim>40</dim>
					<dim>20</dim>
					<dim>20</dim>
					<dim>20</dim>
				</port>
			</input>
			<output>
				<port id="2" precision="FP32" names="net/sub_59:0">
					<dim>10</dim>
					<dim>40</dim>
					<dim>20</dim>
					<dim>20</dim>
					<dim>20</dim>
				</port>
			</output>
		</layer>
		<layer id="425" name="net/mul_88/Fused_Mul_/fq_input_0" type="FakeQuantize" version="opset1">
			<data levels="256" auto_broadcast="numpy"/>
			<input>
				<port id="0">
					<dim>10</dim>
					<dim>40</dim>
					<dim>20</dim>
					<dim>20</dim>
					<dim>20</dim>
				</port>
				<port id="1"/>
				<port id="2"/>
				<port id="3"/>
				<port id="4"/>
			</input>
			<output>
				<port id="5" precision="FP32">
					<dim>10</dim>
					<dim>40</dim>
					<dim>20</dim>
					<dim>20</dim>
					<dim>20</dim>
				</port>
			</output>
		</layer>
		<layer id="426" name="3757376113591" type="Const" version="opset1">
			<data offset="1396024" size="4" shape="1,1,1,1,1" element_type="f32"/>
			<output>
				<port id="0" precision="FP32">
					<dim>1</dim>
					<dim>1</dim>
					<dim>1</dim>
					<dim>1</dim>
					<dim>1</dim>
				</port>
			</output>
		</layer>
		<layer id="427" name="3758376213045" type="Const" version="opset1">
			<data offset="1396028" size="4" shape="1,1,1,1,1" element_type="f32"/>
			<output>
				<port id="0" precision="FP32">
					<dim>1</dim>
					<dim>1</dim>
					<dim>1</dim>
					<dim>1</dim>
					<dim>1</dim>
				</port>
			</output>
		</layer>
		<layer id="428" name="3759376312370" type="Const" version="opset1">
			<data offset="1396024" size="4" shape="1,1,1,1,1" element_type="f32"/>
			<output>
				<port id="0" precision="FP32">
					<dim>1</dim>
					<dim>1</dim>
					<dim>1</dim>
					<dim>1</dim>
					<dim>1</dim>
				</port>
			</output>
		</layer>
		<layer id="429" name="3760376413441" type="Const" version="opset1">
			<data offset="1396028" size="4" shape="1,1,1,1,1" element_type="f32"/>
			<output>
				<port id="0" precision="FP32">
					<dim>1</dim>
					<dim>1</dim>
					<dim>1</dim>
					<dim>1</dim>
					<dim>1</dim>
				</port>
			</output>
		</layer>
		<layer id="430" name="data_mul_11382113843368870912433" type="Const" version="opset1">
			<data offset="1396032" size="160" shape="1,40,1,1,1" element_type="f32"/>
			<rt_info>
				<attribute name="fused_names" version="0" value="data_mul_113821138433688"/>
			</rt_info>
			<output>
				<port id="0" precision="FP32">
					<dim>1</dim>
					<dim>40</dim>
					<dim>1</dim>
					<dim>1</dim>
					<dim>1</dim>
				</port>
			</output>
		</layer>
		<layer id="431" name="net/mul_88/Fused_Mul_/fq_input_1" type="FakeQuantize" version="opset1">
			<data levels="255" auto_broadcast="numpy"/>
			<input>
				<port id="0">
					<dim>1</dim>
					<dim>40</dim>
					<dim>1</dim>
					<dim>1</dim>
					<dim>1</dim>
				</port>
				<port id="1">
					<dim>1</dim>
					<dim>1</dim>
					<dim>1</dim>
					<dim>1</dim>
					<dim>1</dim>
				</port>
				<port id="2">
					<dim>1</dim>
					<dim>1</dim>
					<dim>1</dim>
					<dim>1</dim>
					<dim>1</dim>
				</port>
				<port id="3">
					<dim>1</dim>
					<dim>1</dim>
					<dim>1</dim>
					<dim>1</dim>
					<dim>1</dim>
				</port>
				<port id="4">
					<dim>1</dim>
					<dim>1</dim>
					<dim>1</dim>
					<dim>1</dim>
					<dim>1</dim>
				</port>
			</input>
			<output>
				<port id="5" precision="FP32">
					<dim>1</dim>
					<dim>40</dim>
					<dim>1</dim>
					<dim>1</dim>
					<dim>1</dim>
				</port>
			</output>
		</layer>
		<layer id="432" name="net/mul_88/Fused_Mul_" type="Multiply" version="opset1">
			<data auto_broadcast="numpy"/>
			<rt_info>
				<attribute name="fused_names" version="0" value="net/mul_88/Fused_Mul_"/>
			</rt_info>
			<input>
				<port id="0">
					<dim>10</dim>
					<dim>40</dim>
					<dim>20</dim>
					<dim>20</dim>
					<dim>20</dim>
				</port>
				<port id="1">
					<dim>1</dim>
					<dim>40</dim>
					<dim>1</dim>
					<dim>1</dim>
					<dim>1</dim>
				</port>
			</input>
			<output>
				<port id="2" precision="FP32" names="net/mul_89:0">
					<dim>10</dim>
					<dim>40</dim>
					<dim>20</dim>
					<dim>20</dim>
					<dim>20</dim>
				</port>
			</output>
		</layer>
		<layer id="433" name="net/add_105/fq_input_1" type="FakeQuantize" version="opset1">
			<data levels="256" auto_broadcast="numpy"/>
			<input>
				<port id="0">
					<dim>10</dim>
					<dim>40</dim>
					<dim>20</dim>
					<dim>20</dim>
					<dim>20</dim>
				</port>
				<port id="1"/>
				<port id="2"/>
				<port id="3"/>
				<port id="4"/>
			</input>
			<output>
				<port id="5" precision="FP32">
					<dim>10</dim>
					<dim>40</dim>
					<dim>20</dim>
					<dim>20</dim>
					<dim>20</dim>
				</port>
			</output>
		</layer>
		<layer id="434" name="4910491413789" type="Const" version="opset1">
			<data offset="1395592" size="4" shape="1,1,1,1,1" element_type="f32"/>
			<output>
				<port id="0" precision="FP32">
					<dim>1</dim>
					<dim>1</dim>
					<dim>1</dim>
					<dim>1</dim>
					<dim>1</dim>
				</port>
			</output>
		</layer>
		<layer id="435" name="4911491514032" type="Const" version="opset1">
			<data offset="1395596" size="4" shape="1,1,1,1,1" element_type="f32"/>
			<output>
				<port id="0" precision="FP32">
					<dim>1</dim>
					<dim>1</dim>
					<dim>1</dim>
					<dim>1</dim>
					<dim>1</dim>
				</port>
			</output>
		</layer>
		<layer id="436" name="4912491614107" type="Const" version="opset1">
			<data offset="1395592" size="4" shape="1,1,1,1,1" element_type="f32"/>
			<output>
				<port id="0" precision="FP32">
					<dim>1</dim>
					<dim>1</dim>
					<dim>1</dim>
					<dim>1</dim>
					<dim>1</dim>
				</port>
			</output>
		</layer>
		<layer id="437" name="4913491713498" type="Const" version="opset1">
			<data offset="1395596" size="4" shape="1,1,1,1,1" element_type="f32"/>
			<output>
				<port id="0" precision="FP32">
					<dim>1</dim>
					<dim>1</dim>
					<dim>1</dim>
					<dim>1</dim>
					<dim>1</dim>
				</port>
			</output>
		</layer>
		<layer id="438" name="net/Maximum_29/x65913324" type="Const" version="opset1">
			<data offset="1396192" size="4" shape="1,1,1,1,1" element_type="f32"/>
			<rt_info>
				<attribute name="fused_names" version="0" value="net/Maximum_29/x"/>
			</rt_info>
			<output>
				<port id="0" precision="FP32" names="net/Maximum_29/x:0">
					<dim>1</dim>
					<dim>1</dim>
					<dim>1</dim>
					<dim>1</dim>
					<dim>1</dim>
				</port>
			</output>
		</layer>
		<layer id="439" name="net/Maximum_29/fq_input_0" type="FakeQuantize" version="opset1">
			<data levels="255" auto_broadcast="numpy"/>
			<input>
				<port id="0">
					<dim>1</dim>
					<dim>1</dim>
					<dim>1</dim>
					<dim>1</dim>
					<dim>1</dim>
				</port>
				<port id="1">
					<dim>1</dim>
					<dim>1</dim>
					<dim>1</dim>
					<dim>1</dim>
					<dim>1</dim>
				</port>
				<port id="2">
					<dim>1</dim>
					<dim>1</dim>
					<dim>1</dim>
					<dim>1</dim>
					<dim>1</dim>
				</port>
				<port id="3">
					<dim>1</dim>
					<dim>1</dim>
					<dim>1</dim>
					<dim>1</dim>
					<dim>1</dim>
				</port>
				<port id="4">
					<dim>1</dim>
					<dim>1</dim>
					<dim>1</dim>
					<dim>1</dim>
					<dim>1</dim>
				</port>
			</input>
			<output>
				<port id="5" precision="FP32">
					<dim>1</dim>
					<dim>1</dim>
					<dim>1</dim>
					<dim>1</dim>
					<dim>1</dim>
				</port>
			</output>
		</layer>
		<layer id="440" name="net/Maximum_29" type="Maximum" version="opset1">
			<data auto_broadcast="numpy"/>
			<rt_info>
				<attribute name="fused_names" version="0" value="net/Maximum_29"/>
			</rt_info>
			<input>
				<port id="0">
					<dim>1</dim>
					<dim>1</dim>
					<dim>1</dim>
					<dim>1</dim>
					<dim>1</dim>
				</port>
				<port id="1">
					<dim>10</dim>
					<dim>40</dim>
					<dim>20</dim>
					<dim>20</dim>
					<dim>20</dim>
				</port>
			</input>
			<output>
				<port id="2" precision="FP32" names="net/Maximum_29:0">
					<dim>10</dim>
					<dim>40</dim>
					<dim>20</dim>
					<dim>20</dim>
					<dim>20</dim>
				</port>
			</output>
		</layer>
		<layer id="441" name="net/add_105" type="Add" version="opset1">
			<data auto_broadcast="numpy"/>
			<rt_info>
				<attribute name="fused_names" version="0" value="net/add_105"/>
			</rt_info>
			<input>
				<port id="0">
					<dim>10</dim>
					<dim>40</dim>
					<dim>20</dim>
					<dim>20</dim>
					<dim>20</dim>
				</port>
				<port id="1">
					<dim>10</dim>
					<dim>40</dim>
					<dim>20</dim>
					<dim>20</dim>
					<dim>20</dim>
				</port>
			</input>
			<output>
				<port id="2" precision="FP32" names="net/add_105:0">
					<dim>10</dim>
					<dim>40</dim>
					<dim>20</dim>
					<dim>20</dim>
					<dim>20</dim>
				</port>
			</output>
		</layer>
		<layer id="442" name="net/transpose_82/fq_input_0" type="FakeQuantize" version="opset1">
			<data levels="256" auto_broadcast="numpy"/>
			<input>
				<port id="0">
					<dim>10</dim>
					<dim>40</dim>
					<dim>20</dim>
					<dim>20</dim>
					<dim>20</dim>
				</port>
				<port id="1"/>
				<port id="2"/>
				<port id="3"/>
				<port id="4"/>
			</input>
			<output>
				<port id="5" precision="FP32">
					<dim>10</dim>
					<dim>40</dim>
					<dim>20</dim>
					<dim>20</dim>
					<dim>20</dim>
				</port>
			</output>
		</layer>
		<layer id="443" name="net/transpose_82" type="Transpose" version="opset1">
			<rt_info>
				<attribute name="fused_names" version="0" value="net/transpose_82"/>
			</rt_info>
			<input>
				<port id="0">
					<dim>10</dim>
					<dim>40</dim>
					<dim>20</dim>
					<dim>20</dim>
					<dim>20</dim>
				</port>
				<port id="1">
					<dim>5</dim>
				</port>
			</input>
			<output>
				<port id="2" precision="FP32" names="net/transpose_82:0">
					<dim>10</dim>
					<dim>40</dim>
					<dim>20</dim>
					<dim>20</dim>
					<dim>20</dim>
				</port>
			</output>
		</layer>
		<layer id="444" name="net/Conv3D_35" type="Convolution" version="opset1">
			<data auto_pad="valid" strides="1,1,1" dilations="1,1,1" pads_begin="0,0,0" pads_end="0,0,0"/>
			<rt_info>
				<attribute name="fused_names" version="0" value="net/Conv3D_35"/>
			</rt_info>
			<input>
				<port id="0">
					<dim>10</dim>
					<dim>40</dim>
					<dim>20</dim>
					<dim>20</dim>
					<dim>20</dim>
				</port>
				<port id="1">
					<dim>40</dim>
					<dim>40</dim>
					<dim>3</dim>
					<dim>3</dim>
					<dim>3</dim>
				</port>
			</input>
			<output>
				<port id="2" precision="FP32">
					<dim>10</dim>
					<dim>40</dim>
					<dim>18</dim>
					<dim>18</dim>
					<dim>18</dim>
				</port>
			</output>
		</layer>
		<layer id="445" name="net/Conv3D_35/add_" type="Add" version="opset1">
			<data auto_broadcast="numpy"/>
			<input>
				<port id="0">
					<dim>10</dim>
					<dim>40</dim>
					<dim>18</dim>
					<dim>18</dim>
					<dim>18</dim>
				</port>
				<port id="1">
					<dim>1</dim>
					<dim>40</dim>
					<dim>1</dim>
					<dim>1</dim>
					<dim>1</dim>
				</port>
			</input>
			<output>
				<port id="2" precision="FP32">
					<dim>10</dim>
					<dim>40</dim>
					<dim>18</dim>
					<dim>18</dim>
					<dim>18</dim>
				</port>
			</output>
		</layer>
		<layer id="446" name="net/Conv3D_35/output_transpose/fq_input_0" type="FakeQuantize" version="opset1">
			<data levels="256" auto_broadcast="numpy"/>
			<input>
				<port id="0">
					<dim>10</dim>
					<dim>40</dim>
					<dim>18</dim>
					<dim>18</dim>
					<dim>18</dim>
				</port>
				<port id="1"/>
				<port id="2"/>
				<port id="3"/>
				<port id="4"/>
			</input>
			<output>
				<port id="5" precision="FP32">
					<dim>10</dim>
					<dim>40</dim>
					<dim>18</dim>
					<dim>18</dim>
					<dim>18</dim>
				</port>
			</output>
		</layer>
…
		<edge from-layer="936" from-port="0" to-layer="941" to-port="1"/>
		<edge from-layer="937" from-port="0" to-layer="941" to-port="2"/>
		<edge from-layer="938" from-port="0" to-layer="941" to-port="3"/>
		<edge from-layer="939" from-port="0" to-layer="941" to-port="4"/>
		<edge from-layer="970" from-port="0" to-layer="971" to-port="0"/>
		<edge from-layer="966" from-port="0" to-layer="971" to-port="1"/>
		<edge from-layer="967" from-port="0" to-layer="971" to-port="2"/>
		<edge from-layer="968" from-port="0" to-layer="971" to-port="3"/>
		<edge from-layer="969" from-port="0" to-layer="971" to-port="4"/>
		<edge from-layer="1000" from-port="0" to-layer="1001" to-port="0"/>
		<edge from-layer="996" from-port="0" to-layer="1001" to-port="1"/>
		<edge from-layer="997" from-port="0" to-layer="1001" to-port="2"/>
		<edge from-layer="998" from-port="0" to-layer="1001" to-port="3"/>
		<edge from-layer="999" from-port="0" to-layer="1001" to-port="4"/>
		<edge from-layer="1007" from-port="0" to-layer="1009" to-port="0"/>
		<edge from-layer="1008" from-port="0" to-layer="1009" to-port="1"/>
		<edge from-layer="1009" from-port="2" to-layer="1010" to-port="0"/>
		<edge from-layer="1003" from-port="0" to-layer="1010" to-port="1"/>
		<edge from-layer="1004" from-port="0" to-layer="1010" to-port="2"/>
		<edge from-layer="1005" from-port="0" to-layer="1010" to-port="3"/>
		<edge from-layer="1006" from-port="0" to-layer="1010" to-port="4"/>
		<edge from-layer="1010" from-port="5" to-layer="1011" to-port="0"/>
		<edge from-layer="1002" from-port="0" to-layer="1011" to-port="1"/>
		<edge from-layer="1011" from-port="2" to-layer="1012" to-port="0"/>
		<edge from-layer="1001" from-port="5" to-layer="1012" to-port="1"/>
		<edge from-layer="1012" from-port="2" to-layer="1013" to-port="0"/>
		<edge from-layer="995" from-port="0" to-layer="1013" to-port="1"/>
		<edge from-layer="1013" from-port="2" to-layer="1014" to-port="0"/>
		<edge from-layer="991" from-port="0" to-layer="1014" to-port="1"/>
		<edge from-layer="992" from-port="0" to-layer="1014" to-port="2"/>
		<edge from-layer="993" from-port="0" to-layer="1014" to-port="3"/>
		<edge from-layer="994" from-port="0" to-layer="1014" to-port="4"/>
		<edge from-layer="1014" from-port="5" to-layer="1015" to-port="0"/>
		<edge from-layer="990" from-port="0" to-layer="1015" to-port="1"/>
		<edge from-layer="1015" from-port="2" to-layer="1016" to-port="0"/>
		<edge from-layer="989" from-port="0" to-layer="1016" to-port="1"/>
		<edge from-layer="1016" from-port="2" to-layer="1018" to-port="0"/>
		<edge from-layer="1017" from-port="0" to-layer="1018" to-port="1"/>
		<edge from-layer="1018" from-port="2" to-layer="1019" to-port="0"/>
		<edge from-layer="985" from-port="0" to-layer="1019" to-port="1"/>
		<edge from-layer="986" from-port="0" to-layer="1019" to-port="2"/>
		<edge from-layer="987" from-port="0" to-layer="1019" to-port="3"/>
		<edge from-layer="988" from-port="0" to-layer="1019" to-port="4"/>
		<edge from-layer="1018" from-port="2" to-layer="1024" to-port="0"/>
		<edge from-layer="1024" from-port="1" to-layer="1025" to-port="0"/>
		<edge from-layer="1020" from-port="0" to-layer="1025" to-port="1"/>
		<edge from-layer="1021" from-port="0" to-layer="1025" to-port="2"/>
		<edge from-layer="1022" from-port="0" to-layer="1025" to-port="3"/>
		<edge from-layer="1023" from-port="0" to-layer="1025" to-port="4"/>
		<edge from-layer="1019" from-port="5" to-layer="1026" to-port="0"/>
		<edge from-layer="1025" from-port="5" to-layer="1026" to-port="1"/>
		<edge from-layer="1026" from-port="2" to-layer="1027" to-port="0"/>
		<edge from-layer="981" from-port="0" to-layer="1027" to-port="1"/>
		<edge from-layer="982" from-port="0" to-layer="1027" to-port="2"/>
		<edge from-layer="983" from-port="0" to-layer="1027" to-port="3"/>
		<edge from-layer="984" from-port="0" to-layer="1027" to-port="4"/>
		<edge from-layer="1032" from-port="0" to-layer="1033" to-port="0"/>
		<edge from-layer="1028" from-port="0" to-layer="1033" to-port="1"/>
		<edge from-layer="1029" from-port="0" to-layer="1033" to-port="2"/>
		<edge from-layer="1030" from-port="0" to-layer="1033" to-port="3"/>
		<edge from-layer="1031" from-port="0" to-layer="1033" to-port="4"/>
		<edge from-layer="1027" from-port="5" to-layer="1034" to-port="0"/>
		<edge from-layer="1033" from-port="5" to-layer="1034" to-port="1"/>
		<edge from-layer="1034" from-port="2" to-layer="1035" to-port="0"/>
		<edge from-layer="977" from-port="0" to-layer="1035" to-port="1"/>
		<edge from-layer="978" from-port="0" to-layer="1035" to-port="2"/>
		<edge from-layer="979" from-port="0" to-layer="1035" to-port="3"/>
		<edge from-layer="980" from-port="0" to-layer="1035" to-port="4"/>
		<edge from-layer="1040" from-port="0" to-layer="1041" to-port="0"/>
		<edge from-layer="1036" from-port="0" to-layer="1041" to-port="1"/>
		<edge from-layer="1037" from-port="0" to-layer="1041" to-port="2"/>
		<edge from-layer="1038" from-port="0" to-layer="1041" to-port="3"/>
		<edge from-layer="1039" from-port="0" to-layer="1041" to-port="4"/>
		<edge from-layer="1041" from-port="5" to-layer="1042" to-port="0"/>
		<edge from-layer="1018" from-port="2" to-layer="1042" to-port="1"/>
		<edge from-layer="1042" from-port="2" to-layer="1043" to-port="0"/>
		<edge from-layer="1035" from-port="5" to-layer="1043" to-port="1"/>
		<edge from-layer="1043" from-port="2" to-layer="1044" to-port="0"/>
		<edge from-layer="973" from-port="0" to-layer="1044" to-port="1"/>
		<edge from-layer="974" from-port="0" to-layer="1044" to-port="2"/>
		<edge from-layer="975" from-port="0" to-layer="1044" to-port="3"/>
		<edge from-layer="976" from-port="0" to-layer="1044" to-port="4"/>
		<edge from-layer="1044" from-port="5" to-layer="1045" to-port="0"/>
		<edge from-layer="972" from-port="0" to-layer="1045" to-port="1"/>
		<edge from-layer="1045" from-port="2" to-layer="1046" to-port="0"/>
		<edge from-layer="971" from-port="5" to-layer="1046" to-port="1"/>
		<edge from-layer="1046" from-port="2" to-layer="1047" to-port="0"/>
		<edge from-layer="965" from-port="0" to-layer="1047" to-port="1"/>
		<edge from-layer="1047" from-port="2" to-layer="1048" to-port="0"/>
		<edge from-layer="961" from-port="0" to-layer="1048" to-port="1"/>
		<edge from-layer="962" from-port="0" to-layer="1048" to-port="2"/>
		<edge from-layer="963" from-port="0" to-layer="1048" to-port="3"/>
		<edge from-layer="964" from-port="0" to-layer="1048" to-port="4"/>
		<edge from-layer="1048" from-port="5" to-layer="1049" to-port="0"/>
		<edge from-layer="960" from-port="0" to-layer="1049" to-port="1"/>
		<edge from-layer="1049" from-port="2" to-layer="1050" to-port="0"/>
		<edge from-layer="959" from-port="0" to-layer="1050" to-port="1"/>
		<edge from-layer="1050" from-port="2" to-layer="1052" to-port="0"/>
		<edge from-layer="1051" from-port="0" to-layer="1052" to-port="1"/>
		<edge from-layer="1052" from-port="2" to-layer="1053" to-port="0"/>
		<edge from-layer="955" from-port="0" to-layer="1053" to-port="1"/>
		<edge from-layer="956" from-port="0" to-layer="1053" to-port="2"/>
		<edge from-layer="957" from-port="0" to-layer="1053" to-port="3"/>
		<edge from-layer="958" from-port="0" to-layer="1053" to-port="4"/>
		<edge from-layer="1052" from-port="2" to-layer="1058" to-port="0"/>
		<edge from-layer="1058" from-port="1" to-layer="1059" to-port="0"/>
		<edge from-layer="1054" from-port="0" to-layer="1059" to-port="1"/>
		<edge from-layer="1055" from-port="0" to-layer="1059" to-port="2"/>
		<edge from-layer="1056" from-port="0" to-layer="1059" to-port="3"/>
		<edge from-layer="1057" from-port="0" to-layer="1059" to-port="4"/>
		<edge from-layer="1053" from-port="5" to-layer="1060" to-port="0"/>
		<edge from-layer="1059" from-port="5" to-layer="1060" to-port="1"/>
		<edge from-layer="1060" from-port="2" to-layer="1061" to-port="0"/>
		<edge from-layer="951" from-port="0" to-layer="1061" to-port="1"/>
		<edge from-layer="952" from-port="0" to-layer="1061" to-port="2"/>
		<edge from-layer="953" from-port="0" to-layer="1061" to-port="3"/>
		<edge from-layer="954" from-port="0" to-layer="1061" to-port="4"/>
		<edge from-layer="1066" from-port="0" to-layer="1067" to-port="0"/>
		<edge from-layer="1062" from-port="0" to-layer="1067" to-port="1"/>
		<edge from-layer="1063" from-port="0" to-layer="1067" to-port="2"/>
		<edge from-layer="1064" from-port="0" to-layer="1067" to-port="3"/>
		<edge from-layer="1065" from-port="0" to-layer="1067" to-port="4"/>
		<edge from-layer="1061" from-port="5" to-layer="1068" to-port="0"/>
		<edge from-layer="1067" from-port="5" to-layer="1068" to-port="1"/>
		<edge from-layer="1068" from-port="2" to-layer="1069" to-port="0"/>
		<edge from-layer="947" from-port="0" to-layer="1069" to-port="1"/>
		<edge from-layer="948" from-port="0" to-layer="1069" to-port="2"/>
		<edge from-layer="949" from-port="0" to-layer="1069" to-port="3"/>
		<edge from-layer="950" from-port="0" to-layer="1069" to-port="4"/>
		<edge from-layer="1074" from-port="0" to-layer="1075" to-port="0"/>
		<edge from-layer="1070" from-port="0" to-layer="1075" to-port="1"/>
		<edge from-layer="1071" from-port="0" to-layer="1075" to-port="2"/>
		<edge from-layer="1072" from-port="0" to-layer="1075" to-port="3"/>
		<edge from-layer="1073" from-port="0" to-layer="1075" to-port="4"/>
		<edge from-layer="1075" from-port="5" to-layer="1076" to-port="0"/>
		<edge from-layer="1052" from-port="2" to-layer="1076" to-port="1"/>
		<edge from-layer="1076" from-port="2" to-layer="1077" to-port="0"/>
		<edge from-layer="1069" from-port="5" to-layer="1077" to-port="1"/>
		<edge from-layer="1077" from-port="2" to-layer="1078" to-port="0"/>
		<edge from-layer="943" from-port="0" to-layer="1078" to-port="1"/>
		<edge from-layer="944" from-port="0" to-layer="1078" to-port="2"/>
		<edge from-layer="945" from-port="0" to-layer="1078" to-port="3"/>
		<edge from-layer="946" from-port="0" to-layer="1078" to-port="4"/>
		<edge from-layer="1078" from-port="5" to-layer="1079" to-port="0"/>
		<edge from-layer="942" from-port="0" to-layer="1079" to-port="1"/>
		<edge from-layer="1079" from-port="2" to-layer="1080" to-port="0"/>
		<edge from-layer="941" from-port="5" to-layer="1080" to-port="1"/>
		<edge from-layer="1080" from-port="2" to-layer="1081" to-port="0"/>
		<edge from-layer="935" from-port="0" to-layer="1081" to-port="1"/>
		<edge from-layer="1081" from-port="2" to-layer="1082" to-port="0"/>
		<edge from-layer="931" from-port="0" to-layer="1082" to-port="1"/>
		<edge from-layer="932" from-port="0" to-layer="1082" to-port="2"/>
		<edge from-layer="933" from-port="0" to-layer="1082" to-port="3"/>
		<edge from-layer="934" from-port="0" to-layer="1082" to-port="4"/>
		<edge from-layer="1082" from-port="5" to-layer="1083" to-port="0"/>
		<edge from-layer="930" from-port="0" to-layer="1083" to-port="1"/>
		<edge from-layer="1083" from-port="2" to-layer="1084" to-port="0"/>
		<edge from-layer="929" from-port="0" to-layer="1084" to-port="1"/>
		<edge from-layer="1084" from-port="2" to-layer="1086" to-port="0"/>
		<edge from-layer="1085" from-port="0" to-layer="1086" to-port="1"/>
		<edge from-layer="1086" from-port="2" to-layer="1087" to-port="0"/>
		<edge from-layer="925" from-port="0" to-layer="1087" to-port="1"/>
		<edge from-layer="926" from-port="0" to-layer="1087" to-port="2"/>
		<edge from-layer="927" from-port="0" to-layer="1087" to-port="3"/>
		<edge from-layer="928" from-port="0" to-layer="1087" to-port="4"/>
		<edge from-layer="1086" from-port="2" to-layer="1092" to-port="0"/>
		<edge from-layer="1092" from-port="1" to-layer="1093" to-port="0"/>
		<edge from-layer="1088" from-port="0" to-layer="1093" to-port="1"/>
		<edge from-layer="1089" from-port="0" to-layer="1093" to-port="2"/>
		<edge from-layer="1090" from-port="0" to-layer="1093" to-port="3"/>
		<edge from-layer="1091" from-port="0" to-layer="1093" to-port="4"/>
		<edge from-layer="1087" from-port="5" to-layer="1094" to-port="0"/>
		<edge from-layer="1093" from-port="5" to-layer="1094" to-port="1"/>
		<edge from-layer="1094" from-port="2" to-layer="1095" to-port="0"/>
		<edge from-layer="921" from-port="0" to-layer="1095" to-port="1"/>
		<edge from-layer="922" from-port="0" to-layer="1095" to-port="2"/>
		<edge from-layer="923" from-port="0" to-layer="1095" to-port="3"/>
		<edge from-layer="924" from-port="0" to-layer="1095" to-port="4"/>
		<edge from-layer="1100" from-port="0" to-layer="1101" to-port="0"/>
		<edge from-layer="1096" from-port="0" to-layer="1101" to-port="1"/>
		<edge from-layer="1097" from-port="0" to-layer="1101" to-port="2"/>
		<edge from-layer="1098" from-port="0" to-layer="1101" to-port="3"/>
		<edge from-layer="1099" from-port="0" to-layer="1101" to-port="4"/>
		<edge from-layer="1095" from-port="5" to-layer="1102" to-port="0"/>
		<edge from-layer="1101" from-port="5" to-layer="1102" to-port="1"/>
		<edge from-layer="1102" from-port="2" to-layer="1103" to-port="0"/>
		<edge from-layer="917" from-port="0" to-layer="1103" to-port="1"/>
		<edge from-layer="918" from-port="0" to-layer="1103" to-port="2"/>
		<edge from-layer="919" from-port="0" to-layer="1103" to-port="3"/>
		<edge from-layer="920" from-port="0" to-layer="1103" to-port="4"/>
		<edge from-layer="1108" from-port="0" to-layer="1109" to-port="0"/>
		<edge from-layer="1104" from-port="0" to-layer="1109" to-port="1"/>
		<edge from-layer="1105" from-port="0" to-layer="1109" to-port="2"/>
		<edge from-layer="1106" from-port="0" to-layer="1109" to-port="3"/>
		<edge from-layer="1107" from-port="0" to-layer="1109" to-port="4"/>
		<edge from-layer="1109" from-port="5" to-layer="1110" to-port="0"/>
		<edge from-layer="1086" from-port="2" to-layer="1110" to-port="1"/>
		<edge from-layer="1110" from-port="2" to-layer="1111" to-port="0"/>
		<edge from-layer="1103" from-port="5" to-layer="1111" to-port="1"/>
		<edge from-layer="1111" from-port="2" to-layer="1112" to-port="0"/>
		<edge from-layer="913" from-port="0" to-layer="1112" to-port="1"/>
		<edge from-layer="914" from-port="0" to-layer="1112" to-port="2"/>
		<edge from-layer="915" from-port="0" to-layer="1112" to-port="3"/>
		<edge from-layer="916" from-port="0" to-layer="1112" to-port="4"/>
		<edge from-layer="1112" from-port="5" to-layer="1113" to-port="0"/>
		<edge from-layer="912" from-port="0" to-layer="1113" to-port="1"/>
		<edge from-layer="1113" from-port="2" to-layer="1114" to-port="0"/>
		<edge from-layer="911" from-port="5" to-layer="1114" to-port="1"/>
		<edge from-layer="1114" from-port="2" to-layer="1115" to-port="0"/>
		<edge from-layer="905" from-port="0" to-layer="1115" to-port="1"/>
		<edge from-layer="1115" from-port="2" to-layer="1116" to-port="0"/>
		<edge from-layer="901" from-port="0" to-layer="1116" to-port="1"/>
		<edge from-layer="902" from-port="0" to-layer="1116" to-port="2"/>
		<edge from-layer="903" from-port="0" to-layer="1116" to-port="3"/>
		<edge from-layer="904" from-port="0" to-layer="1116" to-port="4"/>
		<edge from-layer="1116" from-port="5" to-layer="1117" to-port="0"/>
		<edge from-layer="900" from-port="0" to-layer="1117" to-port="1"/>
		<edge from-layer="1117" from-port="2" to-layer="1118" to-port="0"/>
		<edge from-layer="899" from-port="0" to-layer="1118" to-port="1"/>
		<edge from-layer="1118" from-port="2" to-layer="1120" to-port="0"/>
		<edge from-layer="1119" from-port="0" to-layer="1120" to-port="1"/>
		<edge from-layer="1120" from-port="2" to-layer="1121" to-port="0"/>
		<edge from-layer="895" from-port="0" to-layer="1121" to-port="1"/>
		<edge from-layer="896" from-port="0" to-layer="1121" to-port="2"/>
		<edge from-layer="897" from-port="0" to-layer="1121" to-port="3"/>
		<edge from-layer="898" from-port="0" to-layer="1121" to-port="4"/>
		<edge from-layer="1120" from-port="2" to-layer="1126" to-port="0"/>
		<edge from-layer="1126" from-port="1" to-layer="1127" to-port="0"/>
		<edge from-layer="1122" from-port="0" to-layer="1127" to-port="1"/>
		<edge from-layer="1123" from-port="0" to-layer="1127" to-port="2"/>
		<edge from-layer="1124" from-port="0" to-layer="1127" to-port="3"/>
		<edge from-layer="1125" from-port="0" to-layer="1127" to-port="4"/>
		<edge from-layer="1121" from-port="5" to-layer="1128" to-port="0"/>
		<edge from-layer="1127" from-port="5" to-layer="1128" to-port="1"/>
		<edge from-layer="1128" from-port="2" to-layer="1129" to-port="0"/>
		<edge from-layer="891" from-port="0" to-layer="1129" to-port="1"/>
		<edge from-layer="892" from-port="0" to-layer="1129" to-port="2"/>
		<edge from-layer="893" from-port="0" to-layer="1129" to-port="3"/>
		<edge from-layer="894" from-port="0" to-layer="1129" to-port="4"/>
		<edge from-layer="1134" from-port="0" to-layer="1135" to-port="0"/>
		<edge from-layer="1130" from-port="0" to-layer="1135" to-port="1"/>
		<edge from-layer="1131" from-port="0" to-layer="1135" to-port="2"/>
		<edge from-layer="1132" from-port="0" to-layer="1135" to-port="3"/>
		<edge from-layer="1133" from-port="0" to-layer="1135" to-port="4"/>
		<edge from-layer="1129" from-port="5" to-layer="1136" to-port="0"/>
		<edge from-layer="1135" from-port="5" to-layer="1136" to-port="1"/>
		<edge from-layer="1136" from-port="2" to-layer="1137" to-port="0"/>
		<edge from-layer="887" from-port="0" to-layer="1137" to-port="1"/>
		<edge from-layer="888" from-port="0" to-layer="1137" to-port="2"/>
		<edge from-layer="889" from-port="0" to-layer="1137" to-port="3"/>
		<edge from-layer="890" from-port="0" to-layer="1137" to-port="4"/>
		<edge from-layer="1142" from-port="0" to-layer="1143" to-port="0"/>
		<edge from-layer="1138" from-port="0" to-layer="1143" to-port="1"/>
		<edge from-layer="1139" from-port="0" to-layer="1143" to-port="2"/>
		<edge from-layer="1140" from-port="0" to-layer="1143" to-port="3"/>
		<edge from-layer="1141" from-port="0" to-layer="1143" to-port="4"/>
		<edge from-layer="1143" from-port="5" to-layer="1144" to-port="0"/>
		<edge from-layer="1120" from-port="2" to-layer="1144" to-port="1"/>
		<edge from-layer="1144" from-port="2" to-layer="1145" to-port="0"/>
		<edge from-layer="1137" from-port="5" to-layer="1145" to-port="1"/>
		<edge from-layer="1145" from-port="2" to-layer="1146" to-port="0"/>
		<edge from-layer="883" from-port="0" to-layer="1146" to-port="1"/>
		<edge from-layer="884" from-port="0" to-layer="1146" to-port="2"/>
		<edge from-layer="885" from-port="0" to-layer="1146" to-port="3"/>
		<edge from-layer="886" from-port="0" to-layer="1146" to-port="4"/>
		<edge from-layer="1146" from-port="5" to-layer="1147" to-port="0"/>
		<edge from-layer="882" from-port="0" to-layer="1147" to-port="1"/>
		<edge from-layer="1147" from-port="2" to-layer="1148" to-port="0"/>
		<edge from-layer="881" from-port="5" to-layer="1148" to-port="1"/>
		<edge from-layer="1148" from-port="2" to-layer="1149" to-port="0"/>
		<edge from-layer="875" from-port="0" to-layer="1149" to-port="1"/>
		<edge from-layer="1149" from-port="2" to-layer="1150" to-port="0"/>
		<edge from-layer="871" from-port="0" to-layer="1150" to-port="1"/>
		<edge from-layer="872" from-port="0" to-layer="1150" to-port="2"/>
		<edge from-layer="873" from-port="0" to-layer="1150" to-port="3"/>
		<edge from-layer="874" from-port="0" to-layer="1150" to-port="4"/>
		<edge from-layer="1150" from-port="5" to-layer="1151" to-port="0"/>
		<edge from-layer="870" from-port="0" to-layer="1151" to-port="1"/>
		<edge from-layer="1151" from-port="2" to-layer="1152" to-port="0"/>
		<edge from-layer="869" from-port="0" to-layer="1152" to-port="1"/>
		<edge from-layer="1152" from-port="2" to-layer="1154" to-port="0"/>
		<edge from-layer="1153" from-port="0" to-layer="1154" to-port="1"/>
		<edge from-layer="1154" from-port="2" to-layer="1155" to-port="0"/>
		<edge from-layer="865" from-port="0" to-layer="1155" to-port="1"/>
		<edge from-layer="866" from-port="0" to-layer="1155" to-port="2"/>
		<edge from-layer="867" from-port="0" to-layer="1155" to-port="3"/>
		<edge from-layer="868" from-port="0" to-layer="1155" to-port="4"/>
		<edge from-layer="1154" from-port="2" to-layer="1160" to-port="0"/>
		<edge from-layer="1160" from-port="1" to-layer="1161" to-port="0"/>
		<edge from-layer="1156" from-port="0" to-layer="1161" to-port="1"/>
		<edge from-layer="1157" from-port="0" to-layer="1161" to-port="2"/>
		<edge from-layer="1158" from-port="0" to-layer="1161" to-port="3"/>
		<edge from-layer="1159" from-port="0" to-layer="1161" to-port="4"/>
		<edge from-layer="1155" from-port="5" to-layer="1162" to-port="0"/>
		<edge from-layer="1161" from-port="5" to-layer="1162" to-port="1"/>
		<edge from-layer="1162" from-port="2" to-layer="1163" to-port="0"/>
		<edge from-layer="861" from-port="0" to-layer="1163" to-port="1"/>
		<edge from-layer="862" from-port="0" to-layer="1163" to-port="2"/>
		<edge from-layer="863" from-port="0" to-layer="1163" to-port="3"/>
		<edge from-layer="864" from-port="0" to-layer="1163" to-port="4"/>
		<edge from-layer="1168" from-port="0" to-layer="1169" to-port="0"/>
		<edge from-layer="1164" from-port="0" to-layer="1169" to-port="1"/>
		<edge from-layer="1165" from-port="0" to-layer="1169" to-port="2"/>
		<edge from-layer="1166" from-port="0" to-layer="1169" to-port="3"/>
		<edge from-layer="1167" from-port="0" to-layer="1169" to-port="4"/>
		<edge from-layer="1163" from-port="5" to-layer="1170" to-port="0"/>
		<edge from-layer="1169" from-port="5" to-layer="1170" to-port="1"/>
		<edge from-layer="1170" from-port="2" to-layer="1171" to-port="0"/>
		<edge from-layer="857" from-port="0" to-layer="1171" to-port="1"/>
		<edge from-layer="858" from-port="0" to-layer="1171" to-port="2"/>
		<edge from-layer="859" from-port="0" to-layer="1171" to-port="3"/>
		<edge from-layer="860" from-port="0" to-layer="1171" to-port="4"/>
		<edge from-layer="1176" from-port="0" to-layer="1177" to-port="0"/>
		<edge from-layer="1172" from-port="0" to-layer="1177" to-port="1"/>
		<edge from-layer="1173" from-port="0" to-layer="1177" to-port="2"/>
		<edge from-layer="1174" from-port="0" to-layer="1177" to-port="3"/>
		<edge from-layer="1175" from-port="0" to-layer="1177" to-port="4"/>
		<edge from-layer="1177" from-port="5" to-layer="1178" to-port="0"/>
		<edge from-layer="1154" from-port="2" to-layer="1178" to-port="1"/>
		<edge from-layer="1178" from-port="2" to-layer="1179" to-port="0"/>
		<edge from-layer="1171" from-port="5" to-layer="1179" to-port="1"/>
		<edge from-layer="1179" from-port="2" to-layer="1180" to-port="0"/>
		<edge from-layer="853" from-port="0" to-layer="1180" to-port="1"/>
		<edge from-layer="854" from-port="0" to-layer="1180" to-port="2"/>
		<edge from-layer="855" from-port="0" to-layer="1180" to-port="3"/>
		<edge from-layer="856" from-port="0" to-layer="1180" to-port="4"/>
		<edge from-layer="1180" from-port="5" to-layer="1181" to-port="0"/>
		<edge from-layer="852" from-port="0" to-layer="1181" to-port="1"/>
		<edge from-layer="1181" from-port="2" to-layer="1182" to-port="0"/>
		<edge from-layer="851" from-port="5" to-layer="1182" to-port="1"/>
		<edge from-layer="1182" from-port="2" to-layer="1183" to-port="0"/>
		<edge from-layer="845" from-port="0" to-layer="1183" to-port="1"/>
		<edge from-layer="1183" from-port="2" to-layer="1184" to-port="0"/>
		<edge from-layer="841" from-port="0" to-layer="1184" to-port="1"/>
		<edge from-layer="842" from-port="0" to-layer="1184" to-port="2"/>
		<edge from-layer="843" from-port="0" to-layer="1184" to-port="3"/>
		<edge from-layer="844" from-port="0" to-layer="1184" to-port="4"/>
		<edge from-layer="1184" from-port="5" to-layer="1185" to-port="0"/>
		<edge from-layer="840" from-port="0" to-layer="1185" to-port="1"/>
		<edge from-layer="1185" from-port="2" to-layer="1186" to-port="0"/>
		<edge from-layer="839" from-port="0" to-layer="1186" to-port="1"/>
		<edge from-layer="1186" from-port="2" to-layer="1188" to-port="0"/>
		<edge from-layer="1187" from-port="0" to-layer="1188" to-port="1"/>
		<edge from-layer="1188" from-port="2" to-layer="1189" to-port="0"/>
		<edge from-layer="835" from-port="0" to-layer="1189" to-port="1"/>
		<edge from-layer="836" from-port="0" to-layer="1189" to-port="2"/>
		<edge from-layer="837" from-port="0" to-layer="1189" to-port="3"/>
		<edge from-layer="838" from-port="0" to-layer="1189" to-port="4"/>
		<edge from-layer="1188" from-port="2" to-layer="1194" to-port="0"/>
		<edge from-layer="1194" from-port="1" to-layer="1195" to-port="0"/>
		<edge from-layer="1190" from-port="0" to-layer="1195" to-port="1"/>
		<edge from-layer="1191" from-port="0" to-layer="1195" to-port="2"/>
		<edge from-layer="1192" from-port="0" to-layer="1195" to-port="3"/>
		<edge from-layer="1193" from-port="0" to-layer="1195" to-port="4"/>
		<edge from-layer="1189" from-port="5" to-layer="1196" to-port="0"/>
		<edge from-layer="1195" from-port="5" to-layer="1196" to-port="1"/>
		<edge from-layer="1196" from-port="2" to-layer="1197" to-port="0"/>
		<edge from-layer="831" from-port="0" to-layer="1197" to-port="1"/>
		<edge from-layer="832" from-port="0" to-layer="1197" to-port="2"/>
		<edge from-layer="833" from-port="0" to-layer="1197" to-port="3"/>
		<edge from-layer="834" from-port="0" to-layer="1197" to-port="4"/>
		<edge from-layer="1202" from-port="0" to-layer="1203" to-port="0"/>
		<edge from-layer="1198" from-port="0" to-layer="1203" to-port="1"/>
		<edge from-layer="1199" from-port="0" to-layer="1203" to-port="2"/>
		<edge from-layer="1200" from-port="0" to-layer="1203" to-port="3"/>
		<edge from-layer="1201" from-port="0" to-layer="1203" to-port="4"/>
		<edge from-layer="1197" from-port="5" to-layer="1204" to-port="0"/>
		<edge from-layer="1203" from-port="5" to-layer="1204" to-port="1"/>
		<edge from-layer="1204" from-port="2" to-layer="1205" to-port="0"/>
		<edge from-layer="827" from-port="0" to-layer="1205" to-port="1"/>
		<edge from-layer="828" from-port="0" to-layer="1205" to-port="2"/>
		<edge from-layer="829" from-port="0" to-layer="1205" to-port="3"/>
		<edge from-layer="830" from-port="0" to-layer="1205" to-port="4"/>
		<edge from-layer="1210" from-port="0" to-layer="1211" to-port="0"/>
		<edge from-layer="1206" from-port="0" to-layer="1211" to-port="1"/>
		<edge from-layer="1207" from-port="0" to-layer="1211" to-port="2"/>
		<edge from-layer="1208" from-port="0" to-layer="1211" to-port="3"/>
		<edge from-layer="1209" from-port="0" to-layer="1211" to-port="4"/>
		<edge from-layer="1211" from-port="5" to-layer="1212" to-port="0"/>
		<edge from-layer="1188" from-port="2" to-layer="1212" to-port="1"/>
		<edge from-layer="1212" from-port="2" to-layer="1213" to-port="0"/>
		<edge from-layer="1205" from-port="5" to-layer="1213" to-port="1"/>
		<edge from-layer="1213" from-port="2" to-layer="1214" to-port="0"/>
		<edge from-layer="823" from-port="0" to-layer="1214" to-port="1"/>
		<edge from-layer="824" from-port="0" to-layer="1214" to-port="2"/>
		<edge from-layer="825" from-port="0" to-layer="1214" to-port="3"/>
		<edge from-layer="826" from-port="0" to-layer="1214" to-port="4"/>
		<edge from-layer="1214" from-port="5" to-layer="1215" to-port="0"/>
		<edge from-layer="822" from-port="0" to-layer="1215" to-port="1"/>
		<edge from-layer="1215" from-port="2" to-layer="1216" to-port="0"/>
		<edge from-layer="821" from-port="5" to-layer="1216" to-port="1"/>
		<edge from-layer="1216" from-port="2" to-layer="1217" to-port="0"/>
		<edge from-layer="815" from-port="0" to-layer="1217" to-port="1"/>
		<edge from-layer="1217" from-port="2" to-layer="1218" to-port="0"/>
		<edge from-layer="811" from-port="0" to-layer="1218" to-port="1"/>
		<edge from-layer="812" from-port="0" to-layer="1218" to-port="2"/>
		<edge from-layer="813" from-port="0" to-layer="1218" to-port="3"/>
		<edge from-layer="814" from-port="0" to-layer="1218" to-port="4"/>
		<edge from-layer="1218" from-port="5" to-layer="1219" to-port="0"/>
		<edge from-layer="810" from-port="0" to-layer="1219" to-port="1"/>
		<edge from-layer="1219" from-port="2" to-layer="1220" to-port="0"/>
		<edge from-layer="809" from-port="0" to-layer="1220" to-port="1"/>
		<edge from-layer="1220" from-port="2" to-layer="1222" to-port="0"/>
		<edge from-layer="1221" from-port="0" to-layer="1222" to-port="1"/>
		<edge from-layer="1222" from-port="2" to-layer="1223" to-port="0"/>
		<edge from-layer="805" from-port="0" to-layer="1223" to-port="1"/>
		<edge from-layer="806" from-port="0" to-layer="1223" to-port="2"/>
		<edge from-layer="807" from-port="0" to-layer="1223" to-port="3"/>
		<edge from-layer="808" from-port="0" to-layer="1223" to-port="4"/>
		<edge from-layer="1222" from-port="2" to-layer="1228" to-port="0"/>
		<edge from-layer="1228" from-port="1" to-layer="1229" to-port="0"/>
		<edge from-layer="1224" from-port="0" to-layer="1229" to-port="1"/>
		<edge from-layer="1225" from-port="0" to-layer="1229" to-port="2"/>
		<edge from-layer="1226" from-port="0" to-layer="1229" to-port="3"/>
		<edge from-layer="1227" from-port="0" to-layer="1229" to-port="4"/>
		<edge from-layer="1223" from-port="5" to-layer="1230" to-port="0"/>
		<edge from-layer="1229" from-port="5" to-layer="1230" to-port="1"/>
		<edge from-layer="1230" from-port="2" to-layer="1231" to-port="0"/>
		<edge from-layer="801" from-port="0" to-layer="1231" to-port="1"/>
		<edge from-layer="802" from-port="0" to-layer="1231" to-port="2"/>
		<edge from-layer="803" from-port="0" to-layer="1231" to-port="3"/>
		<edge from-layer="804" from-port="0" to-layer="1231" to-port="4"/>
		<edge from-layer="1236" from-port="0" to-layer="1237" to-port="0"/>
		<edge from-layer="1232" from-port="0" to-layer="1237" to-port="1"/>
		<edge from-layer="1233" from-port="0" to-layer="1237" to-port="2"/>
		<edge from-layer="1234" from-port="0" to-layer="1237" to-port="3"/>
		<edge from-layer="1235" from-port="0" to-layer="1237" to-port="4"/>
		<edge from-layer="1231" from-port="5" to-layer="1238" to-port="0"/>
		<edge from-layer="1237" from-port="5" to-layer="1238" to-port="1"/>
		<edge from-layer="1238" from-port="2" to-layer="1239" to-port="0"/>
		<edge from-layer="797" from-port="0" to-layer="1239" to-port="1"/>
		<edge from-layer="798" from-port="0" to-layer="1239" to-port="2"/>
		<edge from-layer="799" from-port="0" to-layer="1239" to-port="3"/>
		<edge from-layer="800" from-port="0" to-layer="1239" to-port="4"/>
		<edge from-layer="1244" from-port="0" to-layer="1245" to-port="0"/>
		<edge from-layer="1240" from-port="0" to-layer="1245" to-port="1"/>
		<edge from-layer="1241" from-port="0" to-layer="1245" to-port="2"/>
		<edge from-layer="1242" from-port="0" to-layer="1245" to-port="3"/>
		<edge from-layer="1243" from-port="0" to-layer="1245" to-port="4"/>
		<edge from-layer="1245" from-port="5" to-layer="1246" to-port="0"/>
		<edge from-layer="1222" from-port="2" to-layer="1246" to-port="1"/>
		<edge from-layer="1246" from-port="2" to-layer="1247" to-port="0"/>
		<edge from-layer="1239" from-port="5" to-layer="1247" to-port="1"/>
		<edge from-layer="1247" from-port="2" to-layer="1248" to-port="0"/>
		<edge from-layer="793" from-port="0" to-layer="1248" to-port="1"/>
		<edge from-layer="794" from-port="0" to-layer="1248" to-port="2"/>
		<edge from-layer="795" from-port="0" to-layer="1248" to-port="3"/>
		<edge from-layer="796" from-port="0" to-layer="1248" to-port="4"/>
		<edge from-layer="1248" from-port="5" to-layer="1249" to-port="0"/>
		<edge from-layer="792" from-port="0" to-layer="1249" to-port="1"/>
		<edge from-layer="1249" from-port="2" to-layer="1250" to-port="0"/>
		<edge from-layer="791" from-port="5" to-layer="1250" to-port="1"/>
		<edge from-layer="1250" from-port="2" to-layer="1251" to-port="0"/>
		<edge from-layer="785" from-port="0" to-layer="1251" to-port="1"/>
		<edge from-layer="1251" from-port="2" to-layer="1252" to-port="0"/>
		<edge from-layer="781" from-port="0" to-layer="1252" to-port="1"/>
		<edge from-layer="782" from-port="0" to-layer="1252" to-port="2"/>
		<edge from-layer="783" from-port="0" to-layer="1252" to-port="3"/>
		<edge from-layer="784" from-port="0" to-layer="1252" to-port="4"/>
		<edge from-layer="1252" from-port="5" to-layer="1253" to-port="0"/>
		<edge from-layer="780" from-port="0" to-layer="1253" to-port="1"/>
		<edge from-layer="1253" from-port="2" to-layer="1254" to-port="0"/>
		<edge from-layer="779" from-port="4" to-layer="1254" to-port="1"/>
		<edge from-layer="1254" from-port="2" to-layer="1255" to-port="0"/>
		<edge from-layer="103" from-port="0" to-layer="1255" to-port="1"/>
		<edge from-layer="1255" from-port="2" to-layer="1257" to-port="0"/>
		<edge from-layer="1256" from-port="0" to-layer="1257" to-port="1"/>
		<edge from-layer="1257" from-port="2" to-layer="1258" to-port="0"/>
		<edge from-layer="99" from-port="0" to-layer="1258" to-port="1"/>
		<edge from-layer="100" from-port="0" to-layer="1258" to-port="2"/>
		<edge from-layer="101" from-port="0" to-layer="1258" to-port="3"/>
		<edge from-layer="102" from-port="0" to-layer="1258" to-port="4"/>
		<edge from-layer="1257" from-port="2" to-layer="1263" to-port="0"/>
		<edge from-layer="1263" from-port="1" to-layer="1264" to-port="0"/>
		<edge from-layer="1259" from-port="0" to-layer="1264" to-port="1"/>
		<edge from-layer="1260" from-port="0" to-layer="1264" to-port="2"/>
		<edge from-layer="1261" from-port="0" to-layer="1264" to-port="3"/>
		<edge from-layer="1262" from-port="0" to-layer="1264" to-port="4"/>
		<edge from-layer="1258" from-port="5" to-layer="1265" to-port="0"/>
		<edge from-layer="1264" from-port="5" to-layer="1265" to-port="1"/>
		<edge from-layer="1265" from-port="2" to-layer="1266" to-port="0"/>
		<edge from-layer="95" from-port="0" to-layer="1266" to-port="1"/>
		<edge from-layer="96" from-port="0" to-layer="1266" to-port="2"/>
		<edge from-layer="97" from-port="0" to-layer="1266" to-port="3"/>
		<edge from-layer="98" from-port="0" to-layer="1266" to-port="4"/>
		<edge from-layer="1271" from-port="0" to-layer="1272" to-port="0"/>
		<edge from-layer="1267" from-port="0" to-layer="1272" to-port="1"/>
		<edge from-layer="1268" from-port="0" to-layer="1272" to-port="2"/>
		<edge from-layer="1269" from-port="0" to-layer="1272" to-port="3"/>
		<edge from-layer="1270" from-port="0" to-layer="1272" to-port="4"/>
		<edge from-layer="1266" from-port="5" to-layer="1273" to-port="0"/>
		<edge from-layer="1272" from-port="5" to-layer="1273" to-port="1"/>
		<edge from-layer="1273" from-port="2" to-layer="1274" to-port="0"/>
		<edge from-layer="91" from-port="0" to-layer="1274" to-port="1"/>
		<edge from-layer="92" from-port="0" to-layer="1274" to-port="2"/>
		<edge from-layer="93" from-port="0" to-layer="1274" to-port="3"/>
		<edge from-layer="94" from-port="0" to-layer="1274" to-port="4"/>
		<edge from-layer="1279" from-port="0" to-layer="1280" to-port="0"/>
		<edge from-layer="1275" from-port="0" to-layer="1280" to-port="1"/>
		<edge from-layer="1276" from-port="0" to-layer="1280" to-port="2"/>
		<edge from-layer="1277" from-port="0" to-layer="1280" to-port="3"/>
		<edge from-layer="1278" from-port="0" to-layer="1280" to-port="4"/>
		<edge from-layer="1280" from-port="5" to-layer="1281" to-port="0"/>
		<edge from-layer="1257" from-port="2" to-layer="1281" to-port="1"/>
		<edge from-layer="1281" from-port="2" to-layer="1282" to-port="0"/>
		<edge from-layer="1274" from-port="5" to-layer="1282" to-port="1"/>
		<edge from-layer="1282" from-port="2" to-layer="1283" to-port="0"/>
		<edge from-layer="87" from-port="0" to-layer="1283" to-port="1"/>
		<edge from-layer="88" from-port="0" to-layer="1283" to-port="2"/>
		<edge from-layer="89" from-port="0" to-layer="1283" to-port="3"/>
		<edge from-layer="90" from-port="0" to-layer="1283" to-port="4"/>
		<edge from-layer="1283" from-port="5" to-layer="1284" to-port="0"/>
		<edge from-layer="86" from-port="0" to-layer="1284" to-port="1"/>
		<edge from-layer="1284" from-port="2" to-layer="1285" to-port="0"/>
		<edge from-layer="85" from-port="5" to-layer="1285" to-port="1"/>
		<edge from-layer="1285" from-port="2" to-layer="1286" to-port="0"/>
		<edge from-layer="79" from-port="0" to-layer="1286" to-port="1"/>
		<edge from-layer="1286" from-port="2" to-layer="1287" to-port="0"/>
		<edge from-layer="75" from-port="0" to-layer="1287" to-port="1"/>
		<edge from-layer="76" from-port="0" to-layer="1287" to-port="2"/>
		<edge from-layer="77" from-port="0" to-layer="1287" to-port="3"/>
		<edge from-layer="78" from-port="0" to-layer="1287" to-port="4"/>
		<edge from-layer="1287" from-port="5" to-layer="1288" to-port="0"/>
		<edge from-layer="74" from-port="0" to-layer="1288" to-port="1"/>
		<edge from-layer="1288" from-port="2" to-layer="1289" to-port="0"/>
		<edge from-layer="73" from-port="0" to-layer="1289" to-port="1"/>
		<edge from-layer="1289" from-port="2" to-layer="1291" to-port="0"/>
		<edge from-layer="1290" from-port="0" to-layer="1291" to-port="1"/>
		<edge from-layer="1291" from-port="2" to-layer="1292" to-port="0"/>
		<edge from-layer="69" from-port="0" to-layer="1292" to-port="1"/>
		<edge from-layer="70" from-port="0" to-layer="1292" to-port="2"/>
		<edge from-layer="71" from-port="0" to-layer="1292" to-port="3"/>
		<edge from-layer="72" from-port="0" to-layer="1292" to-port="4"/>
		<edge from-layer="1291" from-port="2" to-layer="1297" to-port="0"/>
		<edge from-layer="1297" from-port="1" to-layer="1298" to-port="0"/>
		<edge from-layer="1293" from-port="0" to-layer="1298" to-port="1"/>
		<edge from-layer="1294" from-port="0" to-layer="1298" to-port="2"/>
		<edge from-layer="1295" from-port="0" to-layer="1298" to-port="3"/>
		<edge from-layer="1296" from-port="0" to-layer="1298" to-port="4"/>
		<edge from-layer="1292" from-port="5" to-layer="1299" to-port="0"/>
		<edge from-layer="1298" from-port="5" to-layer="1299" to-port="1"/>
		<edge from-layer="1299" from-port="2" to-layer="1300" to-port="0"/>
		<edge from-layer="65" from-port="0" to-layer="1300" to-port="1"/>
		<edge from-layer="66" from-port="0" to-layer="1300" to-port="2"/>
		<edge from-layer="67" from-port="0" to-layer="1300" to-port="3"/>
		<edge from-layer="68" from-port="0" to-layer="1300" to-port="4"/>
		<edge from-layer="1305" from-port="0" to-layer="1306" to-port="0"/>
		<edge from-layer="1301" from-port="0" to-layer="1306" to-port="1"/>
		<edge from-layer="1302" from-port="0" to-layer="1306" to-port="2"/>
		<edge from-layer="1303" from-port="0" to-layer="1306" to-port="3"/>
		<edge from-layer="1304" from-port="0" to-layer="1306" to-port="4"/>
		<edge from-layer="1300" from-port="5" to-layer="1307" to-port="0"/>
		<edge from-layer="1306" from-port="5" to-layer="1307" to-port="1"/>
		<edge from-layer="1307" from-port="2" to-layer="1308" to-port="0"/>
		<edge from-layer="61" from-port="0" to-layer="1308" to-port="1"/>
		<edge from-layer="62" from-port="0" to-layer="1308" to-port="2"/>
		<edge from-layer="63" from-port="0" to-layer="1308" to-port="3"/>
		<edge from-layer="64" from-port="0" to-layer="1308" to-port="4"/>
		<edge from-layer="1313" from-port="0" to-layer="1314" to-port="0"/>
		<edge from-layer="1309" from-port="0" to-layer="1314" to-port="1"/>
		<edge from-layer="1310" from-port="0" to-layer="1314" to-port="2"/>
		<edge from-layer="1311" from-port="0" to-layer="1314" to-port="3"/>
		<edge from-layer="1312" from-port="0" to-layer="1314" to-port="4"/>
		<edge from-layer="1314" from-port="5" to-layer="1315" to-port="0"/>
		<edge from-layer="1291" from-port="2" to-layer="1315" to-port="1"/>
		<edge from-layer="1315" from-port="2" to-layer="1316" to-port="0"/>
		<edge from-layer="1308" from-port="5" to-layer="1316" to-port="1"/>
		<edge from-layer="1316" from-port="2" to-layer="1317" to-port="0"/>
		<edge from-layer="57" from-port="0" to-layer="1317" to-port="1"/>
		<edge from-layer="58" from-port="0" to-layer="1317" to-port="2"/>
		<edge from-layer="59" from-port="0" to-layer="1317" to-port="3"/>
		<edge from-layer="60" from-port="0" to-layer="1317" to-port="4"/>
		<edge from-layer="1322" from-port="0" to-layer="1323" to-port="0"/>
		<edge from-layer="1318" from-port="0" to-layer="1323" to-port="1"/>
		<edge from-layer="1319" from-port="0" to-layer="1323" to-port="2"/>
		<edge from-layer="1320" from-port="0" to-layer="1323" to-port="3"/>
		<edge from-layer="1321" from-port="0" to-layer="1323" to-port="4"/>
		<edge from-layer="1317" from-port="5" to-layer="1324" to-port="0"/>
		<edge from-layer="1323" from-port="5" to-layer="1324" to-port="1"/>
		<edge from-layer="1324" from-port="2" to-layer="1325" to-port="0"/>
		<edge from-layer="53" from-port="0" to-layer="1325" to-port="1"/>
		<edge from-layer="54" from-port="0" to-layer="1325" to-port="2"/>
		<edge from-layer="55" from-port="0" to-layer="1325" to-port="3"/>
		<edge from-layer="56" from-port="0" to-layer="1325" to-port="4"/>
		<edge from-layer="1325" from-port="5" to-layer="1326" to-port="0"/>
		<edge from-layer="52" from-port="0" to-layer="1326" to-port="1"/>
		<edge from-layer="1326" from-port="2" to-layer="1327" to-port="0"/>
		<edge from-layer="51" from-port="5" to-layer="1327" to-port="1"/>
		<edge from-layer="1327" from-port="2" to-layer="1328" to-port="0"/>
		<edge from-layer="45" from-port="0" to-layer="1328" to-port="1"/>
		<edge from-layer="1328" from-port="2" to-layer="1329" to-port="0"/>
		<edge from-layer="41" from-port="0" to-layer="1329" to-port="1"/>
		<edge from-layer="42" from-port="0" to-layer="1329" to-port="2"/>
		<edge from-layer="43" from-port="0" to-layer="1329" to-port="3"/>
		<edge from-layer="44" from-port="0" to-layer="1329" to-port="4"/>
		<edge from-layer="1329" from-port="5" to-layer="1330" to-port="0"/>
		<edge from-layer="40" from-port="0" to-layer="1330" to-port="1"/>
		<edge from-layer="1330" from-port="2" to-layer="1331" to-port="0"/>
		<edge from-layer="39" from-port="0" to-layer="1331" to-port="1"/>
		<edge from-layer="1331" from-port="2" to-layer="1333" to-port="0"/>
		<edge from-layer="1332" from-port="0" to-layer="1333" to-port="1"/>
		<edge from-layer="1333" from-port="2" to-layer="1334" to-port="0"/>
		<edge from-layer="35" from-port="0" to-layer="1334" to-port="1"/>
		<edge from-layer="36" from-port="0" to-layer="1334" to-port="2"/>
		<edge from-layer="37" from-port="0" to-layer="1334" to-port="3"/>
		<edge from-layer="38" from-port="0" to-layer="1334" to-port="4"/>
		<edge from-layer="1333" from-port="2" to-layer="1339" to-port="0"/>
		<edge from-layer="1339" from-port="1" to-layer="1340" to-port="0"/>
		<edge from-layer="1335" from-port="0" to-layer="1340" to-port="1"/>
		<edge from-layer="1336" from-port="0" to-layer="1340" to-port="2"/>
		<edge from-layer="1337" from-port="0" to-layer="1340" to-port="3"/>
		<edge from-layer="1338" from-port="0" to-layer="1340" to-port="4"/>
		<edge from-layer="1334" from-port="5" to-layer="1341" to-port="0"/>
		<edge from-layer="1340" from-port="5" to-layer="1341" to-port="1"/>
		<edge from-layer="1341" from-port="2" to-layer="1342" to-port="0"/>
		<edge from-layer="31" from-port="0" to-layer="1342" to-port="1"/>
		<edge from-layer="32" from-port="0" to-layer="1342" to-port="2"/>
		<edge from-layer="33" from-port="0" to-layer="1342" to-port="3"/>
		<edge from-layer="34" from-port="0" to-layer="1342" to-port="4"/>
		<edge from-layer="1347" from-port="0" to-layer="1348" to-port="0"/>
		<edge from-layer="1343" from-port="0" to-layer="1348" to-port="1"/>
		<edge from-layer="1344" from-port="0" to-layer="1348" to-port="2"/>
		<edge from-layer="1345" from-port="0" to-layer="1348" to-port="3"/>
		<edge from-layer="1346" from-port="0" to-layer="1348" to-port="4"/>
		<edge from-layer="1342" from-port="5" to-layer="1349" to-port="0"/>
		<edge from-layer="1348" from-port="5" to-layer="1349" to-port="1"/>
		<edge from-layer="1349" from-port="2" to-layer="1350" to-port="0"/>
		<edge from-layer="27" from-port="0" to-layer="1350" to-port="1"/>
		<edge from-layer="28" from-port="0" to-layer="1350" to-port="2"/>
		<edge from-layer="29" from-port="0" to-layer="1350" to-port="3"/>
		<edge from-layer="30" from-port="0" to-layer="1350" to-port="4"/>
		<edge from-layer="1355" from-port="0" to-layer="1356" to-port="0"/>
		<edge from-layer="1351" from-port="0" to-layer="1356" to-port="1"/>
		<edge from-layer="1352" from-port="0" to-layer="1356" to-port="2"/>
		<edge from-layer="1353" from-port="0" to-layer="1356" to-port="3"/>
		<edge from-layer="1354" from-port="0" to-layer="1356" to-port="4"/>
		<edge from-layer="1356" from-port="5" to-layer="1357" to-port="0"/>
		<edge from-layer="1333" from-port="2" to-layer="1357" to-port="1"/>
		<edge from-layer="1357" from-port="2" to-layer="1358" to-port="0"/>
		<edge from-layer="1350" from-port="5" to-layer="1358" to-port="1"/>
		<edge from-layer="1358" from-port="2" to-layer="1359" to-port="0"/>
		<edge from-layer="23" from-port="0" to-layer="1359" to-port="1"/>
		<edge from-layer="24" from-port="0" to-layer="1359" to-port="2"/>
		<edge from-layer="25" from-port="0" to-layer="1359" to-port="3"/>
		<edge from-layer="26" from-port="0" to-layer="1359" to-port="4"/>
		<edge from-layer="1364" from-port="0" to-layer="1365" to-port="0"/>
		<edge from-layer="1360" from-port="0" to-layer="1365" to-port="1"/>
		<edge from-layer="1361" from-port="0" to-layer="1365" to-port="2"/>
		<edge from-layer="1362" from-port="0" to-layer="1365" to-port="3"/>
		<edge from-layer="1363" from-port="0" to-layer="1365" to-port="4"/>
		<edge from-layer="1359" from-port="5" to-layer="1366" to-port="0"/>
		<edge from-layer="1365" from-port="5" to-layer="1366" to-port="1"/>
		<edge from-layer="1366" from-port="2" to-layer="1367" to-port="0"/>
		<edge from-layer="19" from-port="0" to-layer="1367" to-port="1"/>
		<edge from-layer="20" from-port="0" to-layer="1367" to-port="2"/>
		<edge from-layer="21" from-port="0" to-layer="1367" to-port="3"/>
		<edge from-layer="22" from-port="0" to-layer="1367" to-port="4"/>
		<edge from-layer="1367" from-port="5" to-layer="1368" to-port="0"/>
		<edge from-layer="18" from-port="0" to-layer="1368" to-port="1"/>
		<edge from-layer="1368" from-port="2" to-layer="1369" to-port="0"/>
		<edge from-layer="17" from-port="5" to-layer="1369" to-port="1"/>
		<edge from-layer="1369" from-port="2" to-layer="1370" to-port="0"/>
		<edge from-layer="11" from-port="0" to-layer="1370" to-port="1"/>
		<edge from-layer="1370" from-port="2" to-layer="1371" to-port="0"/>
		<edge from-layer="7" from-port="0" to-layer="1371" to-port="1"/>
		<edge from-layer="8" from-port="0" to-layer="1371" to-port="2"/>
		<edge from-layer="9" from-port="0" to-layer="1371" to-port="3"/>
		<edge from-layer="10" from-port="0" to-layer="1371" to-port="4"/>
		<edge from-layer="1371" from-port="5" to-layer="1372" to-port="0"/>
		<edge from-layer="6" from-port="0" to-layer="1372" to-port="1"/>
		<edge from-layer="1372" from-port="2" to-layer="1373" to-port="0"/>
		<edge from-layer="5" from-port="5" to-layer="1373" to-port="1"/>
		<edge from-layer="1373" from-port="2" to-layer="1375" to-port="0"/>
		<edge from-layer="1374" from-port="0" to-layer="1375" to-port="1"/>
		<edge from-layer="1375" from-port="2" to-layer="1376" to-port="0"/>
		<edge from-layer="1376" from-port="1" to-layer="1378" to-port="0"/>
		<edge from-layer="1377" from-port="0" to-layer="1378" to-port="1"/>
		<edge from-layer="1378" from-port="2" to-layer="1379" to-port="0"/>
	</edges>
	<meta_data>
		<MO_version value="2022.1.0-6682-121d59aa80a"/>
		<Runtime_version value="2022.1.0-6682-121d59aa80a"/>
		<legacy_path value="True"/>
		<cli_parameters>
			<caffe_parser_path value="DIR"/>
			<compress_fp16 value="False"/>
			<data_type value="float"/>
			<disable_nhwc_to_nchw value="True"/>
			<disable_omitting_optional value="False"/>
			<disable_resnet_optimization value="False"/>
			<disable_weights_compression value="False"/>
			<enable_concat_optimization value="False"/>
			<enable_flattening_nested_params value="False"/>
			<enable_ssd_gluoncv value="False"/>
			<extensions value="DIR"/>
			<framework value="tf"/>
			<freeze_placeholder_with_value value="{}"/>
			<generate_deprecated_IR_V7 value="False"/>
			<input value="net/inp_x_test,net/inp_x_sub_0_test"/>
			<input_meta_graph value="DIR/deepmedic-4-ov.model.ckpt.meta"/>
			<input_model_is_text value="False"/>
			<input_shape value="[10,1,45,45,45],[10,1,26,26,26]"/>
			<k value="DIR/CustomLayersMapping.xml"/>
			<keep_shape_ops value="True"/>
			<layout value="()"/>
			<layout_values value="{}"/>
			<legacy_ir_generation value="False"/>
			<legacy_mxnet_model value="False"/>
			<log_level value="ERROR"/>
			<mean_scale_values value="{}"/>
			<mean_values value="()"/>
			<model_name value="deepmedic-4-ov.model.ckpt"/>
			<output value="['net/transpose_138']"/>
			<output_dir value="DIR"/>
			<packed_user_shapes value="defaultdict(&lt;class 'list'&gt;, {'net/inp_x_test': [{'shape': (10, 1, 45, 45, 45), 'port': None, 'added': True}], 'net/inp_x_sub_0_test': [{'shape': (10, 1, 26, 26, 26), 'port': None, 'added': True}]})"/>
			<placeholder_data_types value="{}"/>
			<placeholder_shapes value="{'net/inp_x_test': (10, 1, 45, 45, 45), 'net/inp_x_sub_0_test': (10, 1, 26, 26, 26)}"/>
			<progress value="False"/>
			<remove_memory value="False"/>
			<remove_output_softmax value="False"/>
			<reverse_input_channels value="False"/>
			<save_params_from_nd value="False"/>
			<scale_values value="()"/>
			<silent value="False"/>
			<source_layout value="()"/>
			<static_shape value="False"/>
			<stream_output value="False"/>
			<target_layout value="()"/>
			<transform value=""/>
			<use_legacy_frontend value="False"/>
			<use_new_frontend value="False"/>
			<unset unset_cli_parameters="batch, counts, disable_fusing, disable_gfusing, finegrain_fusing, input_checkpoint, input_model, input_proto, input_symbol, mean_file, mean_file_offsets, move_to_preprocess, nd_prefix_name, pretrained_model_name, saved_model_dir, saved_model_tags, scale, tensorboard_logdir, tensorflow_custom_layer_libraries, tensorflow_custom_operations_config_update, tensorflow_object_detection_api_pipeline_config, tensorflow_use_custom_operations_config, transformations_config"/>
		</cli_parameters>
	</meta_data>
	<quantization_parameters>
		<config/>
		<version value="{}"/>
		<cli_params value="{}"/>
	</quantization_parameters>
</net>
