<?xml version="1.0" ?>
<net name="deepmedic-4-ov.model.ckpt" version="10">
	<layers>
		<layer id="0" name="2876288013471" type="Const" version="opset1">
			<data element_type="f32" offset="0" shape="1,1,1,1,1" size="4"/>
			<output>
				<port id="0" precision="FP32">
					<dim>1</dim>
					<dim>1</dim>
					<dim>1</dim>
					<dim>1</dim>
					<dim>1</dim>
				</port>
			</output>
		</layer>
		<layer id="1" name="2877288111125" type="Const" version="opset1">
			<data element_type="f32" offset="4" shape="1,1,1,1,1" size="4"/>
			<output>
				<port id="0" precision="FP32">
					<dim>1</dim>
					<dim>1</dim>
					<dim>1</dim>
					<dim>1</dim>
					<dim>1</dim>
				</port>
			</output>
		</layer>
		<layer id="2" name="2878288211287" type="Const" version="opset1">
			<data element_type="f32" offset="0" shape="1,1,1,1,1" size="4"/>
			<output>
				<port id="0" precision="FP32">
					<dim>1</dim>
					<dim>1</dim>
					<dim>1</dim>
					<dim>1</dim>
					<dim>1</dim>
				</port>
			</output>
		</layer>
		<layer id="3" name="2879288310882" type="Const" version="opset1">
			<data element_type="f32" offset="4" shape="1,1,1,1,1" size="4"/>
			<output>
				<port id="0" precision="FP32">
					<dim>1</dim>
					<dim>1</dim>
					<dim>1</dim>
					<dim>1</dim>
					<dim>1</dim>
				</port>
			</output>
		</layer>
		<layer id="4" name="data_add_113011130334017104912337" type="Const" version="opset1">
			<data element_type="f32" offset="8" shape="1,2,1,1,1" size="8"/>
			<output>
				<port id="0" precision="FP32">
					<dim>1</dim>
					<dim>2</dim>
					<dim>1</dim>
					<dim>1</dim>
					<dim>1</dim>
				</port>
			</output>
		</layer>
		<layer id="5" name="net/add_180/Fused_Add_/fq_input_1" type="FakeQuantize" version="opset1">
			<data auto_broadcast="numpy" levels="255"/>
			<input>
				<port id="0">
					<dim>1</dim>
					<dim>2</dim>
					<dim>1</dim>
					<dim>1</dim>
					<dim>1</dim>
				</port>
				<port id="1">
					<dim>1</dim>
					<dim>1</dim>
					<dim>1</dim>
					<dim>1</dim>
					<dim>1</dim>
				</port>
				<port id="2">
					<dim>1</dim>
					<dim>1</dim>
					<dim>1</dim>
					<dim>1</dim>
					<dim>1</dim>
				</port>
				<port id="3">
					<dim>1</dim>
					<dim>1</dim>
					<dim>1</dim>
					<dim>1</dim>
					<dim>1</dim>
				</port>
				<port id="4">
					<dim>1</dim>
					<dim>1</dim>
					<dim>1</dim>
					<dim>1</dim>
					<dim>1</dim>
				</port>
			</input>
			<output>
				<port id="5" precision="FP32">
					<dim>1</dim>
					<dim>2</dim>
					<dim>1</dim>
					<dim>1</dim>
					<dim>1</dim>
				</port>
			</output>
		</layer>
		<layer id="6" name="764433978104713282" type="Const" version="opset1">
			<data element_type="i64" offset="16" shape="5" size="40"/>
			<output>
				<port id="0" precision="I64">
					<dim>5</dim>
				</port>
			</output>
		</layer>
		<layer id="7" name="4772477611299" type="Const" version="opset1">
			<data element_type="f32" offset="56" shape="" size="4"/>
			<output>
				<port id="0" precision="FP32"/>
			</output>
		</layer>
		<layer id="8" name="4773477713048" type="Const" version="opset1">
			<data element_type="f32" offset="60" shape="" size="4"/>
			<output>
				<port id="0" precision="FP32"/>
			</output>
		</layer>
		<layer id="9" name="4774477813258" type="Const" version="opset1">
			<data element_type="f32" offset="56" shape="" size="4"/>
			<output>
				<port id="0" precision="FP32"/>
			</output>
		</layer>
		<layer id="10" name="4775477913345" type="Const" version="opset1">
			<data element_type="f32" offset="60" shape="" size="4"/>
			<output>
				<port id="0" precision="FP32"/>
			</output>
		</layer>
		<layer id="11" name="1383138512451" type="Const" version="opset1">
			<data element_type="f32" offset="64" shape="1,2,1,1,1" size="8"/>
			<output>
				<port id="0" precision="FP32">
					<dim>1</dim>
					<dim>2</dim>
					<dim>1</dim>
					<dim>1</dim>
					<dim>1</dim>
				</port>
			</output>
		</layer>
		<layer id="12" name="2726273011635" type="Const" version="opset1">
			<data element_type="f32" offset="72" shape="2,1,1,1,1" size="8"/>
			<output>
				<port id="0" precision="FP32">
					<dim>2</dim>
					<dim>1</dim>
					<dim>1</dim>
					<dim>1</dim>
					<dim>1</dim>
				</port>
			</output>
		</layer>
		<layer id="13" name="2727273111341" type="Const" version="opset1">
			<data element_type="f32" offset="80" shape="2,1,1,1,1" size="8"/>
			<output>
				<port id="0" precision="FP32">
					<dim>2</dim>
					<dim>1</dim>
					<dim>1</dim>
					<dim>1</dim>
					<dim>1</dim>
				</port>
			</output>
		</layer>
		<layer id="14" name="2728273211389" type="Const" version="opset1">
			<data element_type="f32" offset="72" shape="2,1,1,1,1" size="8"/>
			<output>
				<port id="0" precision="FP32">
					<dim>2</dim>
					<dim>1</dim>
					<dim>1</dim>
					<dim>1</dim>
					<dim>1</dim>
				</port>
			</output>
		</layer>
		<layer id="15" name="2729273311593" type="Const" version="opset1">
			<data element_type="f32" offset="80" shape="2,1,1,1,1" size="8"/>
			<output>
				<port id="0" precision="FP32">
					<dim>2</dim>
					<dim>1</dim>
					<dim>1</dim>
					<dim>1</dim>
					<dim>1</dim>
				</port>
			</output>
		</layer>
		<layer id="16" name="net/transpose_126104512916" type="Const" version="opset1">
			<data element_type="f32" offset="88" shape="2,150,1,1,1" size="1200"/>
			<output>
				<port id="0" names="net/transpose_126:0" precision="FP32">
					<dim>2</dim>
					<dim>150</dim>
					<dim>1</dim>
					<dim>1</dim>
					<dim>1</dim>
				</port>
			</output>
		</layer>
		<layer id="17" name="net/Conv3D_56/fq_weights_1" type="FakeQuantize" version="opset1">
			<data auto_broadcast="numpy" levels="255"/>
			<input>
				<port id="0">
					<dim>2</dim>
					<dim>150</dim>
					<dim>1</dim>
					<dim>1</dim>
					<dim>1</dim>
				</port>
				<port id="1">
					<dim>2</dim>
					<dim>1</dim>
					<dim>1</dim>
					<dim>1</dim>
					<dim>1</dim>
				</port>
				<port id="2">
					<dim>2</dim>
					<dim>1</dim>
					<dim>1</dim>
					<dim>1</dim>
					<dim>1</dim>
				</port>
				<port id="3">
					<dim>2</dim>
					<dim>1</dim>
					<dim>1</dim>
					<dim>1</dim>
					<dim>1</dim>
				</port>
				<port id="4">
					<dim>2</dim>
					<dim>1</dim>
					<dim>1</dim>
					<dim>1</dim>
					<dim>1</dim>
				</port>
			</input>
			<output>
				<port id="5" precision="FP32">
					<dim>2</dim>
					<dim>150</dim>
					<dim>1</dim>
					<dim>1</dim>
					<dim>1</dim>
				</port>
			</output>
		</layer>
		<layer id="18" name="net/transpose_131/perm104311215" type="Const" version="opset1">
			<data element_type="i64" offset="16" shape="5" size="40"/>
			<output>
				<port id="0" names="net/transpose_131/perm:0" precision="I64">
					<dim>5</dim>
				</port>
			</output>
		</layer>
		<layer id="19" name="4662466611887" type="Const" version="opset1">
			<data element_type="f32" offset="1288" shape="" size="4"/>
			<output>
				<port id="0" precision="FP32"/>
			</output>
		</layer>
		<layer id="20" name="4663466711311" type="Const" version="opset1">
			<data element_type="f32" offset="1292" shape="" size="4"/>
			<output>
				<port id="0" precision="FP32"/>
			</output>
		</layer>
		<layer id="21" name="4664466813543" type="Const" version="opset1">
			<data element_type="f32" offset="1288" shape="" size="4"/>
			<output>
				<port id="0" precision="FP32"/>
			</output>
		</layer>
		<layer id="22" name="4665466912769" type="Const" version="opset1">
			<data element_type="f32" offset="1292" shape="" size="4"/>
			<output>
				<port id="0" precision="FP32"/>
			</output>
		</layer>
		<layer id="23" name="2886289012541" type="Const" version="opset1">
			<data element_type="f32" offset="1296" shape="" size="4"/>
			<output>
				<port id="0" precision="FP32"/>
			</output>
		</layer>
		<layer id="24" name="2887289111716" type="Const" version="opset1">
			<data element_type="f32" offset="1300" shape="" size="4"/>
			<output>
				<port id="0" precision="FP32"/>
			</output>
		</layer>
		<layer id="25" name="2888289211641" type="Const" version="opset1">
			<data element_type="f32" offset="1296" shape="" size="4"/>
			<output>
				<port id="0" precision="FP32"/>
			</output>
		</layer>
		<layer id="26" name="2889289312973" type="Const" version="opset1">
			<data element_type="f32" offset="1300" shape="" size="4"/>
			<output>
				<port id="0" precision="FP32"/>
			</output>
		</layer>
		<layer id="27" name="3386339011275" type="Const" version="opset1">
			<data element_type="f32" offset="1304" shape="" size="4"/>
			<output>
				<port id="0" precision="FP32"/>
			</output>
		</layer>
		<layer id="28" name="3387339112103" type="Const" version="opset1">
			<data element_type="f32" offset="1308" shape="" size="4"/>
			<output>
				<port id="0" precision="FP32"/>
			</output>
		</layer>
		<layer id="29" name="3388339212274" type="Const" version="opset1">
			<data element_type="f32" offset="1304" shape="" size="4"/>
			<output>
				<port id="0" precision="FP32"/>
			</output>
		</layer>
		<layer id="30" name="3389339311296" type="Const" version="opset1">
			<data element_type="f32" offset="1308" shape="" size="4"/>
			<output>
				<port id="0" precision="FP32"/>
			</output>
		</layer>
		<layer id="31" name="3486349012544" type="Const" version="opset1">
			<data element_type="f32" offset="1312" shape="" size="4"/>
			<output>
				<port id="0" precision="FP32"/>
			</output>
		</layer>
		<layer id="32" name="3487349110939" type="Const" version="opset1">
			<data element_type="f32" offset="1316" shape="" size="4"/>
			<output>
				<port id="0" precision="FP32"/>
			</output>
		</layer>
		<layer id="33" name="3488349213390" type="Const" version="opset1">
			<data element_type="f32" offset="1312" shape="" size="4"/>
			<output>
				<port id="0" precision="FP32"/>
			</output>
		</layer>
		<layer id="34" name="3489349311941" type="Const" version="opset1">
			<data element_type="f32" offset="1316" shape="" size="4"/>
			<output>
				<port id="0" precision="FP32"/>
			</output>
		</layer>
		<layer id="35" name="3326333011971" type="Const" version="opset1">
			<data element_type="f32" offset="1320" shape="" size="4"/>
			<output>
				<port id="0" precision="FP32"/>
			</output>
		</layer>
		<layer id="36" name="3327333111308" type="Const" version="opset1">
			<data element_type="f32" offset="1324" shape="" size="4"/>
			<output>
				<port id="0" precision="FP32"/>
			</output>
		</layer>
		<layer id="37" name="3328333210864" type="Const" version="opset1">
			<data element_type="f32" offset="1320" shape="" size="4"/>
			<output>
				<port id="0" precision="FP32"/>
			</output>
		</layer>
		<layer id="38" name="3329333311743" type="Const" version="opset1">
			<data element_type="f32" offset="1324" shape="" size="4"/>
			<output>
				<port id="0" precision="FP32"/>
			</output>
		</layer>
		<layer id="39" name="data_mul_112891129334359103112091" type="Const" version="opset1">
			<data element_type="f32" offset="1328" shape="1,150,1,1,1" size="600"/>
			<output>
				<port id="0" precision="FP32">
					<dim>1</dim>
					<dim>150</dim>
					<dim>1</dim>
					<dim>1</dim>
					<dim>1</dim>
				</port>
			</output>
		</layer>
		<layer id="40" name="763634386102913171" type="Const" version="opset1">
			<data element_type="i64" offset="16" shape="5" size="40"/>
			<output>
				<port id="0" precision="I64">
					<dim>5</dim>
				</port>
			</output>
		</layer>
		<layer id="41" name="5172517611572" type="Const" version="opset1">
			<data element_type="f32" offset="1928" shape="" size="4"/>
			<output>
				<port id="0" precision="FP32"/>
			</output>
		</layer>
		<layer id="42" name="5173517713444" type="Const" version="opset1">
			<data element_type="f32" offset="1932" shape="" size="4"/>
			<output>
				<port id="0" precision="FP32"/>
			</output>
		</layer>
		<layer id="43" name="5174517813264" type="Const" version="opset1">
			<data element_type="f32" offset="1928" shape="" size="4"/>
			<output>
				<port id="0" precision="FP32"/>
			</output>
		</layer>
		<layer id="44" name="5175517912268" type="Const" version="opset1">
			<data element_type="f32" offset="1932" shape="" size="4"/>
			<output>
				<port id="0" precision="FP32"/>
			</output>
		</layer>
		<layer id="45" name="1379138111938" type="Const" version="opset1">
			<data element_type="f32" offset="1936" shape="1,150,1,1,1" size="600"/>
			<output>
				<port id="0" precision="FP32">
					<dim>1</dim>
					<dim>150</dim>
					<dim>1</dim>
					<dim>1</dim>
					<dim>1</dim>
				</port>
			</output>
		</layer>
		<layer id="46" name="1986199012124" type="Const" version="opset1">
			<data element_type="f32" offset="2536" shape="150,1,1,1,1" size="600"/>
			<output>
				<port id="0" precision="FP32">
					<dim>150</dim>
					<dim>1</dim>
					<dim>1</dim>
					<dim>1</dim>
					<dim>1</dim>
				</port>
			</output>
		</layer>
		<layer id="47" name="1987199111209" type="Const" version="opset1">
			<data element_type="f32" offset="3136" shape="150,1,1,1,1" size="600"/>
			<output>
				<port id="0" precision="FP32">
					<dim>150</dim>
					<dim>1</dim>
					<dim>1</dim>
					<dim>1</dim>
					<dim>1</dim>
				</port>
			</output>
		</layer>
		<layer id="48" name="1988199211086" type="Const" version="opset1">
			<data element_type="f32" offset="2536" shape="150,1,1,1,1" size="600"/>
			<output>
				<port id="0" precision="FP32">
					<dim>150</dim>
					<dim>1</dim>
					<dim>1</dim>
					<dim>1</dim>
					<dim>1</dim>
				</port>
			</output>
		</layer>
		<layer id="49" name="1989199312136" type="Const" version="opset1">
			<data element_type="f32" offset="3136" shape="150,1,1,1,1" size="600"/>
			<output>
				<port id="0" precision="FP32">
					<dim>150</dim>
					<dim>1</dim>
					<dim>1</dim>
					<dim>1</dim>
					<dim>1</dim>
				</port>
			</output>
		</layer>
		<layer id="50" name="net/transpose_119102713210" type="Const" version="opset1">
			<data element_type="f32" offset="3736" shape="150,150,1,1,1" size="90000"/>
			<output>
				<port id="0" names="net/transpose_119:0" precision="FP32">
					<dim>150</dim>
					<dim>150</dim>
					<dim>1</dim>
					<dim>1</dim>
					<dim>1</dim>
				</port>
			</output>
		</layer>
		<layer id="51" name="net/Conv3D_53/fq_weights_1" type="FakeQuantize" version="opset1">
			<data auto_broadcast="numpy" levels="255"/>
			<input>
				<port id="0">
					<dim>150</dim>
					<dim>150</dim>
					<dim>1</dim>
					<dim>1</dim>
					<dim>1</dim>
				</port>
				<port id="1">
					<dim>150</dim>
					<dim>1</dim>
					<dim>1</dim>
					<dim>1</dim>
					<dim>1</dim>
				</port>
				<port id="2">
					<dim>150</dim>
					<dim>1</dim>
					<dim>1</dim>
					<dim>1</dim>
					<dim>1</dim>
				</port>
				<port id="3">
					<dim>150</dim>
					<dim>1</dim>
					<dim>1</dim>
					<dim>1</dim>
					<dim>1</dim>
				</port>
				<port id="4">
					<dim>150</dim>
					<dim>1</dim>
					<dim>1</dim>
					<dim>1</dim>
					<dim>1</dim>
				</port>
			</input>
			<output>
				<port id="5" precision="FP32">
					<dim>150</dim>
					<dim>150</dim>
					<dim>1</dim>
					<dim>1</dim>
					<dim>1</dim>
				</port>
			</output>
		</layer>
		<layer id="52" name="net/transpose_124/perm102512652" type="Const" version="opset1">
			<data element_type="i64" offset="16" shape="5" size="40"/>
			<output>
				<port id="0" names="net/transpose_124/perm:0" precision="I64">
					<dim>5</dim>
				</port>
			</output>
		</layer>
		<layer id="53" name="4652465612067" type="Const" version="opset1">
			<data element_type="f32" offset="93736" shape="" size="4"/>
			<output>
				<port id="0" precision="FP32"/>
			</output>
		</layer>
		<layer id="54" name="4653465712817" type="Const" version="opset1">
			<data element_type="f32" offset="93740" shape="" size="4"/>
			<output>
				<port id="0" precision="FP32"/>
			</output>
		</layer>
		<layer id="55" name="4654465812787" type="Const" version="opset1">
			<data element_type="f32" offset="93736" shape="" size="4"/>
			<output>
				<port id="0" precision="FP32"/>
			</output>
		</layer>
		<layer id="56" name="4655465911347" type="Const" version="opset1">
			<data element_type="f32" offset="93740" shape="" size="4"/>
			<output>
				<port id="0" precision="FP32"/>
			</output>
		</layer>
		<layer id="57" name="2386239013273" type="Const" version="opset1">
			<data element_type="f32" offset="93744" shape="" size="4"/>
			<output>
				<port id="0" precision="FP32"/>
			</output>
		</layer>
		<layer id="58" name="2387239112988" type="Const" version="opset1">
			<data element_type="f32" offset="93748" shape="" size="4"/>
			<output>
				<port id="0" precision="FP32"/>
			</output>
		</layer>
		<layer id="59" name="2388239211227" type="Const" version="opset1">
			<data element_type="f32" offset="93744" shape="" size="4"/>
			<output>
				<port id="0" precision="FP32"/>
			</output>
		</layer>
		<layer id="60" name="2389239313042" type="Const" version="opset1">
			<data element_type="f32" offset="93748" shape="" size="4"/>
			<output>
				<port id="0" precision="FP32"/>
			</output>
		</layer>
		<layer id="61" name="3186319012277" type="Const" version="opset1">
			<data element_type="f32" offset="93752" shape="" size="4"/>
			<output>
				<port id="0" precision="FP32"/>
			</output>
		</layer>
		<layer id="62" name="3187319111830" type="Const" version="opset1">
			<data element_type="f32" offset="93756" shape="" size="4"/>
			<output>
				<port id="0" precision="FP32"/>
			</output>
		</layer>
		<layer id="63" name="3188319213306" type="Const" version="opset1">
			<data element_type="f32" offset="93752" shape="" size="4"/>
			<output>
				<port id="0" precision="FP32"/>
			</output>
		</layer>
		<layer id="64" name="3189319313012" type="Const" version="opset1">
			<data element_type="f32" offset="93756" shape="" size="4"/>
			<output>
				<port id="0" precision="FP32"/>
			</output>
		</layer>
		<layer id="65" name="2966297012604" type="Const" version="opset1">
			<data element_type="f32" offset="93760" shape="" size="4"/>
			<output>
				<port id="0" precision="FP32"/>
			</output>
		</layer>
		<layer id="66" name="2967297111017" type="Const" version="opset1">
			<data element_type="f32" offset="93764" shape="" size="4"/>
			<output>
				<port id="0" precision="FP32"/>
			</output>
		</layer>
		<layer id="67" name="2968297213384" type="Const" version="opset1">
			<data element_type="f32" offset="93760" shape="" size="4"/>
			<output>
				<port id="0" precision="FP32"/>
			</output>
		</layer>
		<layer id="68" name="2969297312796" type="Const" version="opset1">
			<data element_type="f32" offset="93764" shape="" size="4"/>
			<output>
				<port id="0" precision="FP32"/>
			</output>
		</layer>
		<layer id="69" name="3416342012871" type="Const" version="opset1">
			<data element_type="f32" offset="93768" shape="" size="4"/>
			<output>
				<port id="0" precision="FP32"/>
			</output>
		</layer>
		<layer id="70" name="3417342112331" type="Const" version="opset1">
			<data element_type="f32" offset="93772" shape="" size="4"/>
			<output>
				<port id="0" precision="FP32"/>
			</output>
		</layer>
		<layer id="71" name="3418342212979" type="Const" version="opset1">
			<data element_type="f32" offset="93768" shape="" size="4"/>
			<output>
				<port id="0" precision="FP32"/>
			</output>
		</layer>
		<layer id="72" name="3419342311242" type="Const" version="opset1">
			<data element_type="f32" offset="93772" shape="" size="4"/>
			<output>
				<port id="0" precision="FP32"/>
			</output>
		</layer>
		<layer id="73" name="data_mul_112771128134245101313120" type="Const" version="opset1">
			<data element_type="f32" offset="93776" shape="1,150,1,1,1" size="600"/>
			<output>
				<port id="0" precision="FP32">
					<dim>1</dim>
					<dim>150</dim>
					<dim>1</dim>
					<dim>1</dim>
					<dim>1</dim>
				</port>
			</output>
		</layer>
		<layer id="74" name="762834113101110783" type="Const" version="opset1">
			<data element_type="i64" offset="16" shape="5" size="40"/>
			<output>
				<port id="0" precision="I64">
					<dim>5</dim>
				</port>
			</output>
		</layer>
		<layer id="75" name="5152515611323" type="Const" version="opset1">
			<data element_type="f32" offset="94376" shape="" size="4"/>
			<output>
				<port id="0" precision="FP32"/>
			</output>
		</layer>
		<layer id="76" name="5153515711356" type="Const" version="opset1">
			<data element_type="f32" offset="94380" shape="" size="4"/>
			<output>
				<port id="0" precision="FP32"/>
			</output>
		</layer>
		<layer id="77" name="5154515812835" type="Const" version="opset1">
			<data element_type="f32" offset="94376" shape="" size="4"/>
			<output>
				<port id="0" precision="FP32"/>
			</output>
		</layer>
		<layer id="78" name="5155515912625" type="Const" version="opset1">
			<data element_type="f32" offset="94380" shape="" size="4"/>
			<output>
				<port id="0" precision="FP32"/>
			</output>
		</layer>
		<layer id="79" name="1375137711020" type="Const" version="opset1">
			<data element_type="f32" offset="1936" shape="1,150,1,1,1" size="600"/>
			<output>
				<port id="0" precision="FP32">
					<dim>1</dim>
					<dim>150</dim>
					<dim>1</dim>
					<dim>1</dim>
					<dim>1</dim>
				</port>
			</output>
		</layer>
		<layer id="80" name="2456246011047" type="Const" version="opset1">
			<data element_type="f32" offset="94384" shape="150,1,1,1,1" size="600"/>
			<output>
				<port id="0" precision="FP32">
					<dim>150</dim>
					<dim>1</dim>
					<dim>1</dim>
					<dim>1</dim>
					<dim>1</dim>
				</port>
			</output>
		</layer>
		<layer id="81" name="2457246113000" type="Const" version="opset1">
			<data element_type="f32" offset="94984" shape="150,1,1,1,1" size="600"/>
			<output>
				<port id="0" precision="FP32">
					<dim>150</dim>
					<dim>1</dim>
					<dim>1</dim>
					<dim>1</dim>
					<dim>1</dim>
				</port>
			</output>
		</layer>
		<layer id="82" name="2458246213414" type="Const" version="opset1">
			<data element_type="f32" offset="94384" shape="150,1,1,1,1" size="600"/>
			<output>
				<port id="0" precision="FP32">
					<dim>150</dim>
					<dim>1</dim>
					<dim>1</dim>
					<dim>1</dim>
					<dim>1</dim>
				</port>
			</output>
		</layer>
		<layer id="83" name="2459246310855" type="Const" version="opset1">
			<data element_type="f32" offset="94984" shape="150,1,1,1,1" size="600"/>
			<output>
				<port id="0" precision="FP32">
					<dim>150</dim>
					<dim>1</dim>
					<dim>1</dim>
					<dim>1</dim>
					<dim>1</dim>
				</port>
			</output>
		</layer>
		<layer id="84" name="net/transpose_112100912946" type="Const" version="opset1">
			<data element_type="f32" offset="95584" shape="150,100,1,1,1" size="60000"/>
			<output>
				<port id="0" names="net/transpose_112:0" precision="FP32">
					<dim>150</dim>
					<dim>100</dim>
					<dim>1</dim>
					<dim>1</dim>
					<dim>1</dim>
				</port>
			</output>
		</layer>
		<layer id="85" name="net/Conv3D_50/fq_weights_1" type="FakeQuantize" version="opset1">
			<data auto_broadcast="numpy" levels="255"/>
			<input>
				<port id="0">
					<dim>150</dim>
					<dim>100</dim>
					<dim>1</dim>
					<dim>1</dim>
					<dim>1</dim>
				</port>
				<port id="1">
					<dim>150</dim>
					<dim>1</dim>
					<dim>1</dim>
					<dim>1</dim>
					<dim>1</dim>
				</port>
				<port id="2">
					<dim>150</dim>
					<dim>1</dim>
					<dim>1</dim>
					<dim>1</dim>
					<dim>1</dim>
				</port>
				<port id="3">
					<dim>150</dim>
					<dim>1</dim>
					<dim>1</dim>
					<dim>1</dim>
					<dim>1</dim>
				</port>
				<port id="4">
					<dim>150</dim>
					<dim>1</dim>
					<dim>1</dim>
					<dim>1</dim>
					<dim>1</dim>
				</port>
			</input>
			<output>
				<port id="5" precision="FP32">
					<dim>150</dim>
					<dim>100</dim>
					<dim>1</dim>
					<dim>1</dim>
					<dim>1</dim>
				</port>
			</output>
		</layer>
		<layer id="86" name="net/transpose_117/perm100712001" type="Const" version="opset1">
			<data element_type="i64" offset="16" shape="5" size="40"/>
			<output>
				<port id="0" names="net/transpose_117/perm:0" precision="I64">
					<dim>5</dim>
				</port>
			</output>
		</layer>
		<layer id="87" name="4642464611584" type="Const" version="opset1">
			<data element_type="f32" offset="155584" shape="" size="4"/>
			<output>
				<port id="0" precision="FP32"/>
			</output>
		</layer>
		<layer id="88" name="4643464712346" type="Const" version="opset1">
			<data element_type="f32" offset="155588" shape="" size="4"/>
			<output>
				<port id="0" precision="FP32"/>
			</output>
		</layer>
		<layer id="89" name="4644464813147" type="Const" version="opset1">
			<data element_type="f32" offset="155584" shape="" size="4"/>
			<output>
				<port id="0" precision="FP32"/>
			</output>
		</layer>
		<layer id="90" name="4645464910807" type="Const" version="opset1">
			<data element_type="f32" offset="155588" shape="" size="4"/>
			<output>
				<port id="0" precision="FP32"/>
			</output>
		</layer>
		<layer id="91" name="3466347011281" type="Const" version="opset1">
			<data element_type="f32" offset="155592" shape="" size="4"/>
			<output>
				<port id="0" precision="FP32"/>
			</output>
		</layer>
		<layer id="92" name="3467347112637" type="Const" version="opset1">
			<data element_type="f32" offset="155596" shape="" size="4"/>
			<output>
				<port id="0" precision="FP32"/>
			</output>
		</layer>
		<layer id="93" name="3468347213324" type="Const" version="opset1">
			<data element_type="f32" offset="155592" shape="" size="4"/>
			<output>
				<port id="0" precision="FP32"/>
			</output>
		</layer>
		<layer id="94" name="3469347312115" type="Const" version="opset1">
			<data element_type="f32" offset="155596" shape="" size="4"/>
			<output>
				<port id="0" precision="FP32"/>
			</output>
		</layer>
		<layer id="95" name="2766277012283" type="Const" version="opset1">
			<data element_type="f32" offset="155600" shape="" size="4"/>
			<output>
				<port id="0" precision="FP32"/>
			</output>
		</layer>
		<layer id="96" name="2767277113195" type="Const" version="opset1">
			<data element_type="f32" offset="155604" shape="" size="4"/>
			<output>
				<port id="0" precision="FP32"/>
			</output>
		</layer>
		<layer id="97" name="2768277211752" type="Const" version="opset1">
			<data element_type="f32" offset="155600" shape="" size="4"/>
			<output>
				<port id="0" precision="FP32"/>
			</output>
		</layer>
		<layer id="98" name="2769277310954" type="Const" version="opset1">
			<data element_type="f32" offset="155604" shape="" size="4"/>
			<output>
				<port id="0" precision="FP32"/>
			</output>
		</layer>
		<layer id="99" name="2606261012442" type="Const" version="opset1">
			<data element_type="f32" offset="155608" shape="" size="4"/>
			<output>
				<port id="0" precision="FP32"/>
			</output>
		</layer>
		<layer id="100" name="2607261111590" type="Const" version="opset1">
			<data element_type="f32" offset="155612" shape="" size="4"/>
			<output>
				<port id="0" precision="FP32"/>
			</output>
		</layer>
		<layer id="101" name="2608261211407" type="Const" version="opset1">
			<data element_type="f32" offset="155608" shape="" size="4"/>
			<output>
				<port id="0" precision="FP32"/>
			</output>
		</layer>
		<layer id="102" name="2609261312931" type="Const" version="opset1">
			<data element_type="f32" offset="155612" shape="" size="4"/>
			<output>
				<port id="0" precision="FP32"/>
			</output>
		</layer>
		<layer id="103" name="data_mul_11265112693442299711404" type="Const" version="opset1">
			<data element_type="f32" offset="155616" shape="1,100,1,1,1" size="400"/>
			<output>
				<port id="0" precision="FP32">
					<dim>1</dim>
					<dim>100</dim>
					<dim>1</dim>
					<dim>1</dim>
					<dim>1</dim>
				</port>
			</output>
		</layer>
		<layer id="104" name="115099512064" type="Const" version="opset1">
			<data element_type="i64" offset="156016" shape="5" size="40"/>
			<output>
				<port id="0" precision="I64">
					<dim>5</dim>
				</port>
			</output>
		</layer>
		<layer id="105" name="11463428499213087" type="Const" version="opset1">
			<data element_type="i64" offset="156056" shape="3" size="24"/>
			<output>
				<port id="0" precision="I64">
					<dim>3</dim>
				</port>
			</output>
		</layer>
		<layer id="106" name="net/strided_slice_111/stack98812901" type="Const" version="opset1">
			<data element_type="i64" offset="156080" shape="5" size="40"/>
			<output>
				<port id="0" names="net/strided_slice_111/stack:0" precision="I64">
					<dim>5</dim>
				</port>
			</output>
		</layer>
		<layer id="107" name="net/strided_slice_111/stack_198912991" type="Const" version="opset1">
			<data element_type="i64" offset="156120" shape="5" size="40"/>
			<output>
				<port id="0" names="net/strided_slice_111/stack_1:0" precision="I64">
					<dim>5</dim>
				</port>
			</output>
		</layer>
		<layer id="108" name="net/strided_slice_111/stack_299010966" type="Const" version="opset1">
			<data element_type="i64" offset="156160" shape="5" size="40"/>
			<output>
				<port id="0" names="net/strided_slice_111/stack_2:0" precision="I64">
					<dim>5</dim>
				</port>
			</output>
		</layer>
		<layer id="109" name="net/Tile_8/multiples95611962" type="Const" version="opset1">
			<data element_type="i64" offset="156200" shape="5" size="40"/>
			<output>
				<port id="0" names="net/Tile_8/multiples:0" precision="I64">
					<dim>5</dim>
				</port>
			</output>
		</layer>
		<layer id="110" name="net/Tile_7/multiples89011614" type="Const" version="opset1">
			<data element_type="i64" offset="156240" shape="5" size="40"/>
			<output>
				<port id="0" names="net/Tile_7/multiples:0" precision="I64">
					<dim>5</dim>
				</port>
			</output>
		</layer>
		<layer id="111" name="net/Tile_6/multiples82413297" type="Const" version="opset1">
			<data element_type="i64" offset="156280" shape="5" size="40"/>
			<output>
				<port id="0" names="net/Tile_6/multiples:0" precision="I64">
					<dim>5</dim>
				</port>
			</output>
		</layer>
		<layer id="112" name="76203442578812385" type="Const" version="opset1">
			<data element_type="i64" offset="16" shape="5" size="40"/>
			<output>
				<port id="0" precision="I64">
					<dim>5</dim>
				</port>
			</output>
		</layer>
		<layer id="113" name="5122512611863" type="Const" version="opset1">
			<data element_type="f32" offset="156320" shape="" size="4"/>
			<output>
				<port id="0" precision="FP32"/>
			</output>
		</layer>
		<layer id="114" name="5123512710801" type="Const" version="opset1">
			<data element_type="f32" offset="156324" shape="" size="4"/>
			<output>
				<port id="0" precision="FP32"/>
			</output>
		</layer>
		<layer id="115" name="5124512811833" type="Const" version="opset1">
			<data element_type="f32" offset="156320" shape="" size="4"/>
			<output>
				<port id="0" precision="FP32"/>
			</output>
		</layer>
		<layer id="116" name="5125512913528" type="Const" version="opset1">
			<data element_type="f32" offset="156324" shape="" size="4"/>
			<output>
				<port id="0" precision="FP32"/>
			</output>
		</layer>
		<layer id="117" name="1371137311134" type="Const" version="opset1">
			<data element_type="f32" offset="156328" shape="1,50,1,1,1" size="200"/>
			<output>
				<port id="0" precision="FP32">
					<dim>1</dim>
					<dim>50</dim>
					<dim>1</dim>
					<dim>1</dim>
					<dim>1</dim>
				</port>
			</output>
		</layer>
		<layer id="118" name="2996300011452" type="Const" version="opset1">
			<data element_type="f32" offset="156528" shape="50,1,1,1,1" size="200"/>
			<output>
				<port id="0" precision="FP32">
					<dim>50</dim>
					<dim>1</dim>
					<dim>1</dim>
					<dim>1</dim>
					<dim>1</dim>
				</port>
			</output>
		</layer>
		<layer id="119" name="2997300112139" type="Const" version="opset1">
			<data element_type="f32" offset="156728" shape="50,1,1,1,1" size="200"/>
			<output>
				<port id="0" precision="FP32">
					<dim>50</dim>
					<dim>1</dim>
					<dim>1</dim>
					<dim>1</dim>
					<dim>1</dim>
				</port>
			</output>
		</layer>
		<layer id="120" name="2998300211101" type="Const" version="opset1">
			<data element_type="f32" offset="156528" shape="50,1,1,1,1" size="200"/>
			<output>
				<port id="0" precision="FP32">
					<dim>50</dim>
					<dim>1</dim>
					<dim>1</dim>
					<dim>1</dim>
					<dim>1</dim>
				</port>
			</output>
		</layer>
		<layer id="121" name="2999300312967" type="Const" version="opset1">
			<data element_type="f32" offset="156728" shape="50,1,1,1,1" size="200"/>
			<output>
				<port id="0" precision="FP32">
					<dim>50</dim>
					<dim>1</dim>
					<dim>1</dim>
					<dim>1</dim>
					<dim>1</dim>
				</port>
			</output>
		</layer>
		<layer id="122" name="net/transpose_10578613123" type="Const" version="opset1">
			<data element_type="f32" offset="156928" shape="50,50,3,3,3" size="270000"/>
			<output>
				<port id="0" names="net/transpose_105:0" precision="FP32">
					<dim>50</dim>
					<dim>50</dim>
					<dim>3</dim>
					<dim>3</dim>
					<dim>3</dim>
				</port>
			</output>
		</layer>
		<layer id="123" name="net/Conv3D_47/fq_weights_1" type="FakeQuantize" version="opset1">
			<data auto_broadcast="numpy" levels="255"/>
			<input>
				<port id="0">
					<dim>50</dim>
					<dim>50</dim>
					<dim>3</dim>
					<dim>3</dim>
					<dim>3</dim>
				</port>
				<port id="1">
					<dim>50</dim>
					<dim>1</dim>
					<dim>1</dim>
					<dim>1</dim>
					<dim>1</dim>
				</port>
				<port id="2">
					<dim>50</dim>
					<dim>1</dim>
					<dim>1</dim>
					<dim>1</dim>
					<dim>1</dim>
				</port>
				<port id="3">
					<dim>50</dim>
					<dim>1</dim>
					<dim>1</dim>
					<dim>1</dim>
					<dim>1</dim>
				</port>
				<port id="4">
					<dim>50</dim>
					<dim>1</dim>
					<dim>1</dim>
					<dim>1</dim>
					<dim>1</dim>
				</port>
			</input>
			<output>
				<port id="5" precision="FP32">
					<dim>50</dim>
					<dim>50</dim>
					<dim>3</dim>
					<dim>3</dim>
					<dim>3</dim>
				</port>
			</output>
		</layer>
		<layer id="124" name="net/transpose_110/perm78412187" type="Const" version="opset1">
			<data element_type="i64" offset="16" shape="5" size="40"/>
			<output>
				<port id="0" names="net/transpose_110/perm:0" precision="I64">
					<dim>5</dim>
				</port>
			</output>
		</layer>
		<layer id="125" name="4622462613366" type="Const" version="opset1">
			<data element_type="f32" offset="426928" shape="" size="4"/>
			<output>
				<port id="0" precision="FP32"/>
			</output>
		</layer>
		<layer id="126" name="4623462712526" type="Const" version="opset1">
			<data element_type="f32" offset="426932" shape="" size="4"/>
			<output>
				<port id="0" precision="FP32"/>
			</output>
		</layer>
		<layer id="127" name="4624462812628" type="Const" version="opset1">
			<data element_type="f32" offset="426928" shape="" size="4"/>
			<output>
				<port id="0" precision="FP32"/>
			</output>
		</layer>
		<layer id="128" name="4625462911845" type="Const" version="opset1">
			<data element_type="f32" offset="426932" shape="" size="4"/>
			<output>
				<port id="0" precision="FP32"/>
			</output>
		</layer>
		<layer id="129" name="3016302012235" type="Const" version="opset1">
			<data element_type="f32" offset="426936" shape="" size="4"/>
			<output>
				<port id="0" precision="FP32"/>
			</output>
		</layer>
		<layer id="130" name="3017302111107" type="Const" version="opset1">
			<data element_type="f32" offset="426940" shape="" size="4"/>
			<output>
				<port id="0" precision="FP32"/>
			</output>
		</layer>
		<layer id="131" name="3018302212157" type="Const" version="opset1">
			<data element_type="f32" offset="426936" shape="" size="4"/>
			<output>
				<port id="0" precision="FP32"/>
			</output>
		</layer>
		<layer id="132" name="3019302310936" type="Const" version="opset1">
			<data element_type="f32" offset="426940" shape="" size="4"/>
			<output>
				<port id="0" precision="FP32"/>
			</output>
		</layer>
		<layer id="133" name="2646265011956" type="Const" version="opset1">
			<data element_type="f32" offset="426944" shape="" size="4"/>
			<output>
				<port id="0" precision="FP32"/>
			</output>
		</layer>
		<layer id="134" name="2647265113105" type="Const" version="opset1">
			<data element_type="f32" offset="426948" shape="" size="4"/>
			<output>
				<port id="0" precision="FP32"/>
			</output>
		</layer>
		<layer id="135" name="2648265211269" type="Const" version="opset1">
			<data element_type="f32" offset="426944" shape="" size="4"/>
			<output>
				<port id="0" precision="FP32"/>
			</output>
		</layer>
		<layer id="136" name="2649265312244" type="Const" version="opset1">
			<data element_type="f32" offset="426948" shape="" size="4"/>
			<output>
				<port id="0" precision="FP32"/>
			</output>
		</layer>
		<layer id="137" name="2306231011329" type="Const" version="opset1">
			<data element_type="f32" offset="426952" shape="" size="4"/>
			<output>
				<port id="0" precision="FP32"/>
			</output>
		</layer>
		<layer id="138" name="2307231112325" type="Const" version="opset1">
			<data element_type="f32" offset="426956" shape="" size="4"/>
			<output>
				<port id="0" precision="FP32"/>
			</output>
		</layer>
		<layer id="139" name="2308231213507" type="Const" version="opset1">
			<data element_type="f32" offset="426952" shape="" size="4"/>
			<output>
				<port id="0" precision="FP32"/>
			</output>
		</layer>
		<layer id="140" name="2309231312529" type="Const" version="opset1">
			<data element_type="f32" offset="426956" shape="" size="4"/>
			<output>
				<port id="0" precision="FP32"/>
			</output>
		</layer>
		<layer id="141" name="data_mul_11169111733420077412130" type="Const" version="opset1">
			<data element_type="f32" offset="426960" shape="1,50,1,1,1" size="200"/>
			<output>
				<port id="0" precision="FP32">
					<dim>1</dim>
					<dim>50</dim>
					<dim>1</dim>
					<dim>1</dim>
					<dim>1</dim>
				</port>
			</output>
		</layer>
		<layer id="142" name="76123417077213234" type="Const" version="opset1">
			<data element_type="i64" offset="16" shape="5" size="40"/>
			<output>
				<port id="0" precision="I64">
					<dim>5</dim>
				</port>
			</output>
		</layer>
		<layer id="143" name="4972497613339" type="Const" version="opset1">
			<data element_type="f32" offset="427160" shape="" size="4"/>
			<output>
				<port id="0" precision="FP32"/>
			</output>
		</layer>
		<layer id="144" name="4973497711740" type="Const" version="opset1">
			<data element_type="f32" offset="427164" shape="" size="4"/>
			<output>
				<port id="0" precision="FP32"/>
			</output>
		</layer>
		<layer id="145" name="4974497810933" type="Const" version="opset1">
			<data element_type="f32" offset="427160" shape="" size="4"/>
			<output>
				<port id="0" precision="FP32"/>
			</output>
		</layer>
		<layer id="146" name="4975497911137" type="Const" version="opset1">
			<data element_type="f32" offset="427164" shape="" size="4"/>
			<output>
				<port id="0" precision="FP32"/>
			</output>
		</layer>
		<layer id="147" name="1367136913129" type="Const" version="opset1">
			<data element_type="f32" offset="156328" shape="1,50,1,1,1" size="200"/>
			<output>
				<port id="0" precision="FP32">
					<dim>1</dim>
					<dim>50</dim>
					<dim>1</dim>
					<dim>1</dim>
					<dim>1</dim>
				</port>
			</output>
		</layer>
		<layer id="148" name="2126213012379" type="Const" version="opset1">
			<data element_type="f32" offset="427168" shape="50,1,1,1,1" size="200"/>
			<output>
				<port id="0" precision="FP32">
					<dim>50</dim>
					<dim>1</dim>
					<dim>1</dim>
					<dim>1</dim>
					<dim>1</dim>
				</port>
			</output>
		</layer>
		<layer id="149" name="2127213112757" type="Const" version="opset1">
			<data element_type="f32" offset="427368" shape="50,1,1,1,1" size="200"/>
			<output>
				<port id="0" precision="FP32">
					<dim>50</dim>
					<dim>1</dim>
					<dim>1</dim>
					<dim>1</dim>
					<dim>1</dim>
				</port>
			</output>
		</layer>
		<layer id="150" name="2128213211842" type="Const" version="opset1">
			<data element_type="f32" offset="427168" shape="50,1,1,1,1" size="200"/>
			<output>
				<port id="0" precision="FP32">
					<dim>50</dim>
					<dim>1</dim>
					<dim>1</dim>
					<dim>1</dim>
					<dim>1</dim>
				</port>
			</output>
		</layer>
		<layer id="151" name="2129213312982" type="Const" version="opset1">
			<data element_type="f32" offset="427368" shape="50,1,1,1,1" size="200"/>
			<output>
				<port id="0" precision="FP32">
					<dim>50</dim>
					<dim>1</dim>
					<dim>1</dim>
					<dim>1</dim>
					<dim>1</dim>
				</port>
			</output>
		</layer>
		<layer id="152" name="net/transpose_9877011371" type="Const" version="opset1">
			<data element_type="f32" offset="427568" shape="50,40,3,3,3" size="216000"/>
			<output>
				<port id="0" names="net/transpose_98:0" precision="FP32">
					<dim>50</dim>
					<dim>40</dim>
					<dim>3</dim>
					<dim>3</dim>
					<dim>3</dim>
				</port>
			</output>
		</layer>
		<layer id="153" name="net/Conv3D_44/fq_weights_1" type="FakeQuantize" version="opset1">
			<data auto_broadcast="numpy" levels="255"/>
			<input>
				<port id="0">
					<dim>50</dim>
					<dim>40</dim>
					<dim>3</dim>
					<dim>3</dim>
					<dim>3</dim>
				</port>
				<port id="1">
					<dim>50</dim>
					<dim>1</dim>
					<dim>1</dim>
					<dim>1</dim>
					<dim>1</dim>
				</port>
				<port id="2">
					<dim>50</dim>
					<dim>1</dim>
					<dim>1</dim>
					<dim>1</dim>
					<dim>1</dim>
				</port>
				<port id="3">
					<dim>50</dim>
					<dim>1</dim>
					<dim>1</dim>
					<dim>1</dim>
					<dim>1</dim>
				</port>
				<port id="4">
					<dim>50</dim>
					<dim>1</dim>
					<dim>1</dim>
					<dim>1</dim>
					<dim>1</dim>
				</port>
			</input>
			<output>
				<port id="5" precision="FP32">
					<dim>50</dim>
					<dim>40</dim>
					<dim>3</dim>
					<dim>3</dim>
					<dim>3</dim>
				</port>
			</output>
		</layer>
		<layer id="154" name="net/transpose_103/perm76812088" type="Const" version="opset1">
			<data element_type="i64" offset="16" shape="5" size="40"/>
			<output>
				<port id="0" names="net/transpose_103/perm:0" precision="I64">
					<dim>5</dim>
				</port>
			</output>
		</layer>
		<layer id="155" name="4612461611521" type="Const" version="opset1">
			<data element_type="f32" offset="643568" shape="" size="4"/>
			<output>
				<port id="0" precision="FP32"/>
			</output>
		</layer>
		<layer id="156" name="4613461710960" type="Const" version="opset1">
			<data element_type="f32" offset="643572" shape="" size="4"/>
			<output>
				<port id="0" precision="FP32"/>
			</output>
		</layer>
		<layer id="157" name="4614461813039" type="Const" version="opset1">
			<data element_type="f32" offset="643568" shape="" size="4"/>
			<output>
				<port id="0" precision="FP32"/>
			</output>
		</layer>
		<layer id="158" name="4615461911692" type="Const" version="opset1">
			<data element_type="f32" offset="643572" shape="" size="4"/>
			<output>
				<port id="0" precision="FP32"/>
			</output>
		</layer>
		<layer id="159" name="2216222011539" type="Const" version="opset1">
			<data element_type="f32" offset="643576" shape="" size="4"/>
			<output>
				<port id="0" precision="FP32"/>
			</output>
		</layer>
		<layer id="160" name="2217222111491" type="Const" version="opset1">
			<data element_type="f32" offset="643580" shape="" size="4"/>
			<output>
				<port id="0" precision="FP32"/>
			</output>
		</layer>
		<layer id="161" name="2218222211710" type="Const" version="opset1">
			<data element_type="f32" offset="643576" shape="" size="4"/>
			<output>
				<port id="0" precision="FP32"/>
			</output>
		</layer>
		<layer id="162" name="2219222312997" type="Const" version="opset1">
			<data element_type="f32" offset="643580" shape="" size="4"/>
			<output>
				<port id="0" precision="FP32"/>
			</output>
		</layer>
		<layer id="163" name="3126313012028" type="Const" version="opset1">
			<data element_type="f32" offset="643584" shape="" size="4"/>
			<output>
				<port id="0" precision="FP32"/>
			</output>
		</layer>
		<layer id="164" name="3127313111737" type="Const" version="opset1">
			<data element_type="f32" offset="643588" shape="" size="4"/>
			<output>
				<port id="0" precision="FP32"/>
			</output>
		</layer>
		<layer id="165" name="3128313211263" type="Const" version="opset1">
			<data element_type="f32" offset="643584" shape="" size="4"/>
			<output>
				<port id="0" precision="FP32"/>
			</output>
		</layer>
		<layer id="166" name="3129313311449" type="Const" version="opset1">
			<data element_type="f32" offset="643588" shape="" size="4"/>
			<output>
				<port id="0" precision="FP32"/>
			</output>
		</layer>
		<layer id="167" name="2696270011257" type="Const" version="opset1">
			<data element_type="f32" offset="643592" shape="" size="4"/>
			<output>
				<port id="0" precision="FP32"/>
			</output>
		</layer>
		<layer id="168" name="2697270111872" type="Const" version="opset1">
			<data element_type="f32" offset="643596" shape="" size="4"/>
			<output>
				<port id="0" precision="FP32"/>
			</output>
		</layer>
		<layer id="169" name="2698270213285" type="Const" version="opset1">
			<data element_type="f32" offset="643592" shape="" size="4"/>
			<output>
				<port id="0" precision="FP32"/>
			</output>
		</layer>
		<layer id="170" name="2699270312880" type="Const" version="opset1">
			<data element_type="f32" offset="643596" shape="" size="4"/>
			<output>
				<port id="0" precision="FP32"/>
			</output>
		</layer>
		<layer id="171" name="data_mul_11157111613396975811035" type="Const" version="opset1">
			<data element_type="f32" offset="643600" shape="1,40,1,1,1" size="160"/>
			<output>
				<port id="0" precision="FP32">
					<dim>1</dim>
					<dim>40</dim>
					<dim>1</dim>
					<dim>1</dim>
					<dim>1</dim>
				</port>
			</output>
		</layer>
		<layer id="172" name="76043471975610792" type="Const" version="opset1">
			<data element_type="i64" offset="16" shape="5" size="40"/>
			<output>
				<port id="0" precision="I64">
					<dim>5</dim>
				</port>
			</output>
		</layer>
		<layer id="173" name="4962496611896" type="Const" version="opset1">
			<data element_type="f32" offset="643760" shape="" size="4"/>
			<output>
				<port id="0" precision="FP32"/>
			</output>
		</layer>
		<layer id="174" name="4963496711722" type="Const" version="opset1">
			<data element_type="f32" offset="643764" shape="" size="4"/>
			<output>
				<port id="0" precision="FP32"/>
			</output>
		</layer>
		<layer id="175" name="4964496813426" type="Const" version="opset1">
			<data element_type="f32" offset="643760" shape="" size="4"/>
			<output>
				<port id="0" precision="FP32"/>
			</output>
		</layer>
		<layer id="176" name="4965496912922" type="Const" version="opset1">
			<data element_type="f32" offset="643764" shape="" size="4"/>
			<output>
				<port id="0" precision="FP32"/>
			</output>
		</layer>
		<layer id="177" name="1363136513519" type="Const" version="opset1">
			<data element_type="f32" offset="643768" shape="1,40,1,1,1" size="160"/>
			<output>
				<port id="0" precision="FP32">
					<dim>1</dim>
					<dim>40</dim>
					<dim>1</dim>
					<dim>1</dim>
					<dim>1</dim>
				</port>
			</output>
		</layer>
		<layer id="178" name="3296330010804" type="Const" version="opset1">
			<data element_type="f32" offset="643928" shape="40,1,1,1,1" size="160"/>
			<output>
				<port id="0" precision="FP32">
					<dim>40</dim>
					<dim>1</dim>
					<dim>1</dim>
					<dim>1</dim>
					<dim>1</dim>
				</port>
			</output>
		</layer>
		<layer id="179" name="3297330111632" type="Const" version="opset1">
			<data element_type="f32" offset="644088" shape="40,1,1,1,1" size="160"/>
			<output>
				<port id="0" precision="FP32">
					<dim>40</dim>
					<dim>1</dim>
					<dim>1</dim>
					<dim>1</dim>
					<dim>1</dim>
				</port>
			</output>
		</layer>
		<layer id="180" name="3298330213372" type="Const" version="opset1">
			<data element_type="f32" offset="643928" shape="40,1,1,1,1" size="160"/>
			<output>
				<port id="0" precision="FP32">
					<dim>40</dim>
					<dim>1</dim>
					<dim>1</dim>
					<dim>1</dim>
					<dim>1</dim>
				</port>
			</output>
		</layer>
		<layer id="181" name="3299330311302" type="Const" version="opset1">
			<data element_type="f32" offset="644088" shape="40,1,1,1,1" size="160"/>
			<output>
				<port id="0" precision="FP32">
					<dim>40</dim>
					<dim>1</dim>
					<dim>1</dim>
					<dim>1</dim>
					<dim>1</dim>
				</port>
			</output>
		</layer>
		<layer id="182" name="net/transpose_9175412145" type="Const" version="opset1">
			<data element_type="f32" offset="644248" shape="40,40,3,3,3" size="172800"/>
			<output>
				<port id="0" names="net/transpose_91:0" precision="FP32">
					<dim>40</dim>
					<dim>40</dim>
					<dim>3</dim>
					<dim>3</dim>
					<dim>3</dim>
				</port>
			</output>
		</layer>
		<layer id="183" name="net/Conv3D_41/fq_weights_1" type="FakeQuantize" version="opset1">
			<data auto_broadcast="numpy" levels="255"/>
			<input>
				<port id="0">
					<dim>40</dim>
					<dim>40</dim>
					<dim>3</dim>
					<dim>3</dim>
					<dim>3</dim>
				</port>
				<port id="1">
					<dim>40</dim>
					<dim>1</dim>
					<dim>1</dim>
					<dim>1</dim>
					<dim>1</dim>
				</port>
				<port id="2">
					<dim>40</dim>
					<dim>1</dim>
					<dim>1</dim>
					<dim>1</dim>
					<dim>1</dim>
				</port>
				<port id="3">
					<dim>40</dim>
					<dim>1</dim>
					<dim>1</dim>
					<dim>1</dim>
					<dim>1</dim>
				</port>
				<port id="4">
					<dim>40</dim>
					<dim>1</dim>
					<dim>1</dim>
					<dim>1</dim>
					<dim>1</dim>
				</port>
			</input>
			<output>
				<port id="5" precision="FP32">
					<dim>40</dim>
					<dim>40</dim>
					<dim>3</dim>
					<dim>3</dim>
					<dim>3</dim>
				</port>
			</output>
		</layer>
		<layer id="184" name="net/transpose_96/perm75211104" type="Const" version="opset1">
			<data element_type="i64" offset="16" shape="5" size="40"/>
			<output>
				<port id="0" names="net/transpose_96/perm:0" precision="I64">
					<dim>5</dim>
				</port>
			</output>
		</layer>
		<layer id="185" name="4602460613447" type="Const" version="opset1">
			<data element_type="f32" offset="817048" shape="" size="4"/>
			<output>
				<port id="0" precision="FP32"/>
			</output>
		</layer>
		<layer id="186" name="4603460711044" type="Const" version="opset1">
			<data element_type="f32" offset="817052" shape="" size="4"/>
			<output>
				<port id="0" precision="FP32"/>
			</output>
		</layer>
		<layer id="187" name="4604460813255" type="Const" version="opset1">
			<data element_type="f32" offset="817048" shape="" size="4"/>
			<output>
				<port id="0" precision="FP32"/>
			</output>
		</layer>
		<layer id="188" name="4605460912076" type="Const" version="opset1">
			<data element_type="f32" offset="817052" shape="" size="4"/>
			<output>
				<port id="0" precision="FP32"/>
			</output>
		</layer>
		<layer id="189" name="3096310011089" type="Const" version="opset1">
			<data element_type="f32" offset="817056" shape="" size="4"/>
			<output>
				<port id="0" precision="FP32"/>
			</output>
		</layer>
		<layer id="190" name="3097310111605" type="Const" version="opset1">
			<data element_type="f32" offset="817060" shape="" size="4"/>
			<output>
				<port id="0" precision="FP32"/>
			</output>
		</layer>
		<layer id="191" name="3098310211338" type="Const" version="opset1">
			<data element_type="f32" offset="817056" shape="" size="4"/>
			<output>
				<port id="0" precision="FP32"/>
			</output>
		</layer>
		<layer id="192" name="3099310311290" type="Const" version="opset1">
			<data element_type="f32" offset="817060" shape="" size="4"/>
			<output>
				<port id="0" precision="FP32"/>
			</output>
		</layer>
		<layer id="193" name="2156216011563" type="Const" version="opset1">
			<data element_type="f32" offset="817064" shape="" size="4"/>
			<output>
				<port id="0" precision="FP32"/>
			</output>
		</layer>
		<layer id="194" name="2157216112538" type="Const" version="opset1">
			<data element_type="f32" offset="817068" shape="" size="4"/>
			<output>
				<port id="0" precision="FP32"/>
			</output>
		</layer>
		<layer id="195" name="2158216212838" type="Const" version="opset1">
			<data element_type="f32" offset="817064" shape="" size="4"/>
			<output>
				<port id="0" precision="FP32"/>
			</output>
		</layer>
		<layer id="196" name="2159216312382" type="Const" version="opset1">
			<data element_type="f32" offset="817068" shape="" size="4"/>
			<output>
				<port id="0" precision="FP32"/>
			</output>
		</layer>
		<layer id="197" name="2786279013318" type="Const" version="opset1">
			<data element_type="f32" offset="817072" shape="" size="4"/>
			<output>
				<port id="0" precision="FP32"/>
			</output>
		</layer>
		<layer id="198" name="2787279110894" type="Const" version="opset1">
			<data element_type="f32" offset="817076" shape="" size="4"/>
			<output>
				<port id="0" precision="FP32"/>
			</output>
		</layer>
		<layer id="199" name="2788279211050" type="Const" version="opset1">
			<data element_type="f32" offset="817072" shape="" size="4"/>
			<output>
				<port id="0" precision="FP32"/>
			</output>
		</layer>
		<layer id="200" name="2789279313552" type="Const" version="opset1">
			<data element_type="f32" offset="817076" shape="" size="4"/>
			<output>
				<port id="0" precision="FP32"/>
			</output>
		</layer>
		<layer id="201" name="data_mul_11145111493462674211392" type="Const" version="opset1">
			<data element_type="f32" offset="817080" shape="1,40,1,1,1" size="160"/>
			<output>
				<port id="0" precision="FP32">
					<dim>1</dim>
					<dim>40</dim>
					<dim>1</dim>
					<dim>1</dim>
					<dim>1</dim>
				</port>
			</output>
		</layer>
		<layer id="202" name="75963453674012907" type="Const" version="opset1">
			<data element_type="i64" offset="16" shape="5" size="40"/>
			<output>
				<port id="0" precision="I64">
					<dim>5</dim>
				</port>
			</output>
		</layer>
		<layer id="203" name="4952495611161" type="Const" version="opset1">
			<data element_type="f32" offset="817240" shape="" size="4"/>
			<output>
				<port id="0" precision="FP32"/>
			</output>
		</layer>
		<layer id="204" name="4953495712460" type="Const" version="opset1">
			<data element_type="f32" offset="817244" shape="" size="4"/>
			<output>
				<port id="0" precision="FP32"/>
			</output>
		</layer>
		<layer id="205" name="4954495812808" type="Const" version="opset1">
			<data element_type="f32" offset="817240" shape="" size="4"/>
			<output>
				<port id="0" precision="FP32"/>
			</output>
		</layer>
		<layer id="206" name="4955495913270" type="Const" version="opset1">
			<data element_type="f32" offset="817244" shape="" size="4"/>
			<output>
				<port id="0" precision="FP32"/>
			</output>
		</layer>
		<layer id="207" name="1359136111149" type="Const" version="opset1">
			<data element_type="f32" offset="643768" shape="1,40,1,1,1" size="160"/>
			<output>
				<port id="0" precision="FP32">
					<dim>1</dim>
					<dim>40</dim>
					<dim>1</dim>
					<dim>1</dim>
					<dim>1</dim>
				</port>
			</output>
		</layer>
		<layer id="208" name="2676268010840" type="Const" version="opset1">
			<data element_type="f32" offset="817248" shape="40,1,1,1,1" size="160"/>
			<output>
				<port id="0" precision="FP32">
					<dim>40</dim>
					<dim>1</dim>
					<dim>1</dim>
					<dim>1</dim>
					<dim>1</dim>
				</port>
			</output>
		</layer>
		<layer id="209" name="2677268112661" type="Const" version="opset1">
			<data element_type="f32" offset="817408" shape="40,1,1,1,1" size="160"/>
			<output>
				<port id="0" precision="FP32">
					<dim>40</dim>
					<dim>1</dim>
					<dim>1</dim>
					<dim>1</dim>
					<dim>1</dim>
				</port>
			</output>
		</layer>
		<layer id="210" name="2678268211851" type="Const" version="opset1">
			<data element_type="f32" offset="817248" shape="40,1,1,1,1" size="160"/>
			<output>
				<port id="0" precision="FP32">
					<dim>40</dim>
					<dim>1</dim>
					<dim>1</dim>
					<dim>1</dim>
					<dim>1</dim>
				</port>
			</output>
		</layer>
		<layer id="211" name="2679268312457" type="Const" version="opset1">
			<data element_type="f32" offset="817408" shape="40,1,1,1,1" size="160"/>
			<output>
				<port id="0" precision="FP32">
					<dim>40</dim>
					<dim>1</dim>
					<dim>1</dim>
					<dim>1</dim>
					<dim>1</dim>
				</port>
			</output>
		</layer>
		<layer id="212" name="net/transpose_8473812253" type="Const" version="opset1">
			<data element_type="f32" offset="817568" shape="40,40,3,3,3" size="172800"/>
			<output>
				<port id="0" names="net/transpose_84:0" precision="FP32">
					<dim>40</dim>
					<dim>40</dim>
					<dim>3</dim>
					<dim>3</dim>
					<dim>3</dim>
				</port>
			</output>
		</layer>
		<layer id="213" name="net/Conv3D_38/fq_weights_1" type="FakeQuantize" version="opset1">
			<data auto_broadcast="numpy" levels="255"/>
			<input>
				<port id="0">
					<dim>40</dim>
					<dim>40</dim>
					<dim>3</dim>
					<dim>3</dim>
					<dim>3</dim>
				</port>
				<port id="1">
					<dim>40</dim>
					<dim>1</dim>
					<dim>1</dim>
					<dim>1</dim>
					<dim>1</dim>
				</port>
				<port id="2">
					<dim>40</dim>
					<dim>1</dim>
					<dim>1</dim>
					<dim>1</dim>
					<dim>1</dim>
				</port>
				<port id="3">
					<dim>40</dim>
					<dim>1</dim>
					<dim>1</dim>
					<dim>1</dim>
					<dim>1</dim>
				</port>
				<port id="4">
					<dim>40</dim>
					<dim>1</dim>
					<dim>1</dim>
					<dim>1</dim>
					<dim>1</dim>
				</port>
			</input>
			<output>
				<port id="5" precision="FP32">
					<dim>40</dim>
					<dim>40</dim>
					<dim>3</dim>
					<dim>3</dim>
					<dim>3</dim>
				</port>
			</output>
		</layer>
		<layer id="214" name="net/transpose_89/perm73612328" type="Const" version="opset1">
			<data element_type="i64" offset="16" shape="5" size="40"/>
			<output>
				<port id="0" names="net/transpose_89/perm:0" precision="I64">
					<dim>5</dim>
				</port>
			</output>
		</layer>
		<layer id="215" name="4592459612286" type="Const" version="opset1">
			<data element_type="f32" offset="990368" shape="" size="4"/>
			<output>
				<port id="0" precision="FP32"/>
			</output>
		</layer>
		<layer id="216" name="4593459713237" type="Const" version="opset1">
			<data element_type="f32" offset="990372" shape="" size="4"/>
			<output>
				<port id="0" precision="FP32"/>
			</output>
		</layer>
		<layer id="217" name="4594459811980" type="Const" version="opset1">
			<data element_type="f32" offset="990368" shape="" size="4"/>
			<output>
				<port id="0" precision="FP32"/>
			</output>
		</layer>
		<layer id="218" name="4595459913411" type="Const" version="opset1">
			<data element_type="f32" offset="990372" shape="" size="4"/>
			<output>
				<port id="0" precision="FP32"/>
			</output>
		</layer>
		<layer id="219" name="3256326010975" type="Const" version="opset1">
			<data element_type="f32" offset="990376" shape="" size="4"/>
			<output>
				<port id="0" precision="FP32"/>
			</output>
		</layer>
		<layer id="220" name="3257326112499" type="Const" version="opset1">
			<data element_type="f32" offset="990380" shape="" size="4"/>
			<output>
				<port id="0" precision="FP32"/>
			</output>
		</layer>
		<layer id="221" name="3258326212595" type="Const" version="opset1">
			<data element_type="f32" offset="990376" shape="" size="4"/>
			<output>
				<port id="0" precision="FP32"/>
			</output>
		</layer>
		<layer id="222" name="3259326311902" type="Const" version="opset1">
			<data element_type="f32" offset="990380" shape="" size="4"/>
			<output>
				<port id="0" precision="FP32"/>
			</output>
		</layer>
		<layer id="223" name="2286229013558" type="Const" version="opset1">
			<data element_type="f32" offset="990384" shape="" size="4"/>
			<output>
				<port id="0" precision="FP32"/>
			</output>
		</layer>
		<layer id="224" name="2287229112718" type="Const" version="opset1">
			<data element_type="f32" offset="990388" shape="" size="4"/>
			<output>
				<port id="0" precision="FP32"/>
			</output>
		</layer>
		<layer id="225" name="2288229212898" type="Const" version="opset1">
			<data element_type="f32" offset="990384" shape="" size="4"/>
			<output>
				<port id="0" precision="FP32"/>
			</output>
		</layer>
		<layer id="226" name="2289229311083" type="Const" version="opset1">
			<data element_type="f32" offset="990388" shape="" size="4"/>
			<output>
				<port id="0" precision="FP32"/>
			</output>
		</layer>
		<layer id="227" name="3026303011482" type="Const" version="opset1">
			<data element_type="f32" offset="990392" shape="" size="4"/>
			<output>
				<port id="0" precision="FP32"/>
			</output>
		</layer>
		<layer id="228" name="3027303113498" type="Const" version="opset1">
			<data element_type="f32" offset="990396" shape="" size="4"/>
			<output>
				<port id="0" precision="FP32"/>
			</output>
		</layer>
		<layer id="229" name="3028303212547" type="Const" version="opset1">
			<data element_type="f32" offset="990392" shape="" size="4"/>
			<output>
				<port id="0" precision="FP32"/>
			</output>
		</layer>
		<layer id="230" name="3029303312376" type="Const" version="opset1">
			<data element_type="f32" offset="990396" shape="" size="4"/>
			<output>
				<port id="0" precision="FP32"/>
			</output>
		</layer>
		<layer id="231" name="data_mul_11133111373434772612361" type="Const" version="opset1">
			<data element_type="f32" offset="990400" shape="1,40,1,1,1" size="160"/>
			<output>
				<port id="0" precision="FP32">
					<dim>1</dim>
					<dim>40</dim>
					<dim>1</dim>
					<dim>1</dim>
					<dim>1</dim>
				</port>
			</output>
		</layer>
		<layer id="232" name="75883470472413222" type="Const" version="opset1">
			<data element_type="i64" offset="16" shape="5" size="40"/>
			<output>
				<port id="0" precision="I64">
					<dim>5</dim>
				</port>
			</output>
		</layer>
		<layer id="233" name="4942494611977" type="Const" version="opset1">
			<data element_type="f32" offset="990560" shape="" size="4"/>
			<output>
				<port id="0" precision="FP32"/>
			</output>
		</layer>
		<layer id="234" name="4943494713336" type="Const" version="opset1">
			<data element_type="f32" offset="990564" shape="" size="4"/>
			<output>
				<port id="0" precision="FP32"/>
			</output>
		</layer>
		<layer id="235" name="4944494811503" type="Const" version="opset1">
			<data element_type="f32" offset="990560" shape="" size="4"/>
			<output>
				<port id="0" precision="FP32"/>
			</output>
		</layer>
		<layer id="236" name="4945494911413" type="Const" version="opset1">
			<data element_type="f32" offset="990564" shape="" size="4"/>
			<output>
				<port id="0" precision="FP32"/>
			</output>
		</layer>
		<layer id="237" name="1355135713510" type="Const" version="opset1">
			<data element_type="f32" offset="643768" shape="1,40,1,1,1" size="160"/>
			<output>
				<port id="0" precision="FP32">
					<dim>1</dim>
					<dim>40</dim>
					<dim>1</dim>
					<dim>1</dim>
					<dim>1</dim>
				</port>
			</output>
		</layer>
		<layer id="238" name="3076308012643" type="Const" version="opset1">
			<data element_type="f32" offset="990568" shape="40,1,1,1,1" size="160"/>
			<output>
				<port id="0" precision="FP32">
					<dim>40</dim>
					<dim>1</dim>
					<dim>1</dim>
					<dim>1</dim>
					<dim>1</dim>
				</port>
			</output>
		</layer>
		<layer id="239" name="3077308112034" type="Const" version="opset1">
			<data element_type="f32" offset="990728" shape="40,1,1,1,1" size="160"/>
			<output>
				<port id="0" precision="FP32">
					<dim>40</dim>
					<dim>1</dim>
					<dim>1</dim>
					<dim>1</dim>
					<dim>1</dim>
				</port>
			</output>
		</layer>
		<layer id="240" name="3078308212826" type="Const" version="opset1">
			<data element_type="f32" offset="990568" shape="40,1,1,1,1" size="160"/>
			<output>
				<port id="0" precision="FP32">
					<dim>40</dim>
					<dim>1</dim>
					<dim>1</dim>
					<dim>1</dim>
					<dim>1</dim>
				</port>
			</output>
		</layer>
		<layer id="241" name="3079308313201" type="Const" version="opset1">
			<data element_type="f32" offset="990728" shape="40,1,1,1,1" size="160"/>
			<output>
				<port id="0" precision="FP32">
					<dim>40</dim>
					<dim>1</dim>
					<dim>1</dim>
					<dim>1</dim>
					<dim>1</dim>
				</port>
			</output>
		</layer>
		<layer id="242" name="net/transpose_7772212592" type="Const" version="opset1">
			<data element_type="f32" offset="990888" shape="40,40,3,3,3" size="172800"/>
			<output>
				<port id="0" names="net/transpose_77:0" precision="FP32">
					<dim>40</dim>
					<dim>40</dim>
					<dim>3</dim>
					<dim>3</dim>
					<dim>3</dim>
				</port>
			</output>
		</layer>
		<layer id="243" name="net/Conv3D_35/fq_weights_1" type="FakeQuantize" version="opset1">
			<data auto_broadcast="numpy" levels="255"/>
			<input>
				<port id="0">
					<dim>40</dim>
					<dim>40</dim>
					<dim>3</dim>
					<dim>3</dim>
					<dim>3</dim>
				</port>
				<port id="1">
					<dim>40</dim>
					<dim>1</dim>
					<dim>1</dim>
					<dim>1</dim>
					<dim>1</dim>
				</port>
				<port id="2">
					<dim>40</dim>
					<dim>1</dim>
					<dim>1</dim>
					<dim>1</dim>
					<dim>1</dim>
				</port>
				<port id="3">
					<dim>40</dim>
					<dim>1</dim>
					<dim>1</dim>
					<dim>1</dim>
					<dim>1</dim>
				</port>
				<port id="4">
					<dim>40</dim>
					<dim>1</dim>
					<dim>1</dim>
					<dim>1</dim>
					<dim>1</dim>
				</port>
			</input>
			<output>
				<port id="5" precision="FP32">
					<dim>40</dim>
					<dim>40</dim>
					<dim>3</dim>
					<dim>3</dim>
					<dim>3</dim>
				</port>
			</output>
		</layer>
		<layer id="244" name="net/transpose_82/perm72012841" type="Const" version="opset1">
			<data element_type="i64" offset="16" shape="5" size="40"/>
			<output>
				<port id="0" names="net/transpose_82/perm:0" precision="I64">
					<dim>5</dim>
				</port>
			</output>
		</layer>
		<layer id="245" name="4582458613183" type="Const" version="opset1">
			<data element_type="f32" offset="1163688" shape="" size="4"/>
			<output>
				<port id="0" precision="FP32"/>
			</output>
		</layer>
		<layer id="246" name="4583458713501" type="Const" version="opset1">
			<data element_type="f32" offset="1163692" shape="" size="4"/>
			<output>
				<port id="0" precision="FP32"/>
			</output>
		</layer>
		<layer id="247" name="4584458811644" type="Const" version="opset1">
			<data element_type="f32" offset="1163688" shape="" size="4"/>
			<output>
				<port id="0" precision="FP32"/>
			</output>
		</layer>
		<layer id="248" name="4585458912061" type="Const" version="opset1">
			<data element_type="f32" offset="1163692" shape="" size="4"/>
			<output>
				<port id="0" precision="FP32"/>
			</output>
		</layer>
		<layer id="249" name="3216322013150" type="Const" version="opset1">
			<data element_type="f32" offset="1163688" shape="" size="4"/>
			<output>
				<port id="0" precision="FP32"/>
			</output>
		</layer>
		<layer id="250" name="3217322112667" type="Const" version="opset1">
			<data element_type="f32" offset="1163696" shape="" size="4"/>
			<output>
				<port id="0" precision="FP32"/>
			</output>
		</layer>
		<layer id="251" name="3218322212148" type="Const" version="opset1">
			<data element_type="f32" offset="1163688" shape="" size="4"/>
			<output>
				<port id="0" precision="FP32"/>
			</output>
		</layer>
		<layer id="252" name="3219322310951" type="Const" version="opset1">
			<data element_type="f32" offset="1163696" shape="" size="4"/>
			<output>
				<port id="0" precision="FP32"/>
			</output>
		</layer>
		<layer id="253" name="2846285012151" type="Const" version="opset1">
			<data element_type="f32" offset="1163700" shape="" size="4"/>
			<output>
				<port id="0" precision="FP32"/>
			</output>
		</layer>
		<layer id="254" name="2847285111557" type="Const" version="opset1">
			<data element_type="f32" offset="1163704" shape="" size="4"/>
			<output>
				<port id="0" precision="FP32"/>
			</output>
		</layer>
		<layer id="255" name="2848285211395" type="Const" version="opset1">
			<data element_type="f32" offset="1163700" shape="" size="4"/>
			<output>
				<port id="0" precision="FP32"/>
			</output>
		</layer>
		<layer id="256" name="2849285312613" type="Const" version="opset1">
			<data element_type="f32" offset="1163704" shape="" size="4"/>
			<output>
				<port id="0" precision="FP32"/>
			</output>
		</layer>
		<layer id="257" name="2406241013489" type="Const" version="opset1">
			<data element_type="f32" offset="1163708" shape="" size="4"/>
			<output>
				<port id="0" precision="FP32"/>
			</output>
		</layer>
		<layer id="258" name="2407241113429" type="Const" version="opset1">
			<data element_type="f32" offset="1163712" shape="" size="4"/>
			<output>
				<port id="0" precision="FP32"/>
			</output>
		</layer>
		<layer id="259" name="2408241212010" type="Const" version="opset1">
			<data element_type="f32" offset="1163708" shape="" size="4"/>
			<output>
				<port id="0" precision="FP32"/>
			</output>
		</layer>
		<layer id="260" name="2409241312781" type="Const" version="opset1">
			<data element_type="f32" offset="1163712" shape="" size="4"/>
			<output>
				<port id="0" precision="FP32"/>
			</output>
		</layer>
		<layer id="261" name="data_mul_11121111253421571012745" type="Const" version="opset1">
			<data element_type="f32" offset="1163716" shape="1,40,1,1,1" size="160"/>
			<output>
				<port id="0" precision="FP32">
					<dim>1</dim>
					<dim>40</dim>
					<dim>1</dim>
					<dim>1</dim>
					<dim>1</dim>
				</port>
			</output>
		</layer>
		<layer id="262" name="75803396070811014" type="Const" version="opset1">
			<data element_type="i64" offset="16" shape="5" size="40"/>
			<output>
				<port id="0" precision="I64">
					<dim>5</dim>
				</port>
			</output>
		</layer>
		<layer id="263" name="4932493612106" type="Const" version="opset1">
			<data element_type="f32" offset="1163876" shape="" size="4"/>
			<output>
				<port id="0" precision="FP32"/>
			</output>
		</layer>
		<layer id="264" name="4933493712484" type="Const" version="opset1">
			<data element_type="f32" offset="1163880" shape="" size="4"/>
			<output>
				<port id="0" precision="FP32"/>
			</output>
		</layer>
		<layer id="265" name="4934493812037" type="Const" version="opset1">
			<data element_type="f32" offset="1163876" shape="" size="4"/>
			<output>
				<port id="0" precision="FP32"/>
			</output>
		</layer>
		<layer id="266" name="4935493911527" type="Const" version="opset1">
			<data element_type="f32" offset="1163880" shape="" size="4"/>
			<output>
				<port id="0" precision="FP32"/>
			</output>
		</layer>
		<layer id="267" name="1351135313357" type="Const" version="opset1">
			<data element_type="f32" offset="643768" shape="1,40,1,1,1" size="160"/>
			<output>
				<port id="0" precision="FP32">
					<dim>1</dim>
					<dim>40</dim>
					<dim>1</dim>
					<dim>1</dim>
					<dim>1</dim>
				</port>
			</output>
		</layer>
		<layer id="268" name="3446345012682" type="Const" version="opset1">
			<data element_type="f32" offset="1163884" shape="40,1,1,1,1" size="160"/>
			<output>
				<port id="0" precision="FP32">
					<dim>40</dim>
					<dim>1</dim>
					<dim>1</dim>
					<dim>1</dim>
					<dim>1</dim>
				</port>
			</output>
		</layer>
		<layer id="269" name="3447345111419" type="Const" version="opset1">
			<data element_type="f32" offset="1164044" shape="40,1,1,1,1" size="160"/>
			<output>
				<port id="0" precision="FP32">
					<dim>40</dim>
					<dim>1</dim>
					<dim>1</dim>
					<dim>1</dim>
					<dim>1</dim>
				</port>
			</output>
		</layer>
		<layer id="270" name="3448345211950" type="Const" version="opset1">
			<data element_type="f32" offset="1163884" shape="40,1,1,1,1" size="160"/>
			<output>
				<port id="0" precision="FP32">
					<dim>40</dim>
					<dim>1</dim>
					<dim>1</dim>
					<dim>1</dim>
					<dim>1</dim>
				</port>
			</output>
		</layer>
		<layer id="271" name="3449345311410" type="Const" version="opset1">
			<data element_type="f32" offset="1164044" shape="40,1,1,1,1" size="160"/>
			<output>
				<port id="0" precision="FP32">
					<dim>40</dim>
					<dim>1</dim>
					<dim>1</dim>
					<dim>1</dim>
					<dim>1</dim>
				</port>
			</output>
		</layer>
		<layer id="272" name="net/transpose_7070611620" type="Const" version="opset1">
			<data element_type="f32" offset="1164204" shape="40,30,3,3,3" size="129600"/>
			<output>
				<port id="0" names="net/transpose_70:0" precision="FP32">
					<dim>40</dim>
					<dim>30</dim>
					<dim>3</dim>
					<dim>3</dim>
					<dim>3</dim>
				</port>
			</output>
		</layer>
		<layer id="273" name="net/Conv3D_32/fq_weights_1" type="FakeQuantize" version="opset1">
			<data auto_broadcast="numpy" levels="255"/>
			<input>
				<port id="0">
					<dim>40</dim>
					<dim>30</dim>
					<dim>3</dim>
					<dim>3</dim>
					<dim>3</dim>
				</port>
				<port id="1">
					<dim>40</dim>
					<dim>1</dim>
					<dim>1</dim>
					<dim>1</dim>
					<dim>1</dim>
				</port>
				<port id="2">
					<dim>40</dim>
					<dim>1</dim>
					<dim>1</dim>
					<dim>1</dim>
					<dim>1</dim>
				</port>
				<port id="3">
					<dim>40</dim>
					<dim>1</dim>
					<dim>1</dim>
					<dim>1</dim>
					<dim>1</dim>
				</port>
				<port id="4">
					<dim>40</dim>
					<dim>1</dim>
					<dim>1</dim>
					<dim>1</dim>
					<dim>1</dim>
				</port>
			</input>
			<output>
				<port id="5" precision="FP32">
					<dim>40</dim>
					<dim>30</dim>
					<dim>3</dim>
					<dim>3</dim>
					<dim>3</dim>
				</port>
			</output>
		</layer>
		<layer id="274" name="net/transpose_75/perm70412598" type="Const" version="opset1">
			<data element_type="i64" offset="16" shape="5" size="40"/>
			<output>
				<port id="0" names="net/transpose_75/perm:0" precision="I64">
					<dim>5</dim>
				</port>
			</output>
		</layer>
		<layer id="275" name="4572457611077" type="Const" version="opset1">
			<data element_type="f32" offset="1163688" shape="" size="4"/>
			<output>
				<port id="0" precision="FP32"/>
			</output>
		</layer>
		<layer id="276" name="4573457711920" type="Const" version="opset1">
			<data element_type="f32" offset="1293804" shape="" size="4"/>
			<output>
				<port id="0" precision="FP32"/>
			</output>
		</layer>
		<layer id="277" name="4574457811026" type="Const" version="opset1">
			<data element_type="f32" offset="1163688" shape="" size="4"/>
			<output>
				<port id="0" precision="FP32"/>
			</output>
		</layer>
		<layer id="278" name="4575457911029" type="Const" version="opset1">
			<data element_type="f32" offset="1293804" shape="" size="4"/>
			<output>
				<port id="0" precision="FP32"/>
			</output>
		</layer>
		<layer id="279" name="2006201012481" type="Const" version="opset1">
			<data element_type="f32" offset="1163688" shape="" size="4"/>
			<output>
				<port id="0" precision="FP32"/>
			</output>
		</layer>
		<layer id="280" name="2007201113363" type="Const" version="opset1">
			<data element_type="f32" offset="1293808" shape="" size="4"/>
			<output>
				<port id="0" precision="FP32"/>
			</output>
		</layer>
		<layer id="281" name="2008201211443" type="Const" version="opset1">
			<data element_type="f32" offset="1163688" shape="" size="4"/>
			<output>
				<port id="0" precision="FP32"/>
			</output>
		</layer>
		<layer id="282" name="2009201311074" type="Const" version="opset1">
			<data element_type="f32" offset="1293808" shape="" size="4"/>
			<output>
				<port id="0" precision="FP32"/>
			</output>
		</layer>
		<layer id="283" name="2926293012097" type="Const" version="opset1">
			<data element_type="f32" offset="1293812" shape="" size="4"/>
			<output>
				<port id="0" precision="FP32"/>
			</output>
		</layer>
		<layer id="284" name="2927293112607" type="Const" version="opset1">
			<data element_type="f32" offset="1293816" shape="" size="4"/>
			<output>
				<port id="0" precision="FP32"/>
			</output>
		</layer>
		<layer id="285" name="2928293211320" type="Const" version="opset1">
			<data element_type="f32" offset="1293812" shape="" size="4"/>
			<output>
				<port id="0" precision="FP32"/>
			</output>
		</layer>
		<layer id="286" name="2929293312133" type="Const" version="opset1">
			<data element_type="f32" offset="1293816" shape="" size="4"/>
			<output>
				<port id="0" precision="FP32"/>
			</output>
		</layer>
		<layer id="287" name="3146315011827" type="Const" version="opset1">
			<data element_type="f32" offset="1293820" shape="" size="4"/>
			<output>
				<port id="0" precision="FP32"/>
			</output>
		</layer>
		<layer id="288" name="3147315111569" type="Const" version="opset1">
			<data element_type="f32" offset="1293824" shape="" size="4"/>
			<output>
				<port id="0" precision="FP32"/>
			</output>
		</layer>
		<layer id="289" name="3148315211170" type="Const" version="opset1">
			<data element_type="f32" offset="1293820" shape="" size="4"/>
			<output>
				<port id="0" precision="FP32"/>
			</output>
		</layer>
		<layer id="290" name="3149315311542" type="Const" version="opset1">
			<data element_type="f32" offset="1293824" shape="" size="4"/>
			<output>
				<port id="0" precision="FP32"/>
			</output>
		</layer>
		<layer id="291" name="data_mul_11109111133450669412583" type="Const" version="opset1">
			<data element_type="f32" offset="1293828" shape="1,30,1,1,1" size="120"/>
			<output>
				<port id="0" precision="FP32">
					<dim>1</dim>
					<dim>30</dim>
					<dim>1</dim>
					<dim>1</dim>
					<dim>1</dim>
				</port>
			</output>
		</layer>
		<layer id="292" name="75723461469211185" type="Const" version="opset1">
			<data element_type="i64" offset="16" shape="5" size="40"/>
			<output>
				<port id="0" precision="I64">
					<dim>5</dim>
				</port>
			</output>
		</layer>
		<layer id="293" name="4922492613033" type="Const" version="opset1">
			<data element_type="f32" offset="1293948" shape="" size="4"/>
			<output>
				<port id="0" precision="FP32"/>
			</output>
		</layer>
		<layer id="294" name="4923492712631" type="Const" version="opset1">
			<data element_type="f32" offset="1293952" shape="" size="4"/>
			<output>
				<port id="0" precision="FP32"/>
			</output>
		</layer>
		<layer id="295" name="4924492811926" type="Const" version="opset1">
			<data element_type="f32" offset="1293948" shape="" size="4"/>
			<output>
				<port id="0" precision="FP32"/>
			</output>
		</layer>
		<layer id="296" name="4925492912316" type="Const" version="opset1">
			<data element_type="f32" offset="1293952" shape="" size="4"/>
			<output>
				<port id="0" precision="FP32"/>
			</output>
		</layer>
		<layer id="297" name="1347134912112" type="Const" version="opset1">
			<data element_type="f32" offset="1293956" shape="1,30,1,1,1" size="120"/>
			<output>
				<port id="0" precision="FP32">
					<dim>1</dim>
					<dim>30</dim>
					<dim>1</dim>
					<dim>1</dim>
					<dim>1</dim>
				</port>
			</output>
		</layer>
		<layer id="298" name="2596260010786" type="Const" version="opset1">
			<data element_type="f32" offset="1294076" shape="30,1,1,1,1" size="120"/>
			<output>
				<port id="0" precision="FP32">
					<dim>30</dim>
					<dim>1</dim>
					<dim>1</dim>
					<dim>1</dim>
					<dim>1</dim>
				</port>
			</output>
		</layer>
		<layer id="299" name="2597260113267" type="Const" version="opset1">
			<data element_type="f32" offset="1294196" shape="30,1,1,1,1" size="120"/>
			<output>
				<port id="0" precision="FP32">
					<dim>30</dim>
					<dim>1</dim>
					<dim>1</dim>
					<dim>1</dim>
					<dim>1</dim>
				</port>
			</output>
		</layer>
		<layer id="300" name="2598260212463" type="Const" version="opset1">
			<data element_type="f32" offset="1294076" shape="30,1,1,1,1" size="120"/>
			<output>
				<port id="0" precision="FP32">
					<dim>30</dim>
					<dim>1</dim>
					<dim>1</dim>
					<dim>1</dim>
					<dim>1</dim>
				</port>
			</output>
		</layer>
		<layer id="301" name="2599260313186" type="Const" version="opset1">
			<data element_type="f32" offset="1294196" shape="30,1,1,1,1" size="120"/>
			<output>
				<port id="0" precision="FP32">
					<dim>30</dim>
					<dim>1</dim>
					<dim>1</dim>
					<dim>1</dim>
					<dim>1</dim>
				</port>
			</output>
		</layer>
		<layer id="302" name="net/transpose_6369011719" type="Const" version="opset1">
			<data element_type="f32" offset="1294316" shape="30,30,3,3,3" size="97200"/>
			<output>
				<port id="0" names="net/transpose_63:0" precision="FP32">
					<dim>30</dim>
					<dim>30</dim>
					<dim>3</dim>
					<dim>3</dim>
					<dim>3</dim>
				</port>
			</output>
		</layer>
		<layer id="303" name="net/Conv3D_29/fq_weights_1" type="FakeQuantize" version="opset1">
			<data auto_broadcast="numpy" levels="255"/>
			<input>
				<port id="0">
					<dim>30</dim>
					<dim>30</dim>
					<dim>3</dim>
					<dim>3</dim>
					<dim>3</dim>
				</port>
				<port id="1">
					<dim>30</dim>
					<dim>1</dim>
					<dim>1</dim>
					<dim>1</dim>
					<dim>1</dim>
				</port>
				<port id="2">
					<dim>30</dim>
					<dim>1</dim>
					<dim>1</dim>
					<dim>1</dim>
					<dim>1</dim>
				</port>
				<port id="3">
					<dim>30</dim>
					<dim>1</dim>
					<dim>1</dim>
					<dim>1</dim>
					<dim>1</dim>
				</port>
				<port id="4">
					<dim>30</dim>
					<dim>1</dim>
					<dim>1</dim>
					<dim>1</dim>
					<dim>1</dim>
				</port>
			</input>
			<output>
				<port id="5" precision="FP32">
					<dim>30</dim>
					<dim>30</dim>
					<dim>3</dim>
					<dim>3</dim>
					<dim>3</dim>
				</port>
			</output>
		</layer>
		<layer id="304" name="net/transpose_68/perm68813327" type="Const" version="opset1">
			<data element_type="i64" offset="16" shape="5" size="40"/>
			<output>
				<port id="0" names="net/transpose_68/perm:0" precision="I64">
					<dim>5</dim>
				</port>
			</output>
		</layer>
		<layer id="305" name="4562456612370" type="Const" version="opset1">
			<data element_type="f32" offset="1391516" shape="" size="4"/>
			<output>
				<port id="0" precision="FP32"/>
			</output>
		</layer>
		<layer id="306" name="4563456710990" type="Const" version="opset1">
			<data element_type="f32" offset="1391520" shape="" size="4"/>
			<output>
				<port id="0" precision="FP32"/>
			</output>
		</layer>
		<layer id="307" name="4564456812403" type="Const" version="opset1">
			<data element_type="f32" offset="1391516" shape="" size="4"/>
			<output>
				<port id="0" precision="FP32"/>
			</output>
		</layer>
		<layer id="308" name="4565456912829" type="Const" version="opset1">
			<data element_type="f32" offset="1391520" shape="" size="4"/>
			<output>
				<port id="0" precision="FP32"/>
			</output>
		</layer>
		<layer id="309" name="2506251011893" type="Const" version="opset1">
			<data element_type="f32" offset="1391524" shape="" size="4"/>
			<output>
				<port id="0" precision="FP32"/>
			</output>
		</layer>
		<layer id="310" name="2507251111515" type="Const" version="opset1">
			<data element_type="f32" offset="1391528" shape="" size="4"/>
			<output>
				<port id="0" precision="FP32"/>
			</output>
		</layer>
		<layer id="311" name="2508251211668" type="Const" version="opset1">
			<data element_type="f32" offset="1391524" shape="" size="4"/>
			<output>
				<port id="0" precision="FP32"/>
			</output>
		</layer>
		<layer id="312" name="2509251311581" type="Const" version="opset1">
			<data element_type="f32" offset="1391528" shape="" size="4"/>
			<output>
				<port id="0" precision="FP32"/>
			</output>
		</layer>
		<layer id="313" name="2256226012250" type="Const" version="opset1">
			<data element_type="f32" offset="1391532" shape="" size="4"/>
			<output>
				<port id="0" precision="FP32"/>
			</output>
		</layer>
		<layer id="314" name="2257226111179" type="Const" version="opset1">
			<data element_type="f32" offset="1391536" shape="" size="4"/>
			<output>
				<port id="0" precision="FP32"/>
			</output>
		</layer>
		<layer id="315" name="2258226210813" type="Const" version="opset1">
			<data element_type="f32" offset="1391532" shape="" size="4"/>
			<output>
				<port id="0" precision="FP32"/>
			</output>
		</layer>
		<layer id="316" name="2259226312178" type="Const" version="opset1">
			<data element_type="f32" offset="1391536" shape="" size="4"/>
			<output>
				<port id="0" precision="FP32"/>
			</output>
		</layer>
		<layer id="317" name="2806281013024" type="Const" version="opset1">
			<data element_type="f32" offset="1391540" shape="" size="4"/>
			<output>
				<port id="0" precision="FP32"/>
			</output>
		</layer>
		<layer id="318" name="2807281112397" type="Const" version="opset1">
			<data element_type="f32" offset="1391544" shape="" size="4"/>
			<output>
				<port id="0" precision="FP32"/>
			</output>
		</layer>
		<layer id="319" name="2808281213060" type="Const" version="opset1">
			<data element_type="f32" offset="1391540" shape="" size="4"/>
			<output>
				<port id="0" precision="FP32"/>
			</output>
		</layer>
		<layer id="320" name="2809281313168" type="Const" version="opset1">
			<data element_type="f32" offset="1391544" shape="" size="4"/>
			<output>
				<port id="0" precision="FP32"/>
			</output>
		</layer>
		<layer id="321" name="data_mul_111013430567813462" type="Const" version="opset1">
			<data element_type="f32" offset="1391548" shape="1,30,1,1,1" size="120"/>
			<output>
				<port id="0" precision="FP32">
					<dim>1</dim>
					<dim>30</dim>
					<dim>1</dim>
					<dim>1</dim>
					<dim>1</dim>
				</port>
			</output>
		</layer>
		<layer id="322" name="75643452767613057" type="Const" version="opset1">
			<data element_type="i64" offset="16" shape="5" size="40"/>
			<output>
				<port id="0" precision="I64">
					<dim>5</dim>
				</port>
			</output>
		</layer>
		<layer id="323" name="4912491613312" type="Const" version="opset1">
			<data element_type="f32" offset="1391668" shape="" size="4"/>
			<output>
				<port id="0" precision="FP32"/>
			</output>
		</layer>
		<layer id="324" name="4913491711854" type="Const" version="opset1">
			<data element_type="f32" offset="1391672" shape="" size="4"/>
			<output>
				<port id="0" precision="FP32"/>
			</output>
		</layer>
		<layer id="325" name="4914491811695" type="Const" version="opset1">
			<data element_type="f32" offset="1391668" shape="" size="4"/>
			<output>
				<port id="0" precision="FP32"/>
			</output>
		</layer>
		<layer id="326" name="4915491912340" type="Const" version="opset1">
			<data element_type="f32" offset="1391672" shape="" size="4"/>
			<output>
				<port id="0" precision="FP32"/>
			</output>
		</layer>
		<layer id="327" name="1343134512658" type="Const" version="opset1">
			<data element_type="f32" offset="1293956" shape="1,30,1,1,1" size="120"/>
			<output>
				<port id="0" precision="FP32">
					<dim>1</dim>
					<dim>30</dim>
					<dim>1</dim>
					<dim>1</dim>
					<dim>1</dim>
				</port>
			</output>
		</layer>
		<layer id="328" name="3366337010912" type="Const" version="opset1">
			<data element_type="f32" offset="1391676" shape="30,1,1,1,1" size="120"/>
			<output>
				<port id="0" precision="FP32">
					<dim>30</dim>
					<dim>1</dim>
					<dim>1</dim>
					<dim>1</dim>
					<dim>1</dim>
				</port>
			</output>
		</layer>
		<layer id="329" name="3367337111596" type="Const" version="opset1">
			<data element_type="f32" offset="1391796" shape="30,1,1,1,1" size="120"/>
			<output>
				<port id="0" precision="FP32">
					<dim>30</dim>
					<dim>1</dim>
					<dim>1</dim>
					<dim>1</dim>
					<dim>1</dim>
				</port>
			</output>
		</layer>
		<layer id="330" name="3368337213495" type="Const" version="opset1">
			<data element_type="f32" offset="1391916" shape="30,1,1,1,1" size="120"/>
			<output>
				<port id="0" precision="FP32">
					<dim>30</dim>
					<dim>1</dim>
					<dim>1</dim>
					<dim>1</dim>
					<dim>1</dim>
				</port>
			</output>
		</layer>
		<layer id="331" name="3369337313405" type="Const" version="opset1">
			<data element_type="f32" offset="1392036" shape="30,1,1,1,1" size="120"/>
			<output>
				<port id="0" precision="FP32">
					<dim>30</dim>
					<dim>1</dim>
					<dim>1</dim>
					<dim>1</dim>
					<dim>1</dim>
				</port>
			</output>
		</layer>
		<layer id="332" name="net/transpose_5667412127" type="Const" version="opset1">
			<data element_type="f32" offset="1392156" shape="30,1,3,3,3" size="3240"/>
			<output>
				<port id="0" names="net/transpose_56:0" precision="FP32">
					<dim>30</dim>
					<dim>1</dim>
					<dim>3</dim>
					<dim>3</dim>
					<dim>3</dim>
				</port>
			</output>
		</layer>
		<layer id="333" name="net/Conv3D_26/fq_weights_1" type="FakeQuantize" version="opset1">
			<data auto_broadcast="numpy" levels="255"/>
			<input>
				<port id="0">
					<dim>30</dim>
					<dim>1</dim>
					<dim>3</dim>
					<dim>3</dim>
					<dim>3</dim>
				</port>
				<port id="1">
					<dim>30</dim>
					<dim>1</dim>
					<dim>1</dim>
					<dim>1</dim>
					<dim>1</dim>
				</port>
				<port id="2">
					<dim>30</dim>
					<dim>1</dim>
					<dim>1</dim>
					<dim>1</dim>
					<dim>1</dim>
				</port>
				<port id="3">
					<dim>30</dim>
					<dim>1</dim>
					<dim>1</dim>
					<dim>1</dim>
					<dim>1</dim>
				</port>
				<port id="4">
					<dim>30</dim>
					<dim>1</dim>
					<dim>1</dim>
					<dim>1</dim>
					<dim>1</dim>
				</port>
			</input>
			<output>
				<port id="5" precision="FP32">
					<dim>30</dim>
					<dim>1</dim>
					<dim>3</dim>
					<dim>3</dim>
					<dim>3</dim>
				</port>
			</output>
		</layer>
		<layer id="334" name="net/transpose_61/perm67211671" type="Const" version="opset1">
			<data element_type="i64" offset="16" shape="5" size="40"/>
			<output>
				<port id="0" names="net/transpose_61/perm:0" precision="I64">
					<dim>5</dim>
				</port>
			</output>
		</layer>
		<layer id="335" name="4552455612760" type="Const" version="opset1">
			<data element_type="f32" offset="1395396" shape="" size="4"/>
			<output>
				<port id="0" precision="FP32"/>
			</output>
		</layer>
		<layer id="336" name="4553455711167" type="Const" version="opset1">
			<data element_type="f32" offset="1395400" shape="" size="4"/>
			<output>
				<port id="0" precision="FP32"/>
			</output>
		</layer>
		<layer id="337" name="4554455812232" type="Const" version="opset1">
			<data element_type="f32" offset="1395396" shape="" size="4"/>
			<output>
				<port id="0" precision="FP32"/>
			</output>
		</layer>
		<layer id="338" name="4555455913066" type="Const" version="opset1">
			<data element_type="f32" offset="1395400" shape="" size="4"/>
			<output>
				<port id="0" precision="FP32"/>
			</output>
		</layer>
		<layer id="339" name="net/inp_x_sub_0_test" type="Parameter" version="opset1">
			<data element_type="f32" shape="10,1,26,26,26"/>
			<output>
				<port id="0" names="net/inp_x_sub_0_test:0" precision="FP32">
					<dim>10</dim>
					<dim>1</dim>
					<dim>26</dim>
					<dim>26</dim>
					<dim>26</dim>
				</port>
			</output>
		</layer>
		<layer id="340" name="net/Reshape_5067011467" type="Const" version="opset1">
			<data element_type="f32" offset="1395404" shape="1,1,1,1,1" size="4"/>
			<output>
				<port id="0" names="net/Reshape_50:0" precision="FP32">
					<dim>1</dim>
					<dim>1</dim>
					<dim>1</dim>
					<dim>1</dim>
					<dim>1</dim>
				</port>
			</output>
		</layer>
		<layer id="341" name="net/add_75" type="Add" version="opset1">
			<data auto_broadcast="numpy"/>
			<input>
				<port id="0">
					<dim>10</dim>
					<dim>1</dim>
					<dim>26</dim>
					<dim>26</dim>
					<dim>26</dim>
				</port>
				<port id="1">
					<dim>1</dim>
					<dim>1</dim>
					<dim>1</dim>
					<dim>1</dim>
					<dim>1</dim>
				</port>
			</input>
			<output>
				<port id="2" names="net/add_75:0" precision="FP32">
					<dim>10</dim>
					<dim>1</dim>
					<dim>26</dim>
					<dim>26</dim>
					<dim>26</dim>
				</port>
			</output>
		</layer>
		<layer id="342" name="net/transpose_61/fq_input_0" type="FakeQuantize" version="opset1">
			<data auto_broadcast="numpy" levels="256"/>
			<input>
				<port id="0">
					<dim>10</dim>
					<dim>1</dim>
					<dim>26</dim>
					<dim>26</dim>
					<dim>26</dim>
				</port>
				<port id="1"/>
				<port id="2"/>
				<port id="3"/>
				<port id="4"/>
			</input>
			<output>
				<port id="5" precision="FP32">
					<dim>10</dim>
					<dim>1</dim>
					<dim>26</dim>
					<dim>26</dim>
					<dim>26</dim>
				</port>
			</output>
		</layer>
		<layer id="343" name="net/transpose_61" type="Transpose" version="opset1">
			<input>
				<port id="0">
					<dim>10</dim>
					<dim>1</dim>
					<dim>26</dim>
					<dim>26</dim>
					<dim>26</dim>
				</port>
				<port id="1">
					<dim>5</dim>
				</port>
			</input>
			<output>
				<port id="2" names="net/transpose_61:0" precision="FP32">
					<dim>10</dim>
					<dim>1</dim>
					<dim>26</dim>
					<dim>26</dim>
					<dim>26</dim>
				</port>
			</output>
		</layer>
		<layer id="344" name="net/Conv3D_26" type="Convolution" version="opset1">
			<data auto_pad="valid" dilations="1,1,1" pads_begin="0,0,0" pads_end="0,0,0" strides="1,1,1"/>
			<input>
				<port id="0">
					<dim>10</dim>
					<dim>1</dim>
					<dim>26</dim>
					<dim>26</dim>
					<dim>26</dim>
				</port>
				<port id="1">
					<dim>30</dim>
					<dim>1</dim>
					<dim>3</dim>
					<dim>3</dim>
					<dim>3</dim>
				</port>
			</input>
			<output>
				<port id="2" precision="FP32">
					<dim>10</dim>
					<dim>30</dim>
					<dim>24</dim>
					<dim>24</dim>
					<dim>24</dim>
				</port>
			</output>
		</layer>
		<layer id="345" name="net/Conv3D_26/add_" type="Add" version="opset1">
			<data auto_broadcast="numpy"/>
			<input>
				<port id="0">
					<dim>10</dim>
					<dim>30</dim>
					<dim>24</dim>
					<dim>24</dim>
					<dim>24</dim>
				</port>
				<port id="1">
					<dim>1</dim>
					<dim>30</dim>
					<dim>1</dim>
					<dim>1</dim>
					<dim>1</dim>
				</port>
			</input>
			<output>
				<port id="2" precision="FP32">
					<dim>10</dim>
					<dim>30</dim>
					<dim>24</dim>
					<dim>24</dim>
					<dim>24</dim>
				</port>
			</output>
		</layer>
		<layer id="346" name="net/Conv3D_26/output_transpose/fq_input_0" type="FakeQuantize" version="opset1">
			<data auto_broadcast="numpy" levels="256"/>
			<input>
				<port id="0">
					<dim>10</dim>
					<dim>30</dim>
					<dim>24</dim>
					<dim>24</dim>
					<dim>24</dim>
				</port>
				<port id="1"/>
				<port id="2"/>
				<port id="3"/>
				<port id="4"/>
			</input>
			<output>
				<port id="5" precision="FP32">
					<dim>10</dim>
					<dim>30</dim>
					<dim>24</dim>
					<dim>24</dim>
					<dim>24</dim>
				</port>
			</output>
		</layer>
		<layer id="347" name="net/Conv3D_26/output_transpose" type="Transpose" version="opset1">
			<input>
				<port id="0">
					<dim>10</dim>
					<dim>30</dim>
					<dim>24</dim>
					<dim>24</dim>
					<dim>24</dim>
				</port>
				<port id="1">
					<dim>5</dim>
				</port>
			</input>
			<output>
				<port id="2" names="net/Conv3D_26:0,net/transpose_62:0" precision="FP32">
					<dim>10</dim>
					<dim>30</dim>
					<dim>24</dim>
					<dim>24</dim>
					<dim>24</dim>
				</port>
			</output>
		</layer>
		<layer id="348" name="net/truediv_23/Fused_Mul_" type="Multiply" version="opset1">
			<data auto_broadcast="numpy"/>
			<input>
				<port id="0">
					<dim>10</dim>
					<dim>30</dim>
					<dim>24</dim>
					<dim>24</dim>
					<dim>24</dim>
				</port>
				<port id="1">
					<dim>1</dim>
					<dim>30</dim>
					<dim>1</dim>
					<dim>1</dim>
					<dim>1</dim>
				</port>
			</input>
			<output>
				<port id="2" precision="FP32">
					<dim>10</dim>
					<dim>30</dim>
					<dim>24</dim>
					<dim>24</dim>
					<dim>24</dim>
				</port>
			</output>
		</layer>
		<layer id="349" name="data_add_111033419168013477" type="Const" version="opset1">
			<data element_type="f32" offset="1395408" shape="1,30,1,1,1" size="120"/>
			<output>
				<port id="0" precision="FP32">
					<dim>1</dim>
					<dim>30</dim>
					<dim>1</dim>
					<dim>1</dim>
					<dim>1</dim>
				</port>
			</output>
		</layer>
		<layer id="350" name="net/sub_44/Fused_Add_" type="Add" version="opset1">
			<data auto_broadcast="numpy"/>
			<input>
				<port id="0">
					<dim>10</dim>
					<dim>30</dim>
					<dim>24</dim>
					<dim>24</dim>
					<dim>24</dim>
				</port>
				<port id="1">
					<dim>1</dim>
					<dim>30</dim>
					<dim>1</dim>
					<dim>1</dim>
					<dim>1</dim>
				</port>
			</input>
			<output>
				<port id="2" names="net/add_80:0" precision="FP32">
					<dim>10</dim>
					<dim>30</dim>
					<dim>24</dim>
					<dim>24</dim>
					<dim>24</dim>
				</port>
			</output>
		</layer>
		<layer id="351" name="net/sub_47/sub/fq_input_0" type="FakeQuantize" version="opset1">
			<data auto_broadcast="numpy" levels="256"/>
			<input>
				<port id="0">
					<dim>10</dim>
					<dim>30</dim>
					<dim>24</dim>
					<dim>24</dim>
					<dim>24</dim>
				</port>
				<port id="1"/>
				<port id="2"/>
				<port id="3"/>
				<port id="4"/>
			</input>
			<output>
				<port id="5" precision="FP32">
					<dim>10</dim>
					<dim>30</dim>
					<dim>24</dim>
					<dim>24</dim>
					<dim>24</dim>
				</port>
			</output>
		</layer>
		<layer id="352" name="2816282012553" type="Const" version="opset1">
			<data element_type="f32" offset="1163688" shape="" size="4"/>
			<output>
				<port id="0" precision="FP32"/>
			</output>
		</layer>
		<layer id="353" name="2817282110810" type="Const" version="opset1">
			<data element_type="f32" offset="1391544" shape="" size="4"/>
			<output>
				<port id="0" precision="FP32"/>
			</output>
		</layer>
		<layer id="354" name="2818282212754" type="Const" version="opset1">
			<data element_type="f32" offset="1163688" shape="" size="4"/>
			<output>
				<port id="0" precision="FP32"/>
			</output>
		</layer>
		<layer id="355" name="2819282311062" type="Const" version="opset1">
			<data element_type="f32" offset="1391544" shape="" size="4"/>
			<output>
				<port id="0" precision="FP32"/>
			</output>
		</layer>
		<layer id="356" name="net/Abs_23" type="Abs" version="opset1">
			<input>
				<port id="0">
					<dim>10</dim>
					<dim>30</dim>
					<dim>24</dim>
					<dim>24</dim>
					<dim>24</dim>
				</port>
			</input>
			<output>
				<port id="1" precision="FP32">
					<dim>10</dim>
					<dim>30</dim>
					<dim>24</dim>
					<dim>24</dim>
					<dim>24</dim>
				</port>
			</output>
		</layer>
		<layer id="357" name="net/sub_47/sub/fq_input_1" type="FakeQuantize" version="opset1">
			<data auto_broadcast="numpy" levels="256"/>
			<input>
				<port id="0">
					<dim>10</dim>
					<dim>30</dim>
					<dim>24</dim>
					<dim>24</dim>
					<dim>24</dim>
				</port>
				<port id="1"/>
				<port id="2"/>
				<port id="3"/>
				<port id="4"/>
			</input>
			<output>
				<port id="5" precision="FP32">
					<dim>10</dim>
					<dim>30</dim>
					<dim>24</dim>
					<dim>24</dim>
					<dim>24</dim>
				</port>
			</output>
		</layer>
		<layer id="358" name="net/sub_47/sub" type="Subtract" version="opset1">
			<data auto_broadcast="numpy"/>
			<input>
				<port id="0">
					<dim>10</dim>
					<dim>30</dim>
					<dim>24</dim>
					<dim>24</dim>
					<dim>24</dim>
				</port>
				<port id="1">
					<dim>10</dim>
					<dim>30</dim>
					<dim>24</dim>
					<dim>24</dim>
					<dim>24</dim>
				</port>
			</input>
			<output>
				<port id="2" names="net/sub_47:0" precision="FP32">
					<dim>10</dim>
					<dim>30</dim>
					<dim>24</dim>
					<dim>24</dim>
					<dim>24</dim>
				</port>
			</output>
		</layer>
		<layer id="359" name="net/mul_70/Fused_Mul_/fq_input_0" type="FakeQuantize" version="opset1">
			<data auto_broadcast="numpy" levels="256"/>
			<input>
				<port id="0">
					<dim>10</dim>
					<dim>30</dim>
					<dim>24</dim>
					<dim>24</dim>
					<dim>24</dim>
				</port>
				<port id="1"/>
				<port id="2"/>
				<port id="3"/>
				<port id="4"/>
			</input>
			<output>
				<port id="5" precision="FP32">
					<dim>10</dim>
					<dim>30</dim>
					<dim>24</dim>
					<dim>24</dim>
					<dim>24</dim>
				</port>
			</output>
		</layer>
		<layer id="360" name="2266227010777" type="Const" version="opset1">
			<data element_type="f32" offset="1395528" shape="1,1,1,1,1" size="4"/>
			<output>
				<port id="0" precision="FP32">
					<dim>1</dim>
					<dim>1</dim>
					<dim>1</dim>
					<dim>1</dim>
					<dim>1</dim>
				</port>
			</output>
		</layer>
		<layer id="361" name="2267227110948" type="Const" version="opset1">
			<data element_type="f32" offset="1395532" shape="1,1,1,1,1" size="4"/>
			<output>
				<port id="0" precision="FP32">
					<dim>1</dim>
					<dim>1</dim>
					<dim>1</dim>
					<dim>1</dim>
					<dim>1</dim>
				</port>
			</output>
		</layer>
		<layer id="362" name="2268227211848" type="Const" version="opset1">
			<data element_type="f32" offset="1395528" shape="1,1,1,1,1" size="4"/>
			<output>
				<port id="0" precision="FP32">
					<dim>1</dim>
					<dim>1</dim>
					<dim>1</dim>
					<dim>1</dim>
					<dim>1</dim>
				</port>
			</output>
		</layer>
		<layer id="363" name="2269227310999" type="Const" version="opset1">
			<data element_type="f32" offset="1395532" shape="1,1,1,1,1" size="4"/>
			<output>
				<port id="0" precision="FP32">
					<dim>1</dim>
					<dim>1</dim>
					<dim>1</dim>
					<dim>1</dim>
					<dim>1</dim>
				</port>
			</output>
		</layer>
		<layer id="364" name="data_mul_11105111073414968510909" type="Const" version="opset1">
			<data element_type="f32" offset="1395536" shape="1,30,1,1,1" size="120"/>
			<output>
				<port id="0" precision="FP32">
					<dim>1</dim>
					<dim>30</dim>
					<dim>1</dim>
					<dim>1</dim>
					<dim>1</dim>
				</port>
			</output>
		</layer>
		<layer id="365" name="net/mul_70/Fused_Mul_/fq_input_1" type="FakeQuantize" version="opset1">
			<data auto_broadcast="numpy" levels="255"/>
			<input>
				<port id="0">
					<dim>1</dim>
					<dim>30</dim>
					<dim>1</dim>
					<dim>1</dim>
					<dim>1</dim>
				</port>
				<port id="1">
					<dim>1</dim>
					<dim>1</dim>
					<dim>1</dim>
					<dim>1</dim>
					<dim>1</dim>
				</port>
				<port id="2">
					<dim>1</dim>
					<dim>1</dim>
					<dim>1</dim>
					<dim>1</dim>
					<dim>1</dim>
				</port>
				<port id="3">
					<dim>1</dim>
					<dim>1</dim>
					<dim>1</dim>
					<dim>1</dim>
					<dim>1</dim>
				</port>
				<port id="4">
					<dim>1</dim>
					<dim>1</dim>
					<dim>1</dim>
					<dim>1</dim>
					<dim>1</dim>
				</port>
			</input>
			<output>
				<port id="5" precision="FP32">
					<dim>1</dim>
					<dim>30</dim>
					<dim>1</dim>
					<dim>1</dim>
					<dim>1</dim>
				</port>
			</output>
		</layer>
		<layer id="366" name="net/mul_70/Fused_Mul_" type="Multiply" version="opset1">
			<data auto_broadcast="numpy"/>
			<input>
				<port id="0">
					<dim>10</dim>
					<dim>30</dim>
					<dim>24</dim>
					<dim>24</dim>
					<dim>24</dim>
				</port>
				<port id="1">
					<dim>1</dim>
					<dim>30</dim>
					<dim>1</dim>
					<dim>1</dim>
					<dim>1</dim>
				</port>
			</input>
			<output>
				<port id="2" names="net/mul_71:0" precision="FP32">
					<dim>10</dim>
					<dim>30</dim>
					<dim>24</dim>
					<dim>24</dim>
					<dim>24</dim>
				</port>
			</output>
		</layer>
		<layer id="367" name="net/add_85/fq_input_1" type="FakeQuantize" version="opset1">
			<data auto_broadcast="numpy" levels="256"/>
			<input>
				<port id="0">
					<dim>10</dim>
					<dim>30</dim>
					<dim>24</dim>
					<dim>24</dim>
					<dim>24</dim>
				</port>
				<port id="1"/>
				<port id="2"/>
				<port id="3"/>
				<port id="4"/>
			</input>
			<output>
				<port id="5" precision="FP32">
					<dim>10</dim>
					<dim>30</dim>
					<dim>24</dim>
					<dim>24</dim>
					<dim>24</dim>
				</port>
			</output>
		</layer>
		<layer id="368" name="4842484612169" type="Const" version="opset1">
			<data element_type="f32" offset="1395656" shape="1,1,1,1,1" size="4"/>
			<output>
				<port id="0" precision="FP32">
					<dim>1</dim>
					<dim>1</dim>
					<dim>1</dim>
					<dim>1</dim>
					<dim>1</dim>
				</port>
			</output>
		</layer>
		<layer id="369" name="4843484713348" type="Const" version="opset1">
			<data element_type="f32" offset="1395660" shape="1,1,1,1,1" size="4"/>
			<output>
				<port id="0" precision="FP32">
					<dim>1</dim>
					<dim>1</dim>
					<dim>1</dim>
					<dim>1</dim>
					<dim>1</dim>
				</port>
			</output>
		</layer>
		<layer id="370" name="4844484812049" type="Const" version="opset1">
			<data element_type="f32" offset="1395656" shape="1,1,1,1,1" size="4"/>
			<output>
				<port id="0" precision="FP32">
					<dim>1</dim>
					<dim>1</dim>
					<dim>1</dim>
					<dim>1</dim>
					<dim>1</dim>
				</port>
			</output>
		</layer>
		<layer id="371" name="4845484911662" type="Const" version="opset1">
			<data element_type="f32" offset="1395660" shape="1,1,1,1,1" size="4"/>
			<output>
				<port id="0" precision="FP32">
					<dim>1</dim>
					<dim>1</dim>
					<dim>1</dim>
					<dim>1</dim>
					<dim>1</dim>
				</port>
			</output>
		</layer>
		<layer id="372" name="net/Maximum_23/x66912928" type="Const" version="opset1">
			<data element_type="f32" offset="1395664" shape="1,1,1,1,1" size="4"/>
			<output>
				<port id="0" names="net/Maximum_23/x:0" precision="FP32">
					<dim>1</dim>
					<dim>1</dim>
					<dim>1</dim>
					<dim>1</dim>
					<dim>1</dim>
				</port>
			</output>
		</layer>
		<layer id="373" name="net/Maximum_23/fq_input_0" type="FakeQuantize" version="opset1">
			<data auto_broadcast="numpy" levels="255"/>
			<input>
				<port id="0">
					<dim>1</dim>
					<dim>1</dim>
					<dim>1</dim>
					<dim>1</dim>
					<dim>1</dim>
				</port>
				<port id="1">
					<dim>1</dim>
					<dim>1</dim>
					<dim>1</dim>
					<dim>1</dim>
					<dim>1</dim>
				</port>
				<port id="2">
					<dim>1</dim>
					<dim>1</dim>
					<dim>1</dim>
					<dim>1</dim>
					<dim>1</dim>
				</port>
				<port id="3">
					<dim>1</dim>
					<dim>1</dim>
					<dim>1</dim>
					<dim>1</dim>
					<dim>1</dim>
				</port>
				<port id="4">
					<dim>1</dim>
					<dim>1</dim>
					<dim>1</dim>
					<dim>1</dim>
					<dim>1</dim>
				</port>
			</input>
			<output>
				<port id="5" precision="FP32">
					<dim>1</dim>
					<dim>1</dim>
					<dim>1</dim>
					<dim>1</dim>
					<dim>1</dim>
				</port>
			</output>
		</layer>
		<layer id="374" name="net/Maximum_23" type="Maximum" version="opset1">
			<data auto_broadcast="numpy"/>
			<input>
				<port id="0">
					<dim>1</dim>
					<dim>1</dim>
					<dim>1</dim>
					<dim>1</dim>
					<dim>1</dim>
				</port>
				<port id="1">
					<dim>10</dim>
					<dim>30</dim>
					<dim>24</dim>
					<dim>24</dim>
					<dim>24</dim>
				</port>
			</input>
			<output>
				<port id="2" names="net/Maximum_23:0" precision="FP32">
					<dim>10</dim>
					<dim>30</dim>
					<dim>24</dim>
					<dim>24</dim>
					<dim>24</dim>
				</port>
			</output>
		</layer>
		<layer id="375" name="net/add_85" type="Add" version="opset1">
			<data auto_broadcast="numpy"/>
			<input>
				<port id="0">
					<dim>10</dim>
					<dim>30</dim>
					<dim>24</dim>
					<dim>24</dim>
					<dim>24</dim>
				</port>
				<port id="1">
					<dim>10</dim>
					<dim>30</dim>
					<dim>24</dim>
					<dim>24</dim>
					<dim>24</dim>
				</port>
			</input>
			<output>
				<port id="2" names="net/add_85:0" precision="FP32">
					<dim>10</dim>
					<dim>30</dim>
					<dim>24</dim>
					<dim>24</dim>
					<dim>24</dim>
				</port>
			</output>
		</layer>
		<layer id="376" name="net/transpose_68/fq_input_0" type="FakeQuantize" version="opset1">
			<data auto_broadcast="numpy" levels="256"/>
			<input>
				<port id="0">
					<dim>10</dim>
					<dim>30</dim>
					<dim>24</dim>
					<dim>24</dim>
					<dim>24</dim>
				</port>
				<port id="1"/>
				<port id="2"/>
				<port id="3"/>
				<port id="4"/>
			</input>
			<output>
				<port id="5" precision="FP32">
					<dim>10</dim>
					<dim>30</dim>
					<dim>24</dim>
					<dim>24</dim>
					<dim>24</dim>
				</port>
			</output>
		</layer>
		<layer id="377" name="net/transpose_68" type="Transpose" version="opset1">
			<input>
				<port id="0">
					<dim>10</dim>
					<dim>30</dim>
					<dim>24</dim>
					<dim>24</dim>
					<dim>24</dim>
				</port>
				<port id="1">
					<dim>5</dim>
				</port>
			</input>
			<output>
				<port id="2" names="net/transpose_68:0" precision="FP32">
					<dim>10</dim>
					<dim>30</dim>
					<dim>24</dim>
					<dim>24</dim>
					<dim>24</dim>
				</port>
			</output>
		</layer>
		<layer id="378" name="net/Conv3D_29" type="Convolution" version="opset1">
			<data auto_pad="valid" dilations="1,1,1" pads_begin="0,0,0" pads_end="0,0,0" strides="1,1,1"/>
			<input>
				<port id="0">
					<dim>10</dim>
					<dim>30</dim>
					<dim>24</dim>
					<dim>24</dim>
					<dim>24</dim>
				</port>
				<port id="1">
					<dim>30</dim>
					<dim>30</dim>
					<dim>3</dim>
					<dim>3</dim>
					<dim>3</dim>
				</port>
			</input>
			<output>
				<port id="2" precision="FP32">
					<dim>10</dim>
					<dim>30</dim>
					<dim>22</dim>
					<dim>22</dim>
					<dim>22</dim>
				</port>
			</output>
		</layer>
		<layer id="379" name="net/Conv3D_29/add_" type="Add" version="opset1">
			<data auto_broadcast="numpy"/>
			<input>
				<port id="0">
					<dim>10</dim>
					<dim>30</dim>
					<dim>22</dim>
					<dim>22</dim>
					<dim>22</dim>
				</port>
				<port id="1">
					<dim>1</dim>
					<dim>30</dim>
					<dim>1</dim>
					<dim>1</dim>
					<dim>1</dim>
				</port>
			</input>
			<output>
				<port id="2" precision="FP32">
					<dim>10</dim>
					<dim>30</dim>
					<dim>22</dim>
					<dim>22</dim>
					<dim>22</dim>
				</port>
			</output>
		</layer>
		<layer id="380" name="net/Conv3D_29/output_transpose/fq_input_0" type="FakeQuantize" version="opset1">
			<data auto_broadcast="numpy" levels="256"/>
			<input>
				<port id="0">
					<dim>10</dim>
					<dim>30</dim>
					<dim>22</dim>
					<dim>22</dim>
					<dim>22</dim>
				</port>
				<port id="1"/>
				<port id="2"/>
				<port id="3"/>
				<port id="4"/>
			</input>
			<output>
				<port id="5" precision="FP32">
					<dim>10</dim>
					<dim>30</dim>
					<dim>22</dim>
					<dim>22</dim>
					<dim>22</dim>
				</port>
			</output>
		</layer>
		<layer id="381" name="net/Conv3D_29/output_transpose" type="Transpose" version="opset1">
			<input>
				<port id="0">
					<dim>10</dim>
					<dim>30</dim>
					<dim>22</dim>
					<dim>22</dim>
					<dim>22</dim>
				</port>
				<port id="1">
					<dim>5</dim>
				</port>
			</input>
			<output>
				<port id="2" names="net/Conv3D_29:0,net/transpose_69:0" precision="FP32">
					<dim>10</dim>
					<dim>30</dim>
					<dim>22</dim>
					<dim>22</dim>
					<dim>22</dim>
				</port>
			</output>
		</layer>
		<layer id="382" name="net/truediv_26/Fused_Mul_" type="Multiply" version="opset1">
			<data auto_broadcast="numpy"/>
			<input>
				<port id="0">
					<dim>10</dim>
					<dim>30</dim>
					<dim>22</dim>
					<dim>22</dim>
					<dim>22</dim>
				</port>
				<port id="1">
					<dim>1</dim>
					<dim>30</dim>
					<dim>1</dim>
					<dim>1</dim>
					<dim>1</dim>
				</port>
			</input>
			<output>
				<port id="2" precision="FP32">
					<dim>10</dim>
					<dim>30</dim>
					<dim>22</dim>
					<dim>22</dim>
					<dim>22</dim>
				</port>
			</output>
		</layer>
		<layer id="383" name="data_add_11110111153425469612043" type="Const" version="opset1">
			<data element_type="f32" offset="1395668" shape="1,30,1,1,1" size="120"/>
			<output>
				<port id="0" precision="FP32">
					<dim>1</dim>
					<dim>30</dim>
					<dim>1</dim>
					<dim>1</dim>
					<dim>1</dim>
				</port>
			</output>
		</layer>
		<layer id="384" name="net/sub_50/Fused_Add_" type="Add" version="opset1">
			<data auto_broadcast="numpy"/>
			<input>
				<port id="0">
					<dim>10</dim>
					<dim>30</dim>
					<dim>22</dim>
					<dim>22</dim>
					<dim>22</dim>
				</port>
				<port id="1">
					<dim>1</dim>
					<dim>30</dim>
					<dim>1</dim>
					<dim>1</dim>
					<dim>1</dim>
				</port>
			</input>
			<output>
				<port id="2" names="net/add_90:0" precision="FP32">
					<dim>10</dim>
					<dim>30</dim>
					<dim>22</dim>
					<dim>22</dim>
					<dim>22</dim>
				</port>
			</output>
		</layer>
		<layer id="385" name="net/sub_53/sub/fq_input_0" type="FakeQuantize" version="opset1">
			<data auto_broadcast="numpy" levels="256"/>
			<input>
				<port id="0">
					<dim>10</dim>
					<dim>30</dim>
					<dim>22</dim>
					<dim>22</dim>
					<dim>22</dim>
				</port>
				<port id="1"/>
				<port id="2"/>
				<port id="3"/>
				<port id="4"/>
			</input>
			<output>
				<port id="5" precision="FP32">
					<dim>10</dim>
					<dim>30</dim>
					<dim>22</dim>
					<dim>22</dim>
					<dim>22</dim>
				</port>
			</output>
		</layer>
		<layer id="386" name="3156316012220" type="Const" version="opset1">
			<data element_type="f32" offset="1395788" shape="" size="4"/>
			<output>
				<port id="0" precision="FP32"/>
			</output>
		</layer>
		<layer id="387" name="3157316111248" type="Const" version="opset1">
			<data element_type="f32" offset="1293824" shape="" size="4"/>
			<output>
				<port id="0" precision="FP32"/>
			</output>
		</layer>
		<layer id="388" name="3158316211767" type="Const" version="opset1">
			<data element_type="f32" offset="1395788" shape="" size="4"/>
			<output>
				<port id="0" precision="FP32"/>
			</output>
		</layer>
		<layer id="389" name="3159316310774" type="Const" version="opset1">
			<data element_type="f32" offset="1293824" shape="" size="4"/>
			<output>
				<port id="0" precision="FP32"/>
			</output>
		</layer>
		<layer id="390" name="net/Abs_26" type="Abs" version="opset1">
			<input>
				<port id="0">
					<dim>10</dim>
					<dim>30</dim>
					<dim>22</dim>
					<dim>22</dim>
					<dim>22</dim>
				</port>
			</input>
			<output>
				<port id="1" precision="FP32">
					<dim>10</dim>
					<dim>30</dim>
					<dim>22</dim>
					<dim>22</dim>
					<dim>22</dim>
				</port>
			</output>
		</layer>
		<layer id="391" name="net/sub_53/sub/fq_input_1" type="FakeQuantize" version="opset1">
			<data auto_broadcast="numpy" levels="256"/>
			<input>
				<port id="0">
					<dim>10</dim>
					<dim>30</dim>
					<dim>22</dim>
					<dim>22</dim>
					<dim>22</dim>
				</port>
				<port id="1"/>
				<port id="2"/>
				<port id="3"/>
				<port id="4"/>
			</input>
			<output>
				<port id="5" precision="FP32">
					<dim>10</dim>
					<dim>30</dim>
					<dim>22</dim>
					<dim>22</dim>
					<dim>22</dim>
				</port>
			</output>
		</layer>
		<layer id="392" name="net/sub_53/sub" type="Subtract" version="opset1">
			<data auto_broadcast="numpy"/>
			<input>
				<port id="0">
					<dim>10</dim>
					<dim>30</dim>
					<dim>22</dim>
					<dim>22</dim>
					<dim>22</dim>
				</port>
				<port id="1">
					<dim>10</dim>
					<dim>30</dim>
					<dim>22</dim>
					<dim>22</dim>
					<dim>22</dim>
				</port>
			</input>
			<output>
				<port id="2" names="net/sub_53:0" precision="FP32">
					<dim>10</dim>
					<dim>30</dim>
					<dim>22</dim>
					<dim>22</dim>
					<dim>22</dim>
				</port>
			</output>
		</layer>
		<layer id="393" name="net/mul_79/Fused_Mul_/fq_input_0" type="FakeQuantize" version="opset1">
			<data auto_broadcast="numpy" levels="256"/>
			<input>
				<port id="0">
					<dim>10</dim>
					<dim>30</dim>
					<dim>22</dim>
					<dim>22</dim>
					<dim>22</dim>
				</port>
				<port id="1"/>
				<port id="2"/>
				<port id="3"/>
				<port id="4"/>
			</input>
			<output>
				<port id="5" precision="FP32">
					<dim>10</dim>
					<dim>30</dim>
					<dim>22</dim>
					<dim>22</dim>
					<dim>22</dim>
				</port>
			</output>
		</layer>
		<layer id="394" name="2936294011401" type="Const" version="opset1">
			<data element_type="f32" offset="1395792" shape="1,1,1,1,1" size="4"/>
			<output>
				<port id="0" precision="FP32">
					<dim>1</dim>
					<dim>1</dim>
					<dim>1</dim>
					<dim>1</dim>
					<dim>1</dim>
				</port>
			</output>
		</layer>
		<layer id="395" name="2937294113354" type="Const" version="opset1">
			<data element_type="f32" offset="1395796" shape="1,1,1,1,1" size="4"/>
			<output>
				<port id="0" precision="FP32">
					<dim>1</dim>
					<dim>1</dim>
					<dim>1</dim>
					<dim>1</dim>
					<dim>1</dim>
				</port>
			</output>
		</layer>
		<layer id="396" name="2938294211173" type="Const" version="opset1">
			<data element_type="f32" offset="1395792" shape="1,1,1,1,1" size="4"/>
			<output>
				<port id="0" precision="FP32">
					<dim>1</dim>
					<dim>1</dim>
					<dim>1</dim>
					<dim>1</dim>
					<dim>1</dim>
				</port>
			</output>
		</layer>
		<layer id="397" name="2939294311437" type="Const" version="opset1">
			<data element_type="f32" offset="1395796" shape="1,1,1,1,1" size="4"/>
			<output>
				<port id="0" precision="FP32">
					<dim>1</dim>
					<dim>1</dim>
					<dim>1</dim>
					<dim>1</dim>
					<dim>1</dim>
				</port>
			</output>
		</layer>
		<layer id="398" name="data_mul_11117111193405670112085" type="Const" version="opset1">
			<data element_type="f32" offset="1395800" shape="1,30,1,1,1" size="120"/>
			<output>
				<port id="0" precision="FP32">
					<dim>1</dim>
					<dim>30</dim>
					<dim>1</dim>
					<dim>1</dim>
					<dim>1</dim>
				</port>
			</output>
		</layer>
		<layer id="399" name="net/mul_79/Fused_Mul_/fq_input_1" type="FakeQuantize" version="opset1">
			<data auto_broadcast="numpy" levels="255"/>
			<input>
				<port id="0">
					<dim>1</dim>
					<dim>30</dim>
					<dim>1</dim>
					<dim>1</dim>
					<dim>1</dim>
				</port>
				<port id="1">
					<dim>1</dim>
					<dim>1</dim>
					<dim>1</dim>
					<dim>1</dim>
					<dim>1</dim>
				</port>
				<port id="2">
					<dim>1</dim>
					<dim>1</dim>
					<dim>1</dim>
					<dim>1</dim>
					<dim>1</dim>
				</port>
				<port id="3">
					<dim>1</dim>
					<dim>1</dim>
					<dim>1</dim>
					<dim>1</dim>
					<dim>1</dim>
				</port>
				<port id="4">
					<dim>1</dim>
					<dim>1</dim>
					<dim>1</dim>
					<dim>1</dim>
					<dim>1</dim>
				</port>
			</input>
			<output>
				<port id="5" precision="FP32">
					<dim>1</dim>
					<dim>30</dim>
					<dim>1</dim>
					<dim>1</dim>
					<dim>1</dim>
				</port>
			</output>
		</layer>
		<layer id="400" name="net/mul_79/Fused_Mul_" type="Multiply" version="opset1">
			<data auto_broadcast="numpy"/>
			<input>
				<port id="0">
					<dim>10</dim>
					<dim>30</dim>
					<dim>22</dim>
					<dim>22</dim>
					<dim>22</dim>
				</port>
				<port id="1">
					<dim>1</dim>
					<dim>30</dim>
					<dim>1</dim>
					<dim>1</dim>
					<dim>1</dim>
				</port>
			</input>
			<output>
				<port id="2" names="net/mul_80:0" precision="FP32">
					<dim>10</dim>
					<dim>30</dim>
					<dim>22</dim>
					<dim>22</dim>
					<dim>22</dim>
				</port>
			</output>
		</layer>
		<layer id="401" name="net/add_95/fq_input_1" type="FakeQuantize" version="opset1">
			<data auto_broadcast="numpy" levels="256"/>
			<input>
				<port id="0">
					<dim>10</dim>
					<dim>30</dim>
					<dim>22</dim>
					<dim>22</dim>
					<dim>22</dim>
				</port>
				<port id="1"/>
				<port id="2"/>
				<port id="3"/>
				<port id="4"/>
			</input>
			<output>
				<port id="5" precision="FP32">
					<dim>10</dim>
					<dim>30</dim>
					<dim>22</dim>
					<dim>22</dim>
					<dim>22</dim>
				</port>
			</output>
		</layer>
		<layer id="402" name="4852485612895" type="Const" version="opset1">
			<data element_type="f32" offset="1395656" shape="1,1,1,1,1" size="4"/>
			<output>
				<port id="0" precision="FP32">
					<dim>1</dim>
					<dim>1</dim>
					<dim>1</dim>
					<dim>1</dim>
					<dim>1</dim>
				</port>
			</output>
		</layer>
		<layer id="403" name="4853485711377" type="Const" version="opset1">
			<data element_type="f32" offset="1395660" shape="1,1,1,1,1" size="4"/>
			<output>
				<port id="0" precision="FP32">
					<dim>1</dim>
					<dim>1</dim>
					<dim>1</dim>
					<dim>1</dim>
					<dim>1</dim>
				</port>
			</output>
		</layer>
		<layer id="404" name="4854485811824" type="Const" version="opset1">
			<data element_type="f32" offset="1395656" shape="1,1,1,1,1" size="4"/>
			<output>
				<port id="0" precision="FP32">
					<dim>1</dim>
					<dim>1</dim>
					<dim>1</dim>
					<dim>1</dim>
					<dim>1</dim>
				</port>
			</output>
		</layer>
		<layer id="405" name="4855485913084" type="Const" version="opset1">
			<data element_type="f32" offset="1395660" shape="1,1,1,1,1" size="4"/>
			<output>
				<port id="0" precision="FP32">
					<dim>1</dim>
					<dim>1</dim>
					<dim>1</dim>
					<dim>1</dim>
					<dim>1</dim>
				</port>
			</output>
		</layer>
		<layer id="406" name="net/Maximum_26/x66811683" type="Const" version="opset1">
			<data element_type="f32" offset="1395920" shape="1,1,1,1,1" size="4"/>
			<output>
				<port id="0" names="net/Maximum_26/x:0" precision="FP32">
					<dim>1</dim>
					<dim>1</dim>
					<dim>1</dim>
					<dim>1</dim>
					<dim>1</dim>
				</port>
			</output>
		</layer>
		<layer id="407" name="net/Maximum_26/fq_input_0" type="FakeQuantize" version="opset1">
			<data auto_broadcast="numpy" levels="255"/>
			<input>
				<port id="0">
					<dim>1</dim>
					<dim>1</dim>
					<dim>1</dim>
					<dim>1</dim>
					<dim>1</dim>
				</port>
				<port id="1">
					<dim>1</dim>
					<dim>1</dim>
					<dim>1</dim>
					<dim>1</dim>
					<dim>1</dim>
				</port>
				<port id="2">
					<dim>1</dim>
					<dim>1</dim>
					<dim>1</dim>
					<dim>1</dim>
					<dim>1</dim>
				</port>
				<port id="3">
					<dim>1</dim>
					<dim>1</dim>
					<dim>1</dim>
					<dim>1</dim>
					<dim>1</dim>
				</port>
				<port id="4">
					<dim>1</dim>
					<dim>1</dim>
					<dim>1</dim>
					<dim>1</dim>
					<dim>1</dim>
				</port>
			</input>
			<output>
				<port id="5" precision="FP32">
					<dim>1</dim>
					<dim>1</dim>
					<dim>1</dim>
					<dim>1</dim>
					<dim>1</dim>
				</port>
			</output>
		</layer>
		<layer id="408" name="net/Maximum_26" type="Maximum" version="opset1">
			<data auto_broadcast="numpy"/>
			<input>
				<port id="0">
					<dim>1</dim>
					<dim>1</dim>
					<dim>1</dim>
					<dim>1</dim>
					<dim>1</dim>
				</port>
				<port id="1">
					<dim>10</dim>
					<dim>30</dim>
					<dim>22</dim>
					<dim>22</dim>
					<dim>22</dim>
				</port>
			</input>
			<output>
				<port id="2" names="net/Maximum_26:0" precision="FP32">
					<dim>10</dim>
					<dim>30</dim>
					<dim>22</dim>
					<dim>22</dim>
					<dim>22</dim>
				</port>
			</output>
		</layer>
		<layer id="409" name="net/add_95" type="Add" version="opset1">
			<data auto_broadcast="numpy"/>
			<input>
				<port id="0">
					<dim>10</dim>
					<dim>30</dim>
					<dim>22</dim>
					<dim>22</dim>
					<dim>22</dim>
				</port>
				<port id="1">
					<dim>10</dim>
					<dim>30</dim>
					<dim>22</dim>
					<dim>22</dim>
					<dim>22</dim>
				</port>
			</input>
			<output>
				<port id="2" names="net/add_95:0" precision="FP32">
					<dim>10</dim>
					<dim>30</dim>
					<dim>22</dim>
					<dim>22</dim>
					<dim>22</dim>
				</port>
			</output>
		</layer>
		<layer id="410" name="net/transpose_75/fq_input_0" type="FakeQuantize" version="opset1">
			<data auto_broadcast="numpy" levels="256"/>
			<input>
				<port id="0">
					<dim>10</dim>
					<dim>30</dim>
					<dim>22</dim>
					<dim>22</dim>
					<dim>22</dim>
				</port>
				<port id="1"/>
				<port id="2"/>
				<port id="3"/>
				<port id="4"/>
			</input>
			<output>
				<port id="5" precision="FP32">
					<dim>10</dim>
					<dim>30</dim>
					<dim>22</dim>
					<dim>22</dim>
					<dim>22</dim>
				</port>
			</output>
		</layer>
		<layer id="411" name="net/transpose_75" type="Transpose" version="opset1">
			<input>
				<port id="0">
					<dim>10</dim>
					<dim>30</dim>
					<dim>22</dim>
					<dim>22</dim>
					<dim>22</dim>
				</port>
				<port id="1">
					<dim>5</dim>
				</port>
			</input>
			<output>
				<port id="2" names="net/transpose_75:0" precision="FP32">
					<dim>10</dim>
					<dim>30</dim>
					<dim>22</dim>
					<dim>22</dim>
					<dim>22</dim>
				</port>
			</output>
		</layer>
		<layer id="412" name="net/Conv3D_32" type="Convolution" version="opset1">
			<data auto_pad="valid" dilations="1,1,1" pads_begin="0,0,0" pads_end="0,0,0" strides="1,1,1"/>
			<input>
				<port id="0">
					<dim>10</dim>
					<dim>30</dim>
					<dim>22</dim>
					<dim>22</dim>
					<dim>22</dim>
				</port>
				<port id="1">
					<dim>40</dim>
					<dim>30</dim>
					<dim>3</dim>
					<dim>3</dim>
					<dim>3</dim>
				</port>
			</input>
			<output>
				<port id="2" precision="FP32">
					<dim>10</dim>
					<dim>40</dim>
					<dim>20</dim>
					<dim>20</dim>
					<dim>20</dim>
				</port>
			</output>
		</layer>
		<layer id="413" name="net/Conv3D_32/add_" type="Add" version="opset1">
			<data auto_broadcast="numpy"/>
			<input>
				<port id="0">
					<dim>10</dim>
					<dim>40</dim>
					<dim>20</dim>
					<dim>20</dim>
					<dim>20</dim>
				</port>
				<port id="1">
					<dim>1</dim>
					<dim>40</dim>
					<dim>1</dim>
					<dim>1</dim>
					<dim>1</dim>
				</port>
			</input>
			<output>
				<port id="2" precision="FP32">
					<dim>10</dim>
					<dim>40</dim>
					<dim>20</dim>
					<dim>20</dim>
					<dim>20</dim>
				</port>
			</output>
		</layer>
		<layer id="414" name="net/Conv3D_32/output_transpose/fq_input_0" type="FakeQuantize" version="opset1">
			<data auto_broadcast="numpy" levels="256"/>
			<input>
				<port id="0">
					<dim>10</dim>
					<dim>40</dim>
					<dim>20</dim>
					<dim>20</dim>
					<dim>20</dim>
				</port>
				<port id="1"/>
				<port id="2"/>
				<port id="3"/>
				<port id="4"/>
			</input>
			<output>
				<port id="5" precision="FP32">
					<dim>10</dim>
					<dim>40</dim>
					<dim>20</dim>
					<dim>20</dim>
					<dim>20</dim>
				</port>
			</output>
		</layer>
		<layer id="415" name="net/Conv3D_32/output_transpose" type="Transpose" version="opset1">
			<input>
				<port id="0">
					<dim>10</dim>
					<dim>40</dim>
					<dim>20</dim>
					<dim>20</dim>
					<dim>20</dim>
				</port>
				<port id="1">
					<dim>5</dim>
				</port>
			</input>
			<output>
				<port id="2" names="net/Conv3D_32:0,net/transpose_76:0" precision="FP32">
					<dim>10</dim>
					<dim>40</dim>
					<dim>20</dim>
					<dim>20</dim>
					<dim>20</dim>
				</port>
			</output>
		</layer>
		<layer id="416" name="net/truediv_29/Fused_Mul_" type="Multiply" version="opset1">
			<data auto_broadcast="numpy"/>
			<input>
				<port id="0">
					<dim>10</dim>
					<dim>40</dim>
					<dim>20</dim>
					<dim>20</dim>
					<dim>20</dim>
				</port>
				<port id="1">
					<dim>1</dim>
					<dim>40</dim>
					<dim>1</dim>
					<dim>1</dim>
					<dim>1</dim>
				</port>
			</input>
			<output>
				<port id="2" precision="FP32">
					<dim>10</dim>
					<dim>40</dim>
					<dim>20</dim>
					<dim>20</dim>
					<dim>20</dim>
				</port>
			</output>
		</layer>
		<layer id="417" name="data_add_11122111273436871211788" type="Const" version="opset1">
			<data element_type="f32" offset="1395924" shape="1,40,1,1,1" size="160"/>
			<output>
				<port id="0" precision="FP32">
					<dim>1</dim>
					<dim>40</dim>
					<dim>1</dim>
					<dim>1</dim>
					<dim>1</dim>
				</port>
			</output>
		</layer>
		<layer id="418" name="net/sub_56/Fused_Add_" type="Add" version="opset1">
			<data auto_broadcast="numpy"/>
			<input>
				<port id="0">
					<dim>10</dim>
					<dim>40</dim>
					<dim>20</dim>
					<dim>20</dim>
					<dim>20</dim>
				</port>
				<port id="1">
					<dim>1</dim>
					<dim>40</dim>
					<dim>1</dim>
					<dim>1</dim>
					<dim>1</dim>
				</port>
			</input>
			<output>
				<port id="2" names="net/add_100:0" precision="FP32">
					<dim>10</dim>
					<dim>40</dim>
					<dim>20</dim>
					<dim>20</dim>
					<dim>20</dim>
				</port>
			</output>
		</layer>
		<layer id="419" name="net/sub_59/sub/fq_input_0" type="FakeQuantize" version="opset1">
			<data auto_broadcast="numpy" levels="256"/>
			<input>
				<port id="0">
					<dim>10</dim>
					<dim>40</dim>
					<dim>20</dim>
					<dim>20</dim>
					<dim>20</dim>
				</port>
				<port id="1"/>
				<port id="2"/>
				<port id="3"/>
				<port id="4"/>
			</input>
			<output>
				<port id="5" precision="FP32">
					<dim>10</dim>
					<dim>40</dim>
					<dim>20</dim>
					<dim>20</dim>
					<dim>20</dim>
				</port>
			</output>
		</layer>
		<layer id="420" name="2416242012154" type="Const" version="opset1">
			<data element_type="f32" offset="1396084" shape="" size="4"/>
			<output>
				<port id="0" precision="FP32"/>
			</output>
		</layer>
		<layer id="421" name="2417242111587" type="Const" version="opset1">
			<data element_type="f32" offset="1163712" shape="" size="4"/>
			<output>
				<port id="0" precision="FP32"/>
			</output>
		</layer>
		<layer id="422" name="2418242210900" type="Const" version="opset1">
			<data element_type="f32" offset="1396084" shape="" size="4"/>
			<output>
				<port id="0" precision="FP32"/>
			</output>
		</layer>
		<layer id="423" name="2419242313198" type="Const" version="opset1">
			<data element_type="f32" offset="1163712" shape="" size="4"/>
			<output>
				<port id="0" precision="FP32"/>
			</output>
		</layer>
		<layer id="424" name="net/Abs_29" type="Abs" version="opset1">
			<input>
				<port id="0">
					<dim>10</dim>
					<dim>40</dim>
					<dim>20</dim>
					<dim>20</dim>
					<dim>20</dim>
				</port>
			</input>
			<output>
				<port id="1" precision="FP32">
					<dim>10</dim>
					<dim>40</dim>
					<dim>20</dim>
					<dim>20</dim>
					<dim>20</dim>
				</port>
			</output>
		</layer>
		<layer id="425" name="net/sub_59/sub/fq_input_1" type="FakeQuantize" version="opset1">
			<data auto_broadcast="numpy" levels="256"/>
			<input>
				<port id="0">
					<dim>10</dim>
					<dim>40</dim>
					<dim>20</dim>
					<dim>20</dim>
					<dim>20</dim>
				</port>
				<port id="1"/>
				<port id="2"/>
				<port id="3"/>
				<port id="4"/>
			</input>
			<output>
				<port id="5" precision="FP32">
					<dim>10</dim>
					<dim>40</dim>
					<dim>20</dim>
					<dim>20</dim>
					<dim>20</dim>
				</port>
			</output>
		</layer>
		<layer id="426" name="net/sub_59/sub" type="Subtract" version="opset1">
			<data auto_broadcast="numpy"/>
			<input>
				<port id="0">
					<dim>10</dim>
					<dim>40</dim>
					<dim>20</dim>
					<dim>20</dim>
					<dim>20</dim>
				</port>
				<port id="1">
					<dim>10</dim>
					<dim>40</dim>
					<dim>20</dim>
					<dim>20</dim>
					<dim>20</dim>
				</port>
			</input>
			<output>
				<port id="2" names="net/sub_59:0" precision="FP32">
					<dim>10</dim>
					<dim>40</dim>
					<dim>20</dim>
					<dim>20</dim>
					<dim>20</dim>
				</port>
			</output>
		</layer>
		<layer id="427" name="net/mul_88/Fused_Mul_/fq_input_0" type="FakeQuantize" version="opset1">
			<data auto_broadcast="numpy" levels="256"/>
			<input>
				<port id="0">
					<dim>10</dim>
					<dim>40</dim>
					<dim>20</dim>
					<dim>20</dim>
					<dim>20</dim>
				</port>
				<port id="1"/>
				<port id="2"/>
				<port id="3"/>
				<port id="4"/>
			</input>
			<output>
				<port id="5" precision="FP32">
					<dim>10</dim>
					<dim>40</dim>
					<dim>20</dim>
					<dim>20</dim>
					<dim>20</dim>
				</port>
			</output>
		</layer>
		<layer id="428" name="2856286011674" type="Const" version="opset1">
			<data element_type="f32" offset="1396088" shape="1,1,1,1,1" size="4"/>
			<output>
				<port id="0" precision="FP32">
					<dim>1</dim>
					<dim>1</dim>
					<dim>1</dim>
					<dim>1</dim>
					<dim>1</dim>
				</port>
			</output>
		</layer>
		<layer id="429" name="2857286113156" type="Const" version="opset1">
			<data element_type="f32" offset="1396092" shape="1,1,1,1,1" size="4"/>
			<output>
				<port id="0" precision="FP32">
					<dim>1</dim>
					<dim>1</dim>
					<dim>1</dim>
					<dim>1</dim>
					<dim>1</dim>
				</port>
			</output>
		</layer>
		<layer id="430" name="2858286211500" type="Const" version="opset1">
			<data element_type="f32" offset="1396088" shape="1,1,1,1,1" size="4"/>
			<output>
				<port id="0" precision="FP32">
					<dim>1</dim>
					<dim>1</dim>
					<dim>1</dim>
					<dim>1</dim>
					<dim>1</dim>
				</port>
			</output>
		</layer>
		<layer id="431" name="2859286312868" type="Const" version="opset1">
			<data element_type="f32" offset="1396092" shape="1,1,1,1,1" size="4"/>
			<output>
				<port id="0" precision="FP32">
					<dim>1</dim>
					<dim>1</dim>
					<dim>1</dim>
					<dim>1</dim>
					<dim>1</dim>
				</port>
			</output>
		</layer>
		<layer id="432" name="data_mul_11129111313411971710885" type="Const" version="opset1">
			<data element_type="f32" offset="1396096" shape="1,40,1,1,1" size="160"/>
			<output>
				<port id="0" precision="FP32">
					<dim>1</dim>
					<dim>40</dim>
					<dim>1</dim>
					<dim>1</dim>
					<dim>1</dim>
				</port>
			</output>
		</layer>
		<layer id="433" name="net/mul_88/Fused_Mul_/fq_input_1" type="FakeQuantize" version="opset1">
			<data auto_broadcast="numpy" levels="255"/>
			<input>
				<port id="0">
					<dim>1</dim>
					<dim>40</dim>
					<dim>1</dim>
					<dim>1</dim>
					<dim>1</dim>
				</port>
				<port id="1">
					<dim>1</dim>
					<dim>1</dim>
					<dim>1</dim>
					<dim>1</dim>
					<dim>1</dim>
				</port>
				<port id="2">
					<dim>1</dim>
					<dim>1</dim>
					<dim>1</dim>
					<dim>1</dim>
					<dim>1</dim>
				</port>
				<port id="3">
					<dim>1</dim>
					<dim>1</dim>
					<dim>1</dim>
					<dim>1</dim>
					<dim>1</dim>
				</port>
				<port id="4">
					<dim>1</dim>
					<dim>1</dim>
					<dim>1</dim>
					<dim>1</dim>
					<dim>1</dim>
				</port>
			</input>
			<output>
				<port id="5" precision="FP32">
					<dim>1</dim>
					<dim>40</dim>
					<dim>1</dim>
					<dim>1</dim>
					<dim>1</dim>
				</port>
			</output>
		</layer>
		<layer id="434" name="net/mul_88/Fused_Mul_" type="Multiply" version="opset1">
			<data auto_broadcast="numpy"/>
			<input>
				<port id="0">
					<dim>10</dim>
					<dim>40</dim>
					<dim>20</dim>
					<dim>20</dim>
					<dim>20</dim>
				</port>
				<port id="1">
					<dim>1</dim>
					<dim>40</dim>
					<dim>1</dim>
					<dim>1</dim>
					<dim>1</dim>
				</port>
			</input>
			<output>
				<port id="2" names="net/mul_89:0" precision="FP32">
					<dim>10</dim>
					<dim>40</dim>
					<dim>20</dim>
					<dim>20</dim>
					<dim>20</dim>
				</port>
			</output>
		</layer>
		<layer id="435" name="net/add_105/fq_input_1" type="FakeQuantize" version="opset1">
			<data auto_broadcast="numpy" levels="256"/>
			<input>
				<port id="0">
					<dim>10</dim>
					<dim>40</dim>
					<dim>20</dim>
					<dim>20</dim>
					<dim>20</dim>
				</port>
				<port id="1"/>
				<port id="2"/>
				<port id="3"/>
				<port id="4"/>
			</input>
			<output>
				<port id="5" precision="FP32">
					<dim>10</dim>
					<dim>40</dim>
					<dim>20</dim>
					<dim>20</dim>
					<dim>20</dim>
				</port>
			</output>
		</layer>
		<layer id="436" name="4682468612616" type="Const" version="opset1">
			<data element_type="f32" offset="1395656" shape="1,1,1,1,1" size="4"/>
			<output>
				<port id="0" precision="FP32">
					<dim>1</dim>
					<dim>1</dim>
					<dim>1</dim>
					<dim>1</dim>
					<dim>1</dim>
				</port>
			</output>
		</layer>
		<layer id="437" name="4683468713360" type="Const" version="opset1">
			<data element_type="f32" offset="1395660" shape="1,1,1,1,1" size="4"/>
			<output>
				<port id="0" precision="FP32">
					<dim>1</dim>
					<dim>1</dim>
					<dim>1</dim>
					<dim>1</dim>
					<dim>1</dim>
				</port>
			</output>
		</layer>
		<layer id="438" name="4684468812478" type="Const" version="opset1">
			<data element_type="f32" offset="1395656" shape="1,1,1,1,1" size="4"/>
			<output>
				<port id="0" precision="FP32">
					<dim>1</dim>
					<dim>1</dim>
					<dim>1</dim>
					<dim>1</dim>
					<dim>1</dim>
				</port>
			</output>
		</layer>
		<layer id="439" name="4685468912802" type="Const" version="opset1">
			<data element_type="f32" offset="1395660" shape="1,1,1,1,1" size="4"/>
			<output>
				<port id="0" precision="FP32">
					<dim>1</dim>
					<dim>1</dim>
					<dim>1</dim>
					<dim>1</dim>
					<dim>1</dim>
				</port>
			</output>
		</layer>
		<layer id="440" name="net/Maximum_29/x66711485" type="Const" version="opset1">
			<data element_type="f32" offset="1396256" shape="1,1,1,1,1" size="4"/>
			<output>
				<port id="0" names="net/Maximum_29/x:0" precision="FP32">
					<dim>1</dim>
					<dim>1</dim>
					<dim>1</dim>
					<dim>1</dim>
					<dim>1</dim>
				</port>
			</output>
		</layer>
		<layer id="441" name="net/Maximum_29/fq_input_0" type="FakeQuantize" version="opset1">
			<data auto_broadcast="numpy" levels="255"/>
			<input>
				<port id="0">
					<dim>1</dim>
					<dim>1</dim>
					<dim>1</dim>
					<dim>1</dim>
					<dim>1</dim>
				</port>
				<port id="1">
					<dim>1</dim>
					<dim>1</dim>
					<dim>1</dim>
					<dim>1</dim>
					<dim>1</dim>
				</port>
				<port id="2">
					<dim>1</dim>
					<dim>1</dim>
					<dim>1</dim>
					<dim>1</dim>
					<dim>1</dim>
				</port>
				<port id="3">
					<dim>1</dim>
					<dim>1</dim>
					<dim>1</dim>
					<dim>1</dim>
					<dim>1</dim>
				</port>
				<port id="4">
					<dim>1</dim>
					<dim>1</dim>
					<dim>1</dim>
					<dim>1</dim>
					<dim>1</dim>
				</port>
			</input>
			<output>
				<port id="5" precision="FP32">
					<dim>1</dim>
					<dim>1</dim>
					<dim>1</dim>
					<dim>1</dim>
					<dim>1</dim>
				</port>
			</output>
		</layer>
		<layer id="442" name="net/Maximum_29" type="Maximum" version="opset1">
			<data auto_broadcast="numpy"/>
			<input>
				<port id="0">
					<dim>1</dim>
					<dim>1</dim>
					<dim>1</dim>
					<dim>1</dim>
					<dim>1</dim>
				</port>
				<port id="1">
					<dim>10</dim>
					<dim>40</dim>
					<dim>20</dim>
					<dim>20</dim>
					<dim>20</dim>
				</port>
			</input>
			<output>
				<port id="2" names="net/Maximum_29:0" precision="FP32">
					<dim>10</dim>
					<dim>40</dim>
					<dim>20</dim>
					<dim>20</dim>
					<dim>20</dim>
				</port>
			</output>
		</layer>
		<layer id="443" name="net/add_105" type="Add" version="opset1">
			<data auto_broadcast="numpy"/>
			<input>
				<port id="0">
					<dim>10</dim>
					<dim>40</dim>
					<dim>20</dim>
					<dim>20</dim>
					<dim>20</dim>
				</port>
				<port id="1">
					<dim>10</dim>
					<dim>40</dim>
					<dim>20</dim>
					<dim>20</dim>
					<dim>20</dim>
				</port>
			</input>
			<output>
				<port id="2" names="net/add_105:0" precision="FP32">
					<dim>10</dim>
					<dim>40</dim>
					<dim>20</dim>
					<dim>20</dim>
					<dim>20</dim>
				</port>
			</output>
		</layer>
		<layer id="444" name="net/transpose_82/fq_input_0" type="FakeQuantize" version="opset1">
			<data auto_broadcast="numpy" levels="256"/>
			<input>
				<port id="0">
					<dim>10</dim>
					<dim>40</dim>
					<dim>20</dim>
					<dim>20</dim>
					<dim>20</dim>
				</port>
				<port id="1"/>
				<port id="2"/>
				<port id="3"/>
				<port id="4"/>
			</input>
			<output>
				<port id="5" precision="FP32">
					<dim>10</dim>
					<dim>40</dim>
					<dim>20</dim>
					<dim>20</dim>
					<dim>20</dim>
				</port>
			</output>
		</layer>
		<layer id="445" name="net/transpose_82" type="Transpose" version="opset1">
			<input>
				<port id="0">
					<dim>10</dim>
					<dim>40</dim>
					<dim>20</dim>
					<dim>20</dim>
					<dim>20</dim>
				</port>
				<port id="1">
					<dim>5</dim>
				</port>
			</input>
			<output>
				<port id="2" names="net/transpose_82:0" precision="FP32">
					<dim>10</dim>
					<dim>40</dim>
					<dim>20</dim>
					<dim>20</dim>
					<dim>20</dim>
				</port>
			</output>
		</layer>
		<layer id="446" name="net/Conv3D_35" type="Convolution" version="opset1">
			<data auto_pad="valid" dilations="1,1,1" pads_begin="0,0,0" pads_end="0,0,0" strides="1,1,1"/>
			<input>
				<port id="0">
					<dim>10</dim>
					<dim>40</dim>
					<dim>20</dim>
					<dim>20</dim>
					<dim>20</dim>
				</port>
				<port id="1">
					<dim>40</dim>
					<dim>40</dim>
					<dim>3</dim>
					<dim>3</dim>
					<dim>3</dim>
				</port>
			</input>
			<output>
				<port id="2" precision="FP32">
					<dim>10</dim>
					<dim>40</dim>
					<dim>18</dim>
					<dim>18</dim>
					<dim>18</dim>
				</port>
			</output>
		</layer>
		<layer id="447" name="net/Conv3D_35/add_" type="Add" version="opset1">
			<data auto_broadcast="numpy"/>
			<input>
				<port id="0">
					<dim>10</dim>
					<dim>40</dim>
					<dim>18</dim>
					<dim>18</dim>
					<dim>18</dim>
				</port>
				<port id="1">
					<dim>1</dim>
					<dim>40</dim>
					<dim>1</dim>
					<dim>1</dim>
					<dim>1</dim>
				</port>
			</input>
			<output>
				<port id="2" precision="FP32">
					<dim>10</dim>
					<dim>40</dim>
					<dim>18</dim>
					<dim>18</dim>
					<dim>18</dim>
				</port>
			</output>
		</layer>
		<layer id="448" name="net/Conv3D_35/output_transpose/fq_input_0" type="FakeQuantize" version="opset1">
			<data auto_broadcast="numpy" levels="256"/>
			<input>
				<port id="0">
					<dim>10</dim>
					<dim>40</dim>
					<dim>18</dim>
					<dim>18</dim>
					<dim>18</dim>
				</port>
				<port id="1"/>
				<port id="2"/>
				<port id="3"/>
				<port id="4"/>
			</input>
			<output>
				<port id="5" precision="FP32">
					<dim>10</dim>
					<dim>40</dim>
					<dim>18</dim>
					<dim>18</dim>
					<dim>18</dim>
				</port>
			</output>
		</layer>
		<layer id="449" name="net/Conv3D_35/output_transpose" type="Transpose" version="opset1">
			<input>
				<port id="0">
					<dim>10</dim>
					<dim>40</dim>
					<dim>18</dim>
					<dim>18</dim>
					<dim>18</dim>
				</port>
				<port id="1">
					<dim>5</dim>
				</port>
			</input>
			<output>
				<port id="2" names="net/Conv3D_35:0,net/transpose_83:0" precision="FP32">
					<dim>10</dim>
					<dim>40</dim>
					<dim>18</dim>
					<dim>18</dim>
					<dim>18</dim>
				</port>
			</output>
		</layer>
		<layer id="450" name="net/truediv_32/Fused_Mul_" type="Multiply" version="opset1">
			<data auto_broadcast="numpy"/>
			<input>
				<port id="0">
					<dim>10</dim>
					<dim>40</dim>
					<dim>18</dim>
					<dim>18</dim>
					<dim>18</dim>
				</port>
				<port id="1">
					<dim>1</dim>
					<dim>40</dim>
					<dim>1</dim>
					<dim>1</dim>
					<dim>1</dim>
				</port>
			</input>
			<output>
				<port id="2" precision="FP32">
					<dim>10</dim>
					<dim>40</dim>
					<dim>18</dim>
					<dim>18</dim>
					<dim>18</dim>
				</port>
			</output>
		</layer>
		<layer id="451" name="data_add_11134111393426372812505" type="Const" version="opset1">
			<data element_type="f32" offset="1396260" shape="1,40,1,1,1" size="160"/>
			<output>
				<port id="0" precision="FP32">
					<dim>1</dim>
					<dim>40</dim>
					<dim>1</dim>
					<dim>1</dim>
					<dim>1</dim>
				</port>
			</output>
		</layer>
		<layer id="452" name="net/sub_62/Fused_Add_" type="Add" version="opset1">
			<data auto_broadcast="numpy"/>
			<input>
				<port id="0">
					<dim>10</dim>
					<dim>40</dim>
					<dim>18</dim>
					<dim>18</dim>
					<dim>18</dim>
				</port>
				<port id="1">
					<dim>1</dim>
					<dim>40</dim>
					<dim>1</dim>
					<dim>1</dim>
					<dim>1</dim>
				</port>
			</input>
			<output>
				<port id="2" names="net/add_110:0" precision="FP32">
					<dim>10</dim>
					<dim>40</dim>
					<dim>18</dim>
					<dim>18</dim>
					<dim>18</dim>
				</port>
			</output>
		</layer>
		<layer id="453" name="net/sub_65/sub/fq_input_0" type="FakeQuantize" version="opset1">
			<data auto_broadcast="numpy" levels="256"/>
			<input>
				<port id="0">
					<dim>10</dim>
					<dim>40</dim>
					<dim>18</dim>
					<dim>18</dim>
					<dim>18</dim>
				</port>
				<port id="1"/>
				<port id="2"/>
				<port id="3"/>
				<port id="4"/>
			</input>
			<output>
				<port id="5" precision="FP32">
					<dim>10</dim>
					<dim>40</dim>
					<dim>18</dim>
					<dim>18</dim>
					<dim>18</dim>
				</port>
			</output>
		</layer>
		<layer id="454" name="3036304012160" type="Const" version="opset1">
			<data element_type="f32" offset="1396420" shape="" size="4"/>
			<output>
				<port id="0" precision="FP32"/>
			</output>
		</layer>
		<layer id="455" name="3037304111509" type="Const" version="opset1">
			<data element_type="f32" offset="990396" shape="" size="4"/>
			<output>
				<port id="0" precision="FP32"/>
			</output>
		</layer>
		<layer id="456" name="3038304212778" type="Const" version="opset1">
			<data element_type="f32" offset="1396420" shape="" size="4"/>
			<output>
				<port id="0" precision="FP32"/>
			</output>
		</layer>
		<layer id="457" name="3039304311224" type="Const" version="opset1">
			<data element_type="f32" offset="990396" shape="" size="4"/>
			<output>
				<port id="0" precision="FP32"/>
			</output>
		</layer>
		<layer id="458" name="net/Abs_32" type="Abs" version="opset1">
			<input>
				<port id="0">
					<dim>10</dim>
					<dim>40</dim>
					<dim>18</dim>
					<dim>18</dim>
					<dim>18</dim>
				</port>
			</input>
			<output>
				<port id="1" precision="FP32">
					<dim>10</dim>
					<dim>40</dim>
					<dim>18</dim>
					<dim>18</dim>
					<dim>18</dim>
				</port>
			</output>
		</layer>
		<layer id="459" name="net/sub_65/sub/fq_input_1" type="FakeQuantize" version="opset1">
			<data auto_broadcast="numpy" levels="256"/>
			<input>
				<port id="0">
					<dim>10</dim>
					<dim>40</dim>
					<dim>18</dim>
					<dim>18</dim>
					<dim>18</dim>
				</port>
				<port id="1"/>
				<port id="2"/>
				<port id="3"/>
				<port id="4"/>
			</input>
			<output>
				<port id="5" precision="FP32">
					<dim>10</dim>
					<dim>40</dim>
					<dim>18</dim>
					<dim>18</dim>
					<dim>18</dim>
				</port>
			</output>
		</layer>
		<layer id="460" name="net/sub_65/sub" type="Subtract" version="opset1">
			<data auto_broadcast="numpy"/>
			<input>
				<port id="0">
					<dim>10</dim>
					<dim>40</dim>
					<dim>18</dim>
					<dim>18</dim>
					<dim>18</dim>
				</port>
				<port id="1">
					<dim>10</dim>
					<dim>40</dim>
					<dim>18</dim>
					<dim>18</dim>
					<dim>18</dim>
				</port>
			</input>
			<output>
				<port id="2" names="net/sub_65:0" precision="FP32">
					<dim>10</dim>
					<dim>40</dim>
					<dim>18</dim>
					<dim>18</dim>
					<dim>18</dim>
				</port>
			</output>
		</layer>
		<layer id="461" name="net/mul_97/Fused_Mul_/fq_input_0" type="FakeQuantize" version="opset1">
			<data auto_broadcast="numpy" levels="256"/>
			<input>
				<port id="0">
					<dim>10</dim>
					<dim>40</dim>
					<dim>18</dim>
					<dim>18</dim>
					<dim>18</dim>
				</port>
				<port id="1"/>
				<port id="2"/>
				<port id="3"/>
				<port id="4"/>
			</input>
			<output>
				<port id="5" precision="FP32">
					<dim>10</dim>
					<dim>40</dim>
					<dim>18</dim>
					<dim>18</dim>
					<dim>18</dim>
				</port>
			</output>
		</layer>
		<layer id="462" name="2296230013225" type="Const" version="opset1">
			<data element_type="f32" offset="1396424" shape="1,1,1,1,1" size="4"/>
			<output>
				<port id="0" precision="FP32">
					<dim>1</dim>
					<dim>1</dim>
					<dim>1</dim>
					<dim>1</dim>
					<dim>1</dim>
				</port>
			</output>
		</layer>
		<layer id="463" name="2297230113072" type="Const" version="opset1">
			<data element_type="f32" offset="1396428" shape="1,1,1,1,1" size="4"/>
			<output>
				<port id="0" precision="FP32">
					<dim>1</dim>
					<dim>1</dim>
					<dim>1</dim>
					<dim>1</dim>
					<dim>1</dim>
				</port>
			</output>
		</layer>
		<layer id="464" name="2298230212889" type="Const" version="opset1">
			<data element_type="f32" offset="1396424" shape="1,1,1,1,1" size="4"/>
			<output>
				<port id="0" precision="FP32">
					<dim>1</dim>
					<dim>1</dim>
					<dim>1</dim>
					<dim>1</dim>
					<dim>1</dim>
				</port>
			</output>
		</layer>
		<layer id="465" name="2299230310945" type="Const" version="opset1">
			<data element_type="f32" offset="1396428" shape="1,1,1,1,1" size="4"/>
			<output>
				<port id="0" precision="FP32">
					<dim>1</dim>
					<dim>1</dim>
					<dim>1</dim>
					<dim>1</dim>
					<dim>1</dim>
				</port>
			</output>
		</layer>
		<layer id="466" name="data_mul_11141111433456373312211" type="Const" version="opset1">
			<data element_type="f32" offset="1396432" shape="1,40,1,1,1" size="160"/>
			<output>
				<port id="0" precision="FP32">
					<dim>1</dim>
					<dim>40</dim>
					<dim>1</dim>
					<dim>1</dim>
					<dim>1</dim>
				</port>
			</output>
		</layer>
		<layer id="467" name="net/mul_97/Fused_Mul_/fq_input_1" type="FakeQuantize" version="opset1">
			<data auto_broadcast="numpy" levels="255"/>
			<input>
				<port id="0">
					<dim>1</dim>
					<dim>40</dim>
					<dim>1</dim>
					<dim>1</dim>
					<dim>1</dim>
				</port>
				<port id="1">
					<dim>1</dim>
					<dim>1</dim>
					<dim>1</dim>
					<dim>1</dim>
					<dim>1</dim>
				</port>
				<port id="2">
					<dim>1</dim>
					<dim>1</dim>
					<dim>1</dim>
					<dim>1</dim>
					<dim>1</dim>
				</port>
				<port id="3">
					<dim>1</dim>
					<dim>1</dim>
					<dim>1</dim>
					<dim>1</dim>
					<dim>1</dim>
				</port>
				<port id="4">
					<dim>1</dim>
					<dim>1</dim>
					<dim>1</dim>
					<dim>1</dim>
					<dim>1</dim>
				</port>
			</input>
			<output>
				<port id="5" precision="FP32">
					<dim>1</dim>
					<dim>40</dim>
					<dim>1</dim>
					<dim>1</dim>
					<dim>1</dim>
				</port>
			</output>
		</layer>
		<layer id="468" name="net/mul_97/Fused_Mul_" type="Multiply" version="opset1">
			<data auto_broadcast="numpy"/>
			<input>
				<port id="0">
					<dim>10</dim>
					<dim>40</dim>
					<dim>18</dim>
					<dim>18</dim>
					<dim>18</dim>
				</port>
				<port id="1">
					<dim>1</dim>
					<dim>40</dim>
					<dim>1</dim>
					<dim>1</dim>
					<dim>1</dim>
				</port>
			</input>
			<output>
				<port id="2" names="net/mul_98:0" precision="FP32">
					<dim>10</dim>
					<dim>40</dim>
					<dim>18</dim>
					<dim>18</dim>
					<dim>18</dim>
				</port>
			</output>
		</layer>
		<layer id="469" name="net/add_115/fq_input_1" type="FakeQuantize" version="opset1">
			<data auto_broadcast="numpy" levels="256"/>
			<input>
				<port id="0">
					<dim>10</dim>
					<dim>40</dim>
					<dim>18</dim>
					<dim>18</dim>
					<dim>18</dim>
				</port>
				<port id="1"/>
				<port id="2"/>
				<port id="3"/>
				<port id="4"/>
			</input>
			<output>
				<port id="5" precision="FP32">
					<dim>10</dim>
					<dim>40</dim>
					<dim>18</dim>
					<dim>18</dim>
					<dim>18</dim>
				</port>
			</output>
		</layer>
		<layer id="470" name="4692469611119" type="Const" version="opset1">
…
		<edge from-layer="911" from-port="0" to-layer="915" to-port="2"/>
		<edge from-layer="912" from-port="0" to-layer="915" to-port="3"/>
		<edge from-layer="913" from-port="0" to-layer="915" to-port="4"/>
		<edge from-layer="944" from-port="0" to-layer="945" to-port="0"/>
		<edge from-layer="940" from-port="0" to-layer="945" to-port="1"/>
		<edge from-layer="941" from-port="0" to-layer="945" to-port="2"/>
		<edge from-layer="942" from-port="0" to-layer="945" to-port="3"/>
		<edge from-layer="943" from-port="0" to-layer="945" to-port="4"/>
		<edge from-layer="974" from-port="0" to-layer="975" to-port="0"/>
		<edge from-layer="970" from-port="0" to-layer="975" to-port="1"/>
		<edge from-layer="971" from-port="0" to-layer="975" to-port="2"/>
		<edge from-layer="972" from-port="0" to-layer="975" to-port="3"/>
		<edge from-layer="973" from-port="0" to-layer="975" to-port="4"/>
		<edge from-layer="1004" from-port="0" to-layer="1005" to-port="0"/>
		<edge from-layer="1000" from-port="0" to-layer="1005" to-port="1"/>
		<edge from-layer="1001" from-port="0" to-layer="1005" to-port="2"/>
		<edge from-layer="1002" from-port="0" to-layer="1005" to-port="3"/>
		<edge from-layer="1003" from-port="0" to-layer="1005" to-port="4"/>
		<edge from-layer="1011" from-port="0" to-layer="1013" to-port="0"/>
		<edge from-layer="1012" from-port="0" to-layer="1013" to-port="1"/>
		<edge from-layer="1013" from-port="2" to-layer="1014" to-port="0"/>
		<edge from-layer="1007" from-port="0" to-layer="1014" to-port="1"/>
		<edge from-layer="1008" from-port="0" to-layer="1014" to-port="2"/>
		<edge from-layer="1009" from-port="0" to-layer="1014" to-port="3"/>
		<edge from-layer="1010" from-port="0" to-layer="1014" to-port="4"/>
		<edge from-layer="1014" from-port="5" to-layer="1015" to-port="0"/>
		<edge from-layer="1006" from-port="0" to-layer="1015" to-port="1"/>
		<edge from-layer="1015" from-port="2" to-layer="1016" to-port="0"/>
		<edge from-layer="1005" from-port="5" to-layer="1016" to-port="1"/>
		<edge from-layer="1016" from-port="2" to-layer="1017" to-port="0"/>
		<edge from-layer="999" from-port="0" to-layer="1017" to-port="1"/>
		<edge from-layer="1017" from-port="2" to-layer="1018" to-port="0"/>
		<edge from-layer="995" from-port="0" to-layer="1018" to-port="1"/>
		<edge from-layer="996" from-port="0" to-layer="1018" to-port="2"/>
		<edge from-layer="997" from-port="0" to-layer="1018" to-port="3"/>
		<edge from-layer="998" from-port="0" to-layer="1018" to-port="4"/>
		<edge from-layer="1018" from-port="5" to-layer="1019" to-port="0"/>
		<edge from-layer="994" from-port="0" to-layer="1019" to-port="1"/>
		<edge from-layer="1019" from-port="2" to-layer="1020" to-port="0"/>
		<edge from-layer="993" from-port="0" to-layer="1020" to-port="1"/>
		<edge from-layer="1020" from-port="2" to-layer="1022" to-port="0"/>
		<edge from-layer="1021" from-port="0" to-layer="1022" to-port="1"/>
		<edge from-layer="1022" from-port="2" to-layer="1023" to-port="0"/>
		<edge from-layer="989" from-port="0" to-layer="1023" to-port="1"/>
		<edge from-layer="990" from-port="0" to-layer="1023" to-port="2"/>
		<edge from-layer="991" from-port="0" to-layer="1023" to-port="3"/>
		<edge from-layer="992" from-port="0" to-layer="1023" to-port="4"/>
		<edge from-layer="1022" from-port="2" to-layer="1028" to-port="0"/>
		<edge from-layer="1028" from-port="1" to-layer="1029" to-port="0"/>
		<edge from-layer="1024" from-port="0" to-layer="1029" to-port="1"/>
		<edge from-layer="1025" from-port="0" to-layer="1029" to-port="2"/>
		<edge from-layer="1026" from-port="0" to-layer="1029" to-port="3"/>
		<edge from-layer="1027" from-port="0" to-layer="1029" to-port="4"/>
		<edge from-layer="1023" from-port="5" to-layer="1030" to-port="0"/>
		<edge from-layer="1029" from-port="5" to-layer="1030" to-port="1"/>
		<edge from-layer="1030" from-port="2" to-layer="1031" to-port="0"/>
		<edge from-layer="985" from-port="0" to-layer="1031" to-port="1"/>
		<edge from-layer="986" from-port="0" to-layer="1031" to-port="2"/>
		<edge from-layer="987" from-port="0" to-layer="1031" to-port="3"/>
		<edge from-layer="988" from-port="0" to-layer="1031" to-port="4"/>
		<edge from-layer="1036" from-port="0" to-layer="1037" to-port="0"/>
		<edge from-layer="1032" from-port="0" to-layer="1037" to-port="1"/>
		<edge from-layer="1033" from-port="0" to-layer="1037" to-port="2"/>
		<edge from-layer="1034" from-port="0" to-layer="1037" to-port="3"/>
		<edge from-layer="1035" from-port="0" to-layer="1037" to-port="4"/>
		<edge from-layer="1031" from-port="5" to-layer="1038" to-port="0"/>
		<edge from-layer="1037" from-port="5" to-layer="1038" to-port="1"/>
		<edge from-layer="1038" from-port="2" to-layer="1039" to-port="0"/>
		<edge from-layer="981" from-port="0" to-layer="1039" to-port="1"/>
		<edge from-layer="982" from-port="0" to-layer="1039" to-port="2"/>
		<edge from-layer="983" from-port="0" to-layer="1039" to-port="3"/>
		<edge from-layer="984" from-port="0" to-layer="1039" to-port="4"/>
		<edge from-layer="1044" from-port="0" to-layer="1045" to-port="0"/>
		<edge from-layer="1040" from-port="0" to-layer="1045" to-port="1"/>
		<edge from-layer="1041" from-port="0" to-layer="1045" to-port="2"/>
		<edge from-layer="1042" from-port="0" to-layer="1045" to-port="3"/>
		<edge from-layer="1043" from-port="0" to-layer="1045" to-port="4"/>
		<edge from-layer="1045" from-port="5" to-layer="1046" to-port="0"/>
		<edge from-layer="1022" from-port="2" to-layer="1046" to-port="1"/>
		<edge from-layer="1046" from-port="2" to-layer="1047" to-port="0"/>
		<edge from-layer="1039" from-port="5" to-layer="1047" to-port="1"/>
		<edge from-layer="1047" from-port="2" to-layer="1048" to-port="0"/>
		<edge from-layer="977" from-port="0" to-layer="1048" to-port="1"/>
		<edge from-layer="978" from-port="0" to-layer="1048" to-port="2"/>
		<edge from-layer="979" from-port="0" to-layer="1048" to-port="3"/>
		<edge from-layer="980" from-port="0" to-layer="1048" to-port="4"/>
		<edge from-layer="1048" from-port="5" to-layer="1049" to-port="0"/>
		<edge from-layer="976" from-port="0" to-layer="1049" to-port="1"/>
		<edge from-layer="1049" from-port="2" to-layer="1050" to-port="0"/>
		<edge from-layer="975" from-port="5" to-layer="1050" to-port="1"/>
		<edge from-layer="1050" from-port="2" to-layer="1051" to-port="0"/>
		<edge from-layer="969" from-port="0" to-layer="1051" to-port="1"/>
		<edge from-layer="1051" from-port="2" to-layer="1052" to-port="0"/>
		<edge from-layer="965" from-port="0" to-layer="1052" to-port="1"/>
		<edge from-layer="966" from-port="0" to-layer="1052" to-port="2"/>
		<edge from-layer="967" from-port="0" to-layer="1052" to-port="3"/>
		<edge from-layer="968" from-port="0" to-layer="1052" to-port="4"/>
		<edge from-layer="1052" from-port="5" to-layer="1053" to-port="0"/>
		<edge from-layer="964" from-port="0" to-layer="1053" to-port="1"/>
		<edge from-layer="1053" from-port="2" to-layer="1054" to-port="0"/>
		<edge from-layer="963" from-port="0" to-layer="1054" to-port="1"/>
		<edge from-layer="1054" from-port="2" to-layer="1056" to-port="0"/>
		<edge from-layer="1055" from-port="0" to-layer="1056" to-port="1"/>
		<edge from-layer="1056" from-port="2" to-layer="1057" to-port="0"/>
		<edge from-layer="959" from-port="0" to-layer="1057" to-port="1"/>
		<edge from-layer="960" from-port="0" to-layer="1057" to-port="2"/>
		<edge from-layer="961" from-port="0" to-layer="1057" to-port="3"/>
		<edge from-layer="962" from-port="0" to-layer="1057" to-port="4"/>
		<edge from-layer="1056" from-port="2" to-layer="1062" to-port="0"/>
		<edge from-layer="1062" from-port="1" to-layer="1063" to-port="0"/>
		<edge from-layer="1058" from-port="0" to-layer="1063" to-port="1"/>
		<edge from-layer="1059" from-port="0" to-layer="1063" to-port="2"/>
		<edge from-layer="1060" from-port="0" to-layer="1063" to-port="3"/>
		<edge from-layer="1061" from-port="0" to-layer="1063" to-port="4"/>
		<edge from-layer="1057" from-port="5" to-layer="1064" to-port="0"/>
		<edge from-layer="1063" from-port="5" to-layer="1064" to-port="1"/>
		<edge from-layer="1064" from-port="2" to-layer="1065" to-port="0"/>
		<edge from-layer="955" from-port="0" to-layer="1065" to-port="1"/>
		<edge from-layer="956" from-port="0" to-layer="1065" to-port="2"/>
		<edge from-layer="957" from-port="0" to-layer="1065" to-port="3"/>
		<edge from-layer="958" from-port="0" to-layer="1065" to-port="4"/>
		<edge from-layer="1070" from-port="0" to-layer="1071" to-port="0"/>
		<edge from-layer="1066" from-port="0" to-layer="1071" to-port="1"/>
		<edge from-layer="1067" from-port="0" to-layer="1071" to-port="2"/>
		<edge from-layer="1068" from-port="0" to-layer="1071" to-port="3"/>
		<edge from-layer="1069" from-port="0" to-layer="1071" to-port="4"/>
		<edge from-layer="1065" from-port="5" to-layer="1072" to-port="0"/>
		<edge from-layer="1071" from-port="5" to-layer="1072" to-port="1"/>
		<edge from-layer="1072" from-port="2" to-layer="1073" to-port="0"/>
		<edge from-layer="951" from-port="0" to-layer="1073" to-port="1"/>
		<edge from-layer="952" from-port="0" to-layer="1073" to-port="2"/>
		<edge from-layer="953" from-port="0" to-layer="1073" to-port="3"/>
		<edge from-layer="954" from-port="0" to-layer="1073" to-port="4"/>
		<edge from-layer="1078" from-port="0" to-layer="1079" to-port="0"/>
		<edge from-layer="1074" from-port="0" to-layer="1079" to-port="1"/>
		<edge from-layer="1075" from-port="0" to-layer="1079" to-port="2"/>
		<edge from-layer="1076" from-port="0" to-layer="1079" to-port="3"/>
		<edge from-layer="1077" from-port="0" to-layer="1079" to-port="4"/>
		<edge from-layer="1079" from-port="5" to-layer="1080" to-port="0"/>
		<edge from-layer="1056" from-port="2" to-layer="1080" to-port="1"/>
		<edge from-layer="1080" from-port="2" to-layer="1081" to-port="0"/>
		<edge from-layer="1073" from-port="5" to-layer="1081" to-port="1"/>
		<edge from-layer="1081" from-port="2" to-layer="1082" to-port="0"/>
		<edge from-layer="947" from-port="0" to-layer="1082" to-port="1"/>
		<edge from-layer="948" from-port="0" to-layer="1082" to-port="2"/>
		<edge from-layer="949" from-port="0" to-layer="1082" to-port="3"/>
		<edge from-layer="950" from-port="0" to-layer="1082" to-port="4"/>
		<edge from-layer="1082" from-port="5" to-layer="1083" to-port="0"/>
		<edge from-layer="946" from-port="0" to-layer="1083" to-port="1"/>
		<edge from-layer="1083" from-port="2" to-layer="1084" to-port="0"/>
		<edge from-layer="945" from-port="5" to-layer="1084" to-port="1"/>
		<edge from-layer="1084" from-port="2" to-layer="1085" to-port="0"/>
		<edge from-layer="939" from-port="0" to-layer="1085" to-port="1"/>
		<edge from-layer="1085" from-port="2" to-layer="1086" to-port="0"/>
		<edge from-layer="935" from-port="0" to-layer="1086" to-port="1"/>
		<edge from-layer="936" from-port="0" to-layer="1086" to-port="2"/>
		<edge from-layer="937" from-port="0" to-layer="1086" to-port="3"/>
		<edge from-layer="938" from-port="0" to-layer="1086" to-port="4"/>
		<edge from-layer="1086" from-port="5" to-layer="1087" to-port="0"/>
		<edge from-layer="934" from-port="0" to-layer="1087" to-port="1"/>
		<edge from-layer="1087" from-port="2" to-layer="1088" to-port="0"/>
		<edge from-layer="933" from-port="0" to-layer="1088" to-port="1"/>
		<edge from-layer="1088" from-port="2" to-layer="1090" to-port="0"/>
		<edge from-layer="1089" from-port="0" to-layer="1090" to-port="1"/>
		<edge from-layer="1090" from-port="2" to-layer="1091" to-port="0"/>
		<edge from-layer="929" from-port="0" to-layer="1091" to-port="1"/>
		<edge from-layer="930" from-port="0" to-layer="1091" to-port="2"/>
		<edge from-layer="931" from-port="0" to-layer="1091" to-port="3"/>
		<edge from-layer="932" from-port="0" to-layer="1091" to-port="4"/>
		<edge from-layer="1090" from-port="2" to-layer="1096" to-port="0"/>
		<edge from-layer="1096" from-port="1" to-layer="1097" to-port="0"/>
		<edge from-layer="1092" from-port="0" to-layer="1097" to-port="1"/>
		<edge from-layer="1093" from-port="0" to-layer="1097" to-port="2"/>
		<edge from-layer="1094" from-port="0" to-layer="1097" to-port="3"/>
		<edge from-layer="1095" from-port="0" to-layer="1097" to-port="4"/>
		<edge from-layer="1091" from-port="5" to-layer="1098" to-port="0"/>
		<edge from-layer="1097" from-port="5" to-layer="1098" to-port="1"/>
		<edge from-layer="1098" from-port="2" to-layer="1099" to-port="0"/>
		<edge from-layer="925" from-port="0" to-layer="1099" to-port="1"/>
		<edge from-layer="926" from-port="0" to-layer="1099" to-port="2"/>
		<edge from-layer="927" from-port="0" to-layer="1099" to-port="3"/>
		<edge from-layer="928" from-port="0" to-layer="1099" to-port="4"/>
		<edge from-layer="1104" from-port="0" to-layer="1105" to-port="0"/>
		<edge from-layer="1100" from-port="0" to-layer="1105" to-port="1"/>
		<edge from-layer="1101" from-port="0" to-layer="1105" to-port="2"/>
		<edge from-layer="1102" from-port="0" to-layer="1105" to-port="3"/>
		<edge from-layer="1103" from-port="0" to-layer="1105" to-port="4"/>
		<edge from-layer="1099" from-port="5" to-layer="1106" to-port="0"/>
		<edge from-layer="1105" from-port="5" to-layer="1106" to-port="1"/>
		<edge from-layer="1106" from-port="2" to-layer="1107" to-port="0"/>
		<edge from-layer="921" from-port="0" to-layer="1107" to-port="1"/>
		<edge from-layer="922" from-port="0" to-layer="1107" to-port="2"/>
		<edge from-layer="923" from-port="0" to-layer="1107" to-port="3"/>
		<edge from-layer="924" from-port="0" to-layer="1107" to-port="4"/>
		<edge from-layer="1112" from-port="0" to-layer="1113" to-port="0"/>
		<edge from-layer="1108" from-port="0" to-layer="1113" to-port="1"/>
		<edge from-layer="1109" from-port="0" to-layer="1113" to-port="2"/>
		<edge from-layer="1110" from-port="0" to-layer="1113" to-port="3"/>
		<edge from-layer="1111" from-port="0" to-layer="1113" to-port="4"/>
		<edge from-layer="1113" from-port="5" to-layer="1114" to-port="0"/>
		<edge from-layer="1090" from-port="2" to-layer="1114" to-port="1"/>
		<edge from-layer="1114" from-port="2" to-layer="1115" to-port="0"/>
		<edge from-layer="1107" from-port="5" to-layer="1115" to-port="1"/>
		<edge from-layer="1115" from-port="2" to-layer="1116" to-port="0"/>
		<edge from-layer="917" from-port="0" to-layer="1116" to-port="1"/>
		<edge from-layer="918" from-port="0" to-layer="1116" to-port="2"/>
		<edge from-layer="919" from-port="0" to-layer="1116" to-port="3"/>
		<edge from-layer="920" from-port="0" to-layer="1116" to-port="4"/>
		<edge from-layer="1116" from-port="5" to-layer="1117" to-port="0"/>
		<edge from-layer="916" from-port="0" to-layer="1117" to-port="1"/>
		<edge from-layer="1117" from-port="2" to-layer="1118" to-port="0"/>
		<edge from-layer="915" from-port="5" to-layer="1118" to-port="1"/>
		<edge from-layer="1118" from-port="2" to-layer="1119" to-port="0"/>
		<edge from-layer="909" from-port="0" to-layer="1119" to-port="1"/>
		<edge from-layer="1119" from-port="2" to-layer="1120" to-port="0"/>
		<edge from-layer="905" from-port="0" to-layer="1120" to-port="1"/>
		<edge from-layer="906" from-port="0" to-layer="1120" to-port="2"/>
		<edge from-layer="907" from-port="0" to-layer="1120" to-port="3"/>
		<edge from-layer="908" from-port="0" to-layer="1120" to-port="4"/>
		<edge from-layer="1120" from-port="5" to-layer="1121" to-port="0"/>
		<edge from-layer="904" from-port="0" to-layer="1121" to-port="1"/>
		<edge from-layer="1121" from-port="2" to-layer="1122" to-port="0"/>
		<edge from-layer="903" from-port="0" to-layer="1122" to-port="1"/>
		<edge from-layer="1122" from-port="2" to-layer="1124" to-port="0"/>
		<edge from-layer="1123" from-port="0" to-layer="1124" to-port="1"/>
		<edge from-layer="1124" from-port="2" to-layer="1125" to-port="0"/>
		<edge from-layer="899" from-port="0" to-layer="1125" to-port="1"/>
		<edge from-layer="900" from-port="0" to-layer="1125" to-port="2"/>
		<edge from-layer="901" from-port="0" to-layer="1125" to-port="3"/>
		<edge from-layer="902" from-port="0" to-layer="1125" to-port="4"/>
		<edge from-layer="1124" from-port="2" to-layer="1130" to-port="0"/>
		<edge from-layer="1130" from-port="1" to-layer="1131" to-port="0"/>
		<edge from-layer="1126" from-port="0" to-layer="1131" to-port="1"/>
		<edge from-layer="1127" from-port="0" to-layer="1131" to-port="2"/>
		<edge from-layer="1128" from-port="0" to-layer="1131" to-port="3"/>
		<edge from-layer="1129" from-port="0" to-layer="1131" to-port="4"/>
		<edge from-layer="1125" from-port="5" to-layer="1132" to-port="0"/>
		<edge from-layer="1131" from-port="5" to-layer="1132" to-port="1"/>
		<edge from-layer="1132" from-port="2" to-layer="1133" to-port="0"/>
		<edge from-layer="895" from-port="0" to-layer="1133" to-port="1"/>
		<edge from-layer="896" from-port="0" to-layer="1133" to-port="2"/>
		<edge from-layer="897" from-port="0" to-layer="1133" to-port="3"/>
		<edge from-layer="898" from-port="0" to-layer="1133" to-port="4"/>
		<edge from-layer="1138" from-port="0" to-layer="1139" to-port="0"/>
		<edge from-layer="1134" from-port="0" to-layer="1139" to-port="1"/>
		<edge from-layer="1135" from-port="0" to-layer="1139" to-port="2"/>
		<edge from-layer="1136" from-port="0" to-layer="1139" to-port="3"/>
		<edge from-layer="1137" from-port="0" to-layer="1139" to-port="4"/>
		<edge from-layer="1133" from-port="5" to-layer="1140" to-port="0"/>
		<edge from-layer="1139" from-port="5" to-layer="1140" to-port="1"/>
		<edge from-layer="1140" from-port="2" to-layer="1141" to-port="0"/>
		<edge from-layer="891" from-port="0" to-layer="1141" to-port="1"/>
		<edge from-layer="892" from-port="0" to-layer="1141" to-port="2"/>
		<edge from-layer="893" from-port="0" to-layer="1141" to-port="3"/>
		<edge from-layer="894" from-port="0" to-layer="1141" to-port="4"/>
		<edge from-layer="1146" from-port="0" to-layer="1147" to-port="0"/>
		<edge from-layer="1142" from-port="0" to-layer="1147" to-port="1"/>
		<edge from-layer="1143" from-port="0" to-layer="1147" to-port="2"/>
		<edge from-layer="1144" from-port="0" to-layer="1147" to-port="3"/>
		<edge from-layer="1145" from-port="0" to-layer="1147" to-port="4"/>
		<edge from-layer="1147" from-port="5" to-layer="1148" to-port="0"/>
		<edge from-layer="1124" from-port="2" to-layer="1148" to-port="1"/>
		<edge from-layer="1148" from-port="2" to-layer="1149" to-port="0"/>
		<edge from-layer="1141" from-port="5" to-layer="1149" to-port="1"/>
		<edge from-layer="1149" from-port="2" to-layer="1150" to-port="0"/>
		<edge from-layer="887" from-port="0" to-layer="1150" to-port="1"/>
		<edge from-layer="888" from-port="0" to-layer="1150" to-port="2"/>
		<edge from-layer="889" from-port="0" to-layer="1150" to-port="3"/>
		<edge from-layer="890" from-port="0" to-layer="1150" to-port="4"/>
		<edge from-layer="1150" from-port="5" to-layer="1151" to-port="0"/>
		<edge from-layer="886" from-port="0" to-layer="1151" to-port="1"/>
		<edge from-layer="1151" from-port="2" to-layer="1152" to-port="0"/>
		<edge from-layer="885" from-port="5" to-layer="1152" to-port="1"/>
		<edge from-layer="1152" from-port="2" to-layer="1153" to-port="0"/>
		<edge from-layer="879" from-port="0" to-layer="1153" to-port="1"/>
		<edge from-layer="1153" from-port="2" to-layer="1154" to-port="0"/>
		<edge from-layer="875" from-port="0" to-layer="1154" to-port="1"/>
		<edge from-layer="876" from-port="0" to-layer="1154" to-port="2"/>
		<edge from-layer="877" from-port="0" to-layer="1154" to-port="3"/>
		<edge from-layer="878" from-port="0" to-layer="1154" to-port="4"/>
		<edge from-layer="1154" from-port="5" to-layer="1155" to-port="0"/>
		<edge from-layer="874" from-port="0" to-layer="1155" to-port="1"/>
		<edge from-layer="1155" from-port="2" to-layer="1156" to-port="0"/>
		<edge from-layer="873" from-port="0" to-layer="1156" to-port="1"/>
		<edge from-layer="1156" from-port="2" to-layer="1158" to-port="0"/>
		<edge from-layer="1157" from-port="0" to-layer="1158" to-port="1"/>
		<edge from-layer="1158" from-port="2" to-layer="1159" to-port="0"/>
		<edge from-layer="869" from-port="0" to-layer="1159" to-port="1"/>
		<edge from-layer="870" from-port="0" to-layer="1159" to-port="2"/>
		<edge from-layer="871" from-port="0" to-layer="1159" to-port="3"/>
		<edge from-layer="872" from-port="0" to-layer="1159" to-port="4"/>
		<edge from-layer="1158" from-port="2" to-layer="1164" to-port="0"/>
		<edge from-layer="1164" from-port="1" to-layer="1165" to-port="0"/>
		<edge from-layer="1160" from-port="0" to-layer="1165" to-port="1"/>
		<edge from-layer="1161" from-port="0" to-layer="1165" to-port="2"/>
		<edge from-layer="1162" from-port="0" to-layer="1165" to-port="3"/>
		<edge from-layer="1163" from-port="0" to-layer="1165" to-port="4"/>
		<edge from-layer="1159" from-port="5" to-layer="1166" to-port="0"/>
		<edge from-layer="1165" from-port="5" to-layer="1166" to-port="1"/>
		<edge from-layer="1166" from-port="2" to-layer="1167" to-port="0"/>
		<edge from-layer="865" from-port="0" to-layer="1167" to-port="1"/>
		<edge from-layer="866" from-port="0" to-layer="1167" to-port="2"/>
		<edge from-layer="867" from-port="0" to-layer="1167" to-port="3"/>
		<edge from-layer="868" from-port="0" to-layer="1167" to-port="4"/>
		<edge from-layer="1172" from-port="0" to-layer="1173" to-port="0"/>
		<edge from-layer="1168" from-port="0" to-layer="1173" to-port="1"/>
		<edge from-layer="1169" from-port="0" to-layer="1173" to-port="2"/>
		<edge from-layer="1170" from-port="0" to-layer="1173" to-port="3"/>
		<edge from-layer="1171" from-port="0" to-layer="1173" to-port="4"/>
		<edge from-layer="1167" from-port="5" to-layer="1174" to-port="0"/>
		<edge from-layer="1173" from-port="5" to-layer="1174" to-port="1"/>
		<edge from-layer="1174" from-port="2" to-layer="1175" to-port="0"/>
		<edge from-layer="861" from-port="0" to-layer="1175" to-port="1"/>
		<edge from-layer="862" from-port="0" to-layer="1175" to-port="2"/>
		<edge from-layer="863" from-port="0" to-layer="1175" to-port="3"/>
		<edge from-layer="864" from-port="0" to-layer="1175" to-port="4"/>
		<edge from-layer="1180" from-port="0" to-layer="1181" to-port="0"/>
		<edge from-layer="1176" from-port="0" to-layer="1181" to-port="1"/>
		<edge from-layer="1177" from-port="0" to-layer="1181" to-port="2"/>
		<edge from-layer="1178" from-port="0" to-layer="1181" to-port="3"/>
		<edge from-layer="1179" from-port="0" to-layer="1181" to-port="4"/>
		<edge from-layer="1181" from-port="5" to-layer="1182" to-port="0"/>
		<edge from-layer="1158" from-port="2" to-layer="1182" to-port="1"/>
		<edge from-layer="1182" from-port="2" to-layer="1183" to-port="0"/>
		<edge from-layer="1175" from-port="5" to-layer="1183" to-port="1"/>
		<edge from-layer="1183" from-port="2" to-layer="1184" to-port="0"/>
		<edge from-layer="857" from-port="0" to-layer="1184" to-port="1"/>
		<edge from-layer="858" from-port="0" to-layer="1184" to-port="2"/>
		<edge from-layer="859" from-port="0" to-layer="1184" to-port="3"/>
		<edge from-layer="860" from-port="0" to-layer="1184" to-port="4"/>
		<edge from-layer="1184" from-port="5" to-layer="1185" to-port="0"/>
		<edge from-layer="856" from-port="0" to-layer="1185" to-port="1"/>
		<edge from-layer="1185" from-port="2" to-layer="1186" to-port="0"/>
		<edge from-layer="855" from-port="5" to-layer="1186" to-port="1"/>
		<edge from-layer="1186" from-port="2" to-layer="1187" to-port="0"/>
		<edge from-layer="849" from-port="0" to-layer="1187" to-port="1"/>
		<edge from-layer="1187" from-port="2" to-layer="1188" to-port="0"/>
		<edge from-layer="845" from-port="0" to-layer="1188" to-port="1"/>
		<edge from-layer="846" from-port="0" to-layer="1188" to-port="2"/>
		<edge from-layer="847" from-port="0" to-layer="1188" to-port="3"/>
		<edge from-layer="848" from-port="0" to-layer="1188" to-port="4"/>
		<edge from-layer="1188" from-port="5" to-layer="1189" to-port="0"/>
		<edge from-layer="844" from-port="0" to-layer="1189" to-port="1"/>
		<edge from-layer="1189" from-port="2" to-layer="1190" to-port="0"/>
		<edge from-layer="843" from-port="0" to-layer="1190" to-port="1"/>
		<edge from-layer="1190" from-port="2" to-layer="1192" to-port="0"/>
		<edge from-layer="1191" from-port="0" to-layer="1192" to-port="1"/>
		<edge from-layer="1192" from-port="2" to-layer="1193" to-port="0"/>
		<edge from-layer="839" from-port="0" to-layer="1193" to-port="1"/>
		<edge from-layer="840" from-port="0" to-layer="1193" to-port="2"/>
		<edge from-layer="841" from-port="0" to-layer="1193" to-port="3"/>
		<edge from-layer="842" from-port="0" to-layer="1193" to-port="4"/>
		<edge from-layer="1192" from-port="2" to-layer="1198" to-port="0"/>
		<edge from-layer="1198" from-port="1" to-layer="1199" to-port="0"/>
		<edge from-layer="1194" from-port="0" to-layer="1199" to-port="1"/>
		<edge from-layer="1195" from-port="0" to-layer="1199" to-port="2"/>
		<edge from-layer="1196" from-port="0" to-layer="1199" to-port="3"/>
		<edge from-layer="1197" from-port="0" to-layer="1199" to-port="4"/>
		<edge from-layer="1193" from-port="5" to-layer="1200" to-port="0"/>
		<edge from-layer="1199" from-port="5" to-layer="1200" to-port="1"/>
		<edge from-layer="1200" from-port="2" to-layer="1201" to-port="0"/>
		<edge from-layer="835" from-port="0" to-layer="1201" to-port="1"/>
		<edge from-layer="836" from-port="0" to-layer="1201" to-port="2"/>
		<edge from-layer="837" from-port="0" to-layer="1201" to-port="3"/>
		<edge from-layer="838" from-port="0" to-layer="1201" to-port="4"/>
		<edge from-layer="1206" from-port="0" to-layer="1207" to-port="0"/>
		<edge from-layer="1202" from-port="0" to-layer="1207" to-port="1"/>
		<edge from-layer="1203" from-port="0" to-layer="1207" to-port="2"/>
		<edge from-layer="1204" from-port="0" to-layer="1207" to-port="3"/>
		<edge from-layer="1205" from-port="0" to-layer="1207" to-port="4"/>
		<edge from-layer="1201" from-port="5" to-layer="1208" to-port="0"/>
		<edge from-layer="1207" from-port="5" to-layer="1208" to-port="1"/>
		<edge from-layer="1208" from-port="2" to-layer="1209" to-port="0"/>
		<edge from-layer="831" from-port="0" to-layer="1209" to-port="1"/>
		<edge from-layer="832" from-port="0" to-layer="1209" to-port="2"/>
		<edge from-layer="833" from-port="0" to-layer="1209" to-port="3"/>
		<edge from-layer="834" from-port="0" to-layer="1209" to-port="4"/>
		<edge from-layer="1214" from-port="0" to-layer="1215" to-port="0"/>
		<edge from-layer="1210" from-port="0" to-layer="1215" to-port="1"/>
		<edge from-layer="1211" from-port="0" to-layer="1215" to-port="2"/>
		<edge from-layer="1212" from-port="0" to-layer="1215" to-port="3"/>
		<edge from-layer="1213" from-port="0" to-layer="1215" to-port="4"/>
		<edge from-layer="1215" from-port="5" to-layer="1216" to-port="0"/>
		<edge from-layer="1192" from-port="2" to-layer="1216" to-port="1"/>
		<edge from-layer="1216" from-port="2" to-layer="1217" to-port="0"/>
		<edge from-layer="1209" from-port="5" to-layer="1217" to-port="1"/>
		<edge from-layer="1217" from-port="2" to-layer="1218" to-port="0"/>
		<edge from-layer="827" from-port="0" to-layer="1218" to-port="1"/>
		<edge from-layer="828" from-port="0" to-layer="1218" to-port="2"/>
		<edge from-layer="829" from-port="0" to-layer="1218" to-port="3"/>
		<edge from-layer="830" from-port="0" to-layer="1218" to-port="4"/>
		<edge from-layer="1218" from-port="5" to-layer="1219" to-port="0"/>
		<edge from-layer="826" from-port="0" to-layer="1219" to-port="1"/>
		<edge from-layer="1219" from-port="2" to-layer="1220" to-port="0"/>
		<edge from-layer="825" from-port="5" to-layer="1220" to-port="1"/>
		<edge from-layer="1220" from-port="2" to-layer="1221" to-port="0"/>
		<edge from-layer="819" from-port="0" to-layer="1221" to-port="1"/>
		<edge from-layer="1221" from-port="2" to-layer="1222" to-port="0"/>
		<edge from-layer="815" from-port="0" to-layer="1222" to-port="1"/>
		<edge from-layer="816" from-port="0" to-layer="1222" to-port="2"/>
		<edge from-layer="817" from-port="0" to-layer="1222" to-port="3"/>
		<edge from-layer="818" from-port="0" to-layer="1222" to-port="4"/>
		<edge from-layer="1222" from-port="5" to-layer="1223" to-port="0"/>
		<edge from-layer="814" from-port="0" to-layer="1223" to-port="1"/>
		<edge from-layer="1223" from-port="2" to-layer="1224" to-port="0"/>
		<edge from-layer="813" from-port="0" to-layer="1224" to-port="1"/>
		<edge from-layer="1224" from-port="2" to-layer="1226" to-port="0"/>
		<edge from-layer="1225" from-port="0" to-layer="1226" to-port="1"/>
		<edge from-layer="1226" from-port="2" to-layer="1227" to-port="0"/>
		<edge from-layer="809" from-port="0" to-layer="1227" to-port="1"/>
		<edge from-layer="810" from-port="0" to-layer="1227" to-port="2"/>
		<edge from-layer="811" from-port="0" to-layer="1227" to-port="3"/>
		<edge from-layer="812" from-port="0" to-layer="1227" to-port="4"/>
		<edge from-layer="1226" from-port="2" to-layer="1232" to-port="0"/>
		<edge from-layer="1232" from-port="1" to-layer="1233" to-port="0"/>
		<edge from-layer="1228" from-port="0" to-layer="1233" to-port="1"/>
		<edge from-layer="1229" from-port="0" to-layer="1233" to-port="2"/>
		<edge from-layer="1230" from-port="0" to-layer="1233" to-port="3"/>
		<edge from-layer="1231" from-port="0" to-layer="1233" to-port="4"/>
		<edge from-layer="1227" from-port="5" to-layer="1234" to-port="0"/>
		<edge from-layer="1233" from-port="5" to-layer="1234" to-port="1"/>
		<edge from-layer="1234" from-port="2" to-layer="1235" to-port="0"/>
		<edge from-layer="805" from-port="0" to-layer="1235" to-port="1"/>
		<edge from-layer="806" from-port="0" to-layer="1235" to-port="2"/>
		<edge from-layer="807" from-port="0" to-layer="1235" to-port="3"/>
		<edge from-layer="808" from-port="0" to-layer="1235" to-port="4"/>
		<edge from-layer="1240" from-port="0" to-layer="1241" to-port="0"/>
		<edge from-layer="1236" from-port="0" to-layer="1241" to-port="1"/>
		<edge from-layer="1237" from-port="0" to-layer="1241" to-port="2"/>
		<edge from-layer="1238" from-port="0" to-layer="1241" to-port="3"/>
		<edge from-layer="1239" from-port="0" to-layer="1241" to-port="4"/>
		<edge from-layer="1235" from-port="5" to-layer="1242" to-port="0"/>
		<edge from-layer="1241" from-port="5" to-layer="1242" to-port="1"/>
		<edge from-layer="1242" from-port="2" to-layer="1243" to-port="0"/>
		<edge from-layer="801" from-port="0" to-layer="1243" to-port="1"/>
		<edge from-layer="802" from-port="0" to-layer="1243" to-port="2"/>
		<edge from-layer="803" from-port="0" to-layer="1243" to-port="3"/>
		<edge from-layer="804" from-port="0" to-layer="1243" to-port="4"/>
		<edge from-layer="1248" from-port="0" to-layer="1249" to-port="0"/>
		<edge from-layer="1244" from-port="0" to-layer="1249" to-port="1"/>
		<edge from-layer="1245" from-port="0" to-layer="1249" to-port="2"/>
		<edge from-layer="1246" from-port="0" to-layer="1249" to-port="3"/>
		<edge from-layer="1247" from-port="0" to-layer="1249" to-port="4"/>
		<edge from-layer="1249" from-port="5" to-layer="1250" to-port="0"/>
		<edge from-layer="1226" from-port="2" to-layer="1250" to-port="1"/>
		<edge from-layer="1250" from-port="2" to-layer="1251" to-port="0"/>
		<edge from-layer="1243" from-port="5" to-layer="1251" to-port="1"/>
		<edge from-layer="1251" from-port="2" to-layer="1252" to-port="0"/>
		<edge from-layer="797" from-port="0" to-layer="1252" to-port="1"/>
		<edge from-layer="798" from-port="0" to-layer="1252" to-port="2"/>
		<edge from-layer="799" from-port="0" to-layer="1252" to-port="3"/>
		<edge from-layer="800" from-port="0" to-layer="1252" to-port="4"/>
		<edge from-layer="1252" from-port="5" to-layer="1253" to-port="0"/>
		<edge from-layer="796" from-port="0" to-layer="1253" to-port="1"/>
		<edge from-layer="1253" from-port="2" to-layer="1254" to-port="0"/>
		<edge from-layer="795" from-port="5" to-layer="1254" to-port="1"/>
		<edge from-layer="1254" from-port="2" to-layer="1255" to-port="0"/>
		<edge from-layer="789" from-port="0" to-layer="1255" to-port="1"/>
		<edge from-layer="1255" from-port="2" to-layer="1256" to-port="0"/>
		<edge from-layer="785" from-port="0" to-layer="1256" to-port="1"/>
		<edge from-layer="786" from-port="0" to-layer="1256" to-port="2"/>
		<edge from-layer="787" from-port="0" to-layer="1256" to-port="3"/>
		<edge from-layer="788" from-port="0" to-layer="1256" to-port="4"/>
		<edge from-layer="1256" from-port="5" to-layer="1257" to-port="0"/>
		<edge from-layer="784" from-port="0" to-layer="1257" to-port="1"/>
		<edge from-layer="1257" from-port="2" to-layer="1258" to-port="0"/>
		<edge from-layer="783" from-port="0" to-layer="1258" to-port="1"/>
		<edge from-layer="1258" from-port="2" to-layer="1259" to-port="0"/>
		<edge from-layer="782" from-port="2" to-layer="1259" to-port="1"/>
		<edge from-layer="1259" from-port="2" to-layer="1260" to-port="0"/>
		<edge from-layer="104" from-port="0" to-layer="1260" to-port="1"/>
		<edge from-layer="1260" from-port="2" to-layer="1261" to-port="0"/>
		<edge from-layer="103" from-port="0" to-layer="1261" to-port="1"/>
		<edge from-layer="1261" from-port="2" to-layer="1263" to-port="0"/>
		<edge from-layer="1262" from-port="0" to-layer="1263" to-port="1"/>
		<edge from-layer="1263" from-port="2" to-layer="1264" to-port="0"/>
		<edge from-layer="99" from-port="0" to-layer="1264" to-port="1"/>
		<edge from-layer="100" from-port="0" to-layer="1264" to-port="2"/>
		<edge from-layer="101" from-port="0" to-layer="1264" to-port="3"/>
		<edge from-layer="102" from-port="0" to-layer="1264" to-port="4"/>
		<edge from-layer="1263" from-port="2" to-layer="1269" to-port="0"/>
		<edge from-layer="1269" from-port="1" to-layer="1270" to-port="0"/>
		<edge from-layer="1265" from-port="0" to-layer="1270" to-port="1"/>
		<edge from-layer="1266" from-port="0" to-layer="1270" to-port="2"/>
		<edge from-layer="1267" from-port="0" to-layer="1270" to-port="3"/>
		<edge from-layer="1268" from-port="0" to-layer="1270" to-port="4"/>
		<edge from-layer="1264" from-port="5" to-layer="1271" to-port="0"/>
		<edge from-layer="1270" from-port="5" to-layer="1271" to-port="1"/>
		<edge from-layer="1271" from-port="2" to-layer="1272" to-port="0"/>
		<edge from-layer="95" from-port="0" to-layer="1272" to-port="1"/>
		<edge from-layer="96" from-port="0" to-layer="1272" to-port="2"/>
		<edge from-layer="97" from-port="0" to-layer="1272" to-port="3"/>
		<edge from-layer="98" from-port="0" to-layer="1272" to-port="4"/>
		<edge from-layer="1277" from-port="0" to-layer="1278" to-port="0"/>
		<edge from-layer="1273" from-port="0" to-layer="1278" to-port="1"/>
		<edge from-layer="1274" from-port="0" to-layer="1278" to-port="2"/>
		<edge from-layer="1275" from-port="0" to-layer="1278" to-port="3"/>
		<edge from-layer="1276" from-port="0" to-layer="1278" to-port="4"/>
		<edge from-layer="1272" from-port="5" to-layer="1279" to-port="0"/>
		<edge from-layer="1278" from-port="5" to-layer="1279" to-port="1"/>
		<edge from-layer="1279" from-port="2" to-layer="1280" to-port="0"/>
		<edge from-layer="91" from-port="0" to-layer="1280" to-port="1"/>
		<edge from-layer="92" from-port="0" to-layer="1280" to-port="2"/>
		<edge from-layer="93" from-port="0" to-layer="1280" to-port="3"/>
		<edge from-layer="94" from-port="0" to-layer="1280" to-port="4"/>
		<edge from-layer="1285" from-port="0" to-layer="1286" to-port="0"/>
		<edge from-layer="1281" from-port="0" to-layer="1286" to-port="1"/>
		<edge from-layer="1282" from-port="0" to-layer="1286" to-port="2"/>
		<edge from-layer="1283" from-port="0" to-layer="1286" to-port="3"/>
		<edge from-layer="1284" from-port="0" to-layer="1286" to-port="4"/>
		<edge from-layer="1286" from-port="5" to-layer="1287" to-port="0"/>
		<edge from-layer="1263" from-port="2" to-layer="1287" to-port="1"/>
		<edge from-layer="1287" from-port="2" to-layer="1288" to-port="0"/>
		<edge from-layer="1280" from-port="5" to-layer="1288" to-port="1"/>
		<edge from-layer="1288" from-port="2" to-layer="1289" to-port="0"/>
		<edge from-layer="87" from-port="0" to-layer="1289" to-port="1"/>
		<edge from-layer="88" from-port="0" to-layer="1289" to-port="2"/>
		<edge from-layer="89" from-port="0" to-layer="1289" to-port="3"/>
		<edge from-layer="90" from-port="0" to-layer="1289" to-port="4"/>
		<edge from-layer="1289" from-port="5" to-layer="1290" to-port="0"/>
		<edge from-layer="86" from-port="0" to-layer="1290" to-port="1"/>
		<edge from-layer="1290" from-port="2" to-layer="1291" to-port="0"/>
		<edge from-layer="85" from-port="5" to-layer="1291" to-port="1"/>
		<edge from-layer="1291" from-port="2" to-layer="1292" to-port="0"/>
		<edge from-layer="79" from-port="0" to-layer="1292" to-port="1"/>
		<edge from-layer="1292" from-port="2" to-layer="1293" to-port="0"/>
		<edge from-layer="75" from-port="0" to-layer="1293" to-port="1"/>
		<edge from-layer="76" from-port="0" to-layer="1293" to-port="2"/>
		<edge from-layer="77" from-port="0" to-layer="1293" to-port="3"/>
		<edge from-layer="78" from-port="0" to-layer="1293" to-port="4"/>
		<edge from-layer="1293" from-port="5" to-layer="1294" to-port="0"/>
		<edge from-layer="74" from-port="0" to-layer="1294" to-port="1"/>
		<edge from-layer="1294" from-port="2" to-layer="1295" to-port="0"/>
		<edge from-layer="73" from-port="0" to-layer="1295" to-port="1"/>
		<edge from-layer="1295" from-port="2" to-layer="1297" to-port="0"/>
		<edge from-layer="1296" from-port="0" to-layer="1297" to-port="1"/>
		<edge from-layer="1297" from-port="2" to-layer="1298" to-port="0"/>
		<edge from-layer="69" from-port="0" to-layer="1298" to-port="1"/>
		<edge from-layer="70" from-port="0" to-layer="1298" to-port="2"/>
		<edge from-layer="71" from-port="0" to-layer="1298" to-port="3"/>
		<edge from-layer="72" from-port="0" to-layer="1298" to-port="4"/>
		<edge from-layer="1297" from-port="2" to-layer="1303" to-port="0"/>
		<edge from-layer="1303" from-port="1" to-layer="1304" to-port="0"/>
		<edge from-layer="1299" from-port="0" to-layer="1304" to-port="1"/>
		<edge from-layer="1300" from-port="0" to-layer="1304" to-port="2"/>
		<edge from-layer="1301" from-port="0" to-layer="1304" to-port="3"/>
		<edge from-layer="1302" from-port="0" to-layer="1304" to-port="4"/>
		<edge from-layer="1298" from-port="5" to-layer="1305" to-port="0"/>
		<edge from-layer="1304" from-port="5" to-layer="1305" to-port="1"/>
		<edge from-layer="1305" from-port="2" to-layer="1306" to-port="0"/>
		<edge from-layer="65" from-port="0" to-layer="1306" to-port="1"/>
		<edge from-layer="66" from-port="0" to-layer="1306" to-port="2"/>
		<edge from-layer="67" from-port="0" to-layer="1306" to-port="3"/>
		<edge from-layer="68" from-port="0" to-layer="1306" to-port="4"/>
		<edge from-layer="1311" from-port="0" to-layer="1312" to-port="0"/>
		<edge from-layer="1307" from-port="0" to-layer="1312" to-port="1"/>
		<edge from-layer="1308" from-port="0" to-layer="1312" to-port="2"/>
		<edge from-layer="1309" from-port="0" to-layer="1312" to-port="3"/>
		<edge from-layer="1310" from-port="0" to-layer="1312" to-port="4"/>
		<edge from-layer="1306" from-port="5" to-layer="1313" to-port="0"/>
		<edge from-layer="1312" from-port="5" to-layer="1313" to-port="1"/>
		<edge from-layer="1313" from-port="2" to-layer="1314" to-port="0"/>
		<edge from-layer="61" from-port="0" to-layer="1314" to-port="1"/>
		<edge from-layer="62" from-port="0" to-layer="1314" to-port="2"/>
		<edge from-layer="63" from-port="0" to-layer="1314" to-port="3"/>
		<edge from-layer="64" from-port="0" to-layer="1314" to-port="4"/>
		<edge from-layer="1319" from-port="0" to-layer="1320" to-port="0"/>
		<edge from-layer="1315" from-port="0" to-layer="1320" to-port="1"/>
		<edge from-layer="1316" from-port="0" to-layer="1320" to-port="2"/>
		<edge from-layer="1317" from-port="0" to-layer="1320" to-port="3"/>
		<edge from-layer="1318" from-port="0" to-layer="1320" to-port="4"/>
		<edge from-layer="1320" from-port="5" to-layer="1321" to-port="0"/>
		<edge from-layer="1297" from-port="2" to-layer="1321" to-port="1"/>
		<edge from-layer="1321" from-port="2" to-layer="1322" to-port="0"/>
		<edge from-layer="1314" from-port="5" to-layer="1322" to-port="1"/>
		<edge from-layer="1322" from-port="2" to-layer="1323" to-port="0"/>
		<edge from-layer="57" from-port="0" to-layer="1323" to-port="1"/>
		<edge from-layer="58" from-port="0" to-layer="1323" to-port="2"/>
		<edge from-layer="59" from-port="0" to-layer="1323" to-port="3"/>
		<edge from-layer="60" from-port="0" to-layer="1323" to-port="4"/>
		<edge from-layer="1328" from-port="0" to-layer="1329" to-port="0"/>
		<edge from-layer="1324" from-port="0" to-layer="1329" to-port="1"/>
		<edge from-layer="1325" from-port="0" to-layer="1329" to-port="2"/>
		<edge from-layer="1326" from-port="0" to-layer="1329" to-port="3"/>
		<edge from-layer="1327" from-port="0" to-layer="1329" to-port="4"/>
		<edge from-layer="1323" from-port="5" to-layer="1330" to-port="0"/>
		<edge from-layer="1329" from-port="5" to-layer="1330" to-port="1"/>
		<edge from-layer="1330" from-port="2" to-layer="1331" to-port="0"/>
		<edge from-layer="53" from-port="0" to-layer="1331" to-port="1"/>
		<edge from-layer="54" from-port="0" to-layer="1331" to-port="2"/>
		<edge from-layer="55" from-port="0" to-layer="1331" to-port="3"/>
		<edge from-layer="56" from-port="0" to-layer="1331" to-port="4"/>
		<edge from-layer="1331" from-port="5" to-layer="1332" to-port="0"/>
		<edge from-layer="52" from-port="0" to-layer="1332" to-port="1"/>
		<edge from-layer="1332" from-port="2" to-layer="1333" to-port="0"/>
		<edge from-layer="51" from-port="5" to-layer="1333" to-port="1"/>
		<edge from-layer="1333" from-port="2" to-layer="1334" to-port="0"/>
		<edge from-layer="45" from-port="0" to-layer="1334" to-port="1"/>
		<edge from-layer="1334" from-port="2" to-layer="1335" to-port="0"/>
		<edge from-layer="41" from-port="0" to-layer="1335" to-port="1"/>
		<edge from-layer="42" from-port="0" to-layer="1335" to-port="2"/>
		<edge from-layer="43" from-port="0" to-layer="1335" to-port="3"/>
		<edge from-layer="44" from-port="0" to-layer="1335" to-port="4"/>
		<edge from-layer="1335" from-port="5" to-layer="1336" to-port="0"/>
		<edge from-layer="40" from-port="0" to-layer="1336" to-port="1"/>
		<edge from-layer="1336" from-port="2" to-layer="1337" to-port="0"/>
		<edge from-layer="39" from-port="0" to-layer="1337" to-port="1"/>
		<edge from-layer="1337" from-port="2" to-layer="1339" to-port="0"/>
		<edge from-layer="1338" from-port="0" to-layer="1339" to-port="1"/>
		<edge from-layer="1339" from-port="2" to-layer="1340" to-port="0"/>
		<edge from-layer="35" from-port="0" to-layer="1340" to-port="1"/>
		<edge from-layer="36" from-port="0" to-layer="1340" to-port="2"/>
		<edge from-layer="37" from-port="0" to-layer="1340" to-port="3"/>
		<edge from-layer="38" from-port="0" to-layer="1340" to-port="4"/>
		<edge from-layer="1339" from-port="2" to-layer="1345" to-port="0"/>
		<edge from-layer="1345" from-port="1" to-layer="1346" to-port="0"/>
		<edge from-layer="1341" from-port="0" to-layer="1346" to-port="1"/>
		<edge from-layer="1342" from-port="0" to-layer="1346" to-port="2"/>
		<edge from-layer="1343" from-port="0" to-layer="1346" to-port="3"/>
		<edge from-layer="1344" from-port="0" to-layer="1346" to-port="4"/>
		<edge from-layer="1340" from-port="5" to-layer="1347" to-port="0"/>
		<edge from-layer="1346" from-port="5" to-layer="1347" to-port="1"/>
		<edge from-layer="1347" from-port="2" to-layer="1348" to-port="0"/>
		<edge from-layer="31" from-port="0" to-layer="1348" to-port="1"/>
		<edge from-layer="32" from-port="0" to-layer="1348" to-port="2"/>
		<edge from-layer="33" from-port="0" to-layer="1348" to-port="3"/>
		<edge from-layer="34" from-port="0" to-layer="1348" to-port="4"/>
		<edge from-layer="1353" from-port="0" to-layer="1354" to-port="0"/>
		<edge from-layer="1349" from-port="0" to-layer="1354" to-port="1"/>
		<edge from-layer="1350" from-port="0" to-layer="1354" to-port="2"/>
		<edge from-layer="1351" from-port="0" to-layer="1354" to-port="3"/>
		<edge from-layer="1352" from-port="0" to-layer="1354" to-port="4"/>
		<edge from-layer="1348" from-port="5" to-layer="1355" to-port="0"/>
		<edge from-layer="1354" from-port="5" to-layer="1355" to-port="1"/>
		<edge from-layer="1355" from-port="2" to-layer="1356" to-port="0"/>
		<edge from-layer="27" from-port="0" to-layer="1356" to-port="1"/>
		<edge from-layer="28" from-port="0" to-layer="1356" to-port="2"/>
		<edge from-layer="29" from-port="0" to-layer="1356" to-port="3"/>
		<edge from-layer="30" from-port="0" to-layer="1356" to-port="4"/>
		<edge from-layer="1361" from-port="0" to-layer="1362" to-port="0"/>
		<edge from-layer="1357" from-port="0" to-layer="1362" to-port="1"/>
		<edge from-layer="1358" from-port="0" to-layer="1362" to-port="2"/>
		<edge from-layer="1359" from-port="0" to-layer="1362" to-port="3"/>
		<edge from-layer="1360" from-port="0" to-layer="1362" to-port="4"/>
		<edge from-layer="1362" from-port="5" to-layer="1363" to-port="0"/>
		<edge from-layer="1339" from-port="2" to-layer="1363" to-port="1"/>
		<edge from-layer="1363" from-port="2" to-layer="1364" to-port="0"/>
		<edge from-layer="1356" from-port="5" to-layer="1364" to-port="1"/>
		<edge from-layer="1364" from-port="2" to-layer="1365" to-port="0"/>
		<edge from-layer="23" from-port="0" to-layer="1365" to-port="1"/>
		<edge from-layer="24" from-port="0" to-layer="1365" to-port="2"/>
		<edge from-layer="25" from-port="0" to-layer="1365" to-port="3"/>
		<edge from-layer="26" from-port="0" to-layer="1365" to-port="4"/>
		<edge from-layer="1370" from-port="0" to-layer="1371" to-port="0"/>
		<edge from-layer="1366" from-port="0" to-layer="1371" to-port="1"/>
		<edge from-layer="1367" from-port="0" to-layer="1371" to-port="2"/>
		<edge from-layer="1368" from-port="0" to-layer="1371" to-port="3"/>
		<edge from-layer="1369" from-port="0" to-layer="1371" to-port="4"/>
		<edge from-layer="1365" from-port="5" to-layer="1372" to-port="0"/>
		<edge from-layer="1371" from-port="5" to-layer="1372" to-port="1"/>
		<edge from-layer="1372" from-port="2" to-layer="1373" to-port="0"/>
		<edge from-layer="19" from-port="0" to-layer="1373" to-port="1"/>
		<edge from-layer="20" from-port="0" to-layer="1373" to-port="2"/>
		<edge from-layer="21" from-port="0" to-layer="1373" to-port="3"/>
		<edge from-layer="22" from-port="0" to-layer="1373" to-port="4"/>
		<edge from-layer="1373" from-port="5" to-layer="1374" to-port="0"/>
		<edge from-layer="18" from-port="0" to-layer="1374" to-port="1"/>
		<edge from-layer="1374" from-port="2" to-layer="1375" to-port="0"/>
		<edge from-layer="17" from-port="5" to-layer="1375" to-port="1"/>
		<edge from-layer="1375" from-port="2" to-layer="1376" to-port="0"/>
		<edge from-layer="11" from-port="0" to-layer="1376" to-port="1"/>
		<edge from-layer="1376" from-port="2" to-layer="1377" to-port="0"/>
		<edge from-layer="7" from-port="0" to-layer="1377" to-port="1"/>
		<edge from-layer="8" from-port="0" to-layer="1377" to-port="2"/>
		<edge from-layer="9" from-port="0" to-layer="1377" to-port="3"/>
		<edge from-layer="10" from-port="0" to-layer="1377" to-port="4"/>
		<edge from-layer="1377" from-port="5" to-layer="1378" to-port="0"/>
		<edge from-layer="6" from-port="0" to-layer="1378" to-port="1"/>
		<edge from-layer="1378" from-port="2" to-layer="1379" to-port="0"/>
		<edge from-layer="5" from-port="5" to-layer="1379" to-port="1"/>
		<edge from-layer="1379" from-port="2" to-layer="1381" to-port="0"/>
		<edge from-layer="1380" from-port="0" to-layer="1381" to-port="1"/>
		<edge from-layer="1381" from-port="2" to-layer="1382" to-port="0"/>
		<edge from-layer="1382" from-port="1" to-layer="1384" to-port="0"/>
		<edge from-layer="1383" from-port="0" to-layer="1384" to-port="1"/>
		<edge from-layer="1384" from-port="2" to-layer="1385" to-port="0"/>
	</edges>
	<meta_data>
		<MO_version value="2021.4.2-3976-0943ed67223-refs/pull/539/head"/>
		<cli_parameters>
			<caffe_parser_path value="DIR"/>
			<data_type value="float"/>
			<disable_nhwc_to_nchw value="True"/>
			<disable_omitting_optional value="False"/>
			<disable_resnet_optimization value="False"/>
			<disable_weights_compression value="False"/>
			<enable_concat_optimization value="False"/>
			<enable_flattening_nested_params value="False"/>
			<enable_ssd_gluoncv value="False"/>
			<extensions value="DIR"/>
			<framework value="tf"/>
			<freeze_placeholder_with_value value="{}"/>
			<generate_deprecated_IR_V7 value="False"/>
			<input value="net/inp_x_test,net/inp_x_sub_0_test"/>
			<input_meta_graph value="DIR/deepmedic-4-ov.model.ckpt.meta"/>
			<input_model_is_text value="False"/>
			<input_shape value="[10,1,45,45,45],[10,1,26,26,26]"/>
			<k value="DIR/CustomLayersMapping.xml"/>
			<keep_shape_ops value="True"/>
			<legacy_ir_generation value="False"/>
			<legacy_mxnet_model value="False"/>
			<log_level value="ERROR"/>
			<mean_scale_values value="{}"/>
			<mean_values value="()"/>
			<model_name value="deepmedic-4-ov.model.ckpt"/>
			<output value="['net/transpose_138']"/>
			<output_dir value="DIR"/>
			<placeholder_data_types value="{}"/>
			<placeholder_shapes value="{'net/inp_x_test': array([10,  1, 45, 45, 45]), 'net/inp_x_sub_0_test': array([10,  1, 26, 26, 26])}"/>
			<progress value="False"/>
			<remove_memory value="False"/>
			<remove_output_softmax value="False"/>
			<reverse_input_channels value="False"/>
			<save_params_from_nd value="False"/>
			<scale_values value="()"/>
			<silent value="False"/>
			<static_shape value="False"/>
			<stream_output value="False"/>
			<transform value=""/>
			<unset unset_cli_parameters="batch, counts, disable_fusing, disable_gfusing, finegrain_fusing, input_checkpoint, input_model, input_proto, input_symbol, mean_file, mean_file_offsets, move_to_preprocess, nd_prefix_name, pretrained_model_name, saved_model_dir, saved_model_tags, scale, tensorboard_logdir, tensorflow_custom_layer_libraries, tensorflow_custom_operations_config_update, tensorflow_object_detection_api_pipeline_config, tensorflow_use_custom_operations_config, transformations_config"/>
		</cli_parameters>
	</meta_data>
	<quantization_parameters>
		<config/>
		<version value="{}"/>
		<cli_params value="{}"/>
	</quantization_parameters>
</net>
