<?xml version="1.0" ?>
<net name="deepmedic-4-ov.model.ckpt" version="10">
	<layers>
		<layer id="0" name="net/inp_x_sub_0_test" type="Parameter" version="opset1">
			<data element_type="f32" shape="10, 1, 26, 26, 26"/>
			<output>
				<port id="0" names="net/inp_x_sub_0_test:0" precision="FP32">
					<dim>10</dim>
					<dim>1</dim>
					<dim>26</dim>
					<dim>26</dim>
					<dim>26</dim>
				</port>
			</output>
		</layer>
		<layer id="1" name="net/inp_x_test" type="Parameter" version="opset1">
			<data element_type="f32" shape="10, 1, 45, 45, 45"/>
			<output>
				<port id="0" names="net/inp_x_test:0" precision="FP32">
					<dim>10</dim>
					<dim>1</dim>
					<dim>45</dim>
					<dim>45</dim>
					<dim>45</dim>
				</port>
			</output>
		</layer>
		<layer id="2" name="net/Maximum_50/x" type="Const" version="opset1">
			<data element_type="f32" offset="0" shape="1, 1, 1, 1, 1" size="4"/>
			<output>
				<port id="0" names="net/Maximum_50/x:0" precision="FP32">
					<dim>1</dim>
					<dim>1</dim>
					<dim>1</dim>
					<dim>1</dim>
					<dim>1</dim>
				</port>
			</output>
		</layer>
		<layer id="3" name="net/Maximum_47/x" type="Const" version="opset1">
			<data element_type="f32" offset="0" shape="1, 1, 1, 1, 1" size="4"/>
			<output>
				<port id="0" names="net/Maximum_47/x:0" precision="FP32">
					<dim>1</dim>
					<dim>1</dim>
					<dim>1</dim>
					<dim>1</dim>
					<dim>1</dim>
				</port>
			</output>
		</layer>
		<layer id="4" name="net/Maximum_44/x" type="Const" version="opset1">
			<data element_type="f32" offset="0" shape="1, 1, 1, 1, 1" size="4"/>
			<output>
				<port id="0" names="net/Maximum_44/x:0" precision="FP32">
					<dim>1</dim>
					<dim>1</dim>
					<dim>1</dim>
					<dim>1</dim>
					<dim>1</dim>
				</port>
			</output>
		</layer>
		<layer id="5" name="net/Maximum_20/x" type="Const" version="opset1">
			<data element_type="f32" offset="0" shape="1, 1, 1, 1, 1" size="4"/>
			<output>
				<port id="0" names="net/Maximum_20/x:0" precision="FP32">
					<dim>1</dim>
					<dim>1</dim>
					<dim>1</dim>
					<dim>1</dim>
					<dim>1</dim>
				</port>
			</output>
		</layer>
		<layer id="6" name="net/Maximum_17/x" type="Const" version="opset1">
			<data element_type="f32" offset="0" shape="1, 1, 1, 1, 1" size="4"/>
			<output>
				<port id="0" names="net/Maximum_17/x:0" precision="FP32">
					<dim>1</dim>
					<dim>1</dim>
					<dim>1</dim>
					<dim>1</dim>
					<dim>1</dim>
				</port>
			</output>
		</layer>
		<layer id="7" name="net/Maximum_14/x" type="Const" version="opset1">
			<data element_type="f32" offset="0" shape="1, 1, 1, 1, 1" size="4"/>
			<output>
				<port id="0" names="net/Maximum_14/x:0" precision="FP32">
					<dim>1</dim>
					<dim>1</dim>
					<dim>1</dim>
					<dim>1</dim>
					<dim>1</dim>
				</port>
			</output>
		</layer>
		<layer id="8" name="net/Maximum_11/x" type="Const" version="opset1">
			<data element_type="f32" offset="0" shape="1, 1, 1, 1, 1" size="4"/>
			<output>
				<port id="0" names="net/Maximum_11/x:0" precision="FP32">
					<dim>1</dim>
					<dim>1</dim>
					<dim>1</dim>
					<dim>1</dim>
					<dim>1</dim>
				</port>
			</output>
		</layer>
		<layer id="9" name="net/Maximum_8/x" type="Const" version="opset1">
			<data element_type="f32" offset="0" shape="1, 1, 1, 1, 1" size="4"/>
			<output>
				<port id="0" names="net/Maximum_8/x:0" precision="FP32">
					<dim>1</dim>
					<dim>1</dim>
					<dim>1</dim>
					<dim>1</dim>
					<dim>1</dim>
				</port>
			</output>
		</layer>
		<layer id="10" name="net/Maximum_5/x" type="Const" version="opset1">
			<data element_type="f32" offset="0" shape="1, 1, 1, 1, 1" size="4"/>
			<output>
				<port id="0" names="net/Maximum_5/x:0" precision="FP32">
					<dim>1</dim>
					<dim>1</dim>
					<dim>1</dim>
					<dim>1</dim>
					<dim>1</dim>
				</port>
			</output>
		</layer>
		<layer id="11" name="net/Maximum_2/x" type="Const" version="opset1">
			<data element_type="f32" offset="0" shape="1, 1, 1, 1, 1" size="4"/>
			<output>
				<port id="0" names="net/Maximum_2/x:0" precision="FP32">
					<dim>1</dim>
					<dim>1</dim>
					<dim>1</dim>
					<dim>1</dim>
					<dim>1</dim>
				</port>
			</output>
		</layer>
		<layer id="12" name="net/Reshape" type="Const" version="opset1">
			<data element_type="f32" offset="4" shape="1, 1, 1, 1, 1" size="4"/>
			<output>
				<port id="0" names="net/Reshape:0" precision="FP32">
					<dim>1</dim>
					<dim>1</dim>
					<dim>1</dim>
					<dim>1</dim>
					<dim>1</dim>
				</port>
			</output>
		</layer>
		<layer id="13" name="net/add_2" type="Add" version="opset1">
			<data auto_broadcast="numpy"/>
			<input>
				<port id="0" precision="FP32">
					<dim>10</dim>
					<dim>1</dim>
					<dim>45</dim>
					<dim>45</dim>
					<dim>45</dim>
				</port>
				<port id="1" precision="FP32">
					<dim>1</dim>
					<dim>1</dim>
					<dim>1</dim>
					<dim>1</dim>
					<dim>1</dim>
				</port>
			</input>
			<output>
				<port id="2" names="net/add_2:0" precision="FP32">
					<dim>10</dim>
					<dim>1</dim>
					<dim>45</dim>
					<dim>45</dim>
					<dim>45</dim>
				</port>
			</output>
		</layer>
		<layer id="14" name="net/transpose_5/perm" type="Const" version="opset1">
			<data element_type="i64" offset="8" shape="5" size="40"/>
			<output>
				<port id="0" names="net/transpose_5/perm:0" precision="I64">
					<dim>5</dim>
				</port>
			</output>
		</layer>
		<layer id="15" name="net/transpose_5" type="Transpose" version="opset1">
			<input>
				<port id="0" precision="FP32">
					<dim>10</dim>
					<dim>1</dim>
					<dim>45</dim>
					<dim>45</dim>
					<dim>45</dim>
				</port>
				<port id="1" precision="I64">
					<dim>5</dim>
				</port>
			</input>
			<output>
				<port id="2" names="net/transpose_5:0" precision="FP32">
					<dim>10</dim>
					<dim>1</dim>
					<dim>45</dim>
					<dim>45</dim>
					<dim>45</dim>
				</port>
			</output>
		</layer>
		<layer id="16" name="net/transpose" type="Const" version="opset1">
			<data element_type="f32" offset="48" shape="30, 1, 3, 3, 3" size="3240"/>
			<output>
				<port id="0" names="net/transpose:0" precision="FP32">
					<dim>30</dim>
					<dim>1</dim>
					<dim>3</dim>
					<dim>3</dim>
					<dim>3</dim>
				</port>
			</output>
		</layer>
		<layer id="17" name="net/Conv3D_2" type="Convolution" version="opset1">
			<data auto_pad="valid" dilations="1, 1, 1" pads_begin="0, 0, 0" pads_end="0, 0, 0" strides="1, 1, 1"/>
			<input>
				<port id="0" precision="FP32">
					<dim>10</dim>
					<dim>1</dim>
					<dim>45</dim>
					<dim>45</dim>
					<dim>45</dim>
				</port>
				<port id="1" precision="FP32">
					<dim>30</dim>
					<dim>1</dim>
					<dim>3</dim>
					<dim>3</dim>
					<dim>3</dim>
				</port>
			</input>
			<output>
				<port id="2" precision="FP32">
					<dim>10</dim>
					<dim>30</dim>
					<dim>43</dim>
					<dim>43</dim>
					<dim>43</dim>
				</port>
			</output>
		</layer>
		<layer id="18" name="743834309" type="Const" version="opset1">
			<data element_type="i64" offset="8" shape="5" size="40"/>
			<output>
				<port id="0" precision="I64">
					<dim>5</dim>
				</port>
			</output>
		</layer>
		<layer id="19" name="net/Conv3D_2/output_transpose" type="Transpose" version="opset1">
			<input>
				<port id="0" precision="FP32">
					<dim>10</dim>
					<dim>30</dim>
					<dim>43</dim>
					<dim>43</dim>
					<dim>43</dim>
				</port>
				<port id="1" precision="I64">
					<dim>5</dim>
				</port>
			</input>
			<output>
				<port id="2" names="net/Conv3D_2:0,net/transpose_6:0" precision="FP32">
					<dim>10</dim>
					<dim>30</dim>
					<dim>43</dim>
					<dim>43</dim>
					<dim>43</dim>
				</port>
			</output>
		</layer>
		<layer id="20" name="data_mul_110921109634195" type="Const" version="opset1">
			<data element_type="f32" offset="3288" shape="1, 30, 1, 1, 1" size="120"/>
			<output>
				<port id="0" precision="FP32">
					<dim>1</dim>
					<dim>30</dim>
					<dim>1</dim>
					<dim>1</dim>
					<dim>1</dim>
				</port>
			</output>
		</layer>
		<layer id="21" name="net/truediv_2/Fused_Mul_" type="Multiply" version="opset1">
			<data auto_broadcast="numpy"/>
			<input>
				<port id="0" precision="FP32">
					<dim>10</dim>
					<dim>30</dim>
					<dim>43</dim>
					<dim>43</dim>
					<dim>43</dim>
				</port>
				<port id="1" precision="FP32">
					<dim>1</dim>
					<dim>30</dim>
					<dim>1</dim>
					<dim>1</dim>
					<dim>1</dim>
				</port>
			</input>
			<output>
				<port id="2" precision="FP32">
					<dim>10</dim>
					<dim>30</dim>
					<dim>43</dim>
					<dim>43</dim>
					<dim>43</dim>
				</port>
			</output>
		</layer>
		<layer id="22" name="data_add_110931109834027" type="Const" version="opset1">
			<data element_type="f32" offset="3408" shape="1, 30, 1, 1, 1" size="120"/>
			<output>
				<port id="0" precision="FP32">
					<dim>1</dim>
					<dim>30</dim>
					<dim>1</dim>
					<dim>1</dim>
					<dim>1</dim>
				</port>
			</output>
		</layer>
		<layer id="23" name="net/sub_2/Fused_Add_" type="Add" version="opset1">
			<data auto_broadcast="numpy"/>
			<input>
				<port id="0" precision="FP32">
					<dim>10</dim>
					<dim>30</dim>
					<dim>43</dim>
					<dim>43</dim>
					<dim>43</dim>
				</port>
				<port id="1" precision="FP32">
					<dim>1</dim>
					<dim>30</dim>
					<dim>1</dim>
					<dim>1</dim>
					<dim>1</dim>
				</port>
			</input>
			<output>
				<port id="2" names="net/add_7:0" precision="FP32">
					<dim>10</dim>
					<dim>30</dim>
					<dim>43</dim>
					<dim>43</dim>
					<dim>43</dim>
				</port>
			</output>
		</layer>
		<layer id="24" name="net/Maximum_2" type="Maximum" version="opset1">
			<data auto_broadcast="numpy"/>
			<input>
				<port id="0" precision="FP32">
					<dim>1</dim>
					<dim>1</dim>
					<dim>1</dim>
					<dim>1</dim>
					<dim>1</dim>
				</port>
				<port id="1" precision="FP32">
					<dim>10</dim>
					<dim>30</dim>
					<dim>43</dim>
					<dim>43</dim>
					<dim>43</dim>
				</port>
			</input>
			<output>
				<port id="2" names="net/Maximum_2:0" precision="FP32">
					<dim>10</dim>
					<dim>30</dim>
					<dim>43</dim>
					<dim>43</dim>
					<dim>43</dim>
				</port>
			</output>
		</layer>
		<layer id="25" name="net/Abs_2" type="Abs" version="opset1">
			<input>
				<port id="0" precision="FP32">
					<dim>10</dim>
					<dim>30</dim>
					<dim>43</dim>
					<dim>43</dim>
					<dim>43</dim>
				</port>
			</input>
			<output>
				<port id="1" precision="FP32">
					<dim>10</dim>
					<dim>30</dim>
					<dim>43</dim>
					<dim>43</dim>
					<dim>43</dim>
				</port>
			</output>
		</layer>
		<layer id="26" name="net/sub_5/sub" type="Subtract" version="opset1">
			<data auto_broadcast="numpy"/>
			<input>
				<port id="0" precision="FP32">
					<dim>10</dim>
					<dim>30</dim>
					<dim>43</dim>
					<dim>43</dim>
					<dim>43</dim>
				</port>
				<port id="1" precision="FP32">
					<dim>10</dim>
					<dim>30</dim>
					<dim>43</dim>
					<dim>43</dim>
					<dim>43</dim>
				</port>
			</input>
			<output>
				<port id="2" names="net/sub_5:0" precision="FP32">
					<dim>10</dim>
					<dim>30</dim>
					<dim>43</dim>
					<dim>43</dim>
					<dim>43</dim>
				</port>
			</output>
		</layer>
		<layer id="27" name="data_mul_111001110233865" type="Const" version="opset1">
			<data element_type="f32" offset="3528" shape="1, 30, 1, 1, 1" size="120"/>
			<output>
				<port id="0" precision="FP32">
					<dim>1</dim>
					<dim>30</dim>
					<dim>1</dim>
					<dim>1</dim>
					<dim>1</dim>
				</port>
			</output>
		</layer>
		<layer id="28" name="net/mul_7/Fused_Mul_" type="Multiply" version="opset1">
			<data auto_broadcast="numpy"/>
			<input>
				<port id="0" precision="FP32">
					<dim>10</dim>
					<dim>30</dim>
					<dim>43</dim>
					<dim>43</dim>
					<dim>43</dim>
				</port>
				<port id="1" precision="FP32">
					<dim>1</dim>
					<dim>30</dim>
					<dim>1</dim>
					<dim>1</dim>
					<dim>1</dim>
				</port>
			</input>
			<output>
				<port id="2" names="net/mul_8:0" precision="FP32">
					<dim>10</dim>
					<dim>30</dim>
					<dim>43</dim>
					<dim>43</dim>
					<dim>43</dim>
				</port>
			</output>
		</layer>
		<layer id="29" name="net/add_12" type="Add" version="opset1">
			<data auto_broadcast="numpy"/>
			<input>
				<port id="0" precision="FP32">
					<dim>10</dim>
					<dim>30</dim>
					<dim>43</dim>
					<dim>43</dim>
					<dim>43</dim>
				</port>
				<port id="1" precision="FP32">
					<dim>10</dim>
					<dim>30</dim>
					<dim>43</dim>
					<dim>43</dim>
					<dim>43</dim>
				</port>
			</input>
			<output>
				<port id="2" names="net/add_12:0" precision="FP32">
					<dim>10</dim>
					<dim>30</dim>
					<dim>43</dim>
					<dim>43</dim>
					<dim>43</dim>
				</port>
			</output>
		</layer>
		<layer id="30" name="net/transpose_12/perm" type="Const" version="opset1">
			<data element_type="i64" offset="8" shape="5" size="40"/>
			<output>
				<port id="0" names="net/transpose_12/perm:0" precision="I64">
					<dim>5</dim>
				</port>
			</output>
		</layer>
		<layer id="31" name="net/transpose_12" type="Transpose" version="opset1">
			<input>
				<port id="0" precision="FP32">
					<dim>10</dim>
					<dim>30</dim>
					<dim>43</dim>
					<dim>43</dim>
					<dim>43</dim>
				</port>
				<port id="1" precision="I64">
					<dim>5</dim>
				</port>
			</input>
			<output>
				<port id="2" names="net/transpose_12:0" precision="FP32">
					<dim>10</dim>
					<dim>30</dim>
					<dim>43</dim>
					<dim>43</dim>
					<dim>43</dim>
				</port>
			</output>
		</layer>
		<layer id="32" name="net/transpose_7" type="Const" version="opset1">
			<data element_type="f32" offset="3648" shape="30, 30, 3, 3, 3" size="97200"/>
			<output>
				<port id="0" names="net/transpose_7:0" precision="FP32">
					<dim>30</dim>
					<dim>30</dim>
					<dim>3</dim>
					<dim>3</dim>
					<dim>3</dim>
				</port>
			</output>
		</layer>
		<layer id="33" name="net/Conv3D_5" type="Convolution" version="opset1">
			<data auto_pad="valid" dilations="1, 1, 1" pads_begin="0, 0, 0" pads_end="0, 0, 0" strides="1, 1, 1"/>
			<input>
				<port id="0" precision="FP32">
					<dim>10</dim>
					<dim>30</dim>
					<dim>43</dim>
					<dim>43</dim>
					<dim>43</dim>
				</port>
				<port id="1" precision="FP32">
					<dim>30</dim>
					<dim>30</dim>
					<dim>3</dim>
					<dim>3</dim>
					<dim>3</dim>
				</port>
			</input>
			<output>
				<port id="2" precision="FP32">
					<dim>10</dim>
					<dim>30</dim>
					<dim>41</dim>
					<dim>41</dim>
					<dim>41</dim>
				</port>
			</output>
		</layer>
		<layer id="34" name="744633895" type="Const" version="opset1">
			<data element_type="i64" offset="8" shape="5" size="40"/>
			<output>
				<port id="0" precision="I64">
					<dim>5</dim>
				</port>
			</output>
		</layer>
		<layer id="35" name="net/Conv3D_5/output_transpose" type="Transpose" version="opset1">
			<input>
				<port id="0" precision="FP32">
					<dim>10</dim>
					<dim>30</dim>
					<dim>41</dim>
					<dim>41</dim>
					<dim>41</dim>
				</port>
				<port id="1" precision="I64">
					<dim>5</dim>
				</port>
			</input>
			<output>
				<port id="2" names="net/Conv3D_5:0,net/transpose_13:0" precision="FP32">
					<dim>10</dim>
					<dim>30</dim>
					<dim>41</dim>
					<dim>41</dim>
					<dim>41</dim>
				</port>
			</output>
		</layer>
		<layer id="36" name="data_mul_111041110833886" type="Const" version="opset1">
			<data element_type="f32" offset="100848" shape="1, 30, 1, 1, 1" size="120"/>
			<output>
				<port id="0" precision="FP32">
					<dim>1</dim>
					<dim>30</dim>
					<dim>1</dim>
					<dim>1</dim>
					<dim>1</dim>
				</port>
			</output>
		</layer>
		<layer id="37" name="net/truediv_5/Fused_Mul_" type="Multiply" version="opset1">
			<data auto_broadcast="numpy"/>
			<input>
				<port id="0" precision="FP32">
					<dim>10</dim>
					<dim>30</dim>
					<dim>41</dim>
					<dim>41</dim>
					<dim>41</dim>
				</port>
				<port id="1" precision="FP32">
					<dim>1</dim>
					<dim>30</dim>
					<dim>1</dim>
					<dim>1</dim>
					<dim>1</dim>
				</port>
			</input>
			<output>
				<port id="2" precision="FP32">
					<dim>10</dim>
					<dim>30</dim>
					<dim>41</dim>
					<dim>41</dim>
					<dim>41</dim>
				</port>
			</output>
		</layer>
		<layer id="38" name="data_add_111051111033862" type="Const" version="opset1">
			<data element_type="f32" offset="100968" shape="1, 30, 1, 1, 1" size="120"/>
			<output>
				<port id="0" precision="FP32">
					<dim>1</dim>
					<dim>30</dim>
					<dim>1</dim>
					<dim>1</dim>
					<dim>1</dim>
				</port>
			</output>
		</layer>
		<layer id="39" name="net/sub_8/Fused_Add_" type="Add" version="opset1">
			<data auto_broadcast="numpy"/>
			<input>
				<port id="0" precision="FP32">
					<dim>10</dim>
					<dim>30</dim>
					<dim>41</dim>
					<dim>41</dim>
					<dim>41</dim>
				</port>
				<port id="1" precision="FP32">
					<dim>1</dim>
					<dim>30</dim>
					<dim>1</dim>
					<dim>1</dim>
					<dim>1</dim>
				</port>
			</input>
			<output>
				<port id="2" names="net/add_17:0" precision="FP32">
					<dim>10</dim>
					<dim>30</dim>
					<dim>41</dim>
					<dim>41</dim>
					<dim>41</dim>
				</port>
			</output>
		</layer>
		<layer id="40" name="net/Maximum_5" type="Maximum" version="opset1">
			<data auto_broadcast="numpy"/>
			<input>
				<port id="0" precision="FP32">
					<dim>1</dim>
					<dim>1</dim>
					<dim>1</dim>
					<dim>1</dim>
					<dim>1</dim>
				</port>
				<port id="1" precision="FP32">
					<dim>10</dim>
					<dim>30</dim>
					<dim>41</dim>
					<dim>41</dim>
					<dim>41</dim>
				</port>
			</input>
			<output>
				<port id="2" names="net/Maximum_5:0" precision="FP32">
					<dim>10</dim>
					<dim>30</dim>
					<dim>41</dim>
					<dim>41</dim>
					<dim>41</dim>
				</port>
			</output>
		</layer>
		<layer id="41" name="net/Abs_5" type="Abs" version="opset1">
			<input>
				<port id="0" precision="FP32">
					<dim>10</dim>
					<dim>30</dim>
					<dim>41</dim>
					<dim>41</dim>
					<dim>41</dim>
				</port>
			</input>
			<output>
				<port id="1" precision="FP32">
					<dim>10</dim>
					<dim>30</dim>
					<dim>41</dim>
					<dim>41</dim>
					<dim>41</dim>
				</port>
			</output>
		</layer>
		<layer id="42" name="net/sub_11/sub" type="Subtract" version="opset1">
			<data auto_broadcast="numpy"/>
			<input>
				<port id="0" precision="FP32">
					<dim>10</dim>
					<dim>30</dim>
					<dim>41</dim>
					<dim>41</dim>
					<dim>41</dim>
				</port>
				<port id="1" precision="FP32">
					<dim>10</dim>
					<dim>30</dim>
					<dim>41</dim>
					<dim>41</dim>
					<dim>41</dim>
				</port>
			</input>
			<output>
				<port id="2" names="net/sub_11:0" precision="FP32">
					<dim>10</dim>
					<dim>30</dim>
					<dim>41</dim>
					<dim>41</dim>
					<dim>41</dim>
				</port>
			</output>
		</layer>
		<layer id="43" name="data_mul_111121111433868" type="Const" version="opset1">
			<data element_type="f32" offset="101088" shape="1, 30, 1, 1, 1" size="120"/>
			<output>
				<port id="0" precision="FP32">
					<dim>1</dim>
					<dim>30</dim>
					<dim>1</dim>
					<dim>1</dim>
					<dim>1</dim>
				</port>
			</output>
		</layer>
		<layer id="44" name="net/mul_16/Fused_Mul_" type="Multiply" version="opset1">
			<data auto_broadcast="numpy"/>
			<input>
				<port id="0" precision="FP32">
					<dim>10</dim>
					<dim>30</dim>
					<dim>41</dim>
					<dim>41</dim>
					<dim>41</dim>
				</port>
				<port id="1" precision="FP32">
					<dim>1</dim>
					<dim>30</dim>
					<dim>1</dim>
					<dim>1</dim>
					<dim>1</dim>
				</port>
			</input>
			<output>
				<port id="2" names="net/mul_17:0" precision="FP32">
					<dim>10</dim>
					<dim>30</dim>
					<dim>41</dim>
					<dim>41</dim>
					<dim>41</dim>
				</port>
			</output>
		</layer>
		<layer id="45" name="net/add_22" type="Add" version="opset1">
			<data auto_broadcast="numpy"/>
			<input>
				<port id="0" precision="FP32">
					<dim>10</dim>
					<dim>30</dim>
					<dim>41</dim>
					<dim>41</dim>
					<dim>41</dim>
				</port>
				<port id="1" precision="FP32">
					<dim>10</dim>
					<dim>30</dim>
					<dim>41</dim>
					<dim>41</dim>
					<dim>41</dim>
				</port>
			</input>
			<output>
				<port id="2" names="net/add_22:0" precision="FP32">
					<dim>10</dim>
					<dim>30</dim>
					<dim>41</dim>
					<dim>41</dim>
					<dim>41</dim>
				</port>
			</output>
		</layer>
		<layer id="46" name="net/transpose_19/perm" type="Const" version="opset1">
			<data element_type="i64" offset="8" shape="5" size="40"/>
			<output>
				<port id="0" names="net/transpose_19/perm:0" precision="I64">
					<dim>5</dim>
				</port>
			</output>
		</layer>
		<layer id="47" name="net/transpose_19" type="Transpose" version="opset1">
			<input>
				<port id="0" precision="FP32">
					<dim>10</dim>
					<dim>30</dim>
					<dim>41</dim>
					<dim>41</dim>
					<dim>41</dim>
				</port>
				<port id="1" precision="I64">
					<dim>5</dim>
				</port>
			</input>
			<output>
				<port id="2" names="net/transpose_19:0" precision="FP32">
					<dim>10</dim>
					<dim>30</dim>
					<dim>41</dim>
					<dim>41</dim>
					<dim>41</dim>
				</port>
			</output>
		</layer>
		<layer id="48" name="net/transpose_14" type="Const" version="opset1">
			<data element_type="f32" offset="101208" shape="40, 30, 3, 3, 3" size="129600"/>
			<output>
				<port id="0" names="net/transpose_14:0" precision="FP32">
					<dim>40</dim>
					<dim>30</dim>
					<dim>3</dim>
					<dim>3</dim>
					<dim>3</dim>
				</port>
			</output>
		</layer>
		<layer id="49" name="net/Conv3D_8" type="Convolution" version="opset1">
			<data auto_pad="valid" dilations="1, 1, 1" pads_begin="0, 0, 0" pads_end="0, 0, 0" strides="1, 1, 1"/>
			<input>
				<port id="0" precision="FP32">
					<dim>10</dim>
					<dim>30</dim>
					<dim>41</dim>
					<dim>41</dim>
					<dim>41</dim>
				</port>
				<port id="1" precision="FP32">
					<dim>40</dim>
					<dim>30</dim>
					<dim>3</dim>
					<dim>3</dim>
					<dim>3</dim>
				</port>
			</input>
			<output>
				<port id="2" precision="FP32">
					<dim>10</dim>
					<dim>40</dim>
					<dim>39</dim>
					<dim>39</dim>
					<dim>39</dim>
				</port>
			</output>
		</layer>
		<layer id="50" name="745434237" type="Const" version="opset1">
			<data element_type="i64" offset="8" shape="5" size="40"/>
			<output>
				<port id="0" precision="I64">
					<dim>5</dim>
				</port>
			</output>
		</layer>
		<layer id="51" name="net/Conv3D_8/output_transpose" type="Transpose" version="opset1">
			<input>
				<port id="0" precision="FP32">
					<dim>10</dim>
					<dim>40</dim>
					<dim>39</dim>
					<dim>39</dim>
					<dim>39</dim>
				</port>
				<port id="1" precision="I64">
					<dim>5</dim>
				</port>
			</input>
			<output>
				<port id="2" names="net/Conv3D_8:0,net/transpose_20:0" precision="FP32">
					<dim>10</dim>
					<dim>40</dim>
					<dim>39</dim>
					<dim>39</dim>
					<dim>39</dim>
				</port>
			</output>
		</layer>
		<layer id="52" name="data_mul_111161112033850" type="Const" version="opset1">
			<data element_type="f32" offset="230808" shape="1, 40, 1, 1, 1" size="160"/>
			<output>
				<port id="0" precision="FP32">
					<dim>1</dim>
					<dim>40</dim>
					<dim>1</dim>
					<dim>1</dim>
					<dim>1</dim>
				</port>
			</output>
		</layer>
		<layer id="53" name="net/truediv_8/Fused_Mul_" type="Multiply" version="opset1">
			<data auto_broadcast="numpy"/>
			<input>
				<port id="0" precision="FP32">
					<dim>10</dim>
					<dim>40</dim>
					<dim>39</dim>
					<dim>39</dim>
					<dim>39</dim>
				</port>
				<port id="1" precision="FP32">
					<dim>1</dim>
					<dim>40</dim>
					<dim>1</dim>
					<dim>1</dim>
					<dim>1</dim>
				</port>
			</input>
			<output>
				<port id="2" precision="FP32">
					<dim>10</dim>
					<dim>40</dim>
					<dim>39</dim>
					<dim>39</dim>
					<dim>39</dim>
				</port>
			</output>
		</layer>
		<layer id="54" name="data_add_111171112233997" type="Const" version="opset1">
			<data element_type="f32" offset="230968" shape="1, 40, 1, 1, 1" size="160"/>
			<output>
				<port id="0" precision="FP32">
					<dim>1</dim>
					<dim>40</dim>
					<dim>1</dim>
					<dim>1</dim>
					<dim>1</dim>
				</port>
			</output>
		</layer>
		<layer id="55" name="net/sub_14/Fused_Add_" type="Add" version="opset1">
			<data auto_broadcast="numpy"/>
			<input>
				<port id="0" precision="FP32">
					<dim>10</dim>
					<dim>40</dim>
					<dim>39</dim>
					<dim>39</dim>
					<dim>39</dim>
				</port>
				<port id="1" precision="FP32">
					<dim>1</dim>
					<dim>40</dim>
					<dim>1</dim>
					<dim>1</dim>
					<dim>1</dim>
				</port>
			</input>
			<output>
				<port id="2" names="net/add_27:0" precision="FP32">
					<dim>10</dim>
					<dim>40</dim>
					<dim>39</dim>
					<dim>39</dim>
					<dim>39</dim>
				</port>
			</output>
		</layer>
		<layer id="56" name="net/Maximum_8" type="Maximum" version="opset1">
			<data auto_broadcast="numpy"/>
			<input>
				<port id="0" precision="FP32">
					<dim>1</dim>
					<dim>1</dim>
					<dim>1</dim>
					<dim>1</dim>
					<dim>1</dim>
				</port>
				<port id="1" precision="FP32">
					<dim>10</dim>
					<dim>40</dim>
					<dim>39</dim>
					<dim>39</dim>
					<dim>39</dim>
				</port>
			</input>
			<output>
				<port id="2" names="net/Maximum_8:0" precision="FP32">
					<dim>10</dim>
					<dim>40</dim>
					<dim>39</dim>
					<dim>39</dim>
					<dim>39</dim>
				</port>
			</output>
		</layer>
		<layer id="57" name="net/Abs_8" type="Abs" version="opset1">
			<input>
				<port id="0" precision="FP32">
					<dim>10</dim>
					<dim>40</dim>
					<dim>39</dim>
					<dim>39</dim>
					<dim>39</dim>
				</port>
			</input>
			<output>
				<port id="1" precision="FP32">
					<dim>10</dim>
					<dim>40</dim>
					<dim>39</dim>
					<dim>39</dim>
					<dim>39</dim>
				</port>
			</output>
		</layer>
		<layer id="58" name="net/sub_17/sub" type="Subtract" version="opset1">
			<data auto_broadcast="numpy"/>
			<input>
				<port id="0" precision="FP32">
					<dim>10</dim>
					<dim>40</dim>
					<dim>39</dim>
					<dim>39</dim>
					<dim>39</dim>
				</port>
				<port id="1" precision="FP32">
					<dim>10</dim>
					<dim>40</dim>
					<dim>39</dim>
					<dim>39</dim>
					<dim>39</dim>
				</port>
			</input>
			<output>
				<port id="2" names="net/sub_17:0" precision="FP32">
					<dim>10</dim>
					<dim>40</dim>
					<dim>39</dim>
					<dim>39</dim>
					<dim>39</dim>
				</port>
			</output>
		</layer>
		<layer id="59" name="data_mul_111241112634015" type="Const" version="opset1">
			<data element_type="f32" offset="231128" shape="1, 40, 1, 1, 1" size="160"/>
			<output>
				<port id="0" precision="FP32">
					<dim>1</dim>
					<dim>40</dim>
					<dim>1</dim>
					<dim>1</dim>
					<dim>1</dim>
				</port>
			</output>
		</layer>
		<layer id="60" name="net/mul_25/Fused_Mul_" type="Multiply" version="opset1">
			<data auto_broadcast="numpy"/>
			<input>
				<port id="0" precision="FP32">
					<dim>10</dim>
					<dim>40</dim>
					<dim>39</dim>
					<dim>39</dim>
					<dim>39</dim>
				</port>
				<port id="1" precision="FP32">
					<dim>1</dim>
					<dim>40</dim>
					<dim>1</dim>
					<dim>1</dim>
					<dim>1</dim>
				</port>
			</input>
			<output>
				<port id="2" names="net/mul_26:0" precision="FP32">
					<dim>10</dim>
					<dim>40</dim>
					<dim>39</dim>
					<dim>39</dim>
					<dim>39</dim>
				</port>
			</output>
		</layer>
		<layer id="61" name="net/add_32" type="Add" version="opset1">
			<data auto_broadcast="numpy"/>
			<input>
				<port id="0" precision="FP32">
					<dim>10</dim>
					<dim>40</dim>
					<dim>39</dim>
					<dim>39</dim>
					<dim>39</dim>
				</port>
				<port id="1" precision="FP32">
					<dim>10</dim>
					<dim>40</dim>
					<dim>39</dim>
					<dim>39</dim>
					<dim>39</dim>
				</port>
			</input>
			<output>
				<port id="2" names="net/add_32:0" precision="FP32">
					<dim>10</dim>
					<dim>40</dim>
					<dim>39</dim>
					<dim>39</dim>
					<dim>39</dim>
				</port>
			</output>
		</layer>
		<layer id="62" name="net/transpose_26/perm" type="Const" version="opset1">
			<data element_type="i64" offset="8" shape="5" size="40"/>
			<output>
				<port id="0" names="net/transpose_26/perm:0" precision="I64">
					<dim>5</dim>
				</port>
			</output>
		</layer>
		<layer id="63" name="net/transpose_26" type="Transpose" version="opset1">
			<input>
				<port id="0" precision="FP32">
					<dim>10</dim>
					<dim>40</dim>
					<dim>39</dim>
					<dim>39</dim>
					<dim>39</dim>
				</port>
				<port id="1" precision="I64">
					<dim>5</dim>
				</port>
			</input>
			<output>
				<port id="2" names="net/transpose_26:0" precision="FP32">
					<dim>10</dim>
					<dim>40</dim>
					<dim>39</dim>
					<dim>39</dim>
					<dim>39</dim>
				</port>
			</output>
		</layer>
		<layer id="64" name="net/transpose_21" type="Const" version="opset1">
			<data element_type="f32" offset="231288" shape="40, 40, 3, 3, 3" size="172800"/>
			<output>
				<port id="0" names="net/transpose_21:0" precision="FP32">
					<dim>40</dim>
					<dim>40</dim>
					<dim>3</dim>
					<dim>3</dim>
					<dim>3</dim>
				</port>
			</output>
		</layer>
		<layer id="65" name="net/Conv3D_11" type="Convolution" version="opset1">
			<data auto_pad="valid" dilations="1, 1, 1" pads_begin="0, 0, 0" pads_end="0, 0, 0" strides="1, 1, 1"/>
			<input>
				<port id="0" precision="FP32">
					<dim>10</dim>
					<dim>40</dim>
					<dim>39</dim>
					<dim>39</dim>
					<dim>39</dim>
				</port>
				<port id="1" precision="FP32">
					<dim>40</dim>
					<dim>40</dim>
					<dim>3</dim>
					<dim>3</dim>
					<dim>3</dim>
				</port>
			</input>
			<output>
				<port id="2" precision="FP32">
					<dim>10</dim>
					<dim>40</dim>
					<dim>37</dim>
					<dim>37</dim>
					<dim>37</dim>
				</port>
			</output>
		</layer>
		<layer id="66" name="746233736" type="Const" version="opset1">
			<data element_type="i64" offset="8" shape="5" size="40"/>
			<output>
				<port id="0" precision="I64">
					<dim>5</dim>
				</port>
			</output>
		</layer>
		<layer id="67" name="net/Conv3D_11/output_transpose" type="Transpose" version="opset1">
			<input>
				<port id="0" precision="FP32">
					<dim>10</dim>
					<dim>40</dim>
					<dim>37</dim>
					<dim>37</dim>
					<dim>37</dim>
				</port>
				<port id="1" precision="I64">
					<dim>5</dim>
				</port>
			</input>
			<output>
				<port id="2" names="net/Conv3D_11:0,net/transpose_27:0" precision="FP32">
					<dim>10</dim>
					<dim>40</dim>
					<dim>37</dim>
					<dim>37</dim>
					<dim>37</dim>
				</port>
			</output>
		</layer>
		<layer id="68" name="data_mul_111281113233961" type="Const" version="opset1">
			<data element_type="f32" offset="404088" shape="1, 40, 1, 1, 1" size="160"/>
			<output>
				<port id="0" precision="FP32">
					<dim>1</dim>
					<dim>40</dim>
					<dim>1</dim>
					<dim>1</dim>
					<dim>1</dim>
				</port>
			</output>
		</layer>
		<layer id="69" name="net/truediv_11/Fused_Mul_" type="Multiply" version="opset1">
			<data auto_broadcast="numpy"/>
			<input>
				<port id="0" precision="FP32">
					<dim>10</dim>
					<dim>40</dim>
					<dim>37</dim>
					<dim>37</dim>
					<dim>37</dim>
				</port>
				<port id="1" precision="FP32">
					<dim>1</dim>
					<dim>40</dim>
					<dim>1</dim>
					<dim>1</dim>
					<dim>1</dim>
				</port>
			</input>
			<output>
				<port id="2" precision="FP32">
					<dim>10</dim>
					<dim>40</dim>
					<dim>37</dim>
					<dim>37</dim>
					<dim>37</dim>
				</port>
			</output>
		</layer>
		<layer id="70" name="data_add_111291113434039" type="Const" version="opset1">
			<data element_type="f32" offset="404248" shape="1, 40, 1, 1, 1" size="160"/>
			<output>
				<port id="0" precision="FP32">
					<dim>1</dim>
					<dim>40</dim>
					<dim>1</dim>
					<dim>1</dim>
					<dim>1</dim>
				</port>
			</output>
		</layer>
		<layer id="71" name="net/sub_20/Fused_Add_" type="Add" version="opset1">
			<data auto_broadcast="numpy"/>
			<input>
				<port id="0" precision="FP32">
					<dim>10</dim>
					<dim>40</dim>
					<dim>37</dim>
					<dim>37</dim>
					<dim>37</dim>
				</port>
				<port id="1" precision="FP32">
					<dim>1</dim>
					<dim>40</dim>
					<dim>1</dim>
					<dim>1</dim>
					<dim>1</dim>
				</port>
			</input>
			<output>
				<port id="2" names="net/add_37:0" precision="FP32">
					<dim>10</dim>
					<dim>40</dim>
					<dim>37</dim>
					<dim>37</dim>
					<dim>37</dim>
				</port>
			</output>
		</layer>
		<layer id="72" name="net/Maximum_11" type="Maximum" version="opset1">
			<data auto_broadcast="numpy"/>
			<input>
				<port id="0" precision="FP32">
					<dim>1</dim>
					<dim>1</dim>
					<dim>1</dim>
					<dim>1</dim>
					<dim>1</dim>
				</port>
				<port id="1" precision="FP32">
					<dim>10</dim>
					<dim>40</dim>
					<dim>37</dim>
					<dim>37</dim>
					<dim>37</dim>
				</port>
			</input>
			<output>
				<port id="2" names="net/Maximum_11:0" precision="FP32">
					<dim>10</dim>
					<dim>40</dim>
					<dim>37</dim>
					<dim>37</dim>
					<dim>37</dim>
				</port>
			</output>
		</layer>
		<layer id="73" name="net/Abs_11" type="Abs" version="opset1">
			<input>
				<port id="0" precision="FP32">
					<dim>10</dim>
					<dim>40</dim>
					<dim>37</dim>
					<dim>37</dim>
					<dim>37</dim>
				</port>
			</input>
			<output>
				<port id="1" precision="FP32">
					<dim>10</dim>
					<dim>40</dim>
					<dim>37</dim>
					<dim>37</dim>
					<dim>37</dim>
				</port>
			</output>
		</layer>
		<layer id="74" name="net/sub_23/sub" type="Subtract" version="opset1">
			<data auto_broadcast="numpy"/>
			<input>
				<port id="0" precision="FP32">
					<dim>10</dim>
					<dim>40</dim>
					<dim>37</dim>
					<dim>37</dim>
					<dim>37</dim>
				</port>
				<port id="1" precision="FP32">
					<dim>10</dim>
					<dim>40</dim>
					<dim>37</dim>
					<dim>37</dim>
					<dim>37</dim>
				</port>
			</input>
			<output>
				<port id="2" names="net/sub_23:0" precision="FP32">
					<dim>10</dim>
					<dim>40</dim>
					<dim>37</dim>
					<dim>37</dim>
					<dim>37</dim>
				</port>
			</output>
		</layer>
		<layer id="75" name="data_mul_111361113833766" type="Const" version="opset1">
			<data element_type="f32" offset="404408" shape="1, 40, 1, 1, 1" size="160"/>
			<output>
				<port id="0" precision="FP32">
					<dim>1</dim>
					<dim>40</dim>
					<dim>1</dim>
					<dim>1</dim>
					<dim>1</dim>
				</port>
			</output>
		</layer>
		<layer id="76" name="net/mul_34/Fused_Mul_" type="Multiply" version="opset1">
			<data auto_broadcast="numpy"/>
			<input>
				<port id="0" precision="FP32">
					<dim>10</dim>
					<dim>40</dim>
					<dim>37</dim>
					<dim>37</dim>
					<dim>37</dim>
				</port>
				<port id="1" precision="FP32">
					<dim>1</dim>
					<dim>40</dim>
					<dim>1</dim>
					<dim>1</dim>
					<dim>1</dim>
				</port>
			</input>
			<output>
				<port id="2" names="net/mul_35:0" precision="FP32">
					<dim>10</dim>
					<dim>40</dim>
					<dim>37</dim>
					<dim>37</dim>
					<dim>37</dim>
				</port>
			</output>
		</layer>
		<layer id="77" name="net/add_42" type="Add" version="opset1">
			<data auto_broadcast="numpy"/>
			<input>
				<port id="0" precision="FP32">
					<dim>10</dim>
					<dim>40</dim>
					<dim>37</dim>
					<dim>37</dim>
					<dim>37</dim>
				</port>
				<port id="1" precision="FP32">
					<dim>10</dim>
					<dim>40</dim>
					<dim>37</dim>
					<dim>37</dim>
					<dim>37</dim>
				</port>
			</input>
			<output>
				<port id="2" names="net/add_42:0" precision="FP32">
					<dim>10</dim>
					<dim>40</dim>
					<dim>37</dim>
					<dim>37</dim>
					<dim>37</dim>
				</port>
			</output>
		</layer>
		<layer id="78" name="net/transpose_33/perm" type="Const" version="opset1">
			<data element_type="i64" offset="8" shape="5" size="40"/>
			<output>
				<port id="0" names="net/transpose_33/perm:0" precision="I64">
					<dim>5</dim>
				</port>
			</output>
		</layer>
		<layer id="79" name="net/transpose_33" type="Transpose" version="opset1">
			<input>
				<port id="0" precision="FP32">
					<dim>10</dim>
					<dim>40</dim>
					<dim>37</dim>
					<dim>37</dim>
					<dim>37</dim>
				</port>
				<port id="1" precision="I64">
					<dim>5</dim>
				</port>
			</input>
			<output>
				<port id="2" names="net/transpose_33:0" precision="FP32">
					<dim>10</dim>
					<dim>40</dim>
					<dim>37</dim>
					<dim>37</dim>
					<dim>37</dim>
				</port>
			</output>
		</layer>
		<layer id="80" name="net/transpose_28" type="Const" version="opset1">
			<data element_type="f32" offset="404568" shape="40, 40, 3, 3, 3" size="172800"/>
			<output>
				<port id="0" names="net/transpose_28:0" precision="FP32">
					<dim>40</dim>
					<dim>40</dim>
					<dim>3</dim>
					<dim>3</dim>
					<dim>3</dim>
				</port>
			</output>
		</layer>
		<layer id="81" name="net/Conv3D_14" type="Convolution" version="opset1">
			<data auto_pad="valid" dilations="1, 1, 1" pads_begin="0, 0, 0" pads_end="0, 0, 0" strides="1, 1, 1"/>
			<input>
				<port id="0" precision="FP32">
					<dim>10</dim>
					<dim>40</dim>
					<dim>37</dim>
					<dim>37</dim>
					<dim>37</dim>
				</port>
				<port id="1" precision="FP32">
					<dim>40</dim>
					<dim>40</dim>
					<dim>3</dim>
					<dim>3</dim>
					<dim>3</dim>
				</port>
			</input>
			<output>
				<port id="2" precision="FP32">
					<dim>10</dim>
					<dim>40</dim>
					<dim>35</dim>
					<dim>35</dim>
					<dim>35</dim>
				</port>
			</output>
		</layer>
		<layer id="82" name="747034282" type="Const" version="opset1">
			<data element_type="i64" offset="8" shape="5" size="40"/>
			<output>
				<port id="0" precision="I64">
					<dim>5</dim>
				</port>
			</output>
		</layer>
		<layer id="83" name="net/Conv3D_14/output_transpose" type="Transpose" version="opset1">
			<input>
				<port id="0" precision="FP32">
					<dim>10</dim>
					<dim>40</dim>
					<dim>35</dim>
					<dim>35</dim>
					<dim>35</dim>
				</port>
				<port id="1" precision="I64">
					<dim>5</dim>
				</port>
			</input>
			<output>
				<port id="2" names="net/Conv3D_14:0,net/transpose_34:0" precision="FP32">
					<dim>10</dim>
					<dim>40</dim>
					<dim>35</dim>
					<dim>35</dim>
					<dim>35</dim>
				</port>
			</output>
		</layer>
		<layer id="84" name="data_mul_111401114433706" type="Const" version="opset1">
			<data element_type="f32" offset="577368" shape="1, 40, 1, 1, 1" size="160"/>
			<output>
				<port id="0" precision="FP32">
					<dim>1</dim>
					<dim>40</dim>
					<dim>1</dim>
					<dim>1</dim>
					<dim>1</dim>
				</port>
			</output>
		</layer>
		<layer id="85" name="net/truediv_14/Fused_Mul_" type="Multiply" version="opset1">
			<data auto_broadcast="numpy"/>
			<input>
				<port id="0" precision="FP32">
					<dim>10</dim>
					<dim>40</dim>
					<dim>35</dim>
					<dim>35</dim>
					<dim>35</dim>
				</port>
				<port id="1" precision="FP32">
					<dim>1</dim>
					<dim>40</dim>
					<dim>1</dim>
					<dim>1</dim>
					<dim>1</dim>
				</port>
			</input>
			<output>
				<port id="2" precision="FP32">
					<dim>10</dim>
					<dim>40</dim>
					<dim>35</dim>
					<dim>35</dim>
					<dim>35</dim>
				</port>
			</output>
		</layer>
		<layer id="86" name="data_add_111411114633931" type="Const" version="opset1">
			<data element_type="f32" offset="577528" shape="1, 40, 1, 1, 1" size="160"/>
			<output>
				<port id="0" precision="FP32">
					<dim>1</dim>
					<dim>40</dim>
					<dim>1</dim>
					<dim>1</dim>
					<dim>1</dim>
				</port>
			</output>
		</layer>
		<layer id="87" name="net/sub_26/Fused_Add_" type="Add" version="opset1">
			<data auto_broadcast="numpy"/>
			<input>
				<port id="0" precision="FP32">
					<dim>10</dim>
					<dim>40</dim>
					<dim>35</dim>
					<dim>35</dim>
					<dim>35</dim>
				</port>
				<port id="1" precision="FP32">
					<dim>1</dim>
					<dim>40</dim>
					<dim>1</dim>
					<dim>1</dim>
					<dim>1</dim>
				</port>
			</input>
			<output>
				<port id="2" names="net/add_47:0" precision="FP32">
					<dim>10</dim>
					<dim>40</dim>
					<dim>35</dim>
					<dim>35</dim>
					<dim>35</dim>
				</port>
			</output>
		</layer>
		<layer id="88" name="net/Maximum_14" type="Maximum" version="opset1">
			<data auto_broadcast="numpy"/>
			<input>
				<port id="0" precision="FP32">
					<dim>1</dim>
					<dim>1</dim>
					<dim>1</dim>
					<dim>1</dim>
					<dim>1</dim>
				</port>
				<port id="1" precision="FP32">
					<dim>10</dim>
					<dim>40</dim>
					<dim>35</dim>
					<dim>35</dim>
					<dim>35</dim>
				</port>
			</input>
			<output>
				<port id="2" names="net/Maximum_14:0" precision="FP32">
					<dim>10</dim>
					<dim>40</dim>
					<dim>35</dim>
					<dim>35</dim>
					<dim>35</dim>
				</port>
			</output>
		</layer>
		<layer id="89" name="net/Abs_14" type="Abs" version="opset1">
			<input>
				<port id="0" precision="FP32">
					<dim>10</dim>
					<dim>40</dim>
					<dim>35</dim>
					<dim>35</dim>
					<dim>35</dim>
				</port>
			</input>
			<output>
				<port id="1" precision="FP32">
					<dim>10</dim>
					<dim>40</dim>
					<dim>35</dim>
					<dim>35</dim>
					<dim>35</dim>
				</port>
			</output>
		</layer>
		<layer id="90" name="net/sub_29/sub" type="Subtract" version="opset1">
			<data auto_broadcast="numpy"/>
			<input>
				<port id="0" precision="FP32">
					<dim>10</dim>
					<dim>40</dim>
					<dim>35</dim>
					<dim>35</dim>
					<dim>35</dim>
				</port>
				<port id="1" precision="FP32">
					<dim>10</dim>
					<dim>40</dim>
					<dim>35</dim>
					<dim>35</dim>
					<dim>35</dim>
				</port>
			</input>
			<output>
				<port id="2" names="net/sub_29:0" precision="FP32">
					<dim>10</dim>
					<dim>40</dim>
					<dim>35</dim>
					<dim>35</dim>
					<dim>35</dim>
				</port>
			</output>
		</layer>
		<layer id="91" name="data_mul_111481115033700" type="Const" version="opset1">
			<data element_type="f32" offset="577688" shape="1, 40, 1, 1, 1" size="160"/>
			<output>
				<port id="0" precision="FP32">
					<dim>1</dim>
					<dim>40</dim>
					<dim>1</dim>
					<dim>1</dim>
					<dim>1</dim>
				</port>
			</output>
		</layer>
		<layer id="92" name="net/mul_43/Fused_Mul_" type="Multiply" version="opset1">
			<data auto_broadcast="numpy"/>
			<input>
				<port id="0" precision="FP32">
					<dim>10</dim>
					<dim>40</dim>
					<dim>35</dim>
					<dim>35</dim>
					<dim>35</dim>
				</port>
				<port id="1" precision="FP32">
					<dim>1</dim>
					<dim>40</dim>
					<dim>1</dim>
					<dim>1</dim>
					<dim>1</dim>
				</port>
			</input>
			<output>
				<port id="2" names="net/mul_44:0" precision="FP32">
					<dim>10</dim>
					<dim>40</dim>
					<dim>35</dim>
					<dim>35</dim>
					<dim>35</dim>
				</port>
			</output>
		</layer>
		<layer id="93" name="net/add_52" type="Add" version="opset1">
			<data auto_broadcast="numpy"/>
			<input>
				<port id="0" precision="FP32">
					<dim>10</dim>
					<dim>40</dim>
					<dim>35</dim>
					<dim>35</dim>
					<dim>35</dim>
				</port>
				<port id="1" precision="FP32">
					<dim>10</dim>
					<dim>40</dim>
					<dim>35</dim>
					<dim>35</dim>
					<dim>35</dim>
				</port>
			</input>
			<output>
				<port id="2" names="net/add_52:0" precision="FP32">
					<dim>10</dim>
					<dim>40</dim>
					<dim>35</dim>
					<dim>35</dim>
					<dim>35</dim>
				</port>
			</output>
		</layer>
		<layer id="94" name="net/transpose_40/perm" type="Const" version="opset1">
			<data element_type="i64" offset="8" shape="5" size="40"/>
			<output>
				<port id="0" names="net/transpose_40/perm:0" precision="I64">
					<dim>5</dim>
				</port>
			</output>
		</layer>
		<layer id="95" name="net/transpose_40" type="Transpose" version="opset1">
			<input>
				<port id="0" precision="FP32">
					<dim>10</dim>
					<dim>40</dim>
					<dim>35</dim>
					<dim>35</dim>
					<dim>35</dim>
				</port>
				<port id="1" precision="I64">
					<dim>5</dim>
				</port>
			</input>
			<output>
				<port id="2" names="net/transpose_40:0" precision="FP32">
					<dim>10</dim>
					<dim>40</dim>
					<dim>35</dim>
					<dim>35</dim>
					<dim>35</dim>
				</port>
			</output>
		</layer>
		<layer id="96" name="net/transpose_35" type="Const" version="opset1">
			<data element_type="f32" offset="577848" shape="40, 40, 3, 3, 3" size="172800"/>
			<output>
				<port id="0" names="net/transpose_35:0" precision="FP32">
					<dim>40</dim>
					<dim>40</dim>
					<dim>3</dim>
					<dim>3</dim>
					<dim>3</dim>
				</port>
			</output>
		</layer>
		<layer id="97" name="net/Conv3D_17" type="Convolution" version="opset1">
			<data auto_pad="valid" dilations="1, 1, 1" pads_begin="0, 0, 0" pads_end="0, 0, 0" strides="1, 1, 1"/>
			<input>
				<port id="0" precision="FP32">
					<dim>10</dim>
					<dim>40</dim>
					<dim>35</dim>
					<dim>35</dim>
					<dim>35</dim>
				</port>
				<port id="1" precision="FP32">
					<dim>40</dim>
					<dim>40</dim>
					<dim>3</dim>
					<dim>3</dim>
					<dim>3</dim>
				</port>
			</input>
			<output>
				<port id="2" precision="FP32">
					<dim>10</dim>
					<dim>40</dim>
					<dim>33</dim>
					<dim>33</dim>
					<dim>33</dim>
				</port>
			</output>
		</layer>
		<layer id="98" name="747834045" type="Const" version="opset1">
			<data element_type="i64" offset="8" shape="5" size="40"/>
			<output>
				<port id="0" precision="I64">
					<dim>5</dim>
				</port>
			</output>
		</layer>
		<layer id="99" name="net/Conv3D_17/output_transpose" type="Transpose" version="opset1">
			<input>
				<port id="0" precision="FP32">
					<dim>10</dim>
					<dim>40</dim>
					<dim>33</dim>
					<dim>33</dim>
					<dim>33</dim>
				</port>
				<port id="1" precision="I64">
					<dim>5</dim>
				</port>
			</input>
			<output>
				<port id="2" names="net/Conv3D_17:0,net/transpose_41:0" precision="FP32">
					<dim>10</dim>
					<dim>40</dim>
					<dim>33</dim>
					<dim>33</dim>
					<dim>33</dim>
				</port>
			</output>
		</layer>
		<layer id="100" name="data_mul_111521115634078" type="Const" version="opset1">
			<data element_type="f32" offset="750648" shape="1, 40, 1, 1, 1" size="160"/>
			<output>
				<port id="0" precision="FP32">
					<dim>1</dim>
					<dim>40</dim>
					<dim>1</dim>
					<dim>1</dim>
					<dim>1</dim>
				</port>
			</output>
		</layer>
		<layer id="101" name="net/truediv_17/Fused_Mul_" type="Multiply" version="opset1">
			<data auto_broadcast="numpy"/>
			<input>
				<port id="0" precision="FP32">
					<dim>10</dim>
					<dim>40</dim>
					<dim>33</dim>
					<dim>33</dim>
					<dim>33</dim>
				</port>
				<port id="1" precision="FP32">
					<dim>1</dim>
					<dim>40</dim>
					<dim>1</dim>
					<dim>1</dim>
					<dim>1</dim>
				</port>
			</input>
			<output>
				<port id="2" precision="FP32">
					<dim>10</dim>
					<dim>40</dim>
					<dim>33</dim>
					<dim>33</dim>
					<dim>33</dim>
				</port>
			</output>
		</layer>
		<layer id="102" name="data_add_111531115833814" type="Const" version="opset1">
			<data element_type="f32" offset="750808" shape="1, 40, 1, 1, 1" size="160"/>
			<output>
				<port id="0" precision="FP32">
					<dim>1</dim>
					<dim>40</dim>
					<dim>1</dim>
					<dim>1</dim>
					<dim>1</dim>
				</port>
			</output>
		</layer>
		<layer id="103" name="net/sub_32/Fused_Add_" type="Add" version="opset1">
			<data auto_broadcast="numpy"/>
			<input>
				<port id="0" precision="FP32">
					<dim>10</dim>
					<dim>40</dim>
					<dim>33</dim>
					<dim>33</dim>
					<dim>33</dim>
				</port>
				<port id="1" precision="FP32">
					<dim>1</dim>
					<dim>40</dim>
					<dim>1</dim>
					<dim>1</dim>
					<dim>1</dim>
				</port>
			</input>
			<output>
				<port id="2" names="net/add_57:0" precision="FP32">
					<dim>10</dim>
					<dim>40</dim>
					<dim>33</dim>
					<dim>33</dim>
					<dim>33</dim>
				</port>
			</output>
		</layer>
		<layer id="104" name="net/Maximum_17" type="Maximum" version="opset1">
			<data auto_broadcast="numpy"/>
			<input>
				<port id="0" precision="FP32">
					<dim>1</dim>
					<dim>1</dim>
					<dim>1</dim>
					<dim>1</dim>
					<dim>1</dim>
				</port>
				<port id="1" precision="FP32">
					<dim>10</dim>
					<dim>40</dim>
					<dim>33</dim>
					<dim>33</dim>
					<dim>33</dim>
				</port>
			</input>
			<output>
				<port id="2" names="net/Maximum_17:0" precision="FP32">
					<dim>10</dim>
					<dim>40</dim>
					<dim>33</dim>
					<dim>33</dim>
					<dim>33</dim>
				</port>
			</output>
		</layer>
		<layer id="105" name="net/Abs_17" type="Abs" version="opset1">
			<input>
				<port id="0" precision="FP32">
					<dim>10</dim>
					<dim>40</dim>
					<dim>33</dim>
					<dim>33</dim>
					<dim>33</dim>
				</port>
			</input>
			<output>
				<port id="1" precision="FP32">
					<dim>10</dim>
					<dim>40</dim>
					<dim>33</dim>
					<dim>33</dim>
					<dim>33</dim>
				</port>
			</output>
		</layer>
		<layer id="106" name="net/sub_35/sub" type="Subtract" version="opset1">
			<data auto_broadcast="numpy"/>
			<input>
				<port id="0" precision="FP32">
					<dim>10</dim>
					<dim>40</dim>
					<dim>33</dim>
					<dim>33</dim>
					<dim>33</dim>
				</port>
				<port id="1" precision="FP32">
					<dim>10</dim>
					<dim>40</dim>
					<dim>33</dim>
					<dim>33</dim>
					<dim>33</dim>
				</port>
			</input>
			<output>
				<port id="2" names="net/sub_35:0" precision="FP32">
					<dim>10</dim>
					<dim>40</dim>
					<dim>33</dim>
					<dim>33</dim>
					<dim>33</dim>
				</port>
			</output>
		</layer>
		<layer id="107" name="data_mul_111601116233937" type="Const" version="opset1">
			<data element_type="f32" offset="750968" shape="1, 40, 1, 1, 1" size="160"/>
			<output>
				<port id="0" precision="FP32">
					<dim>1</dim>
					<dim>40</dim>
					<dim>1</dim>
					<dim>1</dim>
					<dim>1</dim>
				</port>
			</output>
		</layer>
		<layer id="108" name="net/mul_52/Fused_Mul_" type="Multiply" version="opset1">
			<data auto_broadcast="numpy"/>
			<input>
				<port id="0" precision="FP32">
					<dim>10</dim>
					<dim>40</dim>
					<dim>33</dim>
					<dim>33</dim>
					<dim>33</dim>
				</port>
				<port id="1" precision="FP32">
					<dim>1</dim>
					<dim>40</dim>
					<dim>1</dim>
					<dim>1</dim>
					<dim>1</dim>
				</port>
			</input>
			<output>
				<port id="2" names="net/mul_53:0" precision="FP32">
					<dim>10</dim>
					<dim>40</dim>
					<dim>33</dim>
					<dim>33</dim>
					<dim>33</dim>
				</port>
			</output>
		</layer>
		<layer id="109" name="net/add_62" type="Add" version="opset1">
			<data auto_broadcast="numpy"/>
			<input>
				<port id="0" precision="FP32">
					<dim>10</dim>
					<dim>40</dim>
					<dim>33</dim>
					<dim>33</dim>
					<dim>33</dim>
				</port>
				<port id="1" precision="FP32">
					<dim>10</dim>
					<dim>40</dim>
					<dim>33</dim>
					<dim>33</dim>
					<dim>33</dim>
				</port>
			</input>
			<output>
				<port id="2" names="net/add_62:0" precision="FP32">
					<dim>10</dim>
					<dim>40</dim>
					<dim>33</dim>
					<dim>33</dim>
					<dim>33</dim>
				</port>
			</output>
		</layer>
		<layer id="110" name="net/transpose_47/perm" type="Const" version="opset1">
			<data element_type="i64" offset="8" shape="5" size="40"/>
			<output>
				<port id="0" names="net/transpose_47/perm:0" precision="I64">
					<dim>5</dim>
				</port>
			</output>
		</layer>
		<layer id="111" name="net/transpose_47" type="Transpose" version="opset1">
			<input>
				<port id="0" precision="FP32">
					<dim>10</dim>
					<dim>40</dim>
					<dim>33</dim>
					<dim>33</dim>
					<dim>33</dim>
				</port>
				<port id="1" precision="I64">
					<dim>5</dim>
				</port>
			</input>
			<output>
				<port id="2" names="net/transpose_47:0" precision="FP32">
					<dim>10</dim>
					<dim>40</dim>
					<dim>33</dim>
					<dim>33</dim>
					<dim>33</dim>
				</port>
			</output>
		</layer>
		<layer id="112" name="net/transpose_42" type="Const" version="opset1">
			<data element_type="f32" offset="751128" shape="50, 40, 3, 3, 3" size="216000"/>
			<output>
				<port id="0" names="net/transpose_42:0" precision="FP32">
					<dim>50</dim>
					<dim>40</dim>
					<dim>3</dim>
					<dim>3</dim>
					<dim>3</dim>
				</port>
			</output>
		</layer>
		<layer id="113" name="net/Conv3D_20" type="Convolution" version="opset1">
			<data auto_pad="valid" dilations="1, 1, 1" pads_begin="0, 0, 0" pads_end="0, 0, 0" strides="1, 1, 1"/>
			<input>
				<port id="0" precision="FP32">
					<dim>10</dim>
					<dim>40</dim>
					<dim>33</dim>
					<dim>33</dim>
					<dim>33</dim>
				</port>
				<port id="1" precision="FP32">
					<dim>50</dim>
					<dim>40</dim>
					<dim>3</dim>
					<dim>3</dim>
					<dim>3</dim>
				</port>
			</input>
			<output>
				<port id="2" precision="FP32">
					<dim>10</dim>
					<dim>50</dim>
					<dim>31</dim>
					<dim>31</dim>
					<dim>31</dim>
				</port>
			</output>
		</layer>
		<layer id="114" name="748634300" type="Const" version="opset1">
			<data element_type="i64" offset="8" shape="5" size="40"/>
			<output>
				<port id="0" precision="I64">
					<dim>5</dim>
				</port>
			</output>
		</layer>
		<layer id="115" name="net/Conv3D_20/output_transpose" type="Transpose" version="opset1">
			<input>
				<port id="0" precision="FP32">
					<dim>10</dim>
					<dim>50</dim>
					<dim>31</dim>
					<dim>31</dim>
					<dim>31</dim>
				</port>
				<port id="1" precision="I64">
					<dim>5</dim>
				</port>
			</input>
			<output>
				<port id="2" names="net/Conv3D_20:0,net/transpose_48:0" precision="FP32">
					<dim>10</dim>
					<dim>50</dim>
					<dim>31</dim>
					<dim>31</dim>
					<dim>31</dim>
				</port>
			</output>
		</layer>
		<layer id="116" name="data_mul_111641116833901" type="Const" version="opset1">
			<data element_type="f32" offset="967128" shape="1, 50, 1, 1, 1" size="200"/>
			<output>
				<port id="0" precision="FP32">
					<dim>1</dim>
					<dim>50</dim>
					<dim>1</dim>
					<dim>1</dim>
					<dim>1</dim>
				</port>
			</output>
		</layer>
		<layer id="117" name="net/truediv_20/Fused_Mul_" type="Multiply" version="opset1">
			<data auto_broadcast="numpy"/>
			<input>
				<port id="0" precision="FP32">
					<dim>10</dim>
					<dim>50</dim>
					<dim>31</dim>
					<dim>31</dim>
					<dim>31</dim>
				</port>
				<port id="1" precision="FP32">
					<dim>1</dim>
					<dim>50</dim>
					<dim>1</dim>
					<dim>1</dim>
					<dim>1</dim>
				</port>
			</input>
			<output>
				<port id="2" precision="FP32">
					<dim>10</dim>
					<dim>50</dim>
					<dim>31</dim>
					<dim>31</dim>
					<dim>31</dim>
				</port>
			</output>
		</layer>
		<layer id="118" name="data_add_111651117034279" type="Const" version="opset1">
			<data element_type="f32" offset="967328" shape="1, 50, 1, 1, 1" size="200"/>
			<output>
				<port id="0" precision="FP32">
					<dim>1</dim>
					<dim>50</dim>
					<dim>1</dim>
					<dim>1</dim>
					<dim>1</dim>
				</port>
			</output>
		</layer>
		<layer id="119" name="net/sub_38/Fused_Add_" type="Add" version="opset1">
			<data auto_broadcast="numpy"/>
			<input>
				<port id="0" precision="FP32">
					<dim>10</dim>
					<dim>50</dim>
					<dim>31</dim>
					<dim>31</dim>
					<dim>31</dim>
				</port>
				<port id="1" precision="FP32">
					<dim>1</dim>
					<dim>50</dim>
					<dim>1</dim>
					<dim>1</dim>
					<dim>1</dim>
				</port>
			</input>
			<output>
				<port id="2" names="net/add_67:0" precision="FP32">
					<dim>10</dim>
					<dim>50</dim>
					<dim>31</dim>
					<dim>31</dim>
					<dim>31</dim>
				</port>
			</output>
		</layer>
		<layer id="120" name="net/Maximum_20" type="Maximum" version="opset1">
			<data auto_broadcast="numpy"/>
			<input>
				<port id="0" precision="FP32">
					<dim>1</dim>
					<dim>1</dim>
					<dim>1</dim>
					<dim>1</dim>
					<dim>1</dim>
				</port>
				<port id="1" precision="FP32">
					<dim>10</dim>
					<dim>50</dim>
					<dim>31</dim>
					<dim>31</dim>
					<dim>31</dim>
				</port>
			</input>
			<output>
				<port id="2" names="net/Maximum_20:0" precision="FP32">
					<dim>10</dim>
					<dim>50</dim>
					<dim>31</dim>
					<dim>31</dim>
					<dim>31</dim>
				</port>
			</output>
		</layer>
		<layer id="121" name="net/Abs_20" type="Abs" version="opset1">
			<input>
				<port id="0" precision="FP32">
					<dim>10</dim>
					<dim>50</dim>
					<dim>31</dim>
					<dim>31</dim>
					<dim>31</dim>
				</port>
			</input>
			<output>
				<port id="1" precision="FP32">
					<dim>10</dim>
					<dim>50</dim>
					<dim>31</dim>
					<dim>31</dim>
					<dim>31</dim>
				</port>
			</output>
		</layer>
		<layer id="122" name="net/sub_41/sub" type="Subtract" version="opset1">
			<data auto_broadcast="numpy"/>
			<input>
				<port id="0" precision="FP32">
					<dim>10</dim>
					<dim>50</dim>
					<dim>31</dim>
					<dim>31</dim>
					<dim>31</dim>
				</port>
				<port id="1" precision="FP32">
					<dim>10</dim>
					<dim>50</dim>
					<dim>31</dim>
					<dim>31</dim>
					<dim>31</dim>
				</port>
			</input>
			<output>
				<port id="2" names="net/sub_41:0" precision="FP32">
					<dim>10</dim>
					<dim>50</dim>
					<dim>31</dim>
					<dim>31</dim>
					<dim>31</dim>
				</port>
			</output>
		</layer>
		<layer id="123" name="data_mul_111721117433742" type="Const" version="opset1">
			<data element_type="f32" offset="967528" shape="1, 50, 1, 1, 1" size="200"/>
			<output>
				<port id="0" precision="FP32">
					<dim>1</dim>
					<dim>50</dim>
					<dim>1</dim>
					<dim>1</dim>
					<dim>1</dim>
				</port>
			</output>
		</layer>
		<layer id="124" name="net/mul_61/Fused_Mul_" type="Multiply" version="opset1">
			<data auto_broadcast="numpy"/>
			<input>
				<port id="0" precision="FP32">
					<dim>10</dim>
					<dim>50</dim>
					<dim>31</dim>
					<dim>31</dim>
					<dim>31</dim>
				</port>
				<port id="1" precision="FP32">
					<dim>1</dim>
					<dim>50</dim>
					<dim>1</dim>
					<dim>1</dim>
					<dim>1</dim>
				</port>
			</input>
			<output>
				<port id="2" names="net/mul_62:0" precision="FP32">
					<dim>10</dim>
					<dim>50</dim>
					<dim>31</dim>
					<dim>31</dim>
					<dim>31</dim>
				</port>
			</output>
		</layer>
		<layer id="125" name="net/add_72" type="Add" version="opset1">
			<data auto_broadcast="numpy"/>
			<input>
				<port id="0" precision="FP32">
					<dim>10</dim>
					<dim>50</dim>
					<dim>31</dim>
					<dim>31</dim>
					<dim>31</dim>
				</port>
				<port id="1" precision="FP32">
					<dim>10</dim>
					<dim>50</dim>
					<dim>31</dim>
					<dim>31</dim>
					<dim>31</dim>
				</port>
			</input>
			<output>
				<port id="2" names="net/add_72:0" precision="FP32">
					<dim>10</dim>
					<dim>50</dim>
					<dim>31</dim>
					<dim>31</dim>
					<dim>31</dim>
				</port>
			</output>
		</layer>
		<layer id="126" name="net/transpose_54/perm" type="Const" version="opset1">
			<data element_type="i64" offset="8" shape="5" size="40"/>
			<output>
				<port id="0" names="net/transpose_54/perm:0" precision="I64">
					<dim>5</dim>
				</port>
			</output>
		</layer>
		<layer id="127" name="net/transpose_54" type="Transpose" version="opset1">
			<input>
				<port id="0" precision="FP32">
					<dim>10</dim>
					<dim>50</dim>
					<dim>31</dim>
					<dim>31</dim>
					<dim>31</dim>
				</port>
				<port id="1" precision="I64">
					<dim>5</dim>
				</port>
			</input>
			<output>
				<port id="2" names="net/transpose_54:0" precision="FP32">
					<dim>10</dim>
					<dim>50</dim>
					<dim>31</dim>
					<dim>31</dim>
					<dim>31</dim>
				</port>
			</output>
		</layer>
		<layer id="128" name="net/transpose_49" type="Const" version="opset1">
			<data element_type="f32" offset="967728" shape="50, 50, 3, 3, 3" size="270000"/>
			<output>
				<port id="0" names="net/transpose_49:0" precision="FP32">
					<dim>50</dim>
					<dim>50</dim>
					<dim>3</dim>
					<dim>3</dim>
					<dim>3</dim>
				</port>
			</output>
		</layer>
		<layer id="129" name="net/Conv3D_23" type="Convolution" version="opset1">
			<data auto_pad="valid" dilations="1, 1, 1" pads_begin="0, 0, 0" pads_end="0, 0, 0" strides="1, 1, 1"/>
			<input>
				<port id="0" precision="FP32">
					<dim>10</dim>
					<dim>50</dim>
					<dim>31</dim>
					<dim>31</dim>
					<dim>31</dim>
				</port>
				<port id="1" precision="FP32">
					<dim>50</dim>
					<dim>50</dim>
					<dim>3</dim>
					<dim>3</dim>
					<dim>3</dim>
				</port>
			</input>
			<output>
				<port id="2" precision="FP32">
					<dim>10</dim>
					<dim>50</dim>
					<dim>29</dim>
					<dim>29</dim>
					<dim>29</dim>
				</port>
			</output>
		</layer>
		<layer id="130" name="749433691" type="Const" version="opset1">
			<data element_type="i64" offset="8" shape="5" size="40"/>
			<output>
				<port id="0" precision="I64">
					<dim>5</dim>
				</port>
			</output>
		</layer>
		<layer id="131" name="net/Conv3D_23/output_transpose" type="Transpose" version="opset1">
			<input>
				<port id="0" precision="FP32">
					<dim>10</dim>
					<dim>50</dim>
					<dim>29</dim>
					<dim>29</dim>
					<dim>29</dim>
				</port>
				<port id="1" precision="I64">
					<dim>5</dim>
				</port>
			</input>
			<output>
				<port id="2" names="net/Conv3D_23:0,net/transpose_55:0" precision="FP32">
					<dim>10</dim>
					<dim>50</dim>
					<dim>29</dim>
					<dim>29</dim>
					<dim>29</dim>
				</port>
			</output>
		</layer>
		<layer id="132" name="net/Maximum_41/x" type="Const" version="opset1">
			<data element_type="f32" offset="0" shape="1, 1, 1, 1, 1" size="4"/>
			<output>
				<port id="0" names="net/Maximum_41/x:0" precision="FP32">
					<dim>1</dim>
					<dim>1</dim>
					<dim>1</dim>
					<dim>1</dim>
					<dim>1</dim>
				</port>
			</output>
		</layer>
		<layer id="133" name="net/Maximum_38/x" type="Const" version="opset1">
			<data element_type="f32" offset="0" shape="1, 1, 1, 1, 1" size="4"/>
			<output>
				<port id="0" names="net/Maximum_38/x:0" precision="FP32">
					<dim>1</dim>
					<dim>1</dim>
					<dim>1</dim>
					<dim>1</dim>
					<dim>1</dim>
				</port>
			</output>
		</layer>
		<layer id="134" name="net/Maximum_35/x" type="Const" version="opset1">
			<data element_type="f32" offset="0" shape="1, 1, 1, 1, 1" size="4"/>
			<output>
				<port id="0" names="net/Maximum_35/x:0" precision="FP32">
					<dim>1</dim>
					<dim>1</dim>
					<dim>1</dim>
					<dim>1</dim>
					<dim>1</dim>
				</port>
			</output>
		</layer>
		<layer id="135" name="net/Maximum_32/x" type="Const" version="opset1">
			<data element_type="f32" offset="0" shape="1, 1, 1, 1, 1" size="4"/>
			<output>
				<port id="0" names="net/Maximum_32/x:0" precision="FP32">
					<dim>1</dim>
					<dim>1</dim>
					<dim>1</dim>
					<dim>1</dim>
					<dim>1</dim>
				</port>
			</output>
		</layer>
		<layer id="136" name="net/Maximum_29/x" type="Const" version="opset1">
			<data element_type="f32" offset="0" shape="1, 1, 1, 1, 1" size="4"/>
			<output>
				<port id="0" names="net/Maximum_29/x:0" precision="FP32">
					<dim>1</dim>
					<dim>1</dim>
					<dim>1</dim>
					<dim>1</dim>
					<dim>1</dim>
				</port>
			</output>
		</layer>
		<layer id="137" name="net/Maximum_26/x" type="Const" version="opset1">
			<data element_type="f32" offset="0" shape="1, 1, 1, 1, 1" size="4"/>
			<output>
				<port id="0" names="net/Maximum_26/x:0" precision="FP32">
					<dim>1</dim>
					<dim>1</dim>
					<dim>1</dim>
					<dim>1</dim>
					<dim>1</dim>
				</port>
			</output>
		</layer>
		<layer id="138" name="net/Maximum_23/x" type="Const" version="opset1">
			<data element_type="f32" offset="0" shape="1, 1, 1, 1, 1" size="4"/>
			<output>
				<port id="0" names="net/Maximum_23/x:0" precision="FP32">
					<dim>1</dim>
					<dim>1</dim>
					<dim>1</dim>
					<dim>1</dim>
					<dim>1</dim>
				</port>
			</output>
		</layer>
		<layer id="139" name="net/Reshape_50" type="Const" version="opset1">
			<data element_type="f32" offset="1237728" shape="1, 1, 1, 1, 1" size="4"/>
			<output>
				<port id="0" names="net/Reshape_50:0" precision="FP32">
					<dim>1</dim>
					<dim>1</dim>
					<dim>1</dim>
					<dim>1</dim>
					<dim>1</dim>
				</port>
			</output>
		</layer>
		<layer id="140" name="net/add_75" type="Add" version="opset1">
			<data auto_broadcast="numpy"/>
			<input>
				<port id="0" precision="FP32">
					<dim>10</dim>
					<dim>1</dim>
					<dim>26</dim>
					<dim>26</dim>
					<dim>26</dim>
				</port>
				<port id="1" precision="FP32">
					<dim>1</dim>
					<dim>1</dim>
					<dim>1</dim>
					<dim>1</dim>
					<dim>1</dim>
				</port>
			</input>
			<output>
				<port id="2" names="net/add_75:0" precision="FP32">
					<dim>10</dim>
					<dim>1</dim>
					<dim>26</dim>
					<dim>26</dim>
					<dim>26</dim>
				</port>
			</output>
		</layer>
		<layer id="141" name="net/transpose_61/perm" type="Const" version="opset1">
			<data element_type="i64" offset="8" shape="5" size="40"/>
			<output>
				<port id="0" names="net/transpose_61/perm:0" precision="I64">
					<dim>5</dim>
				</port>
			</output>
		</layer>
		<layer id="142" name="net/transpose_61" type="Transpose" version="opset1">
			<input>
				<port id="0" precision="FP32">
					<dim>10</dim>
					<dim>1</dim>
					<dim>26</dim>
					<dim>26</dim>
					<dim>26</dim>
				</port>
				<port id="1" precision="I64">
					<dim>5</dim>
				</port>
			</input>
			<output>
				<port id="2" names="net/transpose_61:0" precision="FP32">
					<dim>10</dim>
					<dim>1</dim>
					<dim>26</dim>
					<dim>26</dim>
					<dim>26</dim>
				</port>
			</output>
		</layer>
		<layer id="143" name="net/transpose_56" type="Const" version="opset1">
			<data element_type="f32" offset="1237732" shape="30, 1, 3, 3, 3" size="3240"/>
			<output>
				<port id="0" names="net/transpose_56:0" precision="FP32">
					<dim>30</dim>
					<dim>1</dim>
					<dim>3</dim>
					<dim>3</dim>
					<dim>3</dim>
				</port>
			</output>
		</layer>
		<layer id="144" name="net/Conv3D_26" type="Convolution" version="opset1">
			<data auto_pad="valid" dilations="1, 1, 1" pads_begin="0, 0, 0" pads_end="0, 0, 0" strides="1, 1, 1"/>
			<input>
				<port id="0" precision="FP32">
					<dim>10</dim>
					<dim>1</dim>
					<dim>26</dim>
					<dim>26</dim>
					<dim>26</dim>
				</port>
				<port id="1" precision="FP32">
					<dim>30</dim>
					<dim>1</dim>
					<dim>3</dim>
					<dim>3</dim>
					<dim>3</dim>
				</port>
			</input>
			<output>
				<port id="2" precision="FP32">
					<dim>10</dim>
					<dim>30</dim>
					<dim>24</dim>
					<dim>24</dim>
					<dim>24</dim>
				</port>
			</output>
		</layer>
		<layer id="145" name="750233646" type="Const" version="opset1">
			<data element_type="i64" offset="8" shape="5" size="40"/>
			<output>
				<port id="0" precision="I64">
					<dim>5</dim>
				</port>
			</output>
		</layer>
		<layer id="146" name="net/Conv3D_26/output_transpose" type="Transpose" version="opset1">
			<input>
				<port id="0" precision="FP32">
					<dim>10</dim>
					<dim>30</dim>
					<dim>24</dim>
					<dim>24</dim>
					<dim>24</dim>
				</port>
				<port id="1" precision="I64">
					<dim>5</dim>
				</port>
			</input>
			<output>
				<port id="2" names="net/Conv3D_26:0,net/transpose_62:0" precision="FP32">
					<dim>10</dim>
					<dim>30</dim>
					<dim>24</dim>
					<dim>24</dim>
					<dim>24</dim>
				</port>
			</output>
		</layer>
		<layer id="147" name="data_mul_1101234141" type="Const" version="opset1">
			<data element_type="f32" offset="1240972" shape="1, 30, 1, 1, 1" size="120"/>
			<output>
				<port id="0" precision="FP32">
					<dim>1</dim>
					<dim>30</dim>
					<dim>1</dim>
					<dim>1</dim>
					<dim>1</dim>
				</port>
			</output>
		</layer>
		<layer id="148" name="net/truediv_23/Fused_Mul_" type="Multiply" version="opset1">
			<data auto_broadcast="numpy"/>
			<input>
				<port id="0" precision="FP32">
					<dim>10</dim>
					<dim>30</dim>
					<dim>24</dim>
					<dim>24</dim>
					<dim>24</dim>
				</port>
				<port id="1" precision="FP32">
					<dim>1</dim>
					<dim>30</dim>
					<dim>1</dim>
					<dim>1</dim>
					<dim>1</dim>
				</port>
			</input>
			<output>
				<port id="2" precision="FP32">
					<dim>10</dim>
					<dim>30</dim>
					<dim>24</dim>
					<dim>24</dim>
					<dim>24</dim>
				</port>
			</output>
		</layer>
		<layer id="149" name="data_add_1101434363" type="Const" version="opset1">
			<data element_type="f32" offset="1241092" shape="1, 30, 1, 1, 1" size="120"/>
			<output>
				<port id="0" precision="FP32">
					<dim>1</dim>
					<dim>30</dim>
					<dim>1</dim>
					<dim>1</dim>
					<dim>1</dim>
				</port>
			</output>
		</layer>
		<layer id="150" name="net/sub_44/Fused_Add_" type="Add" version="opset1">
			<data auto_broadcast="numpy"/>
			<input>
				<port id="0" precision="FP32">
					<dim>10</dim>
					<dim>30</dim>
					<dim>24</dim>
					<dim>24</dim>
					<dim>24</dim>
				</port>
				<port id="1" precision="FP32">
					<dim>1</dim>
					<dim>30</dim>
					<dim>1</dim>
					<dim>1</dim>
					<dim>1</dim>
				</port>
			</input>
			<output>
				<port id="2" names="net/add_80:0" precision="FP32">
					<dim>10</dim>
					<dim>30</dim>
					<dim>24</dim>
					<dim>24</dim>
					<dim>24</dim>
				</port>
			</output>
		</layer>
		<layer id="151" name="net/Maximum_23" type="Maximum" version="opset1">
			<data auto_broadcast="numpy"/>
			<input>
				<port id="0" precision="FP32">
					<dim>1</dim>
					<dim>1</dim>
					<dim>1</dim>
					<dim>1</dim>
					<dim>1</dim>
				</port>
				<port id="1" precision="FP32">
					<dim>10</dim>
					<dim>30</dim>
					<dim>24</dim>
					<dim>24</dim>
					<dim>24</dim>
				</port>
			</input>
			<output>
				<port id="2" names="net/Maximum_23:0" precision="FP32">
					<dim>10</dim>
					<dim>30</dim>
					<dim>24</dim>
					<dim>24</dim>
					<dim>24</dim>
				</port>
			</output>
		</layer>
		<layer id="152" name="net/Abs_23" type="Abs" version="opset1">
			<input>
				<port id="0" precision="FP32">
					<dim>10</dim>
					<dim>30</dim>
					<dim>24</dim>
					<dim>24</dim>
					<dim>24</dim>
				</port>
			</input>
			<output>
				<port id="1" precision="FP32">
					<dim>10</dim>
					<dim>30</dim>
					<dim>24</dim>
					<dim>24</dim>
					<dim>24</dim>
				</port>
			</output>
		</layer>
		<layer id="153" name="net/sub_47/sub" type="Subtract" version="opset1">
			<data auto_broadcast="numpy"/>
			<input>
				<port id="0" precision="FP32">
					<dim>10</dim>
					<dim>30</dim>
					<dim>24</dim>
					<dim>24</dim>
					<dim>24</dim>
				</port>
				<port id="1" precision="FP32">
					<dim>10</dim>
					<dim>30</dim>
					<dim>24</dim>
					<dim>24</dim>
					<dim>24</dim>
				</port>
			</input>
			<output>
				<port id="2" names="net/sub_47:0" precision="FP32">
					<dim>10</dim>
					<dim>30</dim>
					<dim>24</dim>
					<dim>24</dim>
					<dim>24</dim>
				</port>
			</output>
		</layer>
		<layer id="154" name="data_mul_110161101833898" type="Const" version="opset1">
			<data element_type="f32" offset="1241212" shape="1, 30, 1, 1, 1" size="120"/>
			<output>
				<port id="0" precision="FP32">
					<dim>1</dim>
					<dim>30</dim>
					<dim>1</dim>
					<dim>1</dim>
					<dim>1</dim>
				</port>
			</output>
		</layer>
		<layer id="155" name="net/mul_70/Fused_Mul_" type="Multiply" version="opset1">
			<data auto_broadcast="numpy"/>
			<input>
				<port id="0" precision="FP32">
					<dim>10</dim>
					<dim>30</dim>
					<dim>24</dim>
					<dim>24</dim>
					<dim>24</dim>
				</port>
				<port id="1" precision="FP32">
					<dim>1</dim>
					<dim>30</dim>
					<dim>1</dim>
					<dim>1</dim>
					<dim>1</dim>
				</port>
			</input>
			<output>
				<port id="2" names="net/mul_71:0" precision="FP32">
					<dim>10</dim>
					<dim>30</dim>
					<dim>24</dim>
					<dim>24</dim>
					<dim>24</dim>
				</port>
			</output>
		</layer>
		<layer id="156" name="net/add_85" type="Add" version="opset1">
			<data auto_broadcast="numpy"/>
			<input>
				<port id="0" precision="FP32">
					<dim>10</dim>
					<dim>30</dim>
					<dim>24</dim>
					<dim>24</dim>
					<dim>24</dim>
				</port>
				<port id="1" precision="FP32">
					<dim>10</dim>
					<dim>30</dim>
					<dim>24</dim>
					<dim>24</dim>
					<dim>24</dim>
				</port>
			</input>
			<output>
				<port id="2" names="net/add_85:0" precision="FP32">
					<dim>10</dim>
					<dim>30</dim>
					<dim>24</dim>
					<dim>24</dim>
					<dim>24</dim>
				</port>
			</output>
		</layer>
		<layer id="157" name="net/transpose_68/perm" type="Const" version="opset1">
			<data element_type="i64" offset="8" shape="5" size="40"/>
			<output>
				<port id="0" names="net/transpose_68/perm:0" precision="I64">
					<dim>5</dim>
				</port>
			</output>
		</layer>
		<layer id="158" name="net/transpose_68" type="Transpose" version="opset1">
			<input>
				<port id="0" precision="FP32">
					<dim>10</dim>
					<dim>30</dim>
					<dim>24</dim>
					<dim>24</dim>
					<dim>24</dim>
				</port>
				<port id="1" precision="I64">
					<dim>5</dim>
				</port>
			</input>
			<output>
				<port id="2" names="net/transpose_68:0" precision="FP32">
					<dim>10</dim>
					<dim>30</dim>
					<dim>24</dim>
					<dim>24</dim>
					<dim>24</dim>
				</port>
			</output>
		</layer>
		<layer id="159" name="net/transpose_63" type="Const" version="opset1">
			<data element_type="f32" offset="1241332" shape="30, 30, 3, 3, 3" size="97200"/>
			<output>
				<port id="0" names="net/transpose_63:0" precision="FP32">
					<dim>30</dim>
					<dim>30</dim>
					<dim>3</dim>
					<dim>3</dim>
					<dim>3</dim>
				</port>
			</output>
		</layer>
		<layer id="160" name="net/Conv3D_29" type="Convolution" version="opset1">
			<data auto_pad="valid" dilations="1, 1, 1" pads_begin="0, 0, 0" pads_end="0, 0, 0" strides="1, 1, 1"/>
			<input>
				<port id="0" precision="FP32">
					<dim>10</dim>
					<dim>30</dim>
					<dim>24</dim>
					<dim>24</dim>
					<dim>24</dim>
				</port>
				<port id="1" precision="FP32">
					<dim>30</dim>
					<dim>30</dim>
					<dim>3</dim>
					<dim>3</dim>
					<dim>3</dim>
				</port>
			</input>
			<output>
				<port id="2" precision="FP32">
					<dim>10</dim>
					<dim>30</dim>
					<dim>22</dim>
					<dim>22</dim>
					<dim>22</dim>
				</port>
			</output>
		</layer>
		<layer id="161" name="751034210" type="Const" version="opset1">
			<data element_type="i64" offset="8" shape="5" size="40"/>
			<output>
				<port id="0" precision="I64">
					<dim>5</dim>
				</port>
			</output>
		</layer>
		<layer id="162" name="net/Conv3D_29/output_transpose" type="Transpose" version="opset1">
			<input>
				<port id="0" precision="FP32">
					<dim>10</dim>
					<dim>30</dim>
					<dim>22</dim>
					<dim>22</dim>
					<dim>22</dim>
				</port>
				<port id="1" precision="I64">
					<dim>5</dim>
				</port>
			</input>
			<output>
				<port id="2" names="net/Conv3D_29:0,net/transpose_69:0" precision="FP32">
					<dim>10</dim>
					<dim>30</dim>
					<dim>22</dim>
					<dim>22</dim>
					<dim>22</dim>
				</port>
			</output>
		</layer>
		<layer id="163" name="data_mul_110201102434069" type="Const" version="opset1">
			<data element_type="f32" offset="1338532" shape="1, 30, 1, 1, 1" size="120"/>
			<output>
				<port id="0" precision="FP32">
					<dim>1</dim>
					<dim>30</dim>
					<dim>1</dim>
					<dim>1</dim>
					<dim>1</dim>
				</port>
			</output>
		</layer>
		<layer id="164" name="net/truediv_26/Fused_Mul_" type="Multiply" version="opset1">
			<data auto_broadcast="numpy"/>
			<input>
				<port id="0" precision="FP32">
					<dim>10</dim>
					<dim>30</dim>
					<dim>22</dim>
					<dim>22</dim>
					<dim>22</dim>
				</port>
				<port id="1" precision="FP32">
					<dim>1</dim>
					<dim>30</dim>
					<dim>1</dim>
					<dim>1</dim>
					<dim>1</dim>
				</port>
			</input>
			<output>
				<port id="2" precision="FP32">
					<dim>10</dim>
					<dim>30</dim>
					<dim>22</dim>
					<dim>22</dim>
					<dim>22</dim>
				</port>
			</output>
		</layer>
		<layer id="165" name="data_add_110211102634054" type="Const" version="opset1">
			<data element_type="f32" offset="1338652" shape="1, 30, 1, 1, 1" size="120"/>
			<output>
				<port id="0" precision="FP32">
					<dim>1</dim>
					<dim>30</dim>
					<dim>1</dim>
					<dim>1</dim>
					<dim>1</dim>
				</port>
			</output>
		</layer>
		<layer id="166" name="net/sub_50/Fused_Add_" type="Add" version="opset1">
			<data auto_broadcast="numpy"/>
			<input>
				<port id="0" precision="FP32">
					<dim>10</dim>
					<dim>30</dim>
					<dim>22</dim>
					<dim>22</dim>
					<dim>22</dim>
				</port>
				<port id="1" precision="FP32">
					<dim>1</dim>
					<dim>30</dim>
					<dim>1</dim>
					<dim>1</dim>
					<dim>1</dim>
				</port>
			</input>
			<output>
				<port id="2" names="net/add_90:0" precision="FP32">
					<dim>10</dim>
					<dim>30</dim>
					<dim>22</dim>
					<dim>22</dim>
					<dim>22</dim>
				</port>
			</output>
		</layer>
		<layer id="167" name="net/Maximum_26" type="Maximum" version="opset1">
			<data auto_broadcast="numpy"/>
			<input>
				<port id="0" precision="FP32">
					<dim>1</dim>
					<dim>1</dim>
					<dim>1</dim>
					<dim>1</dim>
					<dim>1</dim>
				</port>
				<port id="1" precision="FP32">
					<dim>10</dim>
					<dim>30</dim>
					<dim>22</dim>
					<dim>22</dim>
					<dim>22</dim>
				</port>
			</input>
			<output>
				<port id="2" names="net/Maximum_26:0" precision="FP32">
					<dim>10</dim>
					<dim>30</dim>
					<dim>22</dim>
					<dim>22</dim>
					<dim>22</dim>
				</port>
			</output>
		</layer>
		<layer id="168" name="net/Abs_26" type="Abs" version="opset1">
			<input>
				<port id="0" precision="FP32">
					<dim>10</dim>
					<dim>30</dim>
					<dim>22</dim>
					<dim>22</dim>
					<dim>22</dim>
				</port>
			</input>
			<output>
				<port id="1" precision="FP32">
					<dim>10</dim>
					<dim>30</dim>
					<dim>22</dim>
					<dim>22</dim>
					<dim>22</dim>
				</port>
			</output>
		</layer>
		<layer id="169" name="net/sub_53/sub" type="Subtract" version="opset1">
			<data auto_broadcast="numpy"/>
			<input>
				<port id="0" precision="FP32">
					<dim>10</dim>
					<dim>30</dim>
					<dim>22</dim>
					<dim>22</dim>
					<dim>22</dim>
				</port>
				<port id="1" precision="FP32">
					<dim>10</dim>
					<dim>30</dim>
					<dim>22</dim>
					<dim>22</dim>
					<dim>22</dim>
				</port>
			</input>
			<output>
				<port id="2" names="net/sub_53:0" precision="FP32">
					<dim>10</dim>
					<dim>30</dim>
					<dim>22</dim>
					<dim>22</dim>
					<dim>22</dim>
				</port>
			</output>
		</layer>
		<layer id="170" name="data_mul_110281103033796" type="Const" version="opset1">
			<data element_type="f32" offset="1338772" shape="1, 30, 1, 1, 1" size="120"/>
			<output>
				<port id="0" precision="FP32">
					<dim>1</dim>
					<dim>30</dim>
					<dim>1</dim>
					<dim>1</dim>
					<dim>1</dim>
				</port>
			</output>
		</layer>
		<layer id="171" name="net/mul_79/Fused_Mul_" type="Multiply" version="opset1">
			<data auto_broadcast="numpy"/>
			<input>
				<port id="0" precision="FP32">
					<dim>10</dim>
					<dim>30</dim>
					<dim>22</dim>
					<dim>22</dim>
					<dim>22</dim>
				</port>
				<port id="1" precision="FP32">
					<dim>1</dim>
					<dim>30</dim>
					<dim>1</dim>
					<dim>1</dim>
					<dim>1</dim>
				</port>
			</input>
			<output>
				<port id="2" names="net/mul_80:0" precision="FP32">
					<dim>10</dim>
					<dim>30</dim>
					<dim>22</dim>
					<dim>22</dim>
					<dim>22</dim>
				</port>
			</output>
		</layer>
		<layer id="172" name="net/add_95" type="Add" version="opset1">
			<data auto_broadcast="numpy"/>
			<input>
				<port id="0" precision="FP32">
					<dim>10</dim>
					<dim>30</dim>
					<dim>22</dim>
					<dim>22</dim>
					<dim>22</dim>
				</port>
				<port id="1" precision="FP32">
					<dim>10</dim>
					<dim>30</dim>
					<dim>22</dim>
					<dim>22</dim>
					<dim>22</dim>
				</port>
			</input>
			<output>
				<port id="2" names="net/add_95:0" precision="FP32">
					<dim>10</dim>
					<dim>30</dim>
					<dim>22</dim>
					<dim>22</dim>
					<dim>22</dim>
				</port>
			</output>
		</layer>
		<layer id="173" name="net/transpose_75/perm" type="Const" version="opset1">
			<data element_type="i64" offset="8" shape="5" size="40"/>
			<output>
				<port id="0" names="net/transpose_75/perm:0" precision="I64">
					<dim>5</dim>
				</port>
			</output>
		</layer>
		<layer id="174" name="net/transpose_75" type="Transpose" version="opset1">
			<input>
				<port id="0" precision="FP32">
					<dim>10</dim>
					<dim>30</dim>
					<dim>22</dim>
					<dim>22</dim>
					<dim>22</dim>
				</port>
				<port id="1" precision="I64">
					<dim>5</dim>
				</port>
			</input>
			<output>
				<port id="2" names="net/transpose_75:0" precision="FP32">
					<dim>10</dim>
					<dim>30</dim>
					<dim>22</dim>
					<dim>22</dim>
					<dim>22</dim>
				</port>
			</output>
		</layer>
		<layer id="175" name="net/transpose_70" type="Const" version="opset1">
			<data element_type="f32" offset="1338892" shape="40, 30, 3, 3, 3" size="129600"/>
			<output>
				<port id="0" names="net/transpose_70:0" precision="FP32">
					<dim>40</dim>
					<dim>30</dim>
					<dim>3</dim>
					<dim>3</dim>
					<dim>3</dim>
				</port>
			</output>
		</layer>
		<layer id="176" name="net/Conv3D_32" type="Convolution" version="opset1">
			<data auto_pad="valid" dilations="1, 1, 1" pads_begin="0, 0, 0" pads_end="0, 0, 0" strides="1, 1, 1"/>
			<input>
				<port id="0" precision="FP32">
					<dim>10</dim>
					<dim>30</dim>
					<dim>22</dim>
					<dim>22</dim>
					<dim>22</dim>
				</port>
				<port id="1" precision="FP32">
					<dim>40</dim>
					<dim>30</dim>
					<dim>3</dim>
					<dim>3</dim>
					<dim>3</dim>
				</port>
			</input>
			<output>
				<port id="2" precision="FP32">
					<dim>10</dim>
					<dim>40</dim>
					<dim>20</dim>
					<dim>20</dim>
					<dim>20</dim>
				</port>
			</output>
		</layer>
		<layer id="177" name="751833772" type="Const" version="opset1">
			<data element_type="i64" offset="8" shape="5" size="40"/>
			<output>
				<port id="0" precision="I64">
					<dim>5</dim>
				</port>
			</output>
		</layer>
		<layer id="178" name="net/Conv3D_32/output_transpose" type="Transpose" version="opset1">
			<input>
				<port id="0" precision="FP32">
					<dim>10</dim>
					<dim>40</dim>
					<dim>20</dim>
					<dim>20</dim>
					<dim>20</dim>
				</port>
				<port id="1" precision="I64">
					<dim>5</dim>
				</port>
			</input>
			<output>
				<port id="2" names="net/Conv3D_32:0,net/transpose_76:0" precision="FP32">
					<dim>10</dim>
					<dim>40</dim>
					<dim>20</dim>
					<dim>20</dim>
					<dim>20</dim>
				</port>
			</output>
		</layer>
		<layer id="179" name="data_mul_110321103633952" type="Const" version="opset1">
			<data element_type="f32" offset="1468492" shape="1, 40, 1, 1, 1" size="160"/>
			<output>
				<port id="0" precision="FP32">
					<dim>1</dim>
					<dim>40</dim>
					<dim>1</dim>
					<dim>1</dim>
					<dim>1</dim>
				</port>
			</output>
		</layer>
		<layer id="180" name="net/truediv_29/Fused_Mul_" type="Multiply" version="opset1">
			<data auto_broadcast="numpy"/>
			<input>
				<port id="0" precision="FP32">
					<dim>10</dim>
					<dim>40</dim>
					<dim>20</dim>
					<dim>20</dim>
					<dim>20</dim>
				</port>
				<port id="1" precision="FP32">
					<dim>1</dim>
					<dim>40</dim>
					<dim>1</dim>
					<dim>1</dim>
					<dim>1</dim>
				</port>
			</input>
			<output>
				<port id="2" precision="FP32">
					<dim>10</dim>
					<dim>40</dim>
					<dim>20</dim>
					<dim>20</dim>
					<dim>20</dim>
				</port>
			</output>
		</layer>
		<layer id="181" name="data_add_110331103834048" type="Const" version="opset1">
			<data element_type="f32" offset="1468652" shape="1, 40, 1, 1, 1" size="160"/>
			<output>
				<port id="0" precision="FP32">
					<dim>1</dim>
					<dim>40</dim>
					<dim>1</dim>
					<dim>1</dim>
					<dim>1</dim>
				</port>
			</output>
		</layer>
		<layer id="182" name="net/sub_56/Fused_Add_" type="Add" version="opset1">
			<data auto_broadcast="numpy"/>
			<input>
				<port id="0" precision="FP32">
					<dim>10</dim>
					<dim>40</dim>
					<dim>20</dim>
					<dim>20</dim>
					<dim>20</dim>
				</port>
				<port id="1" precision="FP32">
					<dim>1</dim>
					<dim>40</dim>
					<dim>1</dim>
					<dim>1</dim>
					<dim>1</dim>
				</port>
			</input>
			<output>
				<port id="2" names="net/add_100:0" precision="FP32">
					<dim>10</dim>
					<dim>40</dim>
					<dim>20</dim>
					<dim>20</dim>
					<dim>20</dim>
				</port>
			</output>
		</layer>
		<layer id="183" name="net/Maximum_29" type="Maximum" version="opset1">
			<data auto_broadcast="numpy"/>
			<input>
				<port id="0" precision="FP32">
					<dim>1</dim>
					<dim>1</dim>
					<dim>1</dim>
					<dim>1</dim>
					<dim>1</dim>
				</port>
				<port id="1" precision="FP32">
					<dim>10</dim>
					<dim>40</dim>
					<dim>20</dim>
					<dim>20</dim>
					<dim>20</dim>
				</port>
			</input>
			<output>
				<port id="2" names="net/Maximum_29:0" precision="FP32">
					<dim>10</dim>
					<dim>40</dim>
					<dim>20</dim>
					<dim>20</dim>
					<dim>20</dim>
				</port>
			</output>
		</layer>
		<layer id="184" name="net/Abs_29" type="Abs" version="opset1">
			<input>
				<port id="0" precision="FP32">
					<dim>10</dim>
					<dim>40</dim>
					<dim>20</dim>
					<dim>20</dim>
					<dim>20</dim>
				</port>
			</input>
			<output>
				<port id="1" precision="FP32">
					<dim>10</dim>
					<dim>40</dim>
					<dim>20</dim>
					<dim>20</dim>
					<dim>20</dim>
				</port>
			</output>
		</layer>
		<layer id="185" name="net/sub_59/sub" type="Subtract" version="opset1">
			<data auto_broadcast="numpy"/>
			<input>
				<port id="0" precision="FP32">
					<dim>10</dim>
					<dim>40</dim>
					<dim>20</dim>
					<dim>20</dim>
					<dim>20</dim>
				</port>
				<port id="1" precision="FP32">
					<dim>10</dim>
					<dim>40</dim>
					<dim>20</dim>
					<dim>20</dim>
					<dim>20</dim>
				</port>
			</input>
			<output>
				<port id="2" names="net/sub_59:0" precision="FP32">
					<dim>10</dim>
					<dim>40</dim>
					<dim>20</dim>
					<dim>20</dim>
					<dim>20</dim>
				</port>
			</output>
		</layer>
		<layer id="186" name="data_mul_110401104233934" type="Const" version="opset1">
			<data element_type="f32" offset="1468812" shape="1, 40, 1, 1, 1" size="160"/>
			<output>
				<port id="0" precision="FP32">
					<dim>1</dim>
					<dim>40</dim>
					<dim>1</dim>
					<dim>1</dim>
					<dim>1</dim>
				</port>
			</output>
		</layer>
		<layer id="187" name="net/mul_88/Fused_Mul_" type="Multiply" version="opset1">
			<data auto_broadcast="numpy"/>
			<input>
				<port id="0" precision="FP32">
					<dim>10</dim>
					<dim>40</dim>
					<dim>20</dim>
					<dim>20</dim>
					<dim>20</dim>
				</port>
				<port id="1" precision="FP32">
					<dim>1</dim>
					<dim>40</dim>
					<dim>1</dim>
					<dim>1</dim>
					<dim>1</dim>
				</port>
			</input>
			<output>
				<port id="2" names="net/mul_89:0" precision="FP32">
					<dim>10</dim>
					<dim>40</dim>
					<dim>20</dim>
					<dim>20</dim>
					<dim>20</dim>
				</port>
			</output>
		</layer>
		<layer id="188" name="net/add_105" type="Add" version="opset1">
			<data auto_broadcast="numpy"/>
			<input>
				<port id="0" precision="FP32">
					<dim>10</dim>
					<dim>40</dim>
					<dim>20</dim>
					<dim>20</dim>
					<dim>20</dim>
				</port>
				<port id="1" precision="FP32">
					<dim>10</dim>
					<dim>40</dim>
					<dim>20</dim>
					<dim>20</dim>
					<dim>20</dim>
				</port>
			</input>
			<output>
				<port id="2" names="net/add_105:0" precision="FP32">
					<dim>10</dim>
					<dim>40</dim>
					<dim>20</dim>
					<dim>20</dim>
					<dim>20</dim>
				</port>
			</output>
		</layer>
		<layer id="189" name="net/transpose_82/perm" type="Const" version="opset1">
			<data element_type="i64" offset="8" shape="5" size="40"/>
			<output>
				<port id="0" names="net/transpose_82/perm:0" precision="I64">
					<dim>5</dim>
				</port>
			</output>
		</layer>
		<layer id="190" name="net/transpose_82" type="Transpose" version="opset1">
			<input>
				<port id="0" precision="FP32">
					<dim>10</dim>
					<dim>40</dim>
					<dim>20</dim>
					<dim>20</dim>
					<dim>20</dim>
				</port>
				<port id="1" precision="I64">
					<dim>5</dim>
				</port>
			</input>
			<output>
				<port id="2" names="net/transpose_82:0" precision="FP32">
					<dim>10</dim>
					<dim>40</dim>
					<dim>20</dim>
					<dim>20</dim>
					<dim>20</dim>
				</port>
			</output>
		</layer>
		<layer id="191" name="net/transpose_77" type="Const" version="opset1">
			<data element_type="f32" offset="1468972" shape="40, 40, 3, 3, 3" size="172800"/>
			<output>
				<port id="0" names="net/transpose_77:0" precision="FP32">
					<dim>40</dim>
					<dim>40</dim>
					<dim>3</dim>
					<dim>3</dim>
					<dim>3</dim>
				</port>
			</output>
		</layer>
		<layer id="192" name="net/Conv3D_35" type="Convolution" version="opset1">
			<data auto_pad="valid" dilations="1, 1, 1" pads_begin="0, 0, 0" pads_end="0, 0, 0" strides="1, 1, 1"/>
			<input>
				<port id="0" precision="FP32">
					<dim>10</dim>
					<dim>40</dim>
					<dim>20</dim>
					<dim>20</dim>
					<dim>20</dim>
				</port>
				<port id="1" precision="FP32">
					<dim>40</dim>
					<dim>40</dim>
					<dim>3</dim>
					<dim>3</dim>
					<dim>3</dim>
				</port>
			</input>
			<output>
				<port id="2" precision="FP32">
					<dim>10</dim>
					<dim>40</dim>
					<dim>18</dim>
					<dim>18</dim>
					<dim>18</dim>
				</port>
			</output>
		</layer>
		<layer id="193" name="752633841" type="Const" version="opset1">
			<data element_type="i64" offset="8" shape="5" size="40"/>
			<output>
				<port id="0" precision="I64">
					<dim>5</dim>
				</port>
			</output>
		</layer>
		<layer id="194" name="net/Conv3D_35/output_transpose" type="Transpose" version="opset1">
			<input>
				<port id="0" precision="FP32">
					<dim>10</dim>
					<dim>40</dim>
					<dim>18</dim>
					<dim>18</dim>
					<dim>18</dim>
				</port>
				<port id="1" precision="I64">
					<dim>5</dim>
				</port>
			</input>
			<output>
				<port id="2" names="net/Conv3D_35:0,net/transpose_83:0" precision="FP32">
					<dim>10</dim>
					<dim>40</dim>
					<dim>18</dim>
					<dim>18</dim>
					<dim>18</dim>
				</port>
			</output>
		</layer>
		<layer id="195" name="data_mul_110441104834342" type="Const" version="opset1">
			<data element_type="f32" offset="1641772" shape="1, 40, 1, 1, 1" size="160"/>
			<output>
				<port id="0" precision="FP32">
					<dim>1</dim>
					<dim>40</dim>
					<dim>1</dim>
					<dim>1</dim>
					<dim>1</dim>
				</port>
			</output>
		</layer>
		<layer id="196" name="net/truediv_32/Fused_Mul_" type="Multiply" version="opset1">
			<data auto_broadcast="numpy"/>
			<input>
				<port id="0" precision="FP32">
					<dim>10</dim>
					<dim>40</dim>
					<dim>18</dim>
					<dim>18</dim>
					<dim>18</dim>
				</port>
				<port id="1" precision="FP32">
					<dim>1</dim>
					<dim>40</dim>
					<dim>1</dim>
					<dim>1</dim>
					<dim>1</dim>
				</port>
			</input>
			<output>
				<port id="2" precision="FP32">
					<dim>10</dim>
					<dim>40</dim>
					<dim>18</dim>
					<dim>18</dim>
					<dim>18</dim>
				</port>
			</output>
		</layer>
		<layer id="197" name="data_add_110451105034165" type="Const" version="opset1">
			<data element_type="f32" offset="1641932" shape="1, 40, 1, 1, 1" size="160"/>
			<output>
				<port id="0" precision="FP32">
					<dim>1</dim>
					<dim>40</dim>
					<dim>1</dim>
					<dim>1</dim>
					<dim>1</dim>
				</port>
			</output>
		</layer>
		<layer id="198" name="net/sub_62/Fused_Add_" type="Add" version="opset1">
			<data auto_broadcast="numpy"/>
			<input>
				<port id="0" precision="FP32">
					<dim>10</dim>
					<dim>40</dim>
					<dim>18</dim>
					<dim>18</dim>
					<dim>18</dim>
				</port>
				<port id="1" precision="FP32">
					<dim>1</dim>
					<dim>40</dim>
					<dim>1</dim>
					<dim>1</dim>
					<dim>1</dim>
				</port>
			</input>
			<output>
				<port id="2" names="net/add_110:0" precision="FP32">
					<dim>10</dim>
					<dim>40</dim>
					<dim>18</dim>
					<dim>18</dim>
					<dim>18</dim>
				</port>
			</output>
		</layer>
		<layer id="199" name="net/Maximum_32" type="Maximum" version="opset1">
			<data auto_broadcast="numpy"/>
			<input>
				<port id="0" precision="FP32">
					<dim>1</dim>
					<dim>1</dim>
					<dim>1</dim>
					<dim>1</dim>
					<dim>1</dim>
				</port>
				<port id="1" precision="FP32">
					<dim>10</dim>
					<dim>40</dim>
					<dim>18</dim>
					<dim>18</dim>
					<dim>18</dim>
				</port>
			</input>
			<output>
				<port id="2" names="net/Maximum_32:0" precision="FP32">
					<dim>10</dim>
					<dim>40</dim>
					<dim>18</dim>
					<dim>18</dim>
					<dim>18</dim>
				</port>
			</output>
		</layer>
		<layer id="200" name="net/Abs_32" type="Abs" version="opset1">
			<input>
				<port id="0" precision="FP32">
					<dim>10</dim>
					<dim>40</dim>
					<dim>18</dim>
					<dim>18</dim>
					<dim>18</dim>
				</port>
			</input>
			<output>
				<port id="1" precision="FP32">
					<dim>10</dim>
					<dim>40</dim>
					<dim>18</dim>
					<dim>18</dim>
					<dim>18</dim>
				</port>
			</output>
		</layer>
		<layer id="201" name="net/sub_65/sub" type="Subtract" version="opset1">
			<data auto_broadcast="numpy"/>
			<input>
				<port id="0" precision="FP32">
					<dim>10</dim>
					<dim>40</dim>
					<dim>18</dim>
					<dim>18</dim>
					<dim>18</dim>
				</port>
				<port id="1" precision="FP32">
					<dim>10</dim>
					<dim>40</dim>
					<dim>18</dim>
					<dim>18</dim>
					<dim>18</dim>
				</port>
			</input>
			<output>
				<port id="2" names="net/sub_65:0" precision="FP32">
					<dim>10</dim>
					<dim>40</dim>
					<dim>18</dim>
					<dim>18</dim>
					<dim>18</dim>
				</port>
			</output>
		</layer>
		<layer id="202" name="data_mul_110521105434075" type="Const" version="opset1">
			<data element_type="f32" offset="1642092" shape="1, 40, 1, 1, 1" size="160"/>
			<output>
				<port id="0" precision="FP32">
					<dim>1</dim>
					<dim>40</dim>
					<dim>1</dim>
					<dim>1</dim>
					<dim>1</dim>
				</port>
			</output>
		</layer>
		<layer id="203" name="net/mul_97/Fused_Mul_" type="Multiply" version="opset1">
			<data auto_broadcast="numpy"/>
			<input>
				<port id="0" precision="FP32">
					<dim>10</dim>
					<dim>40</dim>
					<dim>18</dim>
					<dim>18</dim>
					<dim>18</dim>
				</port>
				<port id="1" precision="FP32">
					<dim>1</dim>
					<dim>40</dim>
					<dim>1</dim>
					<dim>1</dim>
					<dim>1</dim>
				</port>
			</input>
			<output>
				<port id="2" names="net/mul_98:0" precision="FP32">
					<dim>10</dim>
					<dim>40</dim>
					<dim>18</dim>
					<dim>18</dim>
					<dim>18</dim>
				</port>
			</output>
		</layer>
		<layer id="204" name="net/add_115" type="Add" version="opset1">
			<data auto_broadcast="numpy"/>
			<input>
				<port id="0" precision="FP32">
					<dim>10</dim>
					<dim>40</dim>
					<dim>18</dim>
					<dim>18</dim>
					<dim>18</dim>
				</port>
				<port id="1" precision="FP32">
					<dim>10</dim>
					<dim>40</dim>
					<dim>18</dim>
					<dim>18</dim>
					<dim>18</dim>
				</port>
			</input>
			<output>
				<port id="2" names="net/add_115:0" precision="FP32">
					<dim>10</dim>
					<dim>40</dim>
					<dim>18</dim>
					<dim>18</dim>
					<dim>18</dim>
				</port>
			</output>
		</layer>
		<layer id="205" name="net/transpose_89/perm" type="Const" version="opset1">
			<data element_type="i64" offset="8" shape="5" size="40"/>
			<output>
				<port id="0" names="net/transpose_89/perm:0" precision="I64">
					<dim>5</dim>
				</port>
			</output>
		</layer>
		<layer id="206" name="net/transpose_89" type="Transpose" version="opset1">
			<input>
				<port id="0" precision="FP32">
					<dim>10</dim>
					<dim>40</dim>
					<dim>18</dim>
					<dim>18</dim>
					<dim>18</dim>
				</port>
				<port id="1" precision="I64">
					<dim>5</dim>
				</port>
			</input>
			<output>
				<port id="2" names="net/transpose_89:0" precision="FP32">
					<dim>10</dim>
					<dim>40</dim>
					<dim>18</dim>
					<dim>18</dim>
					<dim>18</dim>
				</port>
			</output>
		</layer>
		<layer id="207" name="net/transpose_84" type="Const" version="opset1">
			<data element_type="f32" offset="1642252" shape="40, 40, 3, 3, 3" size="172800"/>
			<output>
				<port id="0" names="net/transpose_84:0" precision="FP32">
					<dim>40</dim>
					<dim>40</dim>
					<dim>3</dim>
					<dim>3</dim>
					<dim>3</dim>
				</port>
			</output>
		</layer>
		<layer id="208" name="net/Conv3D_38" type="Convolution" version="opset1">
			<data auto_pad="valid" dilations="1, 1, 1" pads_begin="0, 0, 0" pads_end="0, 0, 0" strides="1, 1, 1"/>
			<input>
				<port id="0" precision="FP32">
					<dim>10</dim>
					<dim>40</dim>
					<dim>18</dim>
					<dim>18</dim>
					<dim>18</dim>
				</port>
				<port id="1" precision="FP32">
					<dim>40</dim>
					<dim>40</dim>
					<dim>3</dim>
					<dim>3</dim>
					<dim>3</dim>
				</port>
			</input>
			<output>
				<port id="2" precision="FP32">
					<dim>10</dim>
					<dim>40</dim>
					<dim>16</dim>
					<dim>16</dim>
					<dim>16</dim>
				</port>
			</output>
		</layer>
		<layer id="209" name="753433649" type="Const" version="opset1">
			<data element_type="i64" offset="8" shape="5" size="40"/>
			<output>
				<port id="0" precision="I64">
					<dim>5</dim>
				</port>
			</output>
		</layer>
		<layer id="210" name="net/Conv3D_38/output_transpose" type="Transpose" version="opset1">
			<input>
				<port id="0" precision="FP32">
					<dim>10</dim>
					<dim>40</dim>
					<dim>16</dim>
					<dim>16</dim>
					<dim>16</dim>
				</port>
				<port id="1" precision="I64">
					<dim>5</dim>
				</port>
			</input>
			<output>
				<port id="2" names="net/Conv3D_38:0,net/transpose_90:0" precision="FP32">
					<dim>10</dim>
					<dim>40</dim>
					<dim>16</dim>
					<dim>16</dim>
					<dim>16</dim>
				</port>
			</output>
		</layer>
		<layer id="211" name="data_mul_110561106033916" type="Const" version="opset1">
			<data element_type="f32" offset="1815052" shape="1, 40, 1, 1, 1" size="160"/>
			<output>
				<port id="0" precision="FP32">
					<dim>1</dim>
					<dim>40</dim>
					<dim>1</dim>
					<dim>1</dim>
					<dim>1</dim>
				</port>
			</output>
		</layer>
		<layer id="212" name="net/truediv_35/Fused_Mul_" type="Multiply" version="opset1">
			<data auto_broadcast="numpy"/>
			<input>
				<port id="0" precision="FP32">
					<dim>10</dim>
					<dim>40</dim>
					<dim>16</dim>
					<dim>16</dim>
					<dim>16</dim>
				</port>
				<port id="1" precision="FP32">
					<dim>1</dim>
					<dim>40</dim>
					<dim>1</dim>
					<dim>1</dim>
					<dim>1</dim>
				</port>
			</input>
			<output>
				<port id="2" precision="FP32">
					<dim>10</dim>
					<dim>40</dim>
					<dim>16</dim>
					<dim>16</dim>
					<dim>16</dim>
				</port>
			</output>
		</layer>
		<layer id="213" name="data_add_110571106233802" type="Const" version="opset1">
			<data element_type="f32" offset="1815212" shape="1, 40, 1, 1, 1" size="160"/>
			<output>
				<port id="0" precision="FP32">
					<dim>1</dim>
					<dim>40</dim>
					<dim>1</dim>
					<dim>1</dim>
					<dim>1</dim>
				</port>
			</output>
		</layer>
		<layer id="214" name="net/sub_68/Fused_Add_" type="Add" version="opset1">
			<data auto_broadcast="numpy"/>
			<input>
				<port id="0" precision="FP32">
					<dim>10</dim>
					<dim>40</dim>
					<dim>16</dim>
					<dim>16</dim>
					<dim>16</dim>
				</port>
				<port id="1" precision="FP32">
					<dim>1</dim>
					<dim>40</dim>
					<dim>1</dim>
					<dim>1</dim>
					<dim>1</dim>
				</port>
			</input>
			<output>
				<port id="2" names="net/add_120:0" precision="FP32">
					<dim>10</dim>
					<dim>40</dim>
					<dim>16</dim>
					<dim>16</dim>
					<dim>16</dim>
				</port>
			</output>
		</layer>
		<layer id="215" name="net/Maximum_35" type="Maximum" version="opset1">
			<data auto_broadcast="numpy"/>
			<input>
				<port id="0" precision="FP32">
					<dim>1</dim>
					<dim>1</dim>
					<dim>1</dim>
					<dim>1</dim>
					<dim>1</dim>
				</port>
				<port id="1" precision="FP32">
					<dim>10</dim>
					<dim>40</dim>
					<dim>16</dim>
					<dim>16</dim>
					<dim>16</dim>
				</port>
			</input>
			<output>
				<port id="2" names="net/Maximum_35:0" precision="FP32">
					<dim>10</dim>
					<dim>40</dim>
					<dim>16</dim>
					<dim>16</dim>
					<dim>16</dim>
				</port>
			</output>
		</layer>
		<layer id="216" name="net/Abs_35" type="Abs" version="opset1">
			<input>
				<port id="0" precision="FP32">
					<dim>10</dim>
					<dim>40</dim>
					<dim>16</dim>
					<dim>16</dim>
					<dim>16</dim>
				</port>
			</input>
			<output>
				<port id="1" precision="FP32">
					<dim>10</dim>
					<dim>40</dim>
					<dim>16</dim>
					<dim>16</dim>
					<dim>16</dim>
				</port>
			</output>
		</layer>
		<layer id="217" name="net/sub_71/sub" type="Subtract" version="opset1">
			<data auto_broadcast="numpy"/>
			<input>
				<port id="0" precision="FP32">
					<dim>10</dim>
					<dim>40</dim>
					<dim>16</dim>
					<dim>16</dim>
					<dim>16</dim>
				</port>
				<port id="1" precision="FP32">
					<dim>10</dim>
					<dim>40</dim>
					<dim>16</dim>
					<dim>16</dim>
					<dim>16</dim>
				</port>
			</input>
			<output>
				<port id="2" names="net/sub_71:0" precision="FP32">
					<dim>10</dim>
					<dim>40</dim>
					<dim>16</dim>
					<dim>16</dim>
					<dim>16</dim>
				</port>
			</output>
		</layer>
		<layer id="218" name="data_mul_110641106633664" type="Const" version="opset1">
			<data element_type="f32" offset="1815372" shape="1, 40, 1, 1, 1" size="160"/>
			<output>
				<port id="0" precision="FP32">
					<dim>1</dim>
					<dim>40</dim>
					<dim>1</dim>
					<dim>1</dim>
					<dim>1</dim>
				</port>
			</output>
		</layer>
		<layer id="219" name="net/mul_106/Fused_Mul_" type="Multiply" version="opset1">
			<data auto_broadcast="numpy"/>
			<input>
				<port id="0" precision="FP32">
					<dim>10</dim>
					<dim>40</dim>
					<dim>16</dim>
					<dim>16</dim>
					<dim>16</dim>
				</port>
				<port id="1" precision="FP32">
					<dim>1</dim>
					<dim>40</dim>
					<dim>1</dim>
					<dim>1</dim>
					<dim>1</dim>
				</port>
			</input>
			<output>
				<port id="2" names="net/mul_107:0" precision="FP32">
					<dim>10</dim>
					<dim>40</dim>
					<dim>16</dim>
					<dim>16</dim>
					<dim>16</dim>
				</port>
			</output>
		</layer>
		<layer id="220" name="net/add_125" type="Add" version="opset1">
			<data auto_broadcast="numpy"/>
			<input>
				<port id="0" precision="FP32">
					<dim>10</dim>
					<dim>40</dim>
					<dim>16</dim>
					<dim>16</dim>
					<dim>16</dim>
				</port>
				<port id="1" precision="FP32">
					<dim>10</dim>
					<dim>40</dim>
					<dim>16</dim>
					<dim>16</dim>
					<dim>16</dim>
				</port>
			</input>
			<output>
				<port id="2" names="net/add_125:0" precision="FP32">
					<dim>10</dim>
					<dim>40</dim>
					<dim>16</dim>
					<dim>16</dim>
					<dim>16</dim>
				</port>
			</output>
		</layer>
		<layer id="221" name="net/transpose_96/perm" type="Const" version="opset1">
			<data element_type="i64" offset="8" shape="5" size="40"/>
			<output>
				<port id="0" names="net/transpose_96/perm:0" precision="I64">
					<dim>5</dim>
				</port>
			</output>
		</layer>
		<layer id="222" name="net/transpose_96" type="Transpose" version="opset1">
			<input>
				<port id="0" precision="FP32">
					<dim>10</dim>
					<dim>40</dim>
					<dim>16</dim>
					<dim>16</dim>
					<dim>16</dim>
				</port>
				<port id="1" precision="I64">
					<dim>5</dim>
				</port>
			</input>
			<output>
				<port id="2" names="net/transpose_96:0" precision="FP32">
					<dim>10</dim>
					<dim>40</dim>
					<dim>16</dim>
					<dim>16</dim>
					<dim>16</dim>
				</port>
			</output>
		</layer>
		<layer id="223" name="net/transpose_91" type="Const" version="opset1">
			<data element_type="f32" offset="1815532" shape="40, 40, 3, 3, 3" size="172800"/>
			<output>
				<port id="0" names="net/transpose_91:0" precision="FP32">
					<dim>40</dim>
					<dim>40</dim>
					<dim>3</dim>
					<dim>3</dim>
					<dim>3</dim>
				</port>
			</output>
		</layer>
		<layer id="224" name="net/Conv3D_41" type="Convolution" version="opset1">
			<data auto_pad="valid" dilations="1, 1, 1" pads_begin="0, 0, 0" pads_end="0, 0, 0" strides="1, 1, 1"/>
			<input>
				<port id="0" precision="FP32">
					<dim>10</dim>
					<dim>40</dim>
					<dim>16</dim>
					<dim>16</dim>
					<dim>16</dim>
				</port>
				<port id="1" precision="FP32">
					<dim>40</dim>
					<dim>40</dim>
					<dim>3</dim>
					<dim>3</dim>
					<dim>3</dim>
				</port>
			</input>
			<output>
				<port id="2" precision="FP32">
					<dim>10</dim>
					<dim>40</dim>
					<dim>14</dim>
					<dim>14</dim>
					<dim>14</dim>
				</port>
			</output>
		</layer>
		<layer id="225" name="754234231" type="Const" version="opset1">
			<data element_type="i64" offset="8" shape="5" size="40"/>
			<output>
				<port id="0" precision="I64">
					<dim>5</dim>
				</port>
			</output>
		</layer>
		<layer id="226" name="net/Conv3D_41/output_transpose" type="Transpose" version="opset1">
			<input>
				<port id="0" precision="FP32">
					<dim>10</dim>
					<dim>40</dim>
					<dim>14</dim>
					<dim>14</dim>
					<dim>14</dim>
				</port>
				<port id="1" precision="I64">
					<dim>5</dim>
				</port>
			</input>
			<output>
				<port id="2" names="net/Conv3D_41:0,net/transpose_97:0" precision="FP32">
					<dim>10</dim>
					<dim>40</dim>
					<dim>14</dim>
					<dim>14</dim>
					<dim>14</dim>
				</port>
			</output>
		</layer>
		<layer id="227" name="data_mul_110681107234087" type="Const" version="opset1">
			<data element_type="f32" offset="1988332" shape="1, 40, 1, 1, 1" size="160"/>
			<output>
				<port id="0" precision="FP32">
					<dim>1</dim>
					<dim>40</dim>
					<dim>1</dim>
					<dim>1</dim>
					<dim>1</dim>
				</port>
			</output>
		</layer>
		<layer id="228" name="net/truediv_38/Fused_Mul_" type="Multiply" version="opset1">
			<data auto_broadcast="numpy"/>
			<input>
				<port id="0" precision="FP32">
					<dim>10</dim>
					<dim>40</dim>
					<dim>14</dim>
					<dim>14</dim>
					<dim>14</dim>
				</port>
				<port id="1" precision="FP32">
					<dim>1</dim>
					<dim>40</dim>
					<dim>1</dim>
					<dim>1</dim>
					<dim>1</dim>
				</port>
			</input>
			<output>
				<port id="2" precision="FP32">
					<dim>10</dim>
					<dim>40</dim>
					<dim>14</dim>
					<dim>14</dim>
					<dim>14</dim>
				</port>
			</output>
		</layer>
		<layer id="229" name="data_add_110691107433919" type="Const" version="opset1">
			<data element_type="f32" offset="1988492" shape="1, 40, 1, 1, 1" size="160"/>
			<output>
				<port id="0" precision="FP32">
					<dim>1</dim>
					<dim>40</dim>
					<dim>1</dim>
					<dim>1</dim>
					<dim>1</dim>
				</port>
			</output>
		</layer>
		<layer id="230" name="net/sub_74/Fused_Add_" type="Add" version="opset1">
			<data auto_broadcast="numpy"/>
			<input>
				<port id="0" precision="FP32">
					<dim>10</dim>
					<dim>40</dim>
					<dim>14</dim>
					<dim>14</dim>
					<dim>14</dim>
				</port>
				<port id="1" precision="FP32">
					<dim>1</dim>
					<dim>40</dim>
					<dim>1</dim>
					<dim>1</dim>
					<dim>1</dim>
				</port>
			</input>
			<output>
				<port id="2" names="net/add_130:0" precision="FP32">
					<dim>10</dim>
					<dim>40</dim>
					<dim>14</dim>
					<dim>14</dim>
					<dim>14</dim>
				</port>
			</output>
		</layer>
		<layer id="231" name="net/Maximum_38" type="Maximum" version="opset1">
			<data auto_broadcast="numpy"/>
			<input>
				<port id="0" precision="FP32">
					<dim>1</dim>
					<dim>1</dim>
					<dim>1</dim>
					<dim>1</dim>
					<dim>1</dim>
				</port>
				<port id="1" precision="FP32">
					<dim>10</dim>
					<dim>40</dim>
					<dim>14</dim>
					<dim>14</dim>
					<dim>14</dim>
				</port>
			</input>
			<output>
				<port id="2" names="net/Maximum_38:0" precision="FP32">
					<dim>10</dim>
					<dim>40</dim>
					<dim>14</dim>
					<dim>14</dim>
					<dim>14</dim>
				</port>
			</output>
		</layer>
		<layer id="232" name="net/Abs_38" type="Abs" version="opset1">
			<input>
				<port id="0" precision="FP32">
					<dim>10</dim>
					<dim>40</dim>
					<dim>14</dim>
					<dim>14</dim>
					<dim>14</dim>
				</port>
			</input>
			<output>
				<port id="1" precision="FP32">
					<dim>10</dim>
					<dim>40</dim>
					<dim>14</dim>
					<dim>14</dim>
					<dim>14</dim>
				</port>
			</output>
		</layer>
		<layer id="233" name="net/sub_77/sub" type="Subtract" version="opset1">
			<data auto_broadcast="numpy"/>
			<input>
				<port id="0" precision="FP32">
					<dim>10</dim>
					<dim>40</dim>
					<dim>14</dim>
					<dim>14</dim>
					<dim>14</dim>
				</port>
				<port id="1" precision="FP32">
					<dim>10</dim>
					<dim>40</dim>
					<dim>14</dim>
					<dim>14</dim>
					<dim>14</dim>
				</port>
			</input>
			<output>
				<port id="2" names="net/sub_77:0" precision="FP32">
					<dim>10</dim>
					<dim>40</dim>
					<dim>14</dim>
					<dim>14</dim>
					<dim>14</dim>
				</port>
			</output>
		</layer>
		<layer id="234" name="data_mul_110761107834360" type="Const" version="opset1">
			<data element_type="f32" offset="1988652" shape="1, 40, 1, 1, 1" size="160"/>
			<output>
				<port id="0" precision="FP32">
					<dim>1</dim>
					<dim>40</dim>
					<dim>1</dim>
					<dim>1</dim>
					<dim>1</dim>
				</port>
			</output>
		</layer>
		<layer id="235" name="net/mul_115/Fused_Mul_" type="Multiply" version="opset1">
			<data auto_broadcast="numpy"/>
			<input>
				<port id="0" precision="FP32">
					<dim>10</dim>
					<dim>40</dim>
					<dim>14</dim>
					<dim>14</dim>
					<dim>14</dim>
				</port>
				<port id="1" precision="FP32">
					<dim>1</dim>
					<dim>40</dim>
					<dim>1</dim>
					<dim>1</dim>
					<dim>1</dim>
				</port>
			</input>
			<output>
				<port id="2" names="net/mul_116:0" precision="FP32">
					<dim>10</dim>
					<dim>40</dim>
					<dim>14</dim>
					<dim>14</dim>
					<dim>14</dim>
				</port>
			</output>
		</layer>
		<layer id="236" name="net/add_135" type="Add" version="opset1">
			<data auto_broadcast="numpy"/>
			<input>
				<port id="0" precision="FP32">
					<dim>10</dim>
					<dim>40</dim>
					<dim>14</dim>
					<dim>14</dim>
					<dim>14</dim>
				</port>
				<port id="1" precision="FP32">
					<dim>10</dim>
					<dim>40</dim>
					<dim>14</dim>
					<dim>14</dim>
					<dim>14</dim>
				</port>
			</input>
			<output>
				<port id="2" names="net/add_135:0" precision="FP32">
					<dim>10</dim>
					<dim>40</dim>
					<dim>14</dim>
					<dim>14</dim>
					<dim>14</dim>
				</port>
			</output>
		</layer>
		<layer id="237" name="net/transpose_103/perm" type="Const" version="opset1">
			<data element_type="i64" offset="8" shape="5" size="40"/>
			<output>
				<port id="0" names="net/transpose_103/perm:0" precision="I64">
					<dim>5</dim>
				</port>
			</output>
		</layer>
		<layer id="238" name="net/transpose_103" type="Transpose" version="opset1">
			<input>
				<port id="0" precision="FP32">
					<dim>10</dim>
					<dim>40</dim>
					<dim>14</dim>
					<dim>14</dim>
					<dim>14</dim>
				</port>
				<port id="1" precision="I64">
					<dim>5</dim>
				</port>
			</input>
			<output>
				<port id="2" names="net/transpose_103:0" precision="FP32">
					<dim>10</dim>
					<dim>40</dim>
					<dim>14</dim>
					<dim>14</dim>
					<dim>14</dim>
				</port>
			</output>
		</layer>
		<layer id="239" name="net/transpose_98" type="Const" version="opset1">
			<data element_type="f32" offset="1988812" shape="50, 40, 3, 3, 3" size="216000"/>
			<output>
				<port id="0" names="net/transpose_98:0" precision="FP32">
					<dim>50</dim>
					<dim>40</dim>
					<dim>3</dim>
					<dim>3</dim>
					<dim>3</dim>
				</port>
			</output>
		</layer>
		<layer id="240" name="net/Conv3D_44" type="Convolution" version="opset1">
			<data auto_pad="valid" dilations="1, 1, 1" pads_begin="0, 0, 0" pads_end="0, 0, 0" strides="1, 1, 1"/>
			<input>
				<port id="0" precision="FP32">
					<dim>10</dim>
					<dim>40</dim>
					<dim>14</dim>
					<dim>14</dim>
					<dim>14</dim>
				</port>
				<port id="1" precision="FP32">
					<dim>50</dim>
					<dim>40</dim>
					<dim>3</dim>
					<dim>3</dim>
					<dim>3</dim>
				</port>
			</input>
			<output>
				<port id="2" precision="FP32">
					<dim>10</dim>
					<dim>50</dim>
					<dim>12</dim>
					<dim>12</dim>
					<dim>12</dim>
				</port>
			</output>
		</layer>
		<layer id="241" name="755033694" type="Const" version="opset1">
			<data element_type="i64" offset="8" shape="5" size="40"/>
			<output>
				<port id="0" precision="I64">
					<dim>5</dim>
				</port>
			</output>
		</layer>
		<layer id="242" name="net/Conv3D_44/output_transpose" type="Transpose" version="opset1">
			<input>
				<port id="0" precision="FP32">
					<dim>10</dim>
					<dim>50</dim>
					<dim>12</dim>
					<dim>12</dim>
					<dim>12</dim>
				</port>
				<port id="1" precision="I64">
					<dim>5</dim>
				</port>
			</input>
			<output>
				<port id="2" names="net/Conv3D_44:0,net/transpose_104:0" precision="FP32">
					<dim>10</dim>
					<dim>50</dim>
					<dim>12</dim>
					<dim>12</dim>
					<dim>12</dim>
				</port>
			</output>
		</layer>
		<layer id="243" name="data_mul_110801108433724" type="Const" version="opset1">
			<data element_type="f32" offset="2204812" shape="1, 50, 1, 1, 1" size="200"/>
			<output>
				<port id="0" precision="FP32">
					<dim>1</dim>
					<dim>50</dim>
					<dim>1</dim>
					<dim>1</dim>
					<dim>1</dim>
				</port>
			</output>
		</layer>
		<layer id="244" name="net/truediv_41/Fused_Mul_" type="Multiply" version="opset1">
			<data auto_broadcast="numpy"/>
			<input>
				<port id="0" precision="FP32">
					<dim>10</dim>
					<dim>50</dim>
					<dim>12</dim>
					<dim>12</dim>
					<dim>12</dim>
				</port>
				<port id="1" precision="FP32">
					<dim>1</dim>
					<dim>50</dim>
					<dim>1</dim>
					<dim>1</dim>
					<dim>1</dim>
				</port>
			</input>
			<output>
				<port id="2" precision="FP32">
					<dim>10</dim>
					<dim>50</dim>
					<dim>12</dim>
					<dim>12</dim>
					<dim>12</dim>
				</port>
			</output>
		</layer>
		<layer id="245" name="data_add_110811108633871" type="Const" version="opset1">
			<data element_type="f32" offset="2205012" shape="1, 50, 1, 1, 1" size="200"/>
			<output>
				<port id="0" precision="FP32">
					<dim>1</dim>
					<dim>50</dim>
					<dim>1</dim>
					<dim>1</dim>
					<dim>1</dim>
				</port>
			</output>
		</layer>
		<layer id="246" name="net/sub_80/Fused_Add_" type="Add" version="opset1">
			<data auto_broadcast="numpy"/>
			<input>
				<port id="0" precision="FP32">
					<dim>10</dim>
					<dim>50</dim>
					<dim>12</dim>
					<dim>12</dim>
					<dim>12</dim>
				</port>
				<port id="1" precision="FP32">
					<dim>1</dim>
					<dim>50</dim>
					<dim>1</dim>
					<dim>1</dim>
					<dim>1</dim>
				</port>
			</input>
			<output>
				<port id="2" names="net/add_140:0" precision="FP32">
					<dim>10</dim>
					<dim>50</dim>
					<dim>12</dim>
					<dim>12</dim>
					<dim>12</dim>
				</port>
			</output>
		</layer>
		<layer id="247" name="net/Maximum_41" type="Maximum" version="opset1">
			<data auto_broadcast="numpy"/>
			<input>
				<port id="0" precision="FP32">
					<dim>1</dim>
					<dim>1</dim>
					<dim>1</dim>
					<dim>1</dim>
					<dim>1</dim>
				</port>
				<port id="1" precision="FP32">
					<dim>10</dim>
					<dim>50</dim>
					<dim>12</dim>
					<dim>12</dim>
					<dim>12</dim>
				</port>
			</input>
			<output>
				<port id="2" names="net/Maximum_41:0" precision="FP32">
					<dim>10</dim>
					<dim>50</dim>
					<dim>12</dim>
					<dim>12</dim>
					<dim>12</dim>
				</port>
			</output>
		</layer>
		<layer id="248" name="net/Abs_41" type="Abs" version="opset1">
			<input>
				<port id="0" precision="FP32">
					<dim>10</dim>
					<dim>50</dim>
					<dim>12</dim>
					<dim>12</dim>
					<dim>12</dim>
				</port>
			</input>
			<output>
				<port id="1" precision="FP32">
					<dim>10</dim>
					<dim>50</dim>
					<dim>12</dim>
					<dim>12</dim>
					<dim>12</dim>
				</port>
			</output>
		</layer>
		<layer id="249" name="net/sub_83/sub" type="Subtract" version="opset1">
			<data auto_broadcast="numpy"/>
			<input>
				<port id="0" precision="FP32">
					<dim>10</dim>
					<dim>50</dim>
					<dim>12</dim>
					<dim>12</dim>
					<dim>12</dim>
				</port>
				<port id="1" precision="FP32">
					<dim>10</dim>
					<dim>50</dim>
					<dim>12</dim>
					<dim>12</dim>
					<dim>12</dim>
				</port>
			</input>
			<output>
				<port id="2" names="net/sub_83:0" precision="FP32">
					<dim>10</dim>
					<dim>50</dim>
					<dim>12</dim>
					<dim>12</dim>
					<dim>12</dim>
				</port>
			</output>
		</layer>
		<layer id="250" name="data_mul_110881109034258" type="Const" version="opset1">
			<data element_type="f32" offset="2205212" shape="1, 50, 1, 1, 1" size="200"/>
			<output>
				<port id="0" precision="FP32">
					<dim>1</dim>
					<dim>50</dim>
					<dim>1</dim>
					<dim>1</dim>
					<dim>1</dim>
				</port>
			</output>
		</layer>
		<layer id="251" name="net/mul_124/Fused_Mul_" type="Multiply" version="opset1">
			<data auto_broadcast="numpy"/>
			<input>
				<port id="0" precision="FP32">
					<dim>10</dim>
					<dim>50</dim>
					<dim>12</dim>
					<dim>12</dim>
					<dim>12</dim>
				</port>
				<port id="1" precision="FP32">
					<dim>1</dim>
					<dim>50</dim>
					<dim>1</dim>
					<dim>1</dim>
					<dim>1</dim>
				</port>
			</input>
			<output>
				<port id="2" names="net/mul_125:0" precision="FP32">
					<dim>10</dim>
					<dim>50</dim>
					<dim>12</dim>
					<dim>12</dim>
					<dim>12</dim>
				</port>
			</output>
		</layer>
		<layer id="252" name="net/add_145" type="Add" version="opset1">
			<data auto_broadcast="numpy"/>
			<input>
				<port id="0" precision="FP32">
					<dim>10</dim>
					<dim>50</dim>
					<dim>12</dim>
					<dim>12</dim>
					<dim>12</dim>
				</port>
				<port id="1" precision="FP32">
					<dim>10</dim>
					<dim>50</dim>
					<dim>12</dim>
					<dim>12</dim>
					<dim>12</dim>
				</port>
			</input>
			<output>
				<port id="2" names="net/add_145:0" precision="FP32">
					<dim>10</dim>
					<dim>50</dim>
					<dim>12</dim>
					<dim>12</dim>
					<dim>12</dim>
				</port>
			</output>
		</layer>
		<layer id="253" name="net/transpose_110/perm" type="Const" version="opset1">
			<data element_type="i64" offset="8" shape="5" size="40"/>
			<output>
				<port id="0" names="net/transpose_110/perm:0" precision="I64">
					<dim>5</dim>
				</port>
			</output>
		</layer>
		<layer id="254" name="net/transpose_110" type="Transpose" version="opset1">
			<input>
				<port id="0" precision="FP32">
					<dim>10</dim>
					<dim>50</dim>
					<dim>12</dim>
					<dim>12</dim>
					<dim>12</dim>
				</port>
				<port id="1" precision="I64">
					<dim>5</dim>
				</port>
			</input>
			<output>
				<port id="2" names="net/transpose_110:0" precision="FP32">
					<dim>10</dim>
					<dim>50</dim>
					<dim>12</dim>
					<dim>12</dim>
					<dim>12</dim>
				</port>
			</output>
		</layer>
		<layer id="255" name="net/transpose_105" type="Const" version="opset1">
			<data element_type="f32" offset="2205412" shape="50, 50, 3, 3, 3" size="270000"/>
			<output>
				<port id="0" names="net/transpose_105:0" precision="FP32">
					<dim>50</dim>
					<dim>50</dim>
					<dim>3</dim>
					<dim>3</dim>
					<dim>3</dim>
				</port>
			</output>
		</layer>
		<layer id="256" name="net/Conv3D_47" type="Convolution" version="opset1">
			<data auto_pad="valid" dilations="1, 1, 1" pads_begin="0, 0, 0" pads_end="0, 0, 0" strides="1, 1, 1"/>
			<input>
				<port id="0" precision="FP32">
					<dim>10</dim>
					<dim>50</dim>
					<dim>12</dim>
					<dim>12</dim>
					<dim>12</dim>
				</port>
				<port id="1" precision="FP32">
					<dim>50</dim>
					<dim>50</dim>
					<dim>3</dim>
					<dim>3</dim>
					<dim>3</dim>
				</port>
			</input>
			<output>
				<port id="2" precision="FP32">
					<dim>10</dim>
					<dim>50</dim>
					<dim>10</dim>
					<dim>10</dim>
					<dim>10</dim>
				</port>
			</output>
		</layer>
		<layer id="257" name="755834009" type="Const" version="opset1">
			<data element_type="i64" offset="8" shape="5" size="40"/>
			<output>
				<port id="0" precision="I64">
					<dim>5</dim>
				</port>
			</output>
		</layer>
		<layer id="258" name="net/Conv3D_47/output_transpose" type="Transpose" version="opset1">
			<input>
				<port id="0" precision="FP32">
					<dim>10</dim>
					<dim>50</dim>
					<dim>10</dim>
					<dim>10</dim>
					<dim>10</dim>
				</port>
				<port id="1" precision="I64">
					<dim>5</dim>
				</port>
			</input>
			<output>
				<port id="2" names="net/Conv3D_47:0,net/transpose_111:0" precision="FP32">
					<dim>10</dim>
					<dim>50</dim>
					<dim>10</dim>
					<dim>10</dim>
					<dim>10</dim>
				</port>
			</output>
		</layer>
		<layer id="259" name="net/Shape_6" type="ShapeOf" version="opset3">
			<data output_type="i32"/>
			<input>
				<port id="0" precision="FP32">
					<dim>10</dim>
					<dim>50</dim>
					<dim>10</dim>
					<dim>10</dim>
					<dim>10</dim>
				</port>
			</input>
			<output>
				<port id="1" names="net/Shape_6:0" precision="I32">
					<dim>5</dim>
				</port>
			</output>
		</layer>
		<layer id="260" name="net/strided_slice_84/stack" type="Const" version="opset1">
			<data element_type="i64" offset="2475412" shape="1" size="8"/>
			<output>
				<port id="0" names="net/strided_slice_84/stack:0" precision="I64">
					<dim>1</dim>
				</port>
			</output>
		</layer>
		<layer id="261" name="net/strided_slice_84/stack_1" type="Const" version="opset1">
			<data element_type="i64" offset="2475420" shape="1" size="8"/>
			<output>
				<port id="0" names="net/strided_slice_84/stack_1:0" precision="I64">
					<dim>1</dim>
				</port>
			</output>
		</layer>
		<layer id="262" name="net/strided_slice_84/stack_2" type="Const" version="opset1">
			<data element_type="i64" offset="2475420" shape="1" size="8"/>
			<output>
				<port id="0" names="net/strided_slice_84/stack_2:0" precision="I64">
					<dim>1</dim>
				</port>
			</output>
		</layer>
		<layer id="263" name="net/strided_slice_84" type="StridedSlice" version="opset1">
			<data begin_mask="0" ellipsis_mask="0" end_mask="0" new_axis_mask="0" shrink_axis_mask="1"/>
			<input>
				<port id="0" precision="I32">
					<dim>5</dim>
				</port>
				<port id="1" precision="I64">
					<dim>1</dim>
				</port>
				<port id="2" precision="I64">
					<dim>1</dim>
				</port>
				<port id="3" precision="I64">
					<dim>1</dim>
				</port>
			</input>
			<output>
				<port id="4" names="net/strided_slice_84:0" precision="I32"/>
			</output>
		</layer>
		<layer id="264" name="net/Reshape_112/shape/Unsqueeze_input_port_1/value" type="Const" version="opset1">
			<data element_type="i64" offset="2475412" shape="1" size="8"/>
			<output>
				<port id="0" precision="I64">
					<dim>1</dim>
				</port>
			</output>
		</layer>
		<layer id="265" name="net/Reshape_112/shape/Unsqueeze" type="Unsqueeze" version="opset1">
			<input>
				<port id="0" precision="I32"/>
				<port id="1" precision="I64">
					<dim>1</dim>
				</port>
			</input>
			<output>
				<port id="2" precision="I32">
					<dim>1</dim>
				</port>
			</output>
		</layer>
		<layer id="266" name="net/strided_slice_85/stack" type="Const" version="opset1">
			<data element_type="i64" offset="2475420" shape="1" size="8"/>
			<output>
				<port id="0" names="net/strided_slice_85/stack:0" precision="I64">
					<dim>1</dim>
				</port>
			</output>
		</layer>
		<layer id="267" name="net/strided_slice_85/stack_1" type="Const" version="opset1">
			<data element_type="i64" offset="2475428" shape="1" size="8"/>
			<output>
				<port id="0" names="net/strided_slice_85/stack_1:0" precision="I64">
					<dim>1</dim>
				</port>
			</output>
		</layer>
		<layer id="268" name="net/strided_slice_85/stack_2" type="Const" version="opset1">
			<data element_type="i64" offset="2475420" shape="1" size="8"/>
			<output>
				<port id="0" names="net/strided_slice_85/stack_2:0" precision="I64">
					<dim>1</dim>
				</port>
			</output>
		</layer>
		<layer id="269" name="net/strided_slice_85" type="StridedSlice" version="opset1">
			<data begin_mask="0" ellipsis_mask="0" end_mask="0" new_axis_mask="0" shrink_axis_mask="1"/>
			<input>
				<port id="0" precision="I32">
					<dim>5</dim>
				</port>
				<port id="1" precision="I64">
					<dim>1</dim>
				</port>
				<port id="2" precision="I64">
					<dim>1</dim>
				</port>
				<port id="3" precision="I64">
					<dim>1</dim>
				</port>
			</input>
			<output>
				<port id="4" names="net/strided_slice_85:0" precision="I32"/>
			</output>
		</layer>
		<layer id="270" name="net/strided_slice_86/stack" type="Const" version="opset1">
			<data element_type="i64" offset="2475428" shape="1" size="8"/>
			<output>
				<port id="0" names="net/strided_slice_86/stack:0" precision="I64">
					<dim>1</dim>
				</port>
			</output>
		</layer>
		<layer id="271" name="net/strided_slice_86/stack_1" type="Const" version="opset1">
			<data element_type="i64" offset="2475436" shape="1" size="8"/>
			<output>
				<port id="0" names="net/strided_slice_86/stack_1:0" precision="I64">
					<dim>1</dim>
				</port>
			</output>
		</layer>
		<layer id="272" name="net/strided_slice_86/stack_2" type="Const" version="opset1">
			<data element_type="i64" offset="2475420" shape="1" size="8"/>
			<output>
				<port id="0" names="net/strided_slice_86/stack_2:0" precision="I64">
					<dim>1</dim>
				</port>
			</output>
		</layer>
		<layer id="273" name="net/strided_slice_86" type="StridedSlice" version="opset1">
			<data begin_mask="0" ellipsis_mask="0" end_mask="0" new_axis_mask="0" shrink_axis_mask="1"/>
			<input>
				<port id="0" precision="I32">
					<dim>5</dim>
				</port>
				<port id="1" precision="I64">
					<dim>1</dim>
				</port>
				<port id="2" precision="I64">
					<dim>1</dim>
				</port>
				<port id="3" precision="I64">
					<dim>1</dim>
				</port>
			</input>
			<output>
				<port id="4" names="net/strided_slice_86:0" precision="I32"/>
			</output>
		</layer>
		<layer id="274" name="net/mul_138" type="Multiply" version="opset1">
			<data auto_broadcast="numpy"/>
			<input>
				<port id="0" precision="I32"/>
				<port id="1" precision="I32"/>
			</input>
			<output>
				<port id="2" names="net/mul_138:0" precision="I32"/>
			</output>
		</layer>
		<layer id="275" name="net/Reshape_112/shape/Unsqueeze1113_input_port_1/value" type="Const" version="opset1">
			<data element_type="i64" offset="2475412" shape="1" size="8"/>
			<output>
				<port id="0" precision="I64">
					<dim>1</dim>
				</port>
			</output>
		</layer>
		<layer id="276" name="net/Reshape_112/shape/Unsqueeze1113" type="Unsqueeze" version="opset1">
			<input>
				<port id="0" precision="I32"/>
				<port id="1" precision="I64">
					<dim>1</dim>
				</port>
			</input>
			<output>
				<port id="2" precision="I32">
					<dim>1</dim>
				</port>
			</output>
		</layer>
		<layer id="277" name="net/Reshape_112/shape/Unsqueeze1115" type="Const" version="opset1">
			<data element_type="i32" offset="2475444" shape="1" size="4"/>
			<output>
				<port id="0" precision="I32">
					<dim>1</dim>
				</port>
			</output>
		</layer>
		<layer id="278" name="net/strided_slice_87/stack" type="Const" version="opset1">
			<data element_type="i64" offset="2475436" shape="1" size="8"/>
			<output>
				<port id="0" names="net/strided_slice_87/stack:0" precision="I64">
					<dim>1</dim>
				</port>
			</output>
		</layer>
		<layer id="279" name="net/strided_slice_87/stack_1" type="Const" version="opset1">
			<data element_type="i64" offset="2475448" shape="1" size="8"/>
			<output>
				<port id="0" names="net/strided_slice_87/stack_1:0" precision="I64">
					<dim>1</dim>
				</port>
			</output>
		</layer>
		<layer id="280" name="net/strided_slice_87/stack_2" type="Const" version="opset1">
			<data element_type="i64" offset="2475420" shape="1" size="8"/>
			<output>
				<port id="0" names="net/strided_slice_87/stack_2:0" precision="I64">
					<dim>1</dim>
				</port>
			</output>
		</layer>
		<layer id="281" name="net/strided_slice_87" type="StridedSlice" version="opset1">
			<data begin_mask="0" ellipsis_mask="0" end_mask="0" new_axis_mask="0" shrink_axis_mask="1"/>
			<input>
				<port id="0" precision="I32">
					<dim>5</dim>
				</port>
				<port id="1" precision="I64">
					<dim>1</dim>
				</port>
				<port id="2" precision="I64">
					<dim>1</dim>
				</port>
				<port id="3" precision="I64">
					<dim>1</dim>
				</port>
			</input>
			<output>
				<port id="4" names="net/strided_slice_87:0" precision="I32"/>
			</output>
		</layer>
		<layer id="282" name="net/Reshape_112/shape/Unsqueeze1117_input_port_1/value" type="Const" version="opset1">
			<data element_type="i64" offset="2475412" shape="1" size="8"/>
			<output>
				<port id="0" precision="I64">
					<dim>1</dim>
				</port>
			</output>
		</layer>
		<layer id="283" name="net/Reshape_112/shape/Unsqueeze1117" type="Unsqueeze" version="opset1">
			<input>
				<port id="0" precision="I32"/>
				<port id="1" precision="I64">
					<dim>1</dim>
				</port>
			</input>
			<output>
				<port id="2" precision="I32">
					<dim>1</dim>
				</port>
			</output>
		</layer>
		<layer id="284" name="net/strided_slice_88/stack" type="Const" version="opset1">
			<data element_type="i64" offset="2475448" shape="1" size="8"/>
			<output>
				<port id="0" names="net/strided_slice_88/stack:0" precision="I64">
					<dim>1</dim>
				</port>
			</output>
		</layer>
		<layer id="285" name="net/strided_slice_88/stack_1" type="Const" version="opset1">
			<data element_type="i64" offset="2475456" shape="1" size="8"/>
			<output>
				<port id="0" names="net/strided_slice_88/stack_1:0" precision="I64">
					<dim>1</dim>
				</port>
			</output>
		</layer>
		<layer id="286" name="net/strided_slice_88/stack_2" type="Const" version="opset1">
			<data element_type="i64" offset="2475420" shape="1" size="8"/>
			<output>
				<port id="0" names="net/strided_slice_88/stack_2:0" precision="I64">
					<dim>1</dim>
				</port>
			</output>
		</layer>
		<layer id="287" name="net/strided_slice_88" type="StridedSlice" version="opset1">
			<data begin_mask="0" ellipsis_mask="0" end_mask="0" new_axis_mask="0" shrink_axis_mask="1"/>
			<input>
				<port id="0" precision="I32">
					<dim>5</dim>
				</port>
				<port id="1" precision="I64">
					<dim>1</dim>
				</port>
				<port id="2" precision="I64">
					<dim>1</dim>
				</port>
				<port id="3" precision="I64">
					<dim>1</dim>
				</port>
			</input>
			<output>
				<port id="4" names="net/strided_slice_88:0" precision="I32"/>
			</output>
		</layer>
		<layer id="288" name="net/Reshape_112/shape/Unsqueeze1119_input_port_1/value" type="Const" version="opset1">
			<data element_type="i64" offset="2475412" shape="1" size="8"/>
			<output>
				<port id="0" precision="I64">
					<dim>1</dim>
				</port>
			</output>
		</layer>
		<layer id="289" name="net/Reshape_112/shape/Unsqueeze1119" type="Unsqueeze" version="opset1">
			<input>
				<port id="0" precision="I32"/>
				<port id="1" precision="I64">
					<dim>1</dim>
				</port>
			</input>
			<output>
				<port id="2" precision="I32">
					<dim>1</dim>
				</port>
			</output>
		</layer>
		<layer id="290" name="net/Reshape_112/shape" type="Concat" version="opset1">
			<data axis="0"/>
			<input>
				<port id="0" precision="I32">
					<dim>1</dim>
				</port>
				<port id="1" precision="I32">
					<dim>1</dim>
				</port>
				<port id="2" precision="I32">
					<dim>1</dim>
				</port>
				<port id="3" precision="I32">
					<dim>1</dim>
				</port>
				<port id="4" precision="I32">
					<dim>1</dim>
				</port>
			</input>
			<output>
				<port id="5" precision="I32">
					<dim>5</dim>
				</port>
			</output>
		</layer>
		<layer id="291" name="net/Reshape_112/Cast_1" type="Convert" version="opset1">
			<data destination_type="i64"/>
			<input>
				<port id="0" precision="I32">
					<dim>5</dim>
				</port>
			</input>
			<output>
				<port id="1" names="net/Reshape_112/shape:0" precision="I64">
					<dim>5</dim>
				</port>
			</output>
		</layer>
		<layer id="292" name="net/Reshape_112" type="Reshape" version="opset1">
			<data special_zero="false"/>
			<input>
				<port id="0" precision="FP32">
					<dim>10</dim>
					<dim>50</dim>
					<dim>10</dim>
					<dim>10</dim>
					<dim>10</dim>
				</port>
				<port id="1" precision="I64">
					<dim>5</dim>
				</port>
			</input>
			<output>
				<port id="2" names="net/Reshape_112:0" precision="FP32">
					<dim>10</dim>
					<dim>500</dim>
					<dim>1</dim>
					<dim>10</dim>
					<dim>10</dim>
				</port>
			</output>
		</layer>
		<layer id="293" name="net/Tile_6/multiples" type="Const" version="opset1">
			<data element_type="i64" offset="2475464" shape="5" size="40"/>
			<output>
				<port id="0" names="net/Tile_6/multiples:0" precision="I64">
					<dim>5</dim>
				</port>
			</output>
		</layer>
		<layer id="294" name="net/Tile_6" type="Tile" version="opset1">
			<input>
				<port id="0" precision="FP32">
					<dim>10</dim>
					<dim>500</dim>
					<dim>1</dim>
					<dim>10</dim>
					<dim>10</dim>
				</port>
				<port id="1" precision="I64">
					<dim>5</dim>
				</port>
			</input>
			<output>
				<port id="2" names="net/Tile_6:0" precision="FP32">
					<dim>10</dim>
					<dim>500</dim>
					<dim>3</dim>
					<dim>10</dim>
					<dim>10</dim>
				</port>
			</output>
		</layer>
		<layer id="295" name="net/strided_slice_89/stack" type="Const" version="opset1">
			<data element_type="i64" offset="2475412" shape="1" size="8"/>
			<output>
				<port id="0" names="net/strided_slice_89/stack:0" precision="I64">
					<dim>1</dim>
				</port>
			</output>
		</layer>
		<layer id="296" name="net/strided_slice_89/stack_1" type="Const" version="opset1">
			<data element_type="i64" offset="2475420" shape="1" size="8"/>
			<output>
				<port id="0" names="net/strided_slice_89/stack_1:0" precision="I64">
					<dim>1</dim>
				</port>
			</output>
		</layer>
		<layer id="297" name="net/strided_slice_89/stack_2" type="Const" version="opset1">
			<data element_type="i64" offset="2475420" shape="1" size="8"/>
			<output>
				<port id="0" names="net/strided_slice_89/stack_2:0" precision="I64">
					<dim>1</dim>
				</port>
			</output>
		</layer>
		<layer id="298" name="net/strided_slice_89" type="StridedSlice" version="opset1">
			<data begin_mask="0" ellipsis_mask="0" end_mask="0" new_axis_mask="0" shrink_axis_mask="1"/>
			<input>
				<port id="0" precision="I32">
					<dim>5</dim>
				</port>
				<port id="1" precision="I64">
					<dim>1</dim>
				</port>
				<port id="2" precision="I64">
					<dim>1</dim>
				</port>
				<port id="3" precision="I64">
					<dim>1</dim>
				</port>
			</input>
			<output>
				<port id="4" names="net/strided_slice_89:0" precision="I32"/>
			</output>
		</layer>
		<layer id="299" name="net/Reshape_113/shape/Unsqueeze_input_port_1/value" type="Const" version="opset1">
			<data element_type="i64" offset="2475412" shape="1" size="8"/>
			<output>
				<port id="0" precision="I64">
					<dim>1</dim>
				</port>
			</output>
		</layer>
		<layer id="300" name="net/Reshape_113/shape/Unsqueeze" type="Unsqueeze" version="opset1">
			<input>
				<port id="0" precision="I32"/>
				<port id="1" precision="I64">
					<dim>1</dim>
				</port>
			</input>
			<output>
				<port id="2" precision="I32">
					<dim>1</dim>
				</port>
			</output>
		</layer>
		<layer id="301" name="net/Reshape_113/shape/Unsqueeze1080" type="Const" version="opset1">
			<data element_type="i32" offset="2475504" shape="1" size="4"/>
			<output>
				<port id="0" precision="I32">
					<dim>1</dim>
				</port>
			</output>
		</layer>
		<layer id="302" name="net/strided_slice_90/stack" type="Const" version="opset1">
			<data element_type="i64" offset="2475428" shape="1" size="8"/>
			<output>
				<port id="0" names="net/strided_slice_90/stack:0" precision="I64">
					<dim>1</dim>
				</port>
			</output>
		</layer>
		<layer id="303" name="net/strided_slice_90/stack_1" type="Const" version="opset1">
			<data element_type="i64" offset="2475436" shape="1" size="8"/>
			<output>
				<port id="0" names="net/strided_slice_90/stack_1:0" precision="I64">
					<dim>1</dim>
				</port>
			</output>
		</layer>
		<layer id="304" name="net/strided_slice_90/stack_2" type="Const" version="opset1">
			<data element_type="i64" offset="2475420" shape="1" size="8"/>
			<output>
				<port id="0" names="net/strided_slice_90/stack_2:0" precision="I64">
					<dim>1</dim>
				</port>
			</output>
		</layer>
		<layer id="305" name="net/strided_slice_90" type="StridedSlice" version="opset1">
			<data begin_mask="0" ellipsis_mask="0" end_mask="0" new_axis_mask="0" shrink_axis_mask="1"/>
			<input>
				<port id="0" precision="I32">
					<dim>5</dim>
				</port>
				<port id="1" precision="I64">
					<dim>1</dim>
				</port>
				<port id="2" precision="I64">
					<dim>1</dim>
				</port>
				<port id="3" precision="I64">
					<dim>1</dim>
				</port>
			</input>
			<output>
				<port id="4" names="net/strided_slice_90:0" precision="I32"/>
			</output>
		</layer>
		<layer id="306" name="net/mul_139/y" type="Const" version="opset1">
			<data element_type="i32" offset="2475508" shape="" size="4"/>
			<output>
				<port id="0" names="net/mul_139/y:0" precision="I32"/>
			</output>
		</layer>
		<layer id="307" name="net/mul_139" type="Multiply" version="opset1">
			<data auto_broadcast="numpy"/>
			<input>
				<port id="0" precision="I32"/>
				<port id="1" precision="I32"/>
			</input>
			<output>
				<port id="2" names="net/mul_139:0" precision="I32"/>
			</output>
		</layer>
		<layer id="308" name="net/Reshape_113/shape/Unsqueeze1082_input_port_1/value" type="Const" version="opset1">
			<data element_type="i64" offset="2475412" shape="1" size="8"/>
			<output>
				<port id="0" precision="I64">
					<dim>1</dim>
				</port>
			</output>
		</layer>
		<layer id="309" name="net/Reshape_113/shape/Unsqueeze1082" type="Unsqueeze" version="opset1">
			<input>
				<port id="0" precision="I32"/>
				<port id="1" precision="I64">
					<dim>1</dim>
				</port>
			</input>
			<output>
				<port id="2" precision="I32">
					<dim>1</dim>
				</port>
			</output>
		</layer>
		<layer id="310" name="net/strided_slice_91/stack" type="Const" version="opset1">
			<data element_type="i64" offset="2475436" shape="1" size="8"/>
			<output>
				<port id="0" names="net/strided_slice_91/stack:0" precision="I64">
					<dim>1</dim>
				</port>
			</output>
		</layer>
		<layer id="311" name="net/strided_slice_91/stack_1" type="Const" version="opset1">
			<data element_type="i64" offset="2475448" shape="1" size="8"/>
			<output>
				<port id="0" names="net/strided_slice_91/stack_1:0" precision="I64">
					<dim>1</dim>
				</port>
			</output>
		</layer>
		<layer id="312" name="net/strided_slice_91/stack_2" type="Const" version="opset1">
			<data element_type="i64" offset="2475420" shape="1" size="8"/>
			<output>
				<port id="0" names="net/strided_slice_91/stack_2:0" precision="I64">
					<dim>1</dim>
				</port>
			</output>
		</layer>
		<layer id="313" name="net/strided_slice_91" type="StridedSlice" version="opset1">
			<data begin_mask="0" ellipsis_mask="0" end_mask="0" new_axis_mask="0" shrink_axis_mask="1"/>
			<input>
				<port id="0" precision="I32">
					<dim>5</dim>
				</port>
				<port id="1" precision="I64">
					<dim>1</dim>
				</port>
				<port id="2" precision="I64">
					<dim>1</dim>
				</port>
				<port id="3" precision="I64">
					<dim>1</dim>
				</port>
			</input>
			<output>
				<port id="4" names="net/strided_slice_91:0" precision="I32"/>
			</output>
		</layer>
		<layer id="314" name="net/Reshape_113/shape/Unsqueeze1084_input_port_1/value" type="Const" version="opset1">
			<data element_type="i64" offset="2475412" shape="1" size="8"/>
			<output>
				<port id="0" precision="I64">
					<dim>1</dim>
				</port>
			</output>
		</layer>
		<layer id="315" name="net/Reshape_113/shape/Unsqueeze1084" type="Unsqueeze" version="opset1">
			<input>
				<port id="0" precision="I32"/>
				<port id="1" precision="I64">
					<dim>1</dim>
				</port>
			</input>
			<output>
				<port id="2" precision="I32">
					<dim>1</dim>
				</port>
			</output>
		</layer>
		<layer id="316" name="net/strided_slice_92/stack" type="Const" version="opset1">
			<data element_type="i64" offset="2475448" shape="1" size="8"/>
			<output>
				<port id="0" names="net/strided_slice_92/stack:0" precision="I64">
					<dim>1</dim>
				</port>
			</output>
		</layer>
		<layer id="317" name="net/strided_slice_92/stack_1" type="Const" version="opset1">
			<data element_type="i64" offset="2475456" shape="1" size="8"/>
			<output>
				<port id="0" names="net/strided_slice_92/stack_1:0" precision="I64">
					<dim>1</dim>
				</port>
			</output>
		</layer>
		<layer id="318" name="net/strided_slice_92/stack_2" type="Const" version="opset1">
			<data element_type="i64" offset="2475420" shape="1" size="8"/>
			<output>
				<port id="0" names="net/strided_slice_92/stack_2:0" precision="I64">
					<dim>1</dim>
				</port>
			</output>
		</layer>
		<layer id="319" name="net/strided_slice_92" type="StridedSlice" version="opset1">
			<data begin_mask="0" ellipsis_mask="0" end_mask="0" new_axis_mask="0" shrink_axis_mask="1"/>
			<input>
				<port id="0" precision="I32">
					<dim>5</dim>
				</port>
				<port id="1" precision="I64">
					<dim>1</dim>
				</port>
				<port id="2" precision="I64">
					<dim>1</dim>
				</port>
				<port id="3" precision="I64">
					<dim>1</dim>
				</port>
			</input>
			<output>
				<port id="4" names="net/strided_slice_92:0" precision="I32"/>
			</output>
		</layer>
		<layer id="320" name="net/Reshape_113/shape/Unsqueeze1086_input_port_1/value" type="Const" version="opset1">
			<data element_type="i64" offset="2475412" shape="1" size="8"/>
			<output>
				<port id="0" precision="I64">
					<dim>1</dim>
				</port>
			</output>
		</layer>
		<layer id="321" name="net/Reshape_113/shape/Unsqueeze1086" type="Unsqueeze" version="opset1">
			<input>
				<port id="0" precision="I32"/>
				<port id="1" precision="I64">
					<dim>1</dim>
				</port>
			</input>
			<output>
				<port id="2" precision="I32">
					<dim>1</dim>
				</port>
			</output>
		</layer>
		<layer id="322" name="net/Reshape_113/shape" type="Concat" version="opset1">
			<data axis="0"/>
			<input>
				<port id="0" precision="I32">
					<dim>1</dim>
				</port>
				<port id="1" precision="I32">
					<dim>1</dim>
				</port>
				<port id="2" precision="I32">
					<dim>1</dim>
				</port>
				<port id="3" precision="I32">
					<dim>1</dim>
				</port>
				<port id="4" precision="I32">
					<dim>1</dim>
				</port>
			</input>
			<output>
				<port id="5" precision="I32">
					<dim>5</dim>
				</port>
			</output>
		</layer>
		<layer id="323" name="net/Reshape_113/Cast_1" type="Convert" version="opset1">
			<data destination_type="i64"/>
			<input>
				<port id="0" precision="I32">
					<dim>5</dim>
				</port>
			</input>
			<output>
				<port id="1" names="net/Reshape_113/shape:0" precision="I64">
					<dim>5</dim>
				</port>
			</output>
		</layer>
		<layer id="324" name="net/Reshape_113" type="Reshape" version="opset1">
			<data special_zero="false"/>
			<input>
				<port id="0" precision="FP32">
					<dim>10</dim>
					<dim>500</dim>
					<dim>3</dim>
					<dim>10</dim>
					<dim>10</dim>
				</port>
				<port id="1" precision="I64">
					<dim>5</dim>
				</port>
			</input>
			<output>
				<port id="2" names="net/Reshape_113:0" precision="FP32">
					<dim>10</dim>
					<dim>50</dim>
					<dim>30</dim>
					<dim>10</dim>
					<dim>10</dim>
				</port>
			</output>
		</layer>
		<layer id="325" name="net/Shape_7" type="ShapeOf" version="opset3">
			<data output_type="i32"/>
			<input>
				<port id="0" precision="FP32">
					<dim>10</dim>
					<dim>50</dim>
					<dim>30</dim>
					<dim>10</dim>
					<dim>10</dim>
				</port>
			</input>
			<output>
				<port id="1" names="net/Shape_7:0" precision="I32">
					<dim>5</dim>
				</port>
			</output>
		</layer>
		<layer id="326" name="net/strided_slice_93/stack" type="Const" version="opset1">
			<data element_type="i64" offset="2475412" shape="1" size="8"/>
			<output>
				<port id="0" names="net/strided_slice_93/stack:0" precision="I64">
					<dim>1</dim>
				</port>
			</output>
		</layer>
		<layer id="327" name="net/strided_slice_93/stack_1" type="Const" version="opset1">
			<data element_type="i64" offset="2475420" shape="1" size="8"/>
			<output>
				<port id="0" names="net/strided_slice_93/stack_1:0" precision="I64">
					<dim>1</dim>
				</port>
			</output>
		</layer>
		<layer id="328" name="net/strided_slice_93/stack_2" type="Const" version="opset1">
			<data element_type="i64" offset="2475420" shape="1" size="8"/>
			<output>
				<port id="0" names="net/strided_slice_93/stack_2:0" precision="I64">
					<dim>1</dim>
				</port>
			</output>
		</layer>
		<layer id="329" name="net/strided_slice_93" type="StridedSlice" version="opset1">
			<data begin_mask="0" ellipsis_mask="0" end_mask="0" new_axis_mask="0" shrink_axis_mask="1"/>
			<input>
				<port id="0" precision="I32">
					<dim>5</dim>
				</port>
				<port id="1" precision="I64">
					<dim>1</dim>
				</port>
				<port id="2" precision="I64">
					<dim>1</dim>
				</port>
				<port id="3" precision="I64">
					<dim>1</dim>
				</port>
			</input>
			<output>
				<port id="4" names="net/strided_slice_93:0" precision="I32"/>
			</output>
		</layer>
		<layer id="330" name="net/Reshape_114/shape/Unsqueeze_input_port_1/value" type="Const" version="opset1">
			<data element_type="i64" offset="2475412" shape="1" size="8"/>
			<output>
				<port id="0" precision="I64">
					<dim>1</dim>
				</port>
			</output>
		</layer>
		<layer id="331" name="net/Reshape_114/shape/Unsqueeze" type="Unsqueeze" version="opset1">
			<input>
				<port id="0" precision="I32"/>
				<port id="1" precision="I64">
					<dim>1</dim>
				</port>
			</input>
			<output>
				<port id="2" precision="I32">
					<dim>1</dim>
				</port>
			</output>
		</layer>
		<layer id="332" name="net/strided_slice_94/stack" type="Const" version="opset1">
			<data element_type="i64" offset="2475420" shape="1" size="8"/>
			<output>
				<port id="0" names="net/strided_slice_94/stack:0" precision="I64">
					<dim>1</dim>
				</port>
			</output>
		</layer>
		<layer id="333" name="net/strided_slice_94/stack_1" type="Const" version="opset1">
			<data element_type="i64" offset="2475428" shape="1" size="8"/>
			<output>
				<port id="0" names="net/strided_slice_94/stack_1:0" precision="I64">
					<dim>1</dim>
				</port>
			</output>
		</layer>
		<layer id="334" name="net/strided_slice_94/stack_2" type="Const" version="opset1">
			<data element_type="i64" offset="2475420" shape="1" size="8"/>
			<output>
				<port id="0" names="net/strided_slice_94/stack_2:0" precision="I64">
					<dim>1</dim>
				</port>
			</output>
		</layer>
		<layer id="335" name="net/strided_slice_94" type="StridedSlice" version="opset1">
			<data begin_mask="0" ellipsis_mask="0" end_mask="0" new_axis_mask="0" shrink_axis_mask="1"/>
			<input>
				<port id="0" precision="I32">
					<dim>5</dim>
				</port>
				<port id="1" precision="I64">
					<dim>1</dim>
				</port>
				<port id="2" precision="I64">
					<dim>1</dim>
				</port>
				<port id="3" precision="I64">
					<dim>1</dim>
				</port>
			</input>
			<output>
				<port id="4" names="net/strided_slice_94:0" precision="I32"/>
			</output>
		</layer>
		<layer id="336" name="net/Reshape_114/shape/Unsqueeze1091_input_port_1/value" type="Const" version="opset1">
			<data element_type="i64" offset="2475412" shape="1" size="8"/>
			<output>
				<port id="0" precision="I64">
					<dim>1</dim>
				</port>
			</output>
		</layer>
		<layer id="337" name="net/Reshape_114/shape/Unsqueeze1091" type="Unsqueeze" version="opset1">
			<input>
				<port id="0" precision="I32"/>
				<port id="1" precision="I64">
					<dim>1</dim>
				</port>
			</input>
			<output>
				<port id="2" precision="I32">
					<dim>1</dim>
				</port>
			</output>
		</layer>
		<layer id="338" name="net/strided_slice_95/stack" type="Const" version="opset1">
			<data element_type="i64" offset="2475428" shape="1" size="8"/>
			<output>
				<port id="0" names="net/strided_slice_95/stack:0" precision="I64">
					<dim>1</dim>
				</port>
			</output>
		</layer>
		<layer id="339" name="net/strided_slice_95/stack_1" type="Const" version="opset1">
			<data element_type="i64" offset="2475436" shape="1" size="8"/>
			<output>
				<port id="0" names="net/strided_slice_95/stack_1:0" precision="I64">
					<dim>1</dim>
				</port>
			</output>
		</layer>
		<layer id="340" name="net/strided_slice_95/stack_2" type="Const" version="opset1">
			<data element_type="i64" offset="2475420" shape="1" size="8"/>
			<output>
				<port id="0" names="net/strided_slice_95/stack_2:0" precision="I64">
					<dim>1</dim>
				</port>
			</output>
		</layer>
		<layer id="341" name="net/strided_slice_95" type="StridedSlice" version="opset1">
			<data begin_mask="0" ellipsis_mask="0" end_mask="0" new_axis_mask="0" shrink_axis_mask="1"/>
			<input>
				<port id="0" precision="I32">
					<dim>5</dim>
				</port>
				<port id="1" precision="I64">
					<dim>1</dim>
				</port>
				<port id="2" precision="I64">
					<dim>1</dim>
				</port>
				<port id="3" precision="I64">
					<dim>1</dim>
				</port>
			</input>
			<output>
				<port id="4" names="net/strided_slice_95:0" precision="I32"/>
			</output>
		</layer>
		<layer id="342" name="net/strided_slice_96/stack" type="Const" version="opset1">
			<data element_type="i64" offset="2475436" shape="1" size="8"/>
			<output>
				<port id="0" names="net/strided_slice_96/stack:0" precision="I64">
					<dim>1</dim>
				</port>
			</output>
		</layer>
		<layer id="343" name="net/strided_slice_96/stack_1" type="Const" version="opset1">
			<data element_type="i64" offset="2475448" shape="1" size="8"/>
			<output>
				<port id="0" names="net/strided_slice_96/stack_1:0" precision="I64">
					<dim>1</dim>
				</port>
			</output>
		</layer>
		<layer id="344" name="net/strided_slice_96/stack_2" type="Const" version="opset1">
…
					<dim>29</dim>
				</port>
			</output>
		</layer>
		<layer id="503" name="data_mul_112081121034072" type="Const" version="opset1">
			<data element_type="f32" offset="2629916" shape="1, 150, 1, 1, 1" size="600"/>
			<output>
				<port id="0" precision="FP32">
					<dim>1</dim>
					<dim>150</dim>
					<dim>1</dim>
					<dim>1</dim>
					<dim>1</dim>
				</port>
			</output>
		</layer>
		<layer id="504" name="net/mul_172/Fused_Mul_" type="Multiply" version="opset1">
			<data auto_broadcast="numpy"/>
			<input>
				<port id="0" precision="FP32">
					<dim>10</dim>
					<dim>150</dim>
					<dim>29</dim>
					<dim>29</dim>
					<dim>29</dim>
				</port>
				<port id="1" precision="FP32">
					<dim>1</dim>
					<dim>150</dim>
					<dim>1</dim>
					<dim>1</dim>
					<dim>1</dim>
				</port>
			</input>
			<output>
				<port id="2" names="net/mul_173:0" precision="FP32">
					<dim>10</dim>
					<dim>150</dim>
					<dim>29</dim>
					<dim>29</dim>
					<dim>29</dim>
				</port>
			</output>
		</layer>
		<layer id="505" name="net/add_176" type="Add" version="opset1">
			<data auto_broadcast="numpy"/>
			<input>
				<port id="0" precision="FP32">
					<dim>10</dim>
					<dim>150</dim>
					<dim>29</dim>
					<dim>29</dim>
					<dim>29</dim>
				</port>
				<port id="1" precision="FP32">
					<dim>10</dim>
					<dim>150</dim>
					<dim>29</dim>
					<dim>29</dim>
					<dim>29</dim>
				</port>
			</input>
			<output>
				<port id="2" names="net/add_176:0" precision="FP32">
					<dim>10</dim>
					<dim>150</dim>
					<dim>29</dim>
					<dim>29</dim>
					<dim>29</dim>
				</port>
			</output>
		</layer>
		<layer id="506" name="net/mul_176/y" type="Const" version="opset1">
			<data element_type="f32" offset="2538712" shape="1, 1, 1, 1, 1" size="4"/>
			<output>
				<port id="0" names="net/mul_176/y:0" precision="FP32">
					<dim>1</dim>
					<dim>1</dim>
					<dim>1</dim>
					<dim>1</dim>
					<dim>1</dim>
				</port>
			</output>
		</layer>
		<layer id="507" name="net/mul_176" type="Multiply" version="opset1">
			<data auto_broadcast="numpy"/>
			<input>
				<port id="0" precision="FP32">
					<dim>10</dim>
					<dim>150</dim>
					<dim>29</dim>
					<dim>29</dim>
					<dim>29</dim>
				</port>
				<port id="1" precision="FP32">
					<dim>1</dim>
					<dim>1</dim>
					<dim>1</dim>
					<dim>1</dim>
					<dim>1</dim>
				</port>
			</input>
			<output>
				<port id="2" names="net/mul_176:0" precision="FP32">
					<dim>10</dim>
					<dim>150</dim>
					<dim>29</dim>
					<dim>29</dim>
					<dim>29</dim>
				</port>
			</output>
		</layer>
		<layer id="508" name="net/transpose_131/perm" type="Const" version="opset1">
			<data element_type="i64" offset="8" shape="5" size="40"/>
			<output>
				<port id="0" names="net/transpose_131/perm:0" precision="I64">
					<dim>5</dim>
				</port>
			</output>
		</layer>
		<layer id="509" name="net/transpose_131" type="Transpose" version="opset1">
			<input>
				<port id="0" precision="FP32">
					<dim>10</dim>
					<dim>150</dim>
					<dim>29</dim>
					<dim>29</dim>
					<dim>29</dim>
				</port>
				<port id="1" precision="I64">
					<dim>5</dim>
				</port>
			</input>
			<output>
				<port id="2" names="net/transpose_131:0" precision="FP32">
					<dim>10</dim>
					<dim>150</dim>
					<dim>29</dim>
					<dim>29</dim>
					<dim>29</dim>
				</port>
			</output>
		</layer>
		<layer id="510" name="net/transpose_126" type="Const" version="opset1">
			<data element_type="f32" offset="2630516" shape="2, 150, 1, 1, 1" size="1200"/>
			<output>
				<port id="0" names="net/transpose_126:0" precision="FP32">
					<dim>2</dim>
					<dim>150</dim>
					<dim>1</dim>
					<dim>1</dim>
					<dim>1</dim>
				</port>
			</output>
		</layer>
		<layer id="511" name="net/Conv3D_56" type="Convolution" version="opset1">
			<data auto_pad="valid" dilations="1, 1, 1" pads_begin="0, 0, 0" pads_end="0, 0, 0" strides="1, 1, 1"/>
			<input>
				<port id="0" precision="FP32">
					<dim>10</dim>
					<dim>150</dim>
					<dim>29</dim>
					<dim>29</dim>
					<dim>29</dim>
				</port>
				<port id="1" precision="FP32">
					<dim>2</dim>
					<dim>150</dim>
					<dim>1</dim>
					<dim>1</dim>
					<dim>1</dim>
				</port>
			</input>
			<output>
				<port id="2" precision="FP32">
					<dim>10</dim>
					<dim>2</dim>
					<dim>29</dim>
					<dim>29</dim>
					<dim>29</dim>
				</port>
			</output>
		</layer>
		<layer id="512" name="758234330" type="Const" version="opset1">
			<data element_type="i64" offset="8" shape="5" size="40"/>
			<output>
				<port id="0" precision="I64">
					<dim>5</dim>
				</port>
			</output>
		</layer>
		<layer id="513" name="net/Conv3D_56/output_transpose" type="Transpose" version="opset1">
			<input>
				<port id="0" precision="FP32">
					<dim>10</dim>
					<dim>2</dim>
					<dim>29</dim>
					<dim>29</dim>
					<dim>29</dim>
				</port>
				<port id="1" precision="I64">
					<dim>5</dim>
				</port>
			</input>
			<output>
				<port id="2" names="net/Conv3D_56:0,net/transpose_132:0" precision="FP32">
					<dim>10</dim>
					<dim>2</dim>
					<dim>29</dim>
					<dim>29</dim>
					<dim>29</dim>
				</port>
			</output>
		</layer>
		<layer id="514" name="data_add_112121121434177" type="Const" version="opset1">
			<data element_type="f32" offset="2631716" shape="1, 2, 1, 1, 1" size="8"/>
			<output>
				<port id="0" precision="FP32">
					<dim>1</dim>
					<dim>2</dim>
					<dim>1</dim>
					<dim>1</dim>
					<dim>1</dim>
				</port>
			</output>
		</layer>
		<layer id="515" name="net/add_180/Fused_Add_" type="Add" version="opset1">
			<data auto_broadcast="numpy"/>
			<input>
				<port id="0" precision="FP32">
					<dim>10</dim>
					<dim>2</dim>
					<dim>29</dim>
					<dim>29</dim>
					<dim>29</dim>
				</port>
				<port id="1" precision="FP32">
					<dim>1</dim>
					<dim>2</dim>
					<dim>1</dim>
					<dim>1</dim>
					<dim>1</dim>
				</port>
			</input>
			<output>
				<port id="2" names="net/truediv_53:0" precision="FP32">
					<dim>10</dim>
					<dim>2</dim>
					<dim>29</dim>
					<dim>29</dim>
					<dim>29</dim>
				</port>
			</output>
		</layer>
		<layer id="516" name="net/concat_7" type="Const" version="opset1">
			<data element_type="i64" offset="2631724" shape="5" size="40"/>
			<output>
				<port id="0" names="net/concat_7:0" precision="I64">
					<dim>5</dim>
				</port>
			</output>
		</layer>
		<layer id="517" name="net/transpose_137" type="Transpose" version="opset1">
			<input>
				<port id="0" precision="FP32">
					<dim>10</dim>
					<dim>2</dim>
					<dim>29</dim>
					<dim>29</dim>
					<dim>29</dim>
				</port>
				<port id="1" precision="I64">
					<dim>5</dim>
				</port>
			</input>
			<output>
				<port id="2" names="net/transpose_137:0" precision="FP32">
					<dim>10</dim>
					<dim>29</dim>
					<dim>29</dim>
					<dim>29</dim>
					<dim>2</dim>
				</port>
			</output>
		</layer>
		<layer id="518" name="net/Softmax_2" type="SoftMax" version="opset1">
			<data axis="4"/>
			<input>
				<port id="0" precision="FP32">
					<dim>10</dim>
					<dim>29</dim>
					<dim>29</dim>
					<dim>29</dim>
					<dim>2</dim>
				</port>
			</input>
			<output>
				<port id="1" names="net/Softmax_2:0" precision="FP32">
					<dim>10</dim>
					<dim>29</dim>
					<dim>29</dim>
					<dim>29</dim>
					<dim>2</dim>
				</port>
			</output>
		</layer>
		<layer id="519" name="net/concat_8" type="Const" version="opset1">
			<data element_type="i64" offset="2631724" shape="5" size="40"/>
			<output>
				<port id="0" names="net/concat_8:0" precision="I64">
					<dim>5</dim>
				</port>
			</output>
		</layer>
		<layer id="520" name="net/transpose_138" type="Transpose" version="opset1">
			<input>
				<port id="0" precision="FP32">
					<dim>10</dim>
					<dim>29</dim>
					<dim>29</dim>
					<dim>29</dim>
					<dim>2</dim>
				</port>
				<port id="1" precision="I64">
					<dim>5</dim>
				</port>
			</input>
			<output>
				<port id="2" names="net/transpose_138:0" precision="FP32">
					<dim>10</dim>
					<dim>2</dim>
					<dim>29</dim>
					<dim>29</dim>
					<dim>29</dim>
				</port>
			</output>
		</layer>
		<layer id="521" name="net/transpose_138:0" type="Result" version="opset1">
			<input>
				<port id="0" precision="FP32">
					<dim>10</dim>
					<dim>2</dim>
					<dim>29</dim>
					<dim>29</dim>
					<dim>29</dim>
				</port>
			</input>
		</layer>
	</layers>
	<edges>
		<edge from-layer="0" from-port="0" to-layer="140" to-port="0"/>
		<edge from-layer="1" from-port="0" to-layer="13" to-port="0"/>
		<edge from-layer="2" from-port="0" to-layer="500" to-port="0"/>
		<edge from-layer="3" from-port="0" to-layer="482" to-port="0"/>
		<edge from-layer="4" from-port="0" to-layer="466" to-port="0"/>
		<edge from-layer="5" from-port="0" to-layer="120" to-port="0"/>
		<edge from-layer="6" from-port="0" to-layer="104" to-port="0"/>
		<edge from-layer="7" from-port="0" to-layer="88" to-port="0"/>
		<edge from-layer="8" from-port="0" to-layer="72" to-port="0"/>
		<edge from-layer="9" from-port="0" to-layer="56" to-port="0"/>
		<edge from-layer="10" from-port="0" to-layer="40" to-port="0"/>
		<edge from-layer="11" from-port="0" to-layer="24" to-port="0"/>
		<edge from-layer="12" from-port="0" to-layer="13" to-port="1"/>
		<edge from-layer="13" from-port="2" to-layer="15" to-port="0"/>
		<edge from-layer="14" from-port="0" to-layer="15" to-port="1"/>
		<edge from-layer="15" from-port="2" to-layer="17" to-port="0"/>
		<edge from-layer="16" from-port="0" to-layer="17" to-port="1"/>
		<edge from-layer="17" from-port="2" to-layer="19" to-port="0"/>
		<edge from-layer="18" from-port="0" to-layer="19" to-port="1"/>
		<edge from-layer="19" from-port="2" to-layer="21" to-port="0"/>
		<edge from-layer="20" from-port="0" to-layer="21" to-port="1"/>
		<edge from-layer="21" from-port="2" to-layer="23" to-port="0"/>
		<edge from-layer="22" from-port="0" to-layer="23" to-port="1"/>
		<edge from-layer="23" from-port="2" to-layer="25" to-port="0"/>
		<edge from-layer="23" from-port="2" to-layer="24" to-port="1"/>
		<edge from-layer="23" from-port="2" to-layer="26" to-port="0"/>
		<edge from-layer="24" from-port="2" to-layer="29" to-port="0"/>
		<edge from-layer="25" from-port="1" to-layer="26" to-port="1"/>
		<edge from-layer="26" from-port="2" to-layer="28" to-port="0"/>
		<edge from-layer="27" from-port="0" to-layer="28" to-port="1"/>
		<edge from-layer="28" from-port="2" to-layer="29" to-port="1"/>
		<edge from-layer="29" from-port="2" to-layer="31" to-port="0"/>
		<edge from-layer="30" from-port="0" to-layer="31" to-port="1"/>
		<edge from-layer="31" from-port="2" to-layer="33" to-port="0"/>
		<edge from-layer="32" from-port="0" to-layer="33" to-port="1"/>
		<edge from-layer="33" from-port="2" to-layer="35" to-port="0"/>
		<edge from-layer="34" from-port="0" to-layer="35" to-port="1"/>
		<edge from-layer="35" from-port="2" to-layer="37" to-port="0"/>
		<edge from-layer="36" from-port="0" to-layer="37" to-port="1"/>
		<edge from-layer="37" from-port="2" to-layer="39" to-port="0"/>
		<edge from-layer="38" from-port="0" to-layer="39" to-port="1"/>
		<edge from-layer="39" from-port="2" to-layer="42" to-port="0"/>
		<edge from-layer="39" from-port="2" to-layer="41" to-port="0"/>
		<edge from-layer="39" from-port="2" to-layer="40" to-port="1"/>
		<edge from-layer="40" from-port="2" to-layer="45" to-port="0"/>
		<edge from-layer="41" from-port="1" to-layer="42" to-port="1"/>
		<edge from-layer="42" from-port="2" to-layer="44" to-port="0"/>
		<edge from-layer="43" from-port="0" to-layer="44" to-port="1"/>
		<edge from-layer="44" from-port="2" to-layer="45" to-port="1"/>
		<edge from-layer="45" from-port="2" to-layer="47" to-port="0"/>
		<edge from-layer="46" from-port="0" to-layer="47" to-port="1"/>
		<edge from-layer="47" from-port="2" to-layer="49" to-port="0"/>
		<edge from-layer="48" from-port="0" to-layer="49" to-port="1"/>
		<edge from-layer="49" from-port="2" to-layer="51" to-port="0"/>
		<edge from-layer="50" from-port="0" to-layer="51" to-port="1"/>
		<edge from-layer="51" from-port="2" to-layer="53" to-port="0"/>
		<edge from-layer="52" from-port="0" to-layer="53" to-port="1"/>
		<edge from-layer="53" from-port="2" to-layer="55" to-port="0"/>
		<edge from-layer="54" from-port="0" to-layer="55" to-port="1"/>
		<edge from-layer="55" from-port="2" to-layer="56" to-port="1"/>
		<edge from-layer="55" from-port="2" to-layer="58" to-port="0"/>
		<edge from-layer="55" from-port="2" to-layer="57" to-port="0"/>
		<edge from-layer="56" from-port="2" to-layer="61" to-port="0"/>
		<edge from-layer="57" from-port="1" to-layer="58" to-port="1"/>
		<edge from-layer="58" from-port="2" to-layer="60" to-port="0"/>
		<edge from-layer="59" from-port="0" to-layer="60" to-port="1"/>
		<edge from-layer="60" from-port="2" to-layer="61" to-port="1"/>
		<edge from-layer="61" from-port="2" to-layer="63" to-port="0"/>
		<edge from-layer="62" from-port="0" to-layer="63" to-port="1"/>
		<edge from-layer="63" from-port="2" to-layer="65" to-port="0"/>
		<edge from-layer="64" from-port="0" to-layer="65" to-port="1"/>
		<edge from-layer="65" from-port="2" to-layer="67" to-port="0"/>
		<edge from-layer="66" from-port="0" to-layer="67" to-port="1"/>
		<edge from-layer="67" from-port="2" to-layer="69" to-port="0"/>
		<edge from-layer="68" from-port="0" to-layer="69" to-port="1"/>
		<edge from-layer="69" from-port="2" to-layer="71" to-port="0"/>
		<edge from-layer="70" from-port="0" to-layer="71" to-port="1"/>
		<edge from-layer="71" from-port="2" to-layer="72" to-port="1"/>
		<edge from-layer="71" from-port="2" to-layer="73" to-port="0"/>
		<edge from-layer="71" from-port="2" to-layer="74" to-port="0"/>
		<edge from-layer="72" from-port="2" to-layer="77" to-port="0"/>
		<edge from-layer="73" from-port="1" to-layer="74" to-port="1"/>
		<edge from-layer="74" from-port="2" to-layer="76" to-port="0"/>
		<edge from-layer="75" from-port="0" to-layer="76" to-port="1"/>
		<edge from-layer="76" from-port="2" to-layer="77" to-port="1"/>
		<edge from-layer="77" from-port="2" to-layer="79" to-port="0"/>
		<edge from-layer="78" from-port="0" to-layer="79" to-port="1"/>
		<edge from-layer="79" from-port="2" to-layer="81" to-port="0"/>
		<edge from-layer="80" from-port="0" to-layer="81" to-port="1"/>
		<edge from-layer="81" from-port="2" to-layer="83" to-port="0"/>
		<edge from-layer="82" from-port="0" to-layer="83" to-port="1"/>
		<edge from-layer="83" from-port="2" to-layer="85" to-port="0"/>
		<edge from-layer="84" from-port="0" to-layer="85" to-port="1"/>
		<edge from-layer="85" from-port="2" to-layer="87" to-port="0"/>
		<edge from-layer="86" from-port="0" to-layer="87" to-port="1"/>
		<edge from-layer="87" from-port="2" to-layer="90" to-port="0"/>
		<edge from-layer="87" from-port="2" to-layer="89" to-port="0"/>
		<edge from-layer="87" from-port="2" to-layer="88" to-port="1"/>
		<edge from-layer="88" from-port="2" to-layer="93" to-port="0"/>
		<edge from-layer="89" from-port="1" to-layer="90" to-port="1"/>
		<edge from-layer="90" from-port="2" to-layer="92" to-port="0"/>
		<edge from-layer="91" from-port="0" to-layer="92" to-port="1"/>
		<edge from-layer="92" from-port="2" to-layer="93" to-port="1"/>
		<edge from-layer="93" from-port="2" to-layer="95" to-port="0"/>
		<edge from-layer="94" from-port="0" to-layer="95" to-port="1"/>
		<edge from-layer="95" from-port="2" to-layer="97" to-port="0"/>
		<edge from-layer="96" from-port="0" to-layer="97" to-port="1"/>
		<edge from-layer="97" from-port="2" to-layer="99" to-port="0"/>
		<edge from-layer="98" from-port="0" to-layer="99" to-port="1"/>
		<edge from-layer="99" from-port="2" to-layer="101" to-port="0"/>
		<edge from-layer="100" from-port="0" to-layer="101" to-port="1"/>
		<edge from-layer="101" from-port="2" to-layer="103" to-port="0"/>
		<edge from-layer="102" from-port="0" to-layer="103" to-port="1"/>
		<edge from-layer="103" from-port="2" to-layer="104" to-port="1"/>
		<edge from-layer="103" from-port="2" to-layer="105" to-port="0"/>
		<edge from-layer="103" from-port="2" to-layer="106" to-port="0"/>
		<edge from-layer="104" from-port="2" to-layer="109" to-port="0"/>
		<edge from-layer="105" from-port="1" to-layer="106" to-port="1"/>
		<edge from-layer="106" from-port="2" to-layer="108" to-port="0"/>
		<edge from-layer="107" from-port="0" to-layer="108" to-port="1"/>
		<edge from-layer="108" from-port="2" to-layer="109" to-port="1"/>
		<edge from-layer="109" from-port="2" to-layer="111" to-port="0"/>
		<edge from-layer="110" from-port="0" to-layer="111" to-port="1"/>
		<edge from-layer="111" from-port="2" to-layer="113" to-port="0"/>
		<edge from-layer="112" from-port="0" to-layer="113" to-port="1"/>
		<edge from-layer="113" from-port="2" to-layer="115" to-port="0"/>
		<edge from-layer="114" from-port="0" to-layer="115" to-port="1"/>
		<edge from-layer="115" from-port="2" to-layer="117" to-port="0"/>
		<edge from-layer="116" from-port="0" to-layer="117" to-port="1"/>
		<edge from-layer="117" from-port="2" to-layer="119" to-port="0"/>
		<edge from-layer="118" from-port="0" to-layer="119" to-port="1"/>
		<edge from-layer="119" from-port="2" to-layer="120" to-port="1"/>
		<edge from-layer="119" from-port="2" to-layer="122" to-port="0"/>
		<edge from-layer="119" from-port="2" to-layer="121" to-port="0"/>
		<edge from-layer="120" from-port="2" to-layer="125" to-port="0"/>
		<edge from-layer="121" from-port="1" to-layer="122" to-port="1"/>
		<edge from-layer="122" from-port="2" to-layer="124" to-port="0"/>
		<edge from-layer="123" from-port="0" to-layer="124" to-port="1"/>
		<edge from-layer="124" from-port="2" to-layer="125" to-port="1"/>
		<edge from-layer="125" from-port="2" to-layer="127" to-port="0"/>
		<edge from-layer="126" from-port="0" to-layer="127" to-port="1"/>
		<edge from-layer="127" from-port="2" to-layer="129" to-port="0"/>
		<edge from-layer="128" from-port="0" to-layer="129" to-port="1"/>
		<edge from-layer="129" from-port="2" to-layer="131" to-port="0"/>
		<edge from-layer="130" from-port="0" to-layer="131" to-port="1"/>
		<edge from-layer="131" from-port="2" to-layer="461" to-port="0"/>
		<edge from-layer="132" from-port="0" to-layer="247" to-port="0"/>
		<edge from-layer="133" from-port="0" to-layer="231" to-port="0"/>
		<edge from-layer="134" from-port="0" to-layer="215" to-port="0"/>
		<edge from-layer="135" from-port="0" to-layer="199" to-port="0"/>
		<edge from-layer="136" from-port="0" to-layer="183" to-port="0"/>
		<edge from-layer="137" from-port="0" to-layer="167" to-port="0"/>
		<edge from-layer="138" from-port="0" to-layer="151" to-port="0"/>
		<edge from-layer="139" from-port="0" to-layer="140" to-port="1"/>
		<edge from-layer="140" from-port="2" to-layer="142" to-port="0"/>
		<edge from-layer="141" from-port="0" to-layer="142" to-port="1"/>
		<edge from-layer="142" from-port="2" to-layer="144" to-port="0"/>
		<edge from-layer="143" from-port="0" to-layer="144" to-port="1"/>
		<edge from-layer="144" from-port="2" to-layer="146" to-port="0"/>
		<edge from-layer="145" from-port="0" to-layer="146" to-port="1"/>
		<edge from-layer="146" from-port="2" to-layer="148" to-port="0"/>
		<edge from-layer="147" from-port="0" to-layer="148" to-port="1"/>
		<edge from-layer="148" from-port="2" to-layer="150" to-port="0"/>
		<edge from-layer="149" from-port="0" to-layer="150" to-port="1"/>
		<edge from-layer="150" from-port="2" to-layer="153" to-port="0"/>
		<edge from-layer="150" from-port="2" to-layer="152" to-port="0"/>
		<edge from-layer="150" from-port="2" to-layer="151" to-port="1"/>
		<edge from-layer="151" from-port="2" to-layer="156" to-port="0"/>
		<edge from-layer="152" from-port="1" to-layer="153" to-port="1"/>
		<edge from-layer="153" from-port="2" to-layer="155" to-port="0"/>
		<edge from-layer="154" from-port="0" to-layer="155" to-port="1"/>
		<edge from-layer="155" from-port="2" to-layer="156" to-port="1"/>
		<edge from-layer="156" from-port="2" to-layer="158" to-port="0"/>
		<edge from-layer="157" from-port="0" to-layer="158" to-port="1"/>
		<edge from-layer="158" from-port="2" to-layer="160" to-port="0"/>
		<edge from-layer="159" from-port="0" to-layer="160" to-port="1"/>
		<edge from-layer="160" from-port="2" to-layer="162" to-port="0"/>
		<edge from-layer="161" from-port="0" to-layer="162" to-port="1"/>
		<edge from-layer="162" from-port="2" to-layer="164" to-port="0"/>
		<edge from-layer="163" from-port="0" to-layer="164" to-port="1"/>
		<edge from-layer="164" from-port="2" to-layer="166" to-port="0"/>
		<edge from-layer="165" from-port="0" to-layer="166" to-port="1"/>
		<edge from-layer="166" from-port="2" to-layer="167" to-port="1"/>
		<edge from-layer="166" from-port="2" to-layer="168" to-port="0"/>
		<edge from-layer="166" from-port="2" to-layer="169" to-port="0"/>
		<edge from-layer="167" from-port="2" to-layer="172" to-port="0"/>
		<edge from-layer="168" from-port="1" to-layer="169" to-port="1"/>
		<edge from-layer="169" from-port="2" to-layer="171" to-port="0"/>
		<edge from-layer="170" from-port="0" to-layer="171" to-port="1"/>
		<edge from-layer="171" from-port="2" to-layer="172" to-port="1"/>
		<edge from-layer="172" from-port="2" to-layer="174" to-port="0"/>
		<edge from-layer="173" from-port="0" to-layer="174" to-port="1"/>
		<edge from-layer="174" from-port="2" to-layer="176" to-port="0"/>
		<edge from-layer="175" from-port="0" to-layer="176" to-port="1"/>
		<edge from-layer="176" from-port="2" to-layer="178" to-port="0"/>
		<edge from-layer="177" from-port="0" to-layer="178" to-port="1"/>
		<edge from-layer="178" from-port="2" to-layer="180" to-port="0"/>
		<edge from-layer="179" from-port="0" to-layer="180" to-port="1"/>
		<edge from-layer="180" from-port="2" to-layer="182" to-port="0"/>
		<edge from-layer="181" from-port="0" to-layer="182" to-port="1"/>
		<edge from-layer="182" from-port="2" to-layer="185" to-port="0"/>
		<edge from-layer="182" from-port="2" to-layer="184" to-port="0"/>
		<edge from-layer="182" from-port="2" to-layer="183" to-port="1"/>
		<edge from-layer="183" from-port="2" to-layer="188" to-port="0"/>
		<edge from-layer="184" from-port="1" to-layer="185" to-port="1"/>
		<edge from-layer="185" from-port="2" to-layer="187" to-port="0"/>
		<edge from-layer="186" from-port="0" to-layer="187" to-port="1"/>
		<edge from-layer="187" from-port="2" to-layer="188" to-port="1"/>
		<edge from-layer="188" from-port="2" to-layer="190" to-port="0"/>
		<edge from-layer="189" from-port="0" to-layer="190" to-port="1"/>
		<edge from-layer="190" from-port="2" to-layer="192" to-port="0"/>
		<edge from-layer="191" from-port="0" to-layer="192" to-port="1"/>
		<edge from-layer="192" from-port="2" to-layer="194" to-port="0"/>
		<edge from-layer="193" from-port="0" to-layer="194" to-port="1"/>
		<edge from-layer="194" from-port="2" to-layer="196" to-port="0"/>
		<edge from-layer="195" from-port="0" to-layer="196" to-port="1"/>
		<edge from-layer="196" from-port="2" to-layer="198" to-port="0"/>
		<edge from-layer="197" from-port="0" to-layer="198" to-port="1"/>
		<edge from-layer="198" from-port="2" to-layer="201" to-port="0"/>
		<edge from-layer="198" from-port="2" to-layer="200" to-port="0"/>
		<edge from-layer="198" from-port="2" to-layer="199" to-port="1"/>
		<edge from-layer="199" from-port="2" to-layer="204" to-port="0"/>
		<edge from-layer="200" from-port="1" to-layer="201" to-port="1"/>
		<edge from-layer="201" from-port="2" to-layer="203" to-port="0"/>
		<edge from-layer="202" from-port="0" to-layer="203" to-port="1"/>
		<edge from-layer="203" from-port="2" to-layer="204" to-port="1"/>
		<edge from-layer="204" from-port="2" to-layer="206" to-port="0"/>
		<edge from-layer="205" from-port="0" to-layer="206" to-port="1"/>
		<edge from-layer="206" from-port="2" to-layer="208" to-port="0"/>
		<edge from-layer="207" from-port="0" to-layer="208" to-port="1"/>
		<edge from-layer="208" from-port="2" to-layer="210" to-port="0"/>
		<edge from-layer="209" from-port="0" to-layer="210" to-port="1"/>
		<edge from-layer="210" from-port="2" to-layer="212" to-port="0"/>
		<edge from-layer="211" from-port="0" to-layer="212" to-port="1"/>
		<edge from-layer="212" from-port="2" to-layer="214" to-port="0"/>
		<edge from-layer="213" from-port="0" to-layer="214" to-port="1"/>
		<edge from-layer="214" from-port="2" to-layer="215" to-port="1"/>
		<edge from-layer="214" from-port="2" to-layer="217" to-port="0"/>
		<edge from-layer="214" from-port="2" to-layer="216" to-port="0"/>
		<edge from-layer="215" from-port="2" to-layer="220" to-port="0"/>
		<edge from-layer="216" from-port="1" to-layer="217" to-port="1"/>
		<edge from-layer="217" from-port="2" to-layer="219" to-port="0"/>
		<edge from-layer="218" from-port="0" to-layer="219" to-port="1"/>
		<edge from-layer="219" from-port="2" to-layer="220" to-port="1"/>
		<edge from-layer="220" from-port="2" to-layer="222" to-port="0"/>
		<edge from-layer="221" from-port="0" to-layer="222" to-port="1"/>
		<edge from-layer="222" from-port="2" to-layer="224" to-port="0"/>
		<edge from-layer="223" from-port="0" to-layer="224" to-port="1"/>
		<edge from-layer="224" from-port="2" to-layer="226" to-port="0"/>
		<edge from-layer="225" from-port="0" to-layer="226" to-port="1"/>
		<edge from-layer="226" from-port="2" to-layer="228" to-port="0"/>
		<edge from-layer="227" from-port="0" to-layer="228" to-port="1"/>
		<edge from-layer="228" from-port="2" to-layer="230" to-port="0"/>
		<edge from-layer="229" from-port="0" to-layer="230" to-port="1"/>
		<edge from-layer="230" from-port="2" to-layer="233" to-port="0"/>
		<edge from-layer="230" from-port="2" to-layer="231" to-port="1"/>
		<edge from-layer="230" from-port="2" to-layer="232" to-port="0"/>
		<edge from-layer="231" from-port="2" to-layer="236" to-port="0"/>
		<edge from-layer="232" from-port="1" to-layer="233" to-port="1"/>
		<edge from-layer="233" from-port="2" to-layer="235" to-port="0"/>
		<edge from-layer="234" from-port="0" to-layer="235" to-port="1"/>
		<edge from-layer="235" from-port="2" to-layer="236" to-port="1"/>
		<edge from-layer="236" from-port="2" to-layer="238" to-port="0"/>
		<edge from-layer="237" from-port="0" to-layer="238" to-port="1"/>
		<edge from-layer="238" from-port="2" to-layer="240" to-port="0"/>
		<edge from-layer="239" from-port="0" to-layer="240" to-port="1"/>
		<edge from-layer="240" from-port="2" to-layer="242" to-port="0"/>
		<edge from-layer="241" from-port="0" to-layer="242" to-port="1"/>
		<edge from-layer="242" from-port="2" to-layer="244" to-port="0"/>
		<edge from-layer="243" from-port="0" to-layer="244" to-port="1"/>
		<edge from-layer="244" from-port="2" to-layer="246" to-port="0"/>
		<edge from-layer="245" from-port="0" to-layer="246" to-port="1"/>
		<edge from-layer="246" from-port="2" to-layer="249" to-port="0"/>
		<edge from-layer="246" from-port="2" to-layer="248" to-port="0"/>
		<edge from-layer="246" from-port="2" to-layer="247" to-port="1"/>
		<edge from-layer="247" from-port="2" to-layer="252" to-port="0"/>
		<edge from-layer="248" from-port="1" to-layer="249" to-port="1"/>
		<edge from-layer="249" from-port="2" to-layer="251" to-port="0"/>
		<edge from-layer="250" from-port="0" to-layer="251" to-port="1"/>
		<edge from-layer="251" from-port="2" to-layer="252" to-port="1"/>
		<edge from-layer="252" from-port="2" to-layer="254" to-port="0"/>
		<edge from-layer="253" from-port="0" to-layer="254" to-port="1"/>
		<edge from-layer="254" from-port="2" to-layer="256" to-port="0"/>
		<edge from-layer="255" from-port="0" to-layer="256" to-port="1"/>
		<edge from-layer="256" from-port="2" to-layer="258" to-port="0"/>
		<edge from-layer="257" from-port="0" to-layer="258" to-port="1"/>
		<edge from-layer="258" from-port="2" to-layer="292" to-port="0"/>
		<edge from-layer="258" from-port="2" to-layer="259" to-port="0"/>
		<edge from-layer="259" from-port="1" to-layer="287" to-port="0"/>
		<edge from-layer="259" from-port="1" to-layer="281" to-port="0"/>
		<edge from-layer="259" from-port="1" to-layer="298" to-port="0"/>
		<edge from-layer="259" from-port="1" to-layer="305" to-port="0"/>
		<edge from-layer="259" from-port="1" to-layer="313" to-port="0"/>
		<edge from-layer="259" from-port="1" to-layer="319" to-port="0"/>
		<edge from-layer="259" from-port="1" to-layer="273" to-port="0"/>
		<edge from-layer="259" from-port="1" to-layer="263" to-port="0"/>
		<edge from-layer="259" from-port="1" to-layer="269" to-port="0"/>
		<edge from-layer="260" from-port="0" to-layer="263" to-port="1"/>
		<edge from-layer="261" from-port="0" to-layer="263" to-port="2"/>
		<edge from-layer="262" from-port="0" to-layer="263" to-port="3"/>
		<edge from-layer="263" from-port="4" to-layer="265" to-port="0"/>
		<edge from-layer="264" from-port="0" to-layer="265" to-port="1"/>
		<edge from-layer="265" from-port="2" to-layer="290" to-port="0"/>
		<edge from-layer="266" from-port="0" to-layer="269" to-port="1"/>
		<edge from-layer="267" from-port="0" to-layer="269" to-port="2"/>
		<edge from-layer="268" from-port="0" to-layer="269" to-port="3"/>
		<edge from-layer="269" from-port="4" to-layer="274" to-port="0"/>
		<edge from-layer="270" from-port="0" to-layer="273" to-port="1"/>
		<edge from-layer="271" from-port="0" to-layer="273" to-port="2"/>
		<edge from-layer="272" from-port="0" to-layer="273" to-port="3"/>
		<edge from-layer="273" from-port="4" to-layer="274" to-port="1"/>
		<edge from-layer="274" from-port="2" to-layer="276" to-port="0"/>
		<edge from-layer="275" from-port="0" to-layer="276" to-port="1"/>
		<edge from-layer="276" from-port="2" to-layer="290" to-port="1"/>
		<edge from-layer="277" from-port="0" to-layer="290" to-port="2"/>
		<edge from-layer="278" from-port="0" to-layer="281" to-port="1"/>
		<edge from-layer="279" from-port="0" to-layer="281" to-port="2"/>
		<edge from-layer="280" from-port="0" to-layer="281" to-port="3"/>
		<edge from-layer="281" from-port="4" to-layer="283" to-port="0"/>
		<edge from-layer="282" from-port="0" to-layer="283" to-port="1"/>
		<edge from-layer="283" from-port="2" to-layer="290" to-port="3"/>
		<edge from-layer="284" from-port="0" to-layer="287" to-port="1"/>
		<edge from-layer="285" from-port="0" to-layer="287" to-port="2"/>
		<edge from-layer="286" from-port="0" to-layer="287" to-port="3"/>
		<edge from-layer="287" from-port="4" to-layer="289" to-port="0"/>
		<edge from-layer="288" from-port="0" to-layer="289" to-port="1"/>
		<edge from-layer="289" from-port="2" to-layer="290" to-port="4"/>
		<edge from-layer="290" from-port="5" to-layer="291" to-port="0"/>
		<edge from-layer="291" from-port="1" to-layer="292" to-port="1"/>
		<edge from-layer="292" from-port="2" to-layer="294" to-port="0"/>
		<edge from-layer="293" from-port="0" to-layer="294" to-port="1"/>
		<edge from-layer="294" from-port="2" to-layer="324" to-port="0"/>
		<edge from-layer="295" from-port="0" to-layer="298" to-port="1"/>
		<edge from-layer="296" from-port="0" to-layer="298" to-port="2"/>
		<edge from-layer="297" from-port="0" to-layer="298" to-port="3"/>
		<edge from-layer="298" from-port="4" to-layer="300" to-port="0"/>
		<edge from-layer="299" from-port="0" to-layer="300" to-port="1"/>
		<edge from-layer="300" from-port="2" to-layer="322" to-port="0"/>
		<edge from-layer="301" from-port="0" to-layer="322" to-port="1"/>
		<edge from-layer="302" from-port="0" to-layer="305" to-port="1"/>
		<edge from-layer="303" from-port="0" to-layer="305" to-port="2"/>
		<edge from-layer="304" from-port="0" to-layer="305" to-port="3"/>
		<edge from-layer="305" from-port="4" to-layer="307" to-port="0"/>
		<edge from-layer="306" from-port="0" to-layer="307" to-port="1"/>
		<edge from-layer="307" from-port="2" to-layer="309" to-port="0"/>
		<edge from-layer="308" from-port="0" to-layer="309" to-port="1"/>
		<edge from-layer="309" from-port="2" to-layer="322" to-port="2"/>
		<edge from-layer="310" from-port="0" to-layer="313" to-port="1"/>
		<edge from-layer="311" from-port="0" to-layer="313" to-port="2"/>
		<edge from-layer="312" from-port="0" to-layer="313" to-port="3"/>
		<edge from-layer="313" from-port="4" to-layer="315" to-port="0"/>
		<edge from-layer="314" from-port="0" to-layer="315" to-port="1"/>
		<edge from-layer="315" from-port="2" to-layer="322" to-port="3"/>
		<edge from-layer="316" from-port="0" to-layer="319" to-port="1"/>
		<edge from-layer="317" from-port="0" to-layer="319" to-port="2"/>
		<edge from-layer="318" from-port="0" to-layer="319" to-port="3"/>
		<edge from-layer="319" from-port="4" to-layer="321" to-port="0"/>
		<edge from-layer="320" from-port="0" to-layer="321" to-port="1"/>
		<edge from-layer="321" from-port="2" to-layer="322" to-port="4"/>
		<edge from-layer="322" from-port="5" to-layer="323" to-port="0"/>
		<edge from-layer="323" from-port="1" to-layer="324" to-port="1"/>
		<edge from-layer="324" from-port="2" to-layer="358" to-port="0"/>
		<edge from-layer="324" from-port="2" to-layer="325" to-port="0"/>
		<edge from-layer="325" from-port="1" to-layer="364" to-port="0"/>
		<edge from-layer="325" from-port="1" to-layer="385" to-port="0"/>
		<edge from-layer="325" from-port="1" to-layer="329" to-port="0"/>
		<edge from-layer="325" from-port="1" to-layer="353" to-port="0"/>
		<edge from-layer="325" from-port="1" to-layer="377" to-port="0"/>
		<edge from-layer="325" from-port="1" to-layer="371" to-port="0"/>
		<edge from-layer="325" from-port="1" to-layer="345" to-port="0"/>
		<edge from-layer="325" from-port="1" to-layer="335" to-port="0"/>
		<edge from-layer="325" from-port="1" to-layer="341" to-port="0"/>
		<edge from-layer="326" from-port="0" to-layer="329" to-port="1"/>
		<edge from-layer="327" from-port="0" to-layer="329" to-port="2"/>
		<edge from-layer="328" from-port="0" to-layer="329" to-port="3"/>
		<edge from-layer="329" from-port="4" to-layer="331" to-port="0"/>
		<edge from-layer="330" from-port="0" to-layer="331" to-port="1"/>
		<edge from-layer="331" from-port="2" to-layer="356" to-port="0"/>
		<edge from-layer="332" from-port="0" to-layer="335" to-port="1"/>
		<edge from-layer="333" from-port="0" to-layer="335" to-port="2"/>
		<edge from-layer="334" from-port="0" to-layer="335" to-port="3"/>
		<edge from-layer="335" from-port="4" to-layer="337" to-port="0"/>
		<edge from-layer="336" from-port="0" to-layer="337" to-port="1"/>
		<edge from-layer="337" from-port="2" to-layer="356" to-port="1"/>
		<edge from-layer="338" from-port="0" to-layer="341" to-port="1"/>
		<edge from-layer="339" from-port="0" to-layer="341" to-port="2"/>
		<edge from-layer="340" from-port="0" to-layer="341" to-port="3"/>
		<edge from-layer="341" from-port="4" to-layer="346" to-port="0"/>
		<edge from-layer="342" from-port="0" to-layer="345" to-port="1"/>
		<edge from-layer="343" from-port="0" to-layer="345" to-port="2"/>
		<edge from-layer="344" from-port="0" to-layer="345" to-port="3"/>
		<edge from-layer="345" from-port="4" to-layer="346" to-port="1"/>
		<edge from-layer="346" from-port="2" to-layer="348" to-port="0"/>
		<edge from-layer="347" from-port="0" to-layer="348" to-port="1"/>
		<edge from-layer="348" from-port="2" to-layer="356" to-port="2"/>
		<edge from-layer="349" from-port="0" to-layer="356" to-port="3"/>
		<edge from-layer="350" from-port="0" to-layer="353" to-port="1"/>
		<edge from-layer="351" from-port="0" to-layer="353" to-port="2"/>
		<edge from-layer="352" from-port="0" to-layer="353" to-port="3"/>
		<edge from-layer="353" from-port="4" to-layer="355" to-port="0"/>
		<edge from-layer="354" from-port="0" to-layer="355" to-port="1"/>
		<edge from-layer="355" from-port="2" to-layer="356" to-port="4"/>
		<edge from-layer="356" from-port="5" to-layer="357" to-port="0"/>
		<edge from-layer="357" from-port="1" to-layer="358" to-port="1"/>
		<edge from-layer="358" from-port="2" to-layer="360" to-port="0"/>
		<edge from-layer="359" from-port="0" to-layer="360" to-port="1"/>
		<edge from-layer="360" from-port="2" to-layer="390" to-port="0"/>
		<edge from-layer="361" from-port="0" to-layer="364" to-port="1"/>
		<edge from-layer="362" from-port="0" to-layer="364" to-port="2"/>
		<edge from-layer="363" from-port="0" to-layer="364" to-port="3"/>
		<edge from-layer="364" from-port="4" to-layer="366" to-port="0"/>
		<edge from-layer="365" from-port="0" to-layer="366" to-port="1"/>
		<edge from-layer="366" from-port="2" to-layer="388" to-port="0"/>
		<edge from-layer="367" from-port="0" to-layer="388" to-port="1"/>
		<edge from-layer="368" from-port="0" to-layer="371" to-port="1"/>
		<edge from-layer="369" from-port="0" to-layer="371" to-port="2"/>
		<edge from-layer="370" from-port="0" to-layer="371" to-port="3"/>
		<edge from-layer="371" from-port="4" to-layer="373" to-port="0"/>
		<edge from-layer="372" from-port="0" to-layer="373" to-port="1"/>
		<edge from-layer="373" from-port="2" to-layer="388" to-port="2"/>
		<edge from-layer="374" from-port="0" to-layer="377" to-port="1"/>
		<edge from-layer="375" from-port="0" to-layer="377" to-port="2"/>
		<edge from-layer="376" from-port="0" to-layer="377" to-port="3"/>
		<edge from-layer="377" from-port="4" to-layer="379" to-port="0"/>
		<edge from-layer="378" from-port="0" to-layer="379" to-port="1"/>
		<edge from-layer="379" from-port="2" to-layer="381" to-port="0"/>
		<edge from-layer="380" from-port="0" to-layer="381" to-port="1"/>
		<edge from-layer="381" from-port="2" to-layer="388" to-port="3"/>
		<edge from-layer="382" from-port="0" to-layer="385" to-port="1"/>
		<edge from-layer="383" from-port="0" to-layer="385" to-port="2"/>
		<edge from-layer="384" from-port="0" to-layer="385" to-port="3"/>
		<edge from-layer="385" from-port="4" to-layer="387" to-port="0"/>
		<edge from-layer="386" from-port="0" to-layer="387" to-port="1"/>
		<edge from-layer="387" from-port="2" to-layer="388" to-port="4"/>
		<edge from-layer="388" from-port="5" to-layer="389" to-port="0"/>
		<edge from-layer="389" from-port="1" to-layer="390" to-port="1"/>
		<edge from-layer="390" from-port="2" to-layer="424" to-port="0"/>
		<edge from-layer="390" from-port="2" to-layer="391" to-port="0"/>
		<edge from-layer="391" from-port="1" to-layer="417" to-port="0"/>
		<edge from-layer="391" from-port="1" to-layer="430" to-port="0"/>
		<edge from-layer="391" from-port="1" to-layer="401" to-port="0"/>
		<edge from-layer="391" from-port="1" to-layer="437" to-port="0"/>
		<edge from-layer="391" from-port="1" to-layer="413" to-port="0"/>
		<edge from-layer="391" from-port="1" to-layer="443" to-port="0"/>
		<edge from-layer="391" from-port="1" to-layer="395" to-port="0"/>
		<edge from-layer="391" from-port="1" to-layer="407" to-port="0"/>
		<edge from-layer="391" from-port="1" to-layer="449" to-port="0"/>
		<edge from-layer="392" from-port="0" to-layer="395" to-port="1"/>
		<edge from-layer="393" from-port="0" to-layer="395" to-port="2"/>
		<edge from-layer="394" from-port="0" to-layer="395" to-port="3"/>
		<edge from-layer="395" from-port="4" to-layer="397" to-port="0"/>
		<edge from-layer="396" from-port="0" to-layer="397" to-port="1"/>
		<edge from-layer="397" from-port="2" to-layer="422" to-port="0"/>
		<edge from-layer="398" from-port="0" to-layer="401" to-port="1"/>
		<edge from-layer="399" from-port="0" to-layer="401" to-port="2"/>
		<edge from-layer="400" from-port="0" to-layer="401" to-port="3"/>
		<edge from-layer="401" from-port="4" to-layer="403" to-port="0"/>
		<edge from-layer="402" from-port="0" to-layer="403" to-port="1"/>
		<edge from-layer="403" from-port="2" to-layer="422" to-port="1"/>
		<edge from-layer="404" from-port="0" to-layer="407" to-port="1"/>
		<edge from-layer="405" from-port="0" to-layer="407" to-port="2"/>
		<edge from-layer="406" from-port="0" to-layer="407" to-port="3"/>
		<edge from-layer="407" from-port="4" to-layer="409" to-port="0"/>
		<edge from-layer="408" from-port="0" to-layer="409" to-port="1"/>
		<edge from-layer="409" from-port="2" to-layer="422" to-port="2"/>
		<edge from-layer="410" from-port="0" to-layer="413" to-port="1"/>
		<edge from-layer="411" from-port="0" to-layer="413" to-port="2"/>
		<edge from-layer="412" from-port="0" to-layer="413" to-port="3"/>
		<edge from-layer="413" from-port="4" to-layer="418" to-port="0"/>
		<edge from-layer="414" from-port="0" to-layer="417" to-port="1"/>
		<edge from-layer="415" from-port="0" to-layer="417" to-port="2"/>
		<edge from-layer="416" from-port="0" to-layer="417" to-port="3"/>
		<edge from-layer="417" from-port="4" to-layer="418" to-port="1"/>
		<edge from-layer="418" from-port="2" to-layer="420" to-port="0"/>
		<edge from-layer="419" from-port="0" to-layer="420" to-port="1"/>
		<edge from-layer="420" from-port="2" to-layer="422" to-port="3"/>
		<edge from-layer="421" from-port="0" to-layer="422" to-port="4"/>
		<edge from-layer="422" from-port="5" to-layer="423" to-port="0"/>
		<edge from-layer="423" from-port="1" to-layer="424" to-port="1"/>
		<edge from-layer="424" from-port="2" to-layer="426" to-port="0"/>
		<edge from-layer="425" from-port="0" to-layer="426" to-port="1"/>
		<edge from-layer="426" from-port="2" to-layer="456" to-port="0"/>
		<edge from-layer="427" from-port="0" to-layer="430" to-port="1"/>
		<edge from-layer="428" from-port="0" to-layer="430" to-port="2"/>
		<edge from-layer="429" from-port="0" to-layer="430" to-port="3"/>
		<edge from-layer="430" from-port="4" to-layer="432" to-port="0"/>
		<edge from-layer="431" from-port="0" to-layer="432" to-port="1"/>
		<edge from-layer="432" from-port="2" to-layer="454" to-port="0"/>
		<edge from-layer="433" from-port="0" to-layer="454" to-port="1"/>
		<edge from-layer="434" from-port="0" to-layer="437" to-port="1"/>
		<edge from-layer="435" from-port="0" to-layer="437" to-port="2"/>
		<edge from-layer="436" from-port="0" to-layer="437" to-port="3"/>
		<edge from-layer="437" from-port="4" to-layer="439" to-port="0"/>
		<edge from-layer="438" from-port="0" to-layer="439" to-port="1"/>
		<edge from-layer="439" from-port="2" to-layer="454" to-port="2"/>
		<edge from-layer="440" from-port="0" to-layer="443" to-port="1"/>
		<edge from-layer="441" from-port="0" to-layer="443" to-port="2"/>
		<edge from-layer="442" from-port="0" to-layer="443" to-port="3"/>
		<edge from-layer="443" from-port="4" to-layer="445" to-port="0"/>
		<edge from-layer="444" from-port="0" to-layer="445" to-port="1"/>
		<edge from-layer="445" from-port="2" to-layer="454" to-port="3"/>
		<edge from-layer="446" from-port="0" to-layer="449" to-port="1"/>
		<edge from-layer="447" from-port="0" to-layer="449" to-port="2"/>
		<edge from-layer="448" from-port="0" to-layer="449" to-port="3"/>
		<edge from-layer="449" from-port="4" to-layer="451" to-port="0"/>
		<edge from-layer="450" from-port="0" to-layer="451" to-port="1"/>
		<edge from-layer="451" from-port="2" to-layer="453" to-port="0"/>
		<edge from-layer="452" from-port="0" to-layer="453" to-port="1"/>
		<edge from-layer="453" from-port="2" to-layer="454" to-port="4"/>
		<edge from-layer="454" from-port="5" to-layer="455" to-port="0"/>
		<edge from-layer="455" from-port="1" to-layer="456" to-port="1"/>
		<edge from-layer="456" from-port="2" to-layer="460" to-port="0"/>
		<edge from-layer="457" from-port="0" to-layer="460" to-port="1"/>
		<edge from-layer="458" from-port="0" to-layer="460" to-port="2"/>
		<edge from-layer="459" from-port="0" to-layer="460" to-port="3"/>
		<edge from-layer="460" from-port="4" to-layer="461" to-port="1"/>
		<edge from-layer="461" from-port="2" to-layer="463" to-port="0"/>
		<edge from-layer="462" from-port="0" to-layer="463" to-port="1"/>
		<edge from-layer="463" from-port="2" to-layer="465" to-port="0"/>
		<edge from-layer="464" from-port="0" to-layer="465" to-port="1"/>
		<edge from-layer="465" from-port="2" to-layer="467" to-port="0"/>
		<edge from-layer="465" from-port="2" to-layer="466" to-port="1"/>
		<edge from-layer="465" from-port="2" to-layer="468" to-port="0"/>
		<edge from-layer="466" from-port="2" to-layer="471" to-port="0"/>
		<edge from-layer="467" from-port="1" to-layer="468" to-port="1"/>
		<edge from-layer="468" from-port="2" to-layer="470" to-port="0"/>
		<edge from-layer="469" from-port="0" to-layer="470" to-port="1"/>
		<edge from-layer="470" from-port="2" to-layer="471" to-port="1"/>
		<edge from-layer="471" from-port="2" to-layer="473" to-port="0"/>
		<edge from-layer="472" from-port="0" to-layer="473" to-port="1"/>
		<edge from-layer="473" from-port="2" to-layer="475" to-port="0"/>
		<edge from-layer="474" from-port="0" to-layer="475" to-port="1"/>
		<edge from-layer="475" from-port="2" to-layer="477" to-port="0"/>
		<edge from-layer="476" from-port="0" to-layer="477" to-port="1"/>
		<edge from-layer="477" from-port="2" to-layer="479" to-port="0"/>
		<edge from-layer="478" from-port="0" to-layer="479" to-port="1"/>
		<edge from-layer="479" from-port="2" to-layer="481" to-port="0"/>
		<edge from-layer="480" from-port="0" to-layer="481" to-port="1"/>
		<edge from-layer="481" from-port="2" to-layer="484" to-port="0"/>
		<edge from-layer="481" from-port="2" to-layer="483" to-port="0"/>
		<edge from-layer="481" from-port="2" to-layer="482" to-port="1"/>
		<edge from-layer="482" from-port="2" to-layer="487" to-port="0"/>
		<edge from-layer="483" from-port="1" to-layer="484" to-port="1"/>
		<edge from-layer="484" from-port="2" to-layer="486" to-port="0"/>
		<edge from-layer="485" from-port="0" to-layer="486" to-port="1"/>
		<edge from-layer="486" from-port="2" to-layer="487" to-port="1"/>
		<edge from-layer="487" from-port="2" to-layer="489" to-port="0"/>
		<edge from-layer="488" from-port="0" to-layer="489" to-port="1"/>
		<edge from-layer="489" from-port="2" to-layer="491" to-port="0"/>
		<edge from-layer="490" from-port="0" to-layer="491" to-port="1"/>
		<edge from-layer="491" from-port="2" to-layer="493" to-port="0"/>
		<edge from-layer="492" from-port="0" to-layer="493" to-port="1"/>
		<edge from-layer="493" from-port="2" to-layer="495" to-port="0"/>
		<edge from-layer="494" from-port="0" to-layer="495" to-port="1"/>
		<edge from-layer="495" from-port="2" to-layer="497" to-port="0"/>
		<edge from-layer="496" from-port="0" to-layer="497" to-port="1"/>
		<edge from-layer="497" from-port="2" to-layer="499" to-port="0"/>
		<edge from-layer="498" from-port="0" to-layer="499" to-port="1"/>
		<edge from-layer="499" from-port="2" to-layer="500" to-port="1"/>
		<edge from-layer="499" from-port="2" to-layer="501" to-port="0"/>
		<edge from-layer="499" from-port="2" to-layer="502" to-port="0"/>
		<edge from-layer="500" from-port="2" to-layer="505" to-port="0"/>
		<edge from-layer="501" from-port="1" to-layer="502" to-port="1"/>
		<edge from-layer="502" from-port="2" to-layer="504" to-port="0"/>
		<edge from-layer="503" from-port="0" to-layer="504" to-port="1"/>
		<edge from-layer="504" from-port="2" to-layer="505" to-port="1"/>
		<edge from-layer="505" from-port="2" to-layer="507" to-port="0"/>
		<edge from-layer="506" from-port="0" to-layer="507" to-port="1"/>
		<edge from-layer="507" from-port="2" to-layer="509" to-port="0"/>
		<edge from-layer="508" from-port="0" to-layer="509" to-port="1"/>
		<edge from-layer="509" from-port="2" to-layer="511" to-port="0"/>
		<edge from-layer="510" from-port="0" to-layer="511" to-port="1"/>
		<edge from-layer="511" from-port="2" to-layer="513" to-port="0"/>
		<edge from-layer="512" from-port="0" to-layer="513" to-port="1"/>
		<edge from-layer="513" from-port="2" to-layer="515" to-port="0"/>
		<edge from-layer="514" from-port="0" to-layer="515" to-port="1"/>
		<edge from-layer="515" from-port="2" to-layer="517" to-port="0"/>
		<edge from-layer="516" from-port="0" to-layer="517" to-port="1"/>
		<edge from-layer="517" from-port="2" to-layer="518" to-port="0"/>
		<edge from-layer="518" from-port="1" to-layer="520" to-port="0"/>
		<edge from-layer="519" from-port="0" to-layer="520" to-port="1"/>
		<edge from-layer="520" from-port="2" to-layer="521" to-port="0"/>
	</edges>
	<meta_data>
		<MO_version value="2021.4.1-3926-14e67d86634-releases/2021/4"/>
		<cli_parameters>
			<caffe_parser_path value="DIR"/>
			<data_type value="float"/>
			<disable_nhwc_to_nchw value="True"/>
			<disable_omitting_optional value="False"/>
			<disable_resnet_optimization value="False"/>
			<disable_weights_compression value="False"/>
			<enable_concat_optimization value="False"/>
			<enable_flattening_nested_params value="False"/>
			<enable_ssd_gluoncv value="False"/>
			<extensions value="DIR"/>
			<framework value="tf"/>
			<freeze_placeholder_with_value value="{}"/>
			<generate_deprecated_IR_V7 value="False"/>
			<input value="net/inp_x_test,net/inp_x_sub_0_test"/>
			<input_meta_graph value="DIR/deepmedic-4-ov.model.ckpt.meta"/>
			<input_model_is_text value="False"/>
			<input_shape value="[10,1,45,45,45],[10,1,26,26,26]"/>
			<k value="DIR/CustomLayersMapping.xml"/>
			<keep_shape_ops value="True"/>
			<legacy_ir_generation value="False"/>
			<legacy_mxnet_model value="False"/>
			<log_level value="ERROR"/>
			<mean_scale_values value="{}"/>
			<mean_values value="()"/>
			<model_name value="deepmedic-4-ov.model.ckpt"/>
			<output value="['net/transpose_138']"/>
			<output_dir value="DIR"/>
			<placeholder_data_types value="{}"/>
			<placeholder_shapes value="{'net/inp_x_test': array([10,  1, 45, 45, 45]), 'net/inp_x_sub_0_test': array([10,  1, 26, 26, 26])}"/>
			<progress value="False"/>
			<remove_memory value="False"/>
			<remove_output_softmax value="False"/>
			<reverse_input_channels value="False"/>
			<save_params_from_nd value="False"/>
			<scale_values value="()"/>
			<silent value="False"/>
			<static_shape value="False"/>
			<stream_output value="False"/>
			<transform value=""/>
			<unset unset_cli_parameters="batch, counts, disable_fusing, disable_gfusing, finegrain_fusing, input_checkpoint, input_model, input_proto, input_symbol, mean_file, mean_file_offsets, move_to_preprocess, nd_prefix_name, pretrained_model_name, saved_model_dir, saved_model_tags, scale, tensorboard_logdir, tensorflow_custom_layer_libraries, tensorflow_custom_operations_config_update, tensorflow_object_detection_api_pipeline_config, tensorflow_use_custom_operations_config, transformations_config"/>
		</cli_parameters>
	</meta_data>
</net>
